STD/checkpoints/original/VA_METRIC_state_epoch30.pth (torch, 684542 bytes, 24 tensors)

AFeatRNN.weight_ih_l0 f4 [256, 128]
0.029333 0.0784076 0.0694459 0.019559775 -0.075322896 0.15339278 0.15395756 0.08808026
-0.08241317 -0.023037584 -0.087475054 -0.03140917 -0.087278716 -0.033916187 0.072859645 -0.10247513
0.11087967 0.12600619 0.0056335535 0.042587824 -0.02447025 -0.026183007 0.100408144 -0.11309305
0.13547684 0.03333148 0.009025264 -0.060476284 0.08396309 -0.07784475 0.0053198193 -0.06484082
0.055933885 0.10812794 0.10723837 -0.055298492 0.00062000466 0.049071595 0.053684622 -0.0858132
-0.000886105 0.033782523 -0.13446291 0.19078617 -0.011453922 0.015238701 0.06252312 0.030293368
0.010217255 -0.0486623 -0.09909199 0.12511472 0.040574066 -0.039559796 -0.10644253 0.1181442
-0.01667691 0.09422706 -0.05306692 -0.072453566 0.065308824 -0.04350196 -0.08245894 0.10558081
0.09548904 0.01718041 0.045611337 0.0027352215 0.12920037 0.115427114 -0.14749822 0.15254626
0.011711535 0.057752952 -0.104683906 0.048380766 0.07915972 0.08588849 -0.027539343 -0.05759395
0.008388403 0.00010005519 -0.05426337 0.01562288 0.16859928 0.009132718 0.14689142 -0.009257933
0.07171991 0.03336316 -0.031196734 0.029608386 0.014738095 0.06544045 0.12804496 -0.00089851103
-0.004745986 -0.06839462 0.10118384 -0.1165453 0.016822752 0.021786029 0.17482698 0.061037946
0.033572055 0.061725438 -0.022903614 -0.0014774374 0.113635145 -0.05059621 0.09669954 0.033260435
-0.070510425 0.013085169 -0.100583404 0.050274793 -0.08007579 0.097960055 -0.062186245 -0.033428874
-0.01161518 0.100550465 0.021840671 0.15253776 -0.122203104 0.033852294 -0.04042732 0.14521992
0.007440585 0.045503333 -0.11738688 -0.17667611 0.0663769 -0.020424623 0.13492954 0.0874932
-0.041268256 -0.04217399 0.087183386 -0.09550045 0.029883986 0.01675954 0.04951381 0.07431873
0.012545043 -0.028872132 -0.049475472 -0.1217912 0.06394464 0.02358202 -0.2178305 -0.13183643
-0.08378709 -0.0028886227 0.07191018 0.01590482 0.13870034 0.08980905 -0.096244976 0.046784457
-0.03528698 0.047292985 -0.028352508 -0.039604153 -0.06130541 -0.08978484 0.056063585 -0.06794813
0.16382335 0.05859686 -0.012536548 0.04427976 0.17501834 -0.062326327 -0.04361448 0.10493477
0.08547638 -0.024493042 0.07238405 -0.16937762 0.09003393 0.10018174 -0.05754955 0.058898292
0.03392617 -0.09429909 -0.010088548 0.003188153 -0.09270927 0.092948884 0.12027255 -0.014243606
-0.12058866 0.07392783 0.037191905 -0.053469654 0.017830169 -0.028561888 0.16915011 -0.12741657
-0.04794695 -0.041135468 -0.060091607 0.11858989 0.046440214 0.057665076 0.09936389 0.0870152
0.103698805 0.110077925 -0.0042455597 0.08855705 -0.14417289 -0.09524845 0.05520069 -0.13067445
0.06286924 0.07505237 0.13787138 -0.037963163 -0.120408945 0.023384338 0.14667346 0.062187683
0.13092253 0.17207527 -0.089146264 -0.0036108636 -0.04784229 -0.061164584 -0.14674518 0.007890034
-0.20974192 0.01650708 -0.035193615 0.009756077 -0.02154639 0.097577 0.03487138 0.11152454
-0.13960719 -0.1053756 0.0073282933 -0.10683829 -0.03194319 -0.116452925 -0.13625894 -0.13908799
0.032637008 -0.023797115 0.08956476 0.092007525 -0.08905984 -0.18094529 -0.015883502 0.085553266
00000000: c24b f03c 2a94 a03d a739 8e3d d23b a03c
00000010: e442 9abd ff12 1d3e 0da7 1d3e 6c63 b43d
00000020: 3cc8 a8bd 51b9 bcbc 1f26 b3bd e7a6 00bd
00000030: 2fbf b2bd b3eb 0abd 7037 953d 7bde d1bd
00000040: e114 e33d c407 013e ac99 b83b 9270 2e3d
00000050: d575 c8bc bf7d d6bc c9a2 cd3d 549d e7bd
00000060: 71ba 0a3e 9786 083d b3de 133c fbb5 77bd
00000070: d7f4 ab3d 116d 9fbd e151 ae3b 44cb 84bd
00000080: ee1a 653d 2e72 dd3d ca9f db3d ac80 62bd
00000090: cf87 223a 4cff 483d 68e4 5b3d d5be afbd
000000a0: 8049 68ba 8b5f 0a3d a5b0 09be 735d 433e
000000b0: 3ba9 3bbc bfab 793c 1f0c 803d cc29 f83c
000000c0: 4666 273c 1f52 47bd bef0 cabd 131e 003e
000000d0: fe30 263d 7409 22bd 8bfe d9bd 96f5 f13d
000000e0: 049e 88bc 1efa c03d b35c 59bd 8962 94bd
000000f0: a2c0 853d 1c2f 32bd 3ce0 a8bd c03a d83d
00000100: c28f c33d eebd 8c3c f4d2 3a3d 6741 333b
00000110: 1a4d 043e 0d65 ec3d c609 17be 1635 1c3e
00000120: bde1 3f3c 5c8e 6c3d 8464 d6bd e92a 463d
00000130: 7e1e a23d 4ee6 af3d 309a e1bc a2e7 6bbd
00000140: 836f 093c b9d4 d138 4443 5ebd 1cf7 7f3c
00000150: 4aa5 2c3e 65a1 153c b46a 163e 96ae 17bc
00000160: e3e1 923d cfa7 083d 4b90 ffbc 498d f23c
00000170: 0d78 713c a505 863d 381e 033e 0e8a 6bba
00000180: 3784 9bbb 7b12 8cbd 7939 cf3d 4daf eebd
00000190: decf 893c 9d78 b23c d805 333e ed02 7a3d
000001a0: da82 093d d0d3 7c3d 5ca0 bbbc 93a6 c1ba
000001b0: 8bb9 e83d f93d 4fbd 690a c63d 183c 083d
000001c0: c567 90bd 2d63 563c acfe cdbd f1ec 4d3d
000001d0: c7fe a3bd 489f c83d 01b7 7ebd b7ec 08bd
000001e0: 994d 3ebc 67ed cd3d 35eb b23c dc32 1c3e
000001f0: 9f45 fabd b4a8 0a3d 1e97 25bd 88b4 143e
00000200: 27d0 f33b b461 3a3d 8868 f0bd 95ea 34be
00000210: 9df0 873d 8a51 a7bc f82a 0a3e a32f b33d
00000220: e708 29bd a2be 2cbd 348d b23d bd95 c3bd
00000230: 43cf f43c 4e4b 893c fece 4a3d 6b34 983d
00000240: b989 4d3c 4085 ecbc cba6 4abd aa6d f9bd
00000250: 68f5 823d 152f c13c f50e 5fbe 2100 07be
00000260: 9198 abbd 0c4f 3dbb a545 933d d34a 823c
00000270: 7607 0e3e cfed b73d 161c c5bd 0fa1 3f3d
00000280: 1589 10bd 4ab6 413d 8543 e8bc f737 22bd
00000290: 621b 7bbd 1de1 b7bd eea2 653d 6428 8bbd
000002a0: 4fc1 273e 4303 703d 1866 4dbc b25e 353d
000002b0: 0238 333e e449 7fbd 19a5 32bd 0ae8 d63d
000002c0: 3e0e af3d a2a5 c8bc 173e 943d 5471 2dbe
000002d0: b663 b83d 162c cd3d 14b9 6bbd 563f 713d
000002e0: 2bf6 0a3d e21f c1bd 704a 25bc 55f0 503b
000002f0: 5cde bdbd fc5b be3d 7451 f63d 035e 69bc
00000300: 30f7 f6bd 7967 973d 8a56 183d ff02 5bbd
00000310: 9310 923c 9ffa e9bc b035 2d3e 7d79 02be
00000320: 0564 44bd aa7d 28bd 9e22 76bd 42df f23d
00000330: 1838 3e3d 3732 6c3d 4c7f cb3d 0635 b23d
00000340: 0a60 d43d 8970 e13d 561e 8bbb 665d b53d
00000350: 0fa2 13be 9f11 c3bd 1e1a 623d 86cf 05be
00000360: 97c1 803d 0fb5 993d 282e 0d3e 437f 1bbd
00000370: f798 f6bd 8390 bf3c 9131 163e 83b8 7e3d
00000380: 8e10 063e 8034 303e 5192 b6bd 3da4 6cbb
00000390: 47f6 43bd b787 7abd 5e44 16be 3345 013c
000003a0: 96c6 56be db39 873c 2e27 10bd f4d7 1f3c
000003b0: 0e82 b0bc 73d6 c73d 4bd5 0e3d fa66 e43d
000003c0: 30f5 0ebe 2acf d7bd 2e22 f03b 09ce dabd
000003d0: ddd6 02bd df7e eebd 7787 0bbe 156d 0ebe
000003e0: 62ae 053d 2bf2 c2bc bb6d b73d 716e bc3d
000003f0: 0165 b6bd b949 39be 1e1e 82bc 8d36 af3d

AFeatRNN.weight_hh_l0 f4 [256, 64]
-0.059899688 0.02465569 -0.03299918 -0.012834225 0.041127257 -0.029078333 -0.08178164 -0.0040736916
0.085765526 0.03821241 0.15193088 0.13855498 -0.07675472 0.034472447 -0.079607785 0.0070653544
-0.019822283 -0.07261285 -0.1533356 0.23099393 0.0016006274 -0.058248654 -0.102368005 0.05180603
-0.046770517 0.02942356 0.046814047 0.02025455 -0.039920196 0.07972833 0.061319333 0.011972868
0.096541025 0.056501694 -0.0716173 -0.0631546 -0.08954672 0.15320088 -0.12446981 0.14958659
0.05521472 0.05126981 0.08244451 -0.10368786 -0.04266454 0.021045523 -0.06784413 0.11195214
-0.091535434 -0.115359165 0.07990025 0.13303222 0.03657415 0.076596394 -0.014980959 0.10860611
0.04592162 -0.07786005 0.016709734 -0.115907855 -0.0138711585 -0.036878016 -0.056991085 0.057680085
0.07082723 -0.09587697 -0.12501206 -0.10475887 0.17404523 0.012469875 0.09351684 -0.039643884
0.07643081 -0.08193584 -0.109539114 -0.058737393 -0.1625326 -0.11025856 0.035401627 -0.0773633
-0.1473459 0.08031706 -0.09748227 -0.098735444 -0.032619473 0.009571531 -0.034125168 -0.10258514
-0.10360925 0.04109628 0.015020314 0.11560294 0.02760498 0.01732728 -0.105994165 0.1215121
0.0711254 -0.04303159 -0.13335507 -0.16140333 -0.047486372 -0.054254804 -0.004205622 -0.049844954
0.053117804 0.1696711 0.019404424 -0.05426801 0.02263974 0.00013111948 0.018055705 -0.10615238
-0.15044068 0.0032995832 -0.122798525 -0.049671818 -0.079815835 0.007833374 -0.08048632 0.05993346
0.13063069 -0.048198286 0.059087876 -0.15163147 -0.11163962 -0.044704054 -0.00801437 0.0635732
-0.0070010927 -0.056080822 0.12010208 0.03197509 -0.039153606 0.055278707 -0.03506954 -0.057696607
-0.12853628 -0.057605654 -0.018159565 -0.05866271 -0.009571778 0.1056961 0.024526231 0.089385554
-0.033076566 0.0494619 0.024982031 0.09005102 0.120775424 -0.012540156 -0.1099273 0.050801277
-0.05674511 -0.03286002 0.049699515 -0.06087157 0.0726204 0.0502406 -0.0011852593 0.115959406
0.0724003 -0.037954424 0.025891418 0.07104696 -0.093815394 -0.14032462 0.089632474 0.020098597
-0.09249465 0.1395395 -0.089510374 0.019238371 -0.10689233 -0.07891088 -0.059315387 -0.091824464
0.14031063 0.09431267 -0.05475894 0.004023445 0.05471454 -0.017038958 -0.10423097 0.028296087
-0.0050788 0.029522803 0.13000993 0.0070632915 -0.027747652 0.07102798 -0.016903665 -0.034927014
-0.032097638 -0.099713705 0.02882724 0.03705554 -0.08073374 -0.02302924 -0.018979985 0.029436095
-0.051000684 0.10805082 -0.021297323 -0.14163111 0.05524559 0.15612164 -0.010404026 0.06578627
-0.012781674 -0.040709104 0.065367155 0.04515071 0.03897546 0.0582994 -0.13312645 -0.04616908
0.090853505 0.022089563 -0.09850201 -0.010385912 0.12429911 -0.0816522 -0.04275014 0.011074659
0.11797577 -0.028714603 -0.021257065 -0.021761933 0.048257362 -0.0151928915 -0.12755346 0.16660509
0.059516523 -0.014040721 0.0022297343 0.0297957 -0.01597507 0.04492147 0.03243487 -0.12415866
-0.07202448 -0.06357216 -0.048004933 -0.0759041 0.087227836 0.10902926 -0.08421048 -0.022081325
0.13748448 -0.12895419 0.011314836 -0.10423897 0.19586968 0.014645067 0.09236962 0.011820753
00000000: 6059 75bd bbfa c93c 262a 07bd a446 52bc
00000010: 0e75 283d af35 eebc 227d a7bd 9a7c 85bb
00000020: d6a5 af3d 9e84 1c3d c593 1b3e 5be1 0d3e
00000030: 9431 9dbd fb32 0d3d 6809 a3bd 7d84 e73b
00000040: 5762 a2bc 0cb6 94bd 0204 1dbe ac89 6c3e
00000050: 25cc d13a 2496 6ebd 51a6 d1bd 8f32 543d
00000060: 7192 3fbd ad09 f13c 16c0 3f3d dfec a53c
00000070: 5c83 23bd 9b48 a33d fb29 7b3d d929 443c
00000080: 4db7 c53d 526e 673d 17ac 92bd 3357 81bd
00000090: 4564 b7bd b1e0 1c3e 07ea febd 3a2d 193e
000000a0: d528 623d 4b00 523d abd8 a83d 4d5a d4bd
000000b0: 03c1 2ebd a967 ac3c ddf1 8abd 2a47 e53d
000000c0: ee76 bbbd 6d41 ecbd bea2 a33d 9939 083e
000000d0: c7ce 153d 92de 9c3d b272 75bc e16c de3d
000000e0: 4f18 3c3d 1775 9fbd dae2 883c 1961 edbd
000000f0: db43 63bc 670d 17bd 7c6f 69bd f441 6c3d
00000100: de0d 913d 255b c4bd 2903 00be d28b d6bd
00000110: ea38 323e 724e 4c3c c285 bf3d a061 22bd
00000120: c287 9c3d facd a7bd 0b56 e0bd 9f96 70bd
00000130: f26e 26be 3dcf e1bd 4c01 113d a670 9ebd
00000140: d8e1 16be 457d a43d c9a4 c7bd cf35 cabd
00000150: ff9b 05bd e9d1 1c3c d5c6 0bbd 2818 d2bd
00000160: 1631 d4bd 9354 283d c317 763c 3cc1 ec3d
00000170: d723 e23c f1f1 8d3c 7813 d9bd 56db f83d
00000180: 32aa 913d e441 30bd 3b8e 08be ea46 25be
00000190: 1281 42bd 493a 5ebd 50cf 89bb 392a 4cbd
000001a0: 0e92 593d 43be 2d3e 07f6 9e3c 2248 5ebd
000001b0: fa76 b93c 1e7d 0939 8fe9 933c 6b66 d9bd
000001c0: 1f0d 1abe d23d 583b cb7d fbbd ad74 4bbd
000001d0: 7c76 a3bd 8d57 003c 03d6 a4bd ca7c 753d
000001e0: 0dc4 053e 916b 45bd 2106 723d 4845 1bbe
000001f0: 50a3 e4bd 991b 37bd b44e 03bc aa32 823d
00000200: 6c69 e5bb 01b5 65bd 14f8 f53d 50f8 023d
00000210: 885f 20bd ed6b 623d 14a5 0fbd 4753 6cbd
00000220: 049f 03be e8f3 6bbd 5ec3 94bc 4f48 70bd
00000230: f2d2 1cbc 3277 d83d 3ceb c83c c60f b73d
00000240: 4b7b 07bd 9098 4a3d 1ea7 cc3c ab6c b83d
00000250: 1b59 f73d 3a75 4dbc 9021 e1bd 0015 503d
00000260: 8f6d 68bd 3a98 06bd b891 4b3d 7854 79bd
00000270: 01ba 943d 16c9 4d3d b45a 9bba 207c ed3d
00000280: 9c46 943d 1976 1bbd 3d1a d43c 1281 913d
00000290: 4922 c0bd 42b1 0fbe 3b91 b73d d0a5 a43c
000002a0: d66d bdbd 71e3 0e3e 3751 b7bd ca99 9d3c
000002b0: 5eea dabd 079c a1bd b1f4 72bd 770e bcbd
000002c0: 97ad 0f3e 0027 c13d e94a 60bd 1ad7 833b
000002d0: 5a1c 603d 4995 8bbc 0c77 d5bd 32cd e73c
000002e0: 106c a6bb ced9 f13c 5321 053e 2f73 e73b
000002f0: 0b4f e3bc 1e77 913d 8e79 8abc a10f 0fbd
00000300: d078 03bd b336 ccbd 1b27 ec3c 8dc7 173d
00000310: bb57 a5bd d1a7 bcbc ea7b 9bbc f723 f13c
00000320: 18e6 50bd c049 dd3d b977 aebc bf07 11be
00000330: 3349 623d 5ade 1f3e a675 2abc f4ba 863d
00000340: 3a6a 51bc 97be 26bd 37df 853d f3ef 383d
00000350: bba4 1f3d 5acb 6e3d 4d52 08be ca1b 3dbd
00000360: 6711 ba3d 2cf5 b43c 6cbb c9bd ac29 2abc
00000370: 8890 fe3d 4539 a7bd c51a 2fbd 7d72 353c
00000380: 489d f13d e33a ebbc 4c23 aebc 1546 b2bc
00000390: 83a9 453d 9beb 78bc 609d 02be 869a 2a3e
000003a0: 99c7 733d 0d0b 66bc bc20 123b 1d16 f43c
000003b0: 26de 82bc 93ff 373d 6dda 043d e546 febd
000003c0: 9281 93bd 1f32 82bd d2a0 44bd 9c73 9bbd
000003d0: 82a4 b23d bc4a df3d 8b76 acbd e5e3 b4bc
000003e0: bbc8 0c3e 910c 04be dd61 393c 3e7b d5bd
000003f0: 1092 483e ddf1 6f3c 492c bd3d d5ab 413c

AFeatRNN.bias_ih_l0 f4 [256]
-0.004589095 -0.104890995 0.04994311 -0.059286218 -0.10020369 0.07829557 0.123695716 0.09583259
0.022561658 0.1167225 -0.0682456 0.025908716 0.00081930734 0.02675759 -0.09579154 0.032814942
-0.04919984 0.07090208 0.10231264 -0.05687173 -0.078652345 0.058679778 -0.03495085 0.06836251
0.1180986 0.08316082 -0.12016263 -0.07671281 0.024653202 -0.08961381 0.13070858 -0.0048668673
0.092952274 -0.09176653 -0.10777142 0.124019094 -0.046438966 -0.031458016 0.06672326 0.046912216
0.017458057 0.02929556 -0.09734113 -0.108267896 0.11666361 0.16286111 0.11750552 0.10469251
0.11512126 -0.07818997 0.09553111 -0.06630455 -0.016459122 -0.105610296 -0.050444912 -0.073989905
0.03797504 0.16076691 0.10930804 0.13621093 0.11960226 0.045215417 -0.068063505 -0.08134018
0.00085268874 -0.038577788 -0.101904355 -0.050149594 0.08710359 -0.13468497 0.0135046085 -0.097207196
0.042705137 0.1397183 -0.021242157 -0.09035805 -0.03709711 -0.12616852 -0.03774388 -0.020971855
-0.013520559 0.036117245 -0.09976157 0.061604764 0.09335842 -0.088726066 0.12999308 0.050474793
0.036308285 0.012710774 -0.030464409 -0.094713196 -0.031088438 0.09750096 -0.0693357 0.05172311
-0.027114315 0.08147942 -0.04684569 0.09767037 0.03681563 -0.10230378 -0.08707117 0.008742624
-0.020586278 0.10649348 -0.045453705 0.006753674 -0.13228601 0.08033672 0.09003693 -0.011223765
-0.062458675 0.05443835 0.02753652 -0.07996098 -0.094447725 0.043781873 -0.07179679 0.0062737567
-0.03556395 0.067714326 0.012730365 0.012385048 -0.10772109 -0.019388534 0.041780256 0.0974295
-0.055250775 0.038852677 -0.05218392 -0.023729311 0.040197372 0.12183598 0.12354967 -0.029415686
-0.12842666 0.0013256957 -0.08602043 0.07462173 0.117242575 0.03600849 -0.106184706 -0.10697948
-0.05672891 0.06544264 -0.120669045 -0.009180627 -0.013019937 0.060469694 0.07901738 0.0025025273
0.006031067 -0.03273794 0.073585294 0.03971631 -0.03815259 0.08528996 -0.050988067 -0.051918875
0.049032677 -0.002560297 0.10288488 0.0370175 -0.030362476 0.052926797 0.07112431 -0.11570621
-0.07194063 -0.015828187 -0.0222767 0.0016222168 -0.015403661 0.08515987 -0.024721932 -0.017396895
0.08417523 -0.031240491 -0.091214195 0.06395316 0.116502516 -0.0044060736 -0.086067826 0.010880921
0.05280495 0.0721085 0.04646825 -0.040466644 -0.09009217 -0.11026139 0.111581825 -0.12649944
0.044488 0.04386079 -0.1130638 -0.01762761 -0.0143989725 -0.029909298 -0.06782872 0.060493004
-0.058591224 -0.12926297 -0.03696227 0.03463903 0.13788147 -0.06508081 -0.074674584 -0.08795337
0.08824839 0.10522568 -0.08286715 0.043213807 0.119704954 0.06700802 -0.049046572 0.040302336
0.12214796 0.028564211 -0.07179835 0.021409374 -0.06998055 0.08366412 0.14309831 -0.014938744
-0.08145857 0.041383386 0.0032703485 0.13547826 0.014774709 0.07137094 0.11030013 -0.0675749
-0.011491483 -0.06612813 0.12549858 -0.09822363 0.022441307 -0.047001347 0.0916963 -0.098626725
0.09322537 0.06931003 0.12192176 0.0026054883 -0.06933698 0.09371074 0.007023696 -0.007992534
-0.07602667 -0.033577833 0.08802118 0.0014844232 -0.03746202 -0.0685784 0.00061639247 -0.09557546
00000000: 1e60 96bb 17d1 d6bd 2691 4c3d 1bd6 72bd
00000010: 9837 cdbd 6e59 a03d 2e54 fd3d e043 c43d
00000020: 3ad3 b83c 350c ef3d 59c4 8bbd 843e d43c
00000030: c9c6 563a bc32 db3c 5b2e c4bd f668 063d
00000040: c585 49bd 1c35 913d 4a89 d13d 55f2 68bd
00000050: 7b14 a1bd 355a 703d 9f28 0fbd a501 8c3d
00000060: aedd f13d 3850 aa3d d317 f6bd 9b1b 9dbd
00000070: 83f5 c93c 7287 b7bd 78d8 053e 3e7a 9fbb
00000080: c35d be3d 17f0 bbbd 43b7 dcbd b9fd fd3d
00000090: c936 3ebd 1fda 00bd 34a6 883d 0627 403d
000000a0: 3304 8f3c 3efd ef3c c95a c7bd 8fbb ddbd
000000b0: 55ed ee3d 10c5 263e bca6 f03d 0769 d63d
000000c0: b2c4 eb3d 1022 a0bd d1a5 c33d aeca 87bd
000000d0: 48d5 86bc 364a d8bd 539f 4ebd 0588 97bd
000000e0: b78b 1b3d 15a0 243e e5dc df3d e17a 0b3e
000000f0: 08f2 f43d cd33 393d e164 8bbd ae95 a6bd
00000100: f986 5f3a be03 1ebd 3bb3 d0bd a969 4dbd
00000110: 5e63 b23d dbea 09be 6f42 5d3c 9114 c7bd
00000120: 95eb 2e3d 5012 0f3e 0804 aebc a40d b9bd
00000130: 24f3 17bd 5232 01be 5499 1abd 2bcd abbc
00000140: 5685 5dbc adef 133d cb4f ccbd 4755 7c3d
00000150: b332 bf3d 03b6 b5bd e81c 053e a8be 4e3d
00000160: ffb7 143d da40 503c 7f90 f9bc fef8 c1bd
00000170: 2ead febc 95ae c73d e0ff 8dbd 9ddb 533d
00000180: d71e debc afde a63d 44e1 3fbd 6707 c83d
00000190: fccb 163d a584 d1bd 5f52 b2bd 393d 0f3c
000001a0: 8ea4 a8bc 4119 da3d aa2d 3abd ec4d dd3b
000001b0: fc75 07be 9487 a43d 4865 b83d e2e3 37bc
000001c0: abd4 7fbd bffa 5e3d 4594 e13c 95c2 a3bd
000001d0: cf6d c1bd 9f54 333d 320a 93bd 1694 cd3b
000001e0: 81ab 11bd cfad 8a3d 0593 503c a8ea 4a3c
000001f0: e09c dcbd b4d4 9ebc c621 2b3d 1e89 c73d
00000200: a34e 62bd fc23 1f3d cebe 55bd f963 c2bc
00000210: 00a6 243d 2485 f93d 9c07 fd3d 2af9 f0bc
00000220: 4782 03be f7c2 ad3a 7b2b b0bd 47d3 983d
00000230: e01c f03d a37d 133d 5e77 d9bd 0f18 dbbd
00000240: 935c 68bd ca06 863d 5521 f7bd 576a 16bc
00000250: 9351 55bc 12af 773d ddd3 a13d 7101 243b
00000260: 42a0 c53b 3818 06bd e3b3 963d 92ad 223d
00000270: e445 1cbd 81ac ae3d ddd8 50bd e3a8 54bd
00000280: 7dd6 483d a8ca 27bb 4fb5 d23d a99f 173d
00000290: baba f8bc c5c9 583d 9fa9 913d 61f7 ecbd
000002a0: 9c55 93bd 1daa 81bc a07d b6bc 90a0 d43a
000002b0: a35f 7cbc 4c68 ae3d a685 cabc ef83 8ebc
000002c0: 1064 ac3d 0fec ffbc 82ce babd e0f9 823d
000002d0: df98 ee3d d360 90bb 5444 b0bd e445 323c
000002e0: 014a 583d 9fad 933d 7e55 3e3d 5ac0 25bd
000002f0: 3e82 b8bd b9d0 e1bd 0385 e43d 1289 01be
00000300: 0d39 363d 5fa7 333d fe8d e7bd c767 90bc
00000310: abe9 6bbc 5804 f5bc c9e9 8abd 83c7 773d
00000320: 5afd 6fbd 835d 04be c065 17bd a8e1 0d3d
00000330: cd30 0d3e 1649 85bd fdee 98bd e520 b4bd
00000340: 92bb b43d 9080 d73d 41b6 a9bd f600 313d
00000350: df27 f53d 803b 893d 0fe5 48bd 1014 253d
00000360: b628 fa3d 7eff e93c 030b 93bd b662 af3c
00000370: f651 8fbd 1858 ab3d 5d88 123e a2c1 74bc
00000380: c0d3 a6bd a081 293d 5853 563b d0ba 0a3e
00000390: 9f11 723c ed2a 923d 09e5 e13d b664 8abd
000003a0: c646 3cbc 2f6e 87bd b382 003e 7829 c9bd
000003b0: d5d6 b73c 7c84 40bd 45cb bb3d cffc c9bd
000003c0: f1ec be3d 6bf2 8d3d 1eb2 f93d d7c0 2a3b
000003d0: 8c00 8ebd 6beb bf3d 0827 e63b 1ef3 02bc
000003e0: dfb3 9bbd e988 09bd 7344 b43d fa90 c23a
000003f0: c671 19bd d572 8cbd 6695 213a 11bd c3bd

AFeatRNN.bias_hh_l0 f4 [256]
0.1027306 -0.07241398 0.0133151505 0.093523614 -0.050880287 -0.054129373 0.003406353 -0.055477947
-0.04290122 0.019422643 0.065401174 0.040560123 -0.030660335 0.009518425 0.039678644 -0.035437915
-0.041838404 0.110289685 -0.045293707 -0.0048834714 -0.111345135 -0.07126182 -0.05431784 0.040647738
0.15064472 0.04443323 -0.1061653 0.0544312 0.0066326554 0.039490182 0.0065442813 -0.06509111
0.11536308 -0.07331853 0.100159965 -0.05800055 -0.05833114 -0.012353184 4.1137946e-06 0.067555755
-0.1180842 -0.045508236 0.020347087 -0.014344629 0.081241496 0.118865356 -0.009360392 0.0800177
-0.018840855 0.12473754 0.087906875 0.102441326 0.021906855 0.08016467 -0.011816692 0.09774371
-0.022081845 0.024541136 -0.065421164 -0.06316312 0.04962704 0.10213847 -0.07290303 0.0052554184
-0.03162873 -0.05256128 -0.10581092 -0.054240927 0.046357322 0.06336265 -0.09207318 -0.057304945
0.01388461 0.045991123 -0.059426025 -0.062173832 -0.0631702 -0.08039396 0.030094719 -0.0980407
-0.050921693 -0.027930157 -0.05247676 0.01655151 0.13058133 0.001094667 -0.09574684 -0.13787192
-0.116367295 0.028072637 0.011115369 -0.06319649 -0.13531081 0.057789333 0.045340758 -0.060669683
0.02292175 0.08344086 0.09400869 0.046842717 0.08837587 0.121019386 0.03331058 0.1391197
-0.046482295 -0.09362708 0.053445663 -0.042867865 -0.0355951 -0.0012205328 -0.0007604715 -0.14078008
-0.007428769 0.10136471 -0.010710665 0.053656172 0.08123959 -0.099269755 -0.11530512 0.05027051
-0.042667042 -0.07886703 -0.008494179 -0.029742014 0.051802758 -0.06875753 -0.0578923 -0.011851936
-0.05227953 -0.09220249 0.089134336 -0.087376475 -0.057376113 0.11624208 0.104101524 0.0010800817
-0.11747636 -0.08421633 -0.06914333 0.033418015 -0.027739307 -0.03668354 -0.067266956 -0.10366409
-0.07962108 0.08154563 -0.042770714 -0.08022516 -0.08680042 0.056723267 -0.042856924 -0.10312626
0.071888104 0.08138863 -0.093018524 0.08811462 -0.041042715 0.066495426 0.058469664 0.08558159
-0.031929538 0.03504336 0.10703214 -0.09710279 0.11313044 -0.10417758 -0.011449954 0.05143904
-0.022428116 -0.07380088 -0.04306997 0.079650275 -0.017726082 0.056018446 -0.10807008 -0.06250584
-0.086440355 -0.05799882 0.06308842 -0.09158996 -0.10445162 -0.068519704 0.1081557 0.047332846
-0.072144754 -0.01581401 -0.08867113 0.036664408 -0.007845346 0.013858934 -0.067185104 -0.12118633
0.013215931 0.010761309 0.013173335 -0.06294264 -0.076019265 -0.09844294 -0.0932406 -0.0069598765
0.062067807 0.07448121 0.09255869 0.08050687 0.06671747 0.049879625 0.09477127 0.029394694
0.09314825 -0.01872338 -0.09416387 -0.05885325 0.039665673 0.033037882 0.09115263 -0.10464066
-0.051720683 -0.016894838 0.11290801 0.082191356 -0.07789953 0.10483681 0.11639983 0.033861887
0.021785973 -0.040098004 0.010695606 0.09020796 -0.1208567 -0.0045681065 -0.002379838 0.011033019
-0.06848407 0.09578158 0.13517934 -0.057878952 0.114433795 0.14590228 -0.028326675 -0.025154518
0.09297376 0.02506859 0.07516022 -0.060025405 -0.02831544 0.123870276 0.04797607 0.008892009
-0.066064075 0.15555932 -0.08645668 0.12996024 0.051158894 0.12083413 -0.020223133 -0.062180102
00000000: 6c64 d23d c84d 94bd ca27 5a3c 4f89 bf3d
00000010: d967 50bd c3b6 5dbd 1f3d 5f3b d83c 63bd
00000020: 31b9 2fbd 3c1c 9f3c 0df1 853d 5f22 263d
00000030: 622b fbbc 2bf3 1b3c 1386 223d 5927 11bd
00000040: bf5e 2bbd 8fdf e13d e585 39bd 8705 a0bb
00000050: eb08 e4bd b8f1 91bd 627c 5ebd 3e7e 263d
00000060: 9c42 1a3e 9eff 353d 316d d9bd 40f3 5e3d
00000070: bf56 d93b 75c0 213d 6971 d63b 7d4e 85bd
00000080: 7a43 ec3d 0728 96bd ab20 cd3d fc91 6dbd
00000090: a2ec 6ebd 0265 4abc 3a09 8a36 ac5a 8a3d
000000a0: 21d6 f1bd d866 3abd efae a63c bc05 6bbc
000000b0: f161 a63d ae6f f33d 545c 19bc 52e0 a33d
000000c0: 2358 9abc 6576 ff3d 8508 b43d c2cc d13d
000000d0: 0176 b33c 602d a43d cc9a 41bc db2d c83d
000000e0: fce4 b4bc 7e0a c93c 88fb 85bd aa5b 81bd
000000f0: b945 4b3d f92d d13d 2f4e 95bd a535 ac3b
00000100: 218d 01bd 7f4a 57bd 65b3 d8bd bc2b 5ebd
00000110: 2de1 3d3d 47c4 813d dd90 bcbd 97b8 6abd
00000120: 467c 633c 3061 3c3d b468 73bd fda9 7ebd
00000130: 615f 81bd 97a5 a4bd 3389 f63c 90c9 c8bd
00000140: 4493 50bd c9cd e4bc dff1 56bd 0897 873c
00000150: 1db7 053e ee7a 8f3a eb16 c4bd 4c2e 0dbe
00000160: fa51 eebd 96f8 e53c 3d1d 363c 296d 81bd
00000170: eb8e 0abe 82b4 6c3d 3bb7 393d c680 78bd
00000180: 65c6 bb3c 0be3 aa3d a187 c03d 26de 3f3d
00000190: 68fe b43d 03d9 f73d ad70 083d 6575 0e3e
000001a0: 3864 3ebd 8ebf bfbd d7e9 5a3d 3796 2fbd
000001b0: 2bcc 11bd 49fa 9fba 615a 47ba a728 10be
000001c0: 086d f3bb 4d98 cf3d c97b 2fbc 93c6 5b3d
000001d0: f160 a63d f14d cbbd 1725 ecbd 73e8 4d3d
000001e0: a3c3 2ebd 0a85 a1bd 2b2b 0bbc 86a5 f3bc
000001f0: 212f 543d bfd0 8cbd 7a20 6dbd 9f2e 42bc
00000200: 0f23 56bd a9d4 bcbd 108c b63d 70f2 b2bd
00000210: 3703 6bbd 5410 ee3d 2e33 d53d 8791 8d3a
00000220: 7297 f0bd 9c79 acbd 059b 8dbd 54e1 083d
00000230: 8b3d e3bc 7b41 16bd 42c3 89bd d74d d4bd
00000240: 6010 a3bd 6501 a73d 5830 2fbd 174d a4bd
00000250: 6bc4 b1bd a856 683d be8a 2fbd dc33 d3bd
00000260: 123a 933d 15af a63d 7f80 bebd 7075 b43d
00000270: 681c 28bd c12e 883d e37d 6f3d 6745 af3d
00000280: 8cc8 02bd a089 0f3d ab33 db3d d4dd c6bd
00000290: efb0 e73d 0e5b d5bd 9698 3bbc beb1 523d
000002a0: 2bbb b7bc ea24 97bd 236a 30bd af1f a33d
000002b0: 4a36 91bc 9973 653d d953 ddbd 1003 80bd
000002c0: a407 b1bd 2c90 6dbd 8034 813d 8493 bbbd
000002d0: bbea d5bd 0f54 8cbd bc80 dd3d 16e0 413d
000002e0: a1c0 93bd 628c 81bc 3699 b5bd 6b2d 163d
000002f0: c489 00bc 9510 633c 5898 89bd 8a30 f8bd
00000300: a287 583c 3450 303c f9d4 573c 12e8 80bd
00000310: fdaf 9bbd 749c c9bd edf4 bebd ad0f e4bb
00000320: d03a 7e3d 9b89 983d 698f bd3d c9e0 a43d
00000330: 2ba3 883d 944e 4c3d 7117 c23d 24cd f03c
00000340: 82c4 be3d c661 99bc fdd8 c0bd 1b10 71bd
00000350: 7978 223d bb52 073d 3bae ba3d d84d d6bd
00000360: 11d9 53bd 0b67 8abc 513c e73d f153 a83d
00000370: ca89 9fbd aeb4 d63d 0963 ee3d c3b2 0a3d
00000380: 7f78 b23c ce3d 24bd 9f3c 2f3c f3be b83d
00000390: b883 f7bd 0eb0 95bb 0ef7 1bbb d6c3 343c
000003a0: 6041 8cbd 2229 c43d 746c 0a3e 7b12 6dbd
000003b0: 445c ea3d 6867 153e 580d e8bc d910 cebc
000003c0: 0769 be3d a55c cd3c 9aed 993d 33dd 75bd
000003d0: c8f5 e7bc b3af fd3d 8e82 443d caaf 113c
000003e0: 9a4c 87bd f14a 1f3e 3310 b1bd 4c14 053e
000003f0: fd8b 513d e277 f73d fcaa a5bc 90b0 7ebd

AFeatRNN.weight_ih_l1 f4 [256, 64]
0.066684745 -0.12865238 -0.10287078 -0.07043445 0.0383862 0.07070486 0.06591913 0.021373512
0.119605064 0.008811495 -0.017838923 -0.24204221 0.21280369 -0.10570955 -0.109302275 -0.035507165
0.079648085 -0.03027896 -0.15820672 -0.041986726 -0.118723065 0.17741212 -0.02252226 0.024827683
0.03462629 0.026940566 -0.07302777 -0.03223728 0.06553693 -0.03221577 -0.15686125 0.2630127
0.027367447 -0.11074115 -0.058579538 -0.09152828 0.020506307 -0.10951622 -0.14436722 -0.012781418
0.02150983 0.07110972 -0.0810801 -0.08883503 0.008653026 0.14772516 0.01207198 -0.11334772
-0.04567528 -0.116044484 0.13690256 0.1231373 -0.09559864 0.019393502 -0.04371855 -0.115363315
0.08025763 -0.08157837 0.07428841 -0.08149407 0.18433794 -0.08108802 0.15525962 0.21639751
0.027975045 -0.088393115 -0.08658814 -0.071203485 0.031714004 -0.030122334 -0.017010676 -0.041303582
-0.03736899 0.1880872 -0.017633474 -0.05883338 0.15829638 -0.013629913 -0.058735866 -0.12876515
0.034362115 -0.12419073 -0.045822594 -0.0056098453 0.0519394 0.14744742 0.11891547 -0.012691275
-0.0299152 0.12902497 -0.15845527 0.052946877 0.021659939 -0.19087824 -0.032585837 0.20401734
0.06424501 0.13258207 -0.19352184 -0.16128305 0.1451198 -0.04133489 -0.017460791 0.06218648
0.16105613 0.15482754 0.002531184 -0.15376462 0.04040471 0.00086572976 0.18720616 0.12226243
0.013158384 0.032697387 0.013997853 -0.014727713 0.016166033 -0.020375509 0.009385965 -0.12459541
0.20544463 -0.13750753 0.09404183 -0.0034128814 0.20180783 0.084048554 0.08998879 0.09116069
-0.15855294 -0.2039546 -0.05166162 0.05576785 0.11797474 -0.08730715 -0.020546954 0.08847396
0.12253272 -0.03804389 0.17380962 -0.11033103 0.09042754 0.025131118 0.042560123 -0.06645442
-0.06664871 -0.01591365 -0.12637521 0.01728543 -0.007597852 0.20523322 -0.091347724 -0.03467382
-0.039645236 -0.02990331 -0.079252735 -0.21929006 -0.038167216 -0.12039263 0.06153048 -0.046745423
0.036123756 0.189367 -0.2274441 -0.11161934 0.14239219 0.0030497503 -0.07245139 -0.024521511
0.063551076 0.16500773 -0.13118654 0.17671041 -0.1714835 -0.14694509 -0.069959074 0.14029679
0.023962202 -0.052911624 0.03936226 0.01781588 -0.13537699 0.04154557 0.014858874 0.13107502
0.07815566 -0.049231846 -0.0029563955 -0.0032780126 -0.026876142 0.028341295 0.14043888 0.09240383
-0.056679156 0.12893264 0.021611182 -0.08455793 -0.1392086 0.062061254 0.0754111 0.02277171
-0.060663663 -0.044775024 0.11140455 -0.026385386 -0.038887918 -0.095267005 0.06504095 0.022056676
-0.09633016 -0.14965782 0.0058360156 0.054760978 0.19996019 -0.029282784 -0.07198432 0.004789089
-0.049822234 0.121977635 -0.12390608 -0.10363919 0.035681006 -0.0071595456 -0.29445094 0.064817026
0.05928408 0.038264498 0.13205725 -0.09796949 0.12219729 0.13650982 0.068885796 0.11501
-0.056075133 -0.009436021 -0.12791769 -0.09994869 -0.040185302 0.12259092 -0.024181584 -0.027491653
-0.18661101 -0.011529226 -0.07941423 0.16044983 -0.05507741 0.18078601 -0.010148439 -0.087866984
0.1736826 0.06790988 -0.14903376 -0.16493228 0.16382986 0.04572686 0.11591277 0.23638049
00000000: 0392 883d 73bd 03be eaad d2bd f03f 90bd
00000010: d93a 1d3d b6cd 903d 9c00 873d 8117 af3c
00000020: 80f3 f43d 175e 103c ef22 92bc ead9 77be
00000030: 36e9 593e 407e d8bd dfd9 dfbd f66f 11bd
00000040: 891e a33d 950b f8bc f100 22be 46fa 2bbd
00000050: 1425 f3bd 86ab 353e 9a80 b8bc 6d63 cb3c
00000060: 4cd4 0d3d 76b2 dc3c 958f 95bd 3d0b 04bd
00000070: 3a38 863d aff4 03bd 3ca0 20be 9aa9 863e
00000080: b231 e03c 42cc e2bd 19f1 6fbd 2e73 bbbd
00000090: d8fc a73c 0a4a e0bd 00d5 13be 2769 51bc
000000a0: 6235 b03c f9a1 913d 530d a6bd 24ef b5bd
000000b0: 6cc5 0d3c 4445 173e 8ec9 453c d922 e8bd
000000c0: 0116 3bbd bba8 edbd 2f30 0c3e 692f fc3d
000000d0: 38c9 c3bd 1fdf 9e3c 3912 33bd 9a43 ecbd
000000e0: 1d5e a43d 8f12 a7bd 8624 983d 5de6 a6bd
000000f0: 16c3 3c3e 7a11 a6bd 61fc 1e3e 4f97 5d3e
00000100: ec2b e53c 7307 b5bd 1f55 b1bd 22d3 91bd
00000110: 8be6 013d 1dc3 f6bc f959 8bbc f22d 29bd
00000120: 3a10 19bd ee99 403e 1374 90bc 45fb 70bd
00000130: 7218 223e 0050 5fbc 0595 70bd 03db 03be
00000140: 4abf 0c3d b657 febd 79b0 3bbd cbd2 b7bb
00000150: 69be 543d 75fc 163e f489 f33d 11ef 4fbc
00000160: b910 f5bc 1f1f 043e 1942 22be d3de 583d
00000170: 2f70 b13c 9675 43be ba78 05bd ece9 503e
00000180: e392 833d 98c3 073e 972a 46be 6227 25be
00000190: 499a 143e c64e 29bd ef09 8fbc 40b7 7e3d
000001a0: e6eb 243e 1c8b 1e3e 39e2 253b 7974 1dbe
000001b0: 697f 253d 24f2 623a f9b2 3f3e ba64 fa3d
000001c0: 4396 573c b2ed 053d 4057 653c 814c 71bc
000001d0: a16e 843c 8aea a6bc 97c7 193c e12b ffbd
000001e0: 1460 523e c6ce 0cbe 0199 c03d a6aa 5fbb
000001f0: b6a6 4e3e a621 ac3d 0b4c b83d 75b2 ba3d
00000200: b45b 22be 7ad9 50be 239b 53bd d46c 643d
00000210: be9c f13d 17ce b2bd 1652 a8bc d631 b53d
00000220: 6ff2 fa3d e9d3 1bbd 26fb 313e 3cf5 e1bd
00000230: 1332 b93d c6df cd3c 8653 2e3d 4119 88bd
00000240: 1e7f 88bd 585d 82bc 8168 01be 2d9a 8d3c
00000250: 67f7 f8bb a828 523e 8414 bbbd 2306 0ebd
00000260: 0b63 22bd c9f7 f4bc 424f a2bd 938d 60be
00000270: 3a55 1cbd 6990 f6bd 6207 7c3d 2178 3fbd
00000280: 81f6 133d 6ce9 413e 1be7 68be ae98 e4bd
00000290: 42cf 113e 52de 473b 6561 94bd 56e1 c8bc
000002a0: 1127 823d c9f7 283e c455 06be 93f3 343e
000002b0: 5f99 2fbe c678 16be b446 8fbd f6a9 0f3e
000002c0: 614c c43c dcb9 58bd 523a 213d 9cf2 913c
000002d0: 44a0 0abe b02b 2a3d a272 733c 8838 063e
000002e0: 1310 a03d 55a7 49bd 16c0 41bb edd3 56bb
000002f0: 5b2b dcbc 012c e83c 36cf 0f3e 383e bd3d
00000300: 6728 68bd eb06 043e ef09 b13c b52c adbd
00000310: b38c 0ebe f133 7e3d 2371 9a3d bd8b ba3c
00000320: 767a 78bd 0466 37bd 1228 e43d 2a26 d8bc
00000330: f048 1fbd 591b c3bd 3134 853d 34b0 b43c
00000340: bf48 c5bd e63f 19be 0c3c bf3b 0c4d 603d
00000350: 5dc2 4c3e 73e2 efbc 846c 93bd caed 9c3b
00000360: 6612 4cbd 69cf f93d 79c2 fdbd c940 d4bd
00000370: 3f26 123d 9f9a eabb 46c2 96be cabe 843d
00000380: ddd3 723d 3cbb 1c3d 043a 073e 3aa4 c8bd
00000390: 9342 fa3d 3bc9 0b3e ff13 8d3d 5d8a eb3d
000003a0: 0aaf 65bd 8a99 1abc dbfc 02be e6b1 ccbd
000003b0: 5899 24bd f310 fb3d 7518 c6bc 2d36 e1bc
000003c0: f516 3fbe 14e5 3cbc eea3 a2bd f64c 243e
000003d0: da98 61bd f81f 393e a345 26bc 9bf3 b3bd
000003e0: dad9 313e 5614 8b3d 4e9c 18be 02e4 28be
000003f0: 04c3 273e 174c 3b3d ad63 ed3d ba0d 723e

AFeatRNN.weight_hh_l1 f4 [256, 64]
-0.098068476 -0.14522672 -0.041638944 0.035274867 -0.08680647 0.13251817 0.056367677 0.02019499
-0.025036462 -0.057782784 -0.056255773 0.09572117 0.006245764 -0.0792219 -0.19405617 -0.057782024
-0.0017931403 0.12038181 -0.048957776 0.1297762 0.043900054 0.112552665 0.08982856 -0.06780524
-0.0490468 -0.07418028 -0.060314953 -0.002413722 0.044497855 0.060422 -0.034814496 -0.057086512
0.01621783 -0.04392038 -0.10842685 0.10719455 0.027423624 -0.07597771 -0.080808476 0.019609781
-0.074449964 -0.09608586 -0.095227994 0.010729953 0.08154319 0.0020202734 -0.0938079 -0.008796509
0.115687266 -0.111850575 0.08930858 0.1682379 0.08645997 0.049425192 -0.113409296 -0.11637625
0.037521113 -0.10447746 0.11014209 0.08475176 0.019833766 0.0908399 -0.038607664 -0.13394108
0.03019956 -0.1039352 -0.04627747 0.04096161 0.094899274 -0.042397335 -0.06283709 0.08276447
0.002694906 0.06733822 0.0822556 0.020330563 0.012421232 0.0035144456 0.01996945 0.035891484
-0.11400195 0.019318005 -0.07915098 -0.07339521 -0.07637053 0.10540608 0.0012885022 0.09677965
-0.15394585 0.05348478 -0.0021677825 0.02943258 0.033299897 -0.06877609 0.074041165 -0.034380935
-0.111721754 -0.040999066 -0.08953087 -0.08918524 -0.077369235 -0.05245773 0.14945924 0.03436038
-0.1087979 0.10828219 -0.014730992 -0.11320196 0.0942006 0.1344585 0.07563028 -0.005774841
-0.07241601 -0.013435989 -0.025773738 -0.090397306 0.02774604 -0.04655501 0.03347616 0.10736045
0.07146574 0.09340493 -0.045311667 -0.1437438 -0.10241253 -0.0614875 0.08767635 0.029535308
0.091629684 -0.15285173 -0.17314537 -0.013986716 -0.06151992 0.08926279 -0.11683698 0.043250497
-0.0278042 0.034828946 0.10613649 0.055235185 0.10165633 -0.11092543 -0.054624915 -0.02980118
-0.15946892 0.050353028 0.12008508 -0.0040399134 -0.11804038 -0.08523008 -0.009489553 0.10052657
0.014935807 -0.14662829 0.12210491 0.08447443 -0.11151202 -0.030426342 -0.13016018 0.022874916
0.060846448 0.1400833 0.016841542 -0.026102513 -0.048558727 0.06609469 -0.018427957 0.20416307
-0.079699524 0.004237674 0.04697754 0.054091886 0.086484425 0.029876139 -0.070003286 0.03664494
-0.09623318 0.016679429 0.1727783 0.15726 0.0025167323 0.13548721 0.040712174 0.096861504
0.1133885 -0.05852265 0.060848214 0.029234951 -0.17105195 0.16512448 0.107124604 0.14868858
0.10547608 -0.109475374 -0.024863929 -0.020739127 0.076527365 0.025177259 -0.009044233 0.0116784
-0.16203266 0.02846451 0.0989572 0.1008438 0.023203036 0.11327383 -0.025723934 0.004280717
-0.050549272 -0.09568202 -0.069114804 0.104843706 -0.03117865 0.041873116 0.0059440243 -0.0750186
-0.014237316 0.009893192 0.01278229 -0.15551123 0.0074035707 0.024128985 -0.038057707 0.058893364
-0.061560683 -0.053257868 0.016553458 -0.09980822 -0.11274007 -0.03538848 -0.12176472 -0.04930673
-0.039036255 0.11371933 -0.008916502 -0.0014155698 -0.10612898 0.13378751 -0.09039833 0.036973532
0.013738073 0.10455958 -0.020662066 -0.058558285 -0.05960589 0.1206969 0.039478324 -0.0050211847
0.14914007 0.10545476 0.112581834 -0.024847984 -0.13191108 0.018761434 0.07492796 0.101268776
00000000: 20d8 c8bd 50b6 14be 998d 2abd 617c 103d
00000010: 97c7 b1bd d8b2 073e cbe1 663d f76f a53c
00000020: 4419 cdbc a4ad 6cbd 746c 66bd 7609 c43d
00000030: 44a9 cc3b 173f a2bd a9b6 46be d8ac 6cbd
00000040: ce07 ebba bd8a f63d f387 48bd 0de4 043e
00000050: 8bd0 333d 0382 e63d 09f8 b73d 79dd 8abd
00000060: 4ce5 48bd d5eb 97bd d00c 77bd 892f 1ebb
00000070: 6243 363d 0f7d 773d a599 0ebd 8cd3 69bd
00000080: 41db 843c dbe5 33bd e50e debd d188 db3d
00000090: 82a7 e03c 349a 9bbd ea7e a5bd b1a4 a03c
000000a0: 3979 98bd aac8 c4bd e506 c3bd afcc 2f3c
000000b0: 1e00 a73d 9066 043b 5b1e c0bd 3c1f 10bc
000000c0: 72ed ec3d ea11 e5bd 6be7 b63d 8e46 2c3e
000000d0: ed11 b13d 1272 4a3d 2243 e8bd ac56 eebd
000000e0: bdaf 193d 47f8 d5bd 2d92 e13d 5592 ad3d
000000f0: 6c7a a23c 450a ba3d 1223 1ebd da27 09be
00000100: 1165 f73c fadb d4bd 728d 3dbd 5cc7 273d
00000110: 8d5a c23d d4a8 2dbd bbb0 80bd 6b80 a93d
00000120: 059d 303b 9fe8 893d a075 a83d 488c a63c
00000130: 6c82 4b3c 9d52 663b f996 a33c f302 133d
00000140: db79 e9bd cb40 9e3c e919 a2bd 3a50 96bd
00000150: 2768 9cbd 25df d73d f6e2 a83a 6934 c63d
00000160: fba3 1dbe db12 5b3d 5b11 0ebb 981c f13c
00000170: 7965 083d 7bda 8cbd e5a2 973d 06d3 0cbd
00000180: 60ce e4bd a3ee 27bd f65b b7bd c0a6 b6bd
00000190: c373 9ebd ebdd 56bd d80b 193e 78bd 0c3d
000001a0: 6fd1 debd 0ec3 dd3d 425a 71bc 6ed6 e7bd
000001b0: 3fec c03d 7daf 093e 0ce4 9a3d e13a bdbb
000001c0: d84e 94bd 9f22 5cbc 7223 d3bc 3922 b9bd
000001d0: aa4b e33c 77b0 3ebd 4c1e 093d ccdf db3d
000001e0: a15c 923d 154b bf3d ba98 39bd 9331 13be
000001f0: a9bd d1bd 51da 7bbd a88f b33d 08f4 f13c
00000200: 58a8 bb3d 2a85 1cbe 054d 31be 8a28 65bc
00000210: 50fc 7bbd 69cf b63d 3a48 efbd 6f27 313d
00000220: a2c5 e3bc cca8 0e3d 175e d93d 4a3e 623d
00000230: 3231 d03d df2c e3bd 60be 5fbd 9b21 f4bc
00000240: d24b 23be fa3e 4e3d 2bef f53d 4061 84bb
00000250: 28bf f1bd 1c8d aebd 127a 1bbc e0e0 cd3d
00000260: 51b5 743c ba25 16be 2412 fa3d ee00 ad3d
00000270: 6a60 e4bd aa40 f9bc b648 05be 2d64 bb3c
00000280: 203a 793d ff71 0f3e 46f7 893c f0d4 d5bc
00000290: 84e5 46bd a75c 873d 3af6 96bc 2010 513e
000002a0: 8139 a3bd 30dc 8a3b 856b 403d 748f 5d3d
000002b0: bf1e b13d cebe f43c e25d 8fbd 0119 163d
000002c0: e715 c5bd 4ca3 883c cbec 303e c408 213e
000002d0: c3ef 243b 29bd 0a3e cfc1 263d 535f c63d
000002e0: 3b38 e83d 72b5 6fbd fa3b 793d 237e ef3c
000002f0: 3e28 2fbe 6416 293e 2564 db3d d241 183e
00000300: d803 d83d a034 e0bd 70af cbbc 1ae5 a9bc
00000310: 61ba 9c3d 8a40 ce3c 432e 14bc c356 3f3c
00000320: e4eb 25be 672e e93c 13aa ca3d 3287 ce3d
00000330: 4b14 be3c 1cfc e73d 00bb d2bc 4245 8c3b
00000340: c10c 4fbd eff4 c3bd 108c 8dbd 4cb8 d63d
00000350: 5e6a ffbc 2583 2b3d 17c6 c23b 5aa3 99bd
00000360: a243 69bc 0e17 223c cf6c 513c 563e 1fbe
00000370: a799 f23b 26aa c53c 66e2 1bbd 2b3a 713d
00000380: 0e27 7cbd ec24 5abd 1e9b 873c 4168 ccbd
00000390: 44e4 e6bd 83f3 10bd c85f f9bd dbf5 49bd
000003a0: 7be4 1fbd aee5 e83d 8516 12bc a48a b9ba
000003b0: 275a d9bd 98ff 083e c222 b9bd 8f71 173d
000003c0: a815 613c 5523 d63d 7e43 a9bc d0da 6fbd
000003d0: 4e25 74bd f02f f73d 06b4 213d c088 a4bb
000003e0: 2db8 183e aaf8 d73d 4e91 e63d 008e cbbc
000003f0: b313 07be 94b1 993c d573 993d 0166 cf3d

AFeatRNN.bias_ih_l1 f4 [256]
0.06767737 0.11768062 0.12040498 -0.03604956 0.0893068 -0.006414468 -0.0936198 0.08222514
0.104986474 -0.0094428845 0.03409183 -0.009944981 0.07550723 0.008946794 0.1911123 0.03583422
-0.05198169 0.088006735 0.10309055 0.16610663 -0.058164794 0.12615345 0.08631294 0.014784174
0.05862652 -0.07162512 -0.017351123 0.027797643 -0.051238723 -0.010829909 -0.0073960107 -0.08708215
0.06848823 0.021282403 -0.049481485 -0.025230156 -0.007172476 0.12866466 0.06650978 0.10363101
0.18053207 -0.0027744176 -0.02865965 0.13375622 0.07490323 -0.008112707 -0.09025649 0.013489176
0.1565407 0.22552958 0.088077 0.177181 -0.031787936 0.14444295 0.008828643 0.06162891
-0.06554733 -0.030052299 0.052100975 0.09765124 -0.08702186 0.03750289 0.024221791 0.08541921
0.009389051 -0.105351366 -0.017926913 -0.06659799 0.08429506 0.06749884 0.09859361 0.068400905
-0.08247318 0.10485613 0.043512642 -0.05807622 0.02034642 -0.008621321 0.099084124 0.08608939
-0.17141524 -0.1359232 0.02540728 0.0072219227 -0.042299606 0.03204373 -0.018653251 -0.07776795
0.0029715945 0.03333457 -0.009516611 -0.08932566 -0.07541972 0.011526765 -0.014555703 -0.15016052
0.033612676 -0.03417581 -0.13207075 0.040929887 0.004135755 0.1036538 0.0033327318 0.09106755
-0.08997763 0.0027235167 0.02553056 0.12702237 -0.105156295 -0.006470145 0.06519951 -0.06600908
0.10630279 0.1153063 0.02423427 0.01870243 0.012802794 0.011917628 0.119744256 0.01776881
-0.04015393 -0.108575724 0.038774952 -0.084704325 0.08832774 -0.063673176 0.013297778 -0.12729582
-0.016707527 0.04079342 -0.115294226 0.06530156 -0.092831925 -0.046004605 -0.058232926 -0.017157331
-0.08408359 0.028345194 0.038835358 -0.025404118 -0.053216152 0.09683041 -0.038401507 0.077694885
0.029158305 0.1115224 -0.010440381 -0.054700863 -0.06546417 0.027852708 -0.10517329 0.044589374
-0.08587337 -0.056582455 0.11797493 0.11351539 -0.1160785 -0.060742408 -0.19688103 0.09403962
-0.05004134 0.037201922 -0.013928383 0.08712183 -0.028772067 -0.071665935 0.05728261 -0.09188407
-0.11531227 0.06644108 -0.09906781 -0.14823714 -0.015746947 -0.0530106 0.012507055 0.021583857
-0.05896092 0.049784973 -0.0071190065 0.09781342 -0.09390028 0.12298385 -0.12762724 -0.09341898
0.1373553 0.08084796 0.024889978 -0.001562198 -0.13753068 -0.041006763 -0.0011164136 -0.02731679
0.060412984 -0.02059823 -0.013623041 0.05766102 0.00070688233 0.03011809 0.024979897 0.038107872
0.073547885 0.003372101 0.19482401 0.00065668864 -0.025191925 -0.0052504 0.17833903 0.066420525
-0.002846198 0.08961812 0.09448972 -0.010687181 -0.05499307 0.050378196 -0.045749508 0.02610588
0.17872068 0.054720916 -0.036045846 0.05446387 0.10672742 -0.01570458 -0.05139123 -0.02724884
-0.000783524 -0.034051158 0.15388179 0.041056607 0.12016737 0.06608825 0.12253269 0.04715257
0.061242733 -0.08665354 -0.04842783 0.028824141 0.11290188 0.1683862 0.121413074 0.15552552
0.13168195 -0.0017259606 -0.09585763 0.17959183 -0.028812177 0.117730275 -0.010278969 -0.06788219
0.06688609 0.015227634 0.127112 -0.020971507 0.09273574 0.115070425 0.1759572 -0.0019834302
00000000: 6f9a 8a3d 8902 f13d e396 f63d b4a8 13bd
00000010: 7ce6 b63d 7530 d2bb bdbb bfbd a765 a83d
00000020: 2603 d73d 54b6 1abc e0a3 0b3d 46f0 22bc
00000030: 89a3 9a3d 9395 123c f1b2 433e e7c6 123d
00000040: c1ea 54bd e03c b43d 2321 d33d db17 2a3e
00000050: 353e 6ebd 5f2e 013e d7c4 b03d 5239 723c
00000060: 5d22 703d 31b0 92bd f123 8ebc e2b7 e33c
00000070: b2df 51bd ee6f 31bc 3c5a f2bb 2058 b2bd
00000080: 8f43 8c3d 6f58 ae3c 19ad 4abd 79af cebc
00000090: 1707 ebbb abc0 033e 4836 883d 7f3c d43d
000000a0: 66dd 383e 01d3 35bb a4c7 eabc 64f7 083e
000000b0: dd66 993d 29eb 04bc 65d8 b8bd b401 5d3c
000000c0: 354c 203e 3af1 663e b761 b43d f06e 353e
000000d0: 1134 02bd dae8 133e 03a6 103c 996e 7c3d
000000e0: ae3d 86bd 3d30 f6bc d567 553d 60fd c73d
000000f0: 8438 b2bd a19c 193d c76c c63c 44f0 ae3d
00000100: 89d4 193c 75c2 d7bd 76db 92bc 8764 88bd
00000110: e3a2 ac3d d53c 8a3d 72eb c93d c615 8c3d
00000120: b3e7 a8bd d0be d63d 503a 323d 55e1 6dbd
00000130: 89ad a63c 7140 0dbc 9eec ca3d a24f b03d
00000140: 7a87 2fbe 742f 0bbe ee22 d03c e1a5 ec3b
00000150: 5a42 2dbd 4940 033d b4ce 98bc ce44 9fbd
00000160: 15bf 423b d489 083d 8feb 1bbc 5ff0 b6bd
00000170: a775 9abd c2da 3c3c 0b7b 6ebc aec3 19be
00000180: 72ad 093d effb 0bbd 8e3d 07be 19a6 273d
00000190: 3a85 873b 7248 d43d f669 5a3b a081 ba3d
000001a0: 3146 b8bd 077d 323b 7725 d13c 2712 023e
000001b0: 2f5c d7bd 8303 d4bb 5287 853d c52f 87bd
000001c0: 47b5 d93d b625 ec3d f386 c63c d735 993c
000001d0: cfc2 513c 2842 433c 7a3c f53d e58f 913c
000001e0: 7378 24bd f35c debd 7cd2 1e3d 7679 adbd
000001f0: 2de5 b43d 1567 82bd ecde 593c d659 02be
00000200: 39de 88bc 0017 273d 611f ecbd d3bc 853d
00000210: aa1e bebd 536f 3cbd a685 6ebd 888d 8cbc
00000220: 0434 acbd 2e34 e83c d311 1f3d 4c1c d0bc
00000230: 2ef9 59bd 064f c63d e64a 1dbd 7f1e 9f3d
00000240: 66dd ee3c db65 e43d 220e 2bbc 030e 60bd
00000250: 1412 86bd 5d2b e43c 1865 d7bd 59a3 363d
00000260: 61de afbd 01c3 67bd d79c f13d c27a e83d
00000270: 91ba edbd 08cd 78bd 2e9b 49be d897 c03d
00000280: 26f8 4cbd 0b61 183d df33 64bc ee6c b23d
00000290: 66b3 ebbc 97c5 92bd 2ca1 6a3d b72d bcbd
000002a0: d728 ecbd 4312 883d 10e4 cabd 7acb 17be
000002b0: beff 80bc a521 59bd 64ea 4c3c a1d0 b03c
000002c0: 0181 71bd 54eb 4b3d 8e46 e9bb 6752 c83d
000002d0: ca4e c0bd f5de fb3d b7b0 02be 7352 bfbd
000002e0: dea6 0c3e 9e93 a53d 11e6 cb3c abc2 ccba
000002f0: d8d4 0cbe b5f6 27bd a054 92ba 76c7 dfbc
00000300: 9b73 773d 9fbd a8bc 2d33 5fbc f62d 6c3d
00000310: 124e 393a 36ba f63c a4a2 cc3c 0017 1c3d
00000320: 46a0 963d 78fe 5c3b f27f 473e a125 2c3a
00000330: 4c5f cebc 8c0b acbb 829e 363e 7c07 883d
00000340: 4787 3abb b489 b73d d483 c13d 4919 2fbc
00000350: 6a40 61bd 5e59 4e3d d663 3bbd 00dc d53c
00000360: 8e02 373e 0a23 603d cfa4 13bd 8215 5f3d
00000370: e893 da3d e4a6 80bc 9c7f 52bd f638 dfbc
00000380: 6865 4dba 3a79 0bbd 3093 1d3e f92a 283d
00000390: 4f1a f63d 4759 873d 6bf2 fa3d 0e23 413d
000003a0: a9d9 7a3d 6977 b1bd 435c 46bd 9b20 ec3c
000003b0: 1a39 e73d 6f6d 2c3e 6ba7 f83d 1542 1f3e
000003c0: a2d7 063e a139 e2ba 0151 c4bd ece6 373e
000003d0: 8407 ecbc 921c f13d 1f69 28bc d105 8bbd
000003e0: 93fb 883d 547d 793c a629 023e 70cc abbc
000003f0: 3cec bd3d 0baa eb3d 202e 343e 70fc 01bb

AFeatRNN.bias_hh_l1 f4 [256]
0.13874063 0.15424934 0.16571866 0.029188555 0.047394298 0.09791073 0.091901585 0.1462405
0.06638122 0.09841063 0.1804484 -0.0008477676 -0.07227164 0.03586266 0.20340948 0.029626114
-0.059082348 -0.035254337 -0.03436265 0.043977443 -0.040751588 0.070046626 0.02454282 0.08908034
0.022953955 0.1470956 -0.006530804 0.081797585 0.025109492 0.136017 0.11175089 0.08519175
-0.02995176 -0.045541387 -0.07287706 0.023202103 0.14827707 0.012028318 0.0031612972 0.055409443
0.12834774 -0.025457298 0.0326425 0.07145013 -0.013524975 0.14000918 -0.10605717 0.08475453
-0.043180466 0.040915746 0.030883946 0.10943091 0.1184667 -0.040743086 0.15148611 -0.032455966
0.09053752 0.04187128 0.060962375 0.12817223 0.013129635 0.021009643 0.040019263 0.14618881
-0.12224182 0.03422561 -0.05695232 -0.0025999176 -0.10861697 0.017019952 -0.090513855 0.030279806
-0.01781834 0.06921371 -0.017723251 0.07345486 -0.004605441 0.06766774 -0.1143952 0.02329937
0.010548588 -0.08000622 -0.08033208 -0.11496883 -0.11189792 -0.08855278 0.04300168 0.04947488
-0.065747336 0.054542594 -0.034678545 0.047139574 -0.03787924 -0.062244818 0.0907179 -0.1151789
-0.12317267 -0.03400783 -0.12480733 -0.14261074 -0.008257576 0.057603527 0.091113 0.0030562545
0.07999516 -0.04562979 0.08008856 -0.024278328 0.08606666 -0.013670811 0.014018537 -0.0014052226
0.09767271 -0.071920775 -0.054775767 0.0023965295 -0.019171746 0.044165984 0.06788697 0.1473471
-0.054188948 -0.013487066 0.059551135 0.041544855 0.0024740472 0.11506284 -0.07668227 0.07161919
0.04148594 -0.096197136 0.02170174 -0.012993111 3.207097e-05 0.005335928 0.08508468 0.0899507
-0.027386984 0.13698655 -0.119127944 -0.066899374 0.014564765 0.0677797 -0.07956682 0.0747375
0.049470212 0.03389202 -0.032669567 0.13169509 -0.062779784 -0.11340754 -0.051940802 0.039645385
0.053431816 -0.115025245 -0.026595302 -0.10416435 0.09652097 -0.10542521 -0.13771139 -0.03951137
0.07467347 -0.049547315 -0.056678414 0.12239683 0.07869662 -0.06522597 -0.107176214 0.061723586
-0.079995714 0.1173478 -0.01925982 -0.11523299 -0.076168284 -0.01670644 -0.10632368 -0.12260888
0.034411144 0.012494782 0.13465878 0.116449885 0.075825974 0.08272954 0.02546603 0.02698478
0.029833896 -0.056348596 0.12963246 -0.008311245 -0.13951619 0.03576897 -0.026167404 -0.056645203
0.13111612 -0.036998924 0.19754189 0.1342007 -0.023197364 -0.04138719 0.036869448 -0.005778383
0.11922985 0.053027634 0.014768987 -0.0025736126 0.132409 0.08494647 0.114939 0.051894877
0.019324636 0.039064683 -0.02708601 0.08973711 -0.040511176 -0.046997808 0.004955223 0.1993513
0.16379958 -0.040851735 0.10014267 0.00427012 0.036535107 -0.06461366 0.06621696 -0.09277598
0.040046528 -0.08521364 0.0067839897 -0.014119953 -0.07304501 0.09466478 -0.022529809 0.09911092
0.00756906 0.1464455 -0.040940274 0.09176692 0.1727738 0.0829548 0.03316581 -0.06333319
0.031570062 0.09328266 0.06161828 0.09791667 -0.03577621 -0.09555666 0.11564157 -0.044813905
0.13127382 -0.0041068746 0.024087714 -0.004187515 0.028587207 -0.036523115 0.16706236 0.091294736
00000000: 0612 0e3e 8af3 1d3e 27b2 293e d61c ef3c
00000010: 8620 423d 6c85 c83d e636 bc3d 12c0 153e
00000020: e1f2 873d 838b c93d 77c7 383e b83c 5eba
00000030: 2703 94bd b9e4 123d 934a 503e 77b2 f23c
00000040: 5500 72bd da66 10bd dabf 0cbd b121 343d
00000050: 23eb 26bd 9b74 8f3d 060e c93c c16f b63d
00000060: ef09 bc3c 3ba0 163e 5b00 d6bb 7e85 a73d
00000070: 6cb2 cd3c 0a48 0b3e a7dd e43d 0379 ae3d
00000080: 655d f5bc 9b89 3abd 9140 95bd 5612 be3c
00000090: f2d5 173e 6c12 453c c42d 4f3b 03f5 623d
000000a0: 976d 033e d38b d0bc 24b4 053d 7254 923d
000000b0: db97 5dbc 915e 0f3e 8034 d9bd c893 ad3d
000000c0: 00de 30bd 4597 273d 5400 fd3c 501d e03d
000000d0: ab9e f23d 39e2 26bd 2d1f 1b3e 8cf0 04bd
000000e0: bc6b b93d 3881 2b3d afb3 793d 953f 033e
000000f0: ae1d 573c 6a1c ac3c 3deb 233d 85b2 153e
00000100: eb59 fabd 2730 0c3d d646 69bd 6163 2abb
00000110: 9372 debd 6d6d 8b3c 545f b9bd 5b0d f83c
00000120: c4f7 91bc ebbf 8d3d 5a30 91bc 806f 963d
00000130: 3de9 96bb 6295 8a3d 0848 eabd 52de be3c
00000140: fcd3 2c3c 4dda a3bd 2585 a4bd c774 ebbd
00000150: bd2a e5bd 295b b5bd 8822 303d 2ca6 4a3d
00000160: 8aa6 86bd 0e68 5f3d 170b 0ebd 6d15 413d
00000170: 4327 1bbd 6cf4 7ebd 4eca b93d eae2 ebbd
00000180: f441 fcbd cb4b 0bbd fc9a ffbd 8d08 12be
00000190: c94a 07bc adf1 6b3d 7499 ba3d 714b 483b
000001a0: 81d4 a33d 4de6 3abd 7905 a43d 58e3 c6bc
000001b0: b843 b03d 8afb 5fbc 01ae 653c 722f b8ba
000001c0: a108 c83d 334b 93bd 8e5c 60bd 180f 1d3b
000001d0: 110e 9dbc 64e7 343d 5308 8b3d 28e2 163e
000001e0: 3bf5 5dbd dbf8 5cbc e4eb 733d f02a 2a3d
000001f0: a023 223b 11a6 eb3d 980b 9dbd 15ad 923d
00000200: 29ed 293d 0103 c5bd d9c7 b13c 0fe1 54bc
00000210: f183 0638 02d9 ae3b e040 ae3d 1338 b83d
00000220: ab5a e0bc 3446 0c3e 5af9 f3bd 8a02 89bd
00000230: 0da1 6e3c 15d0 8a3d eef3 a2bd f90f 993d
00000240: 47a1 4a3d 5cd2 0a3d 86d0 05bd 14db 063e
00000250: b092 80bd 3642 e8bd e1bf 54bd 3363 223d
00000260: 52db 5a3d 5b92 ebbd 64de d9bc 1e54 d5bd
00000270: c9ac c53d 2ce9 d7bd 3704 0dbe add6 21bd
00000280: 67ee 983d 20f2 4abd a027 68bd 30ab fa3d
00000290: b22b a13d 3195 85bd 347f dbbd dfd1 7c3d
000002a0: cbd4 a3bd 0b54 f03d c5c6 9dbc 46ff ebbd
000002b0: 1efe 9bbd f2db 88bc 3bc0 d9bd 5d1a fbbd
000002c0: b3f2 0c3d eab6 4c3c fee3 093e 477d ee3d
000002d0: a64a 9b3d 1b6e a93d 239e d03c 2f0f dd3c
000002e0: 3766 f43c c9cd 66bd 5fbe 043e e32b 08bc
000002f0: 55dd 0ebe 7c82 123d 065d d6bc cd04 68bd
00000300: 4e43 063e 2f8c 17bd 6c48 4a3e e96b 093e
00000310: 6608 bebc 9d85 29bd 6b04 173d 9758 bdbb
00000320: c82e f43d 8133 593d 9ff9 713c 0eaa 28bb
00000330: 3a96 073e 6af8 ad3d 2365 eb3d b98f 543d
00000340: b34e 9e3c 4a02 203d 7be3 ddbc 17c8 b73d
00000350: 0cef 25bd c680 40bd 6c5f a23b bf22 4c3e
00000360: 14bb 273e 2654 27bd 9a17 cd3d 5dec 8b3b
00000370: d6a5 153d 2b54 84bd c29c 873d 5501 bebd
00000380: d407 243d 7d84 aebd 3b4c de3b 6057 67bc
00000390: 9f98 95bd 9cdf c13d 6f90 b8bc abfa ca3d
000003a0: e105 f83b cff5 153e fdb0 27bd 4cf0 bb3d
000003b0: 9deb 303e 35e4 a93d dfd8 073d d5b4 81bd
000003c0: 9c4f 013d fb0a bf3d 7363 7c3d 8988 c83d
000003d0: 138a 12bd 36b3 c3bd 7dd5 ec3d c98e 37bd
000003e0: a56c 063e f692 86bb 9953 c53c 6c37 89bb
000003f0: b82f ea3c 4399 15bd 6512 2b3e bcf8 ba3d
