STD/checkpoints/original/VA_METRIC_state_epoch70.pth (torch, 684542 bytes, 24 tensors)

AFeatRNN.weight_ih_l0 f4 [256, 128]
000000 0c 59 11 3d c2 95 78 3d 43 7a 93 3d 6d ce d5 3c
       0.035485312 0.060689695 0.07201054 0.026099408
000010 a2 a4 9c bd c1 6c 20 3e 1b 1c 23 3e b1 4a cb 3d
       -0.07648589 0.15666486 0.1592869 0.09926356
000020 6d 7b a5 bd fb a4 9c bc 92 fa 92 bd 5e ef 66 bc
       -0.08080182 -0.019121638 -0.07176699 -0.0140951555
000030 1e 34 b2 bd b6 43 17 bd b3 82 bc 3d a4 c0 bd bd
       -0.08701347 -0.03692981 0.092046164 -0.09265259
000040 9f a7 ce 3d ca 7e f1 3d ed f4 09 bb 0c 4a 84 3d
       0.10090565 0.11791761 -0.0021050528 0.06459436
000050 48 01 80 bc 90 07 82 bc 4b 06 c5 3d de 8e da bd
       -0.015625611 -0.015872747 0.09620341 -0.10671781
000060 ec f9 0e 3e 6e 51 2b 3d bf e6 46 3c 1f 44 a3 bd
       0.13962525 0.041825704 0.012139975 -0.079719774
000070 f2 f4 c2 3d 79 b8 ae bd 02 8f 72 3b b3 d4 98 bd
       0.09519376 -0.08531279 0.0037011509 -0.07462444
000080 43 fe 65 3d 76 92 01 3e f1 5d fd 3d 52 5c 8a bd
       0.056150686 0.12653527 0.123714335 -0.0675589
000090 96 b5 ec 3c 86 a2 74 3d 18 c1 52 3d 24 31 a5 bd
       0.02889518 0.059725307 0.05145368 -0.080660135
0000a0 6d 73 b3 3c a6 5b e2 3c d2 00 03 be 71 d9 51 3e
       0.021905625 0.027631592 -0.12793282 0.20493104
0000b0 51 5a ba bc b3 3f 82 3c b5 e4 b1 3d f7 ee 68 3d
       -0.022748144 0.015899515 0.086862005 0.05686852
0000c0 b5 98 b2 3c 2d de 4f bd 4e 61 91 bd ce 46 08 3e
       0.021801332 -0.050748993 -0.070986375 0.1330826
0000d0 7b 49 c0 3c a6 9a 13 bd fd a4 ca bd cf 78 02 3e
       0.023472538 -0.036036156 -0.0989475 0.12741397
0000e0 2b d9 d9 bc 09 60 c8 3d a7 4f 8c bd af 4f 88 bd
       -0.026592812 0.09783942 -0.0685113 -0.066558234
0000f0 d5 4e 65 3d c1 b3 75 bc a0 6d ce bd d2 a3 e8 3d
       0.055983383 -0.01499647 -0.10079503 0.11359371
000100 68 4e ee 3d 02 51 19 3d de e1 23 3d 9a 09 e7 3a
       0.116360486 0.03743077 0.040010326 0.0017626763
000110 6e 62 0e 3e 6b 2f d3 3d 47 89 0d be b4 77 23 3e
       0.13904735 0.10311779 -0.13821898 0.15963632
000120 cd ca bb 3c 6d 19 88 3d 3c 9e bd bd 10 c0 b6 3d
       0.022923851 0.066454746 -0.092586964 0.08923352
000130 ee 7f c3 3d 83 cf d6 3d 4c 6a 54 bc af 73 34 bd
       0.09545885 0.104887985 -0.012964796 -0.044055637
000140 9e 45 a5 3c 2f 1e 84 3c 9d 0f 54 bd 97 1e 21 3c
       0.020174798 0.016127674 -0.051772702 0.009833953
000150 5b 63 64 3e aa 3c e4 bb a0 2f 25 3e 2e 2a c9 bc
       0.22303526 -0.0069652395 0.16131449 -0.024556246
000160 e3 7a 66 3d 51 04 10 3d 1a 6a 83 bd b7 a5 1b 3d
       0.056269538 0.035160366 -0.06416722 0.037999835
000170 85 88 0b bc d2 f7 a3 3d 4c d8 fc 3d e4 62 c9 bb
       -0.0085164355 0.08006252 0.12345943 -0.006145822
000180 ed 87 20 3d c2 0a 56 bd e5 ee da 3d e6 42 01 be
       0.03919213 -0.052256353 0.10690097 -0.12623176
000190 f6 72 73 3c 41 e9 88 3d 67 1a 60 3e 34 c5 2b 3d
       0.014858952 0.06685115 0.21885072 0.041936114
0001a0 1a d8 6b 3d 7a 4a b2 3d 1d b3 c2 bc 1d 69 f0 ba
       0.057579137 0.087056115 -0.023767048 -0.0018341873
0001b0 1c b7 ce 3d ca d9 0d bd b1 0e b2 3d 2d 7e bc 3c
       0.10093519 -0.034631528 0.086942084 0.023009384
0001c0 12 63 b3 bd 06 6c ba 3c fa 54 fc bd 35 c5 97 3d
       -0.087591305 0.022756588 -0.123208955 0.07410661
0001d0 b5 d9 a8 bd b4 cf eb 3d 6f 69 b6 bd 46 aa 61 bd
       -0.08244649 0.115142256 -0.089068286 -0.055094026
0001e0 b2 f0 05 bc f0 ed a7 3d ed 1c be 3b 9e 0f 49 3e
       -0.008175062 0.0819968 0.005801788 0.19634864
0001f0 92 53 05 be d6 aa 0b 3d cb 09 62 3b a7 2e 17 3e
       -0.13020161 0.03409847 0.00344907 0.1476389
000200 67 c8 ea 3c 62 1e 23 3d 1b 74 c6 bd 1f d4 2d be
       0.028660012 0.039823897 -0.09690114 -0.16975449
000210 87 76 8b 3d b7 ec 05 bc f8 c4 2c 3e d5 db cf 3d
       0.06809717 -0.008174113 0.16872013 0.101493515
000220 89 64 07 bd 63 a5 92 bc 9c 1e bf 3d 5f 27 d7 bd
       -0.033054862 -0.017901128 0.0933201 -0.10505556
000230 d5 91 af 3c f0 13 05 3d 78 3d 82 3d 08 be ca 3d
       0.021431843 0.032489717 0.063593805 0.09899527
000240 a0 25 5e 3d 74 b0 e1 bc f2 1b 5f bd 15 23 e8 bd
       0.0542351 -0.02754996 -0.05447001 -0.11334816
000250 64 2a 05 3e 9a a9 30 3d 70 66 64 be ed bb 0a be
       0.13004452 0.043130495 -0.22304702 -0.1354825
000260 ae 49 66 bd 05 c4 bc 3b cd 2b 91 3d 04 f3 76 3d
       -0.05622261 0.005760672 0.070884325 0.06029035
000270 5e 95 36 3e 8a c4 fa 3d 38 14 d9 bd 56 39 ba 3d
       0.17830417 0.12244518 -0.105995595 0.09092967
000280 ef 2e 72 bd 4a 6a 34 3d 41 28 74 bd 1d 85 61 bc
       -0.05912679 0.044046678 -0.0596087 -0.013764647
000290 60 86 a1 bd 9c 1d a3 bd a7 c2 e7 3d 99 3e 61 bd
       -0.07886958 -0.07964632 0.11316424 -0.05499134
0002a0 65 ca 5f 3e c1 27 85 3d 6e 38 b8 bd f9 47 4f 3d
       0.21854551 0.06501723 -0.08995138 0.050605748
0002b0 bc 8d 6b 3e d6 67 c0 bc 30 ea 46 bd 33 d2 d2 3d
       0.23003286 -0.023487013 -0.048563182 0.102939986
0002c0 a5 33 08 3e 69 9e cd bc 96 72 c3 3d c6 c0 2e be
       0.13300951 -0.02509995 0.0954334 -0.17065725
0002d0 1a 5b cd 3d f2 a6 f0 3d b2 49 a9 bc b2 c7 ae 3d
       0.10027142 0.11750592 -0.020665023 0.085341826
0002e0 98 09 8a 3d d1 db a8 bd 04 a2 c0 3c ac 09 8a bc
       0.06740111 -0.08245052 0.023514755 -0.016850315
0002f0 dc 46 b2 bd 91 f2 d3 3d 9d cd da 3d 75 66 c4 bc
       -0.087049216 0.10349 0.10683749 -0.023974637
000300 21 e2 f8 bd 67 e0 af 3d 2f ee 83 3d 24 ad 91 bb
       -0.12152506 0.08587723 0.06441914 -0.004445689
000310 93 bb d2 3c f2 6f 8f bc 21 f9 3d 3e 72 9b db bd
       0.025724208 -0.017509434 0.18552066 -0.10723008
000320 5f 56 43 bd 89 cd 5d 3c c8 56 48 bd bb 88 dd 3d
       -0.04768979 0.013537773 -0.048910886 0.10817095
000330 69 e0 70 3d c2 71 89 3d fc 07 04 3e 88 e6 3a 3d
       0.058807764 0.06711151 0.12893671 0.045630008
000340 f5 de fc 3d 86 e1 e5 3d ec 30 de bb 77 27 0e 3e
       0.12347213 0.11224656 -0.0067807343 0.13882242
000350 35 ac fd bd 04 69 53 bd d8 c4 8a 3d b6 97 ee bd
       -0.123863615 -0.051613823 0.06775826 -0.1165003
000360 34 73 b6 3d 19 1d a3 3d 54 db 3d 3e 7b 58 17 bd
       0.08908692 0.07964534 0.18540698 -0.036949616
000370 58 82 06 be 38 4b 96 3c e2 45 25 3e 16 2b 93 3d
       -0.1313566 0.018346414 0.1613994 0.07185952
000380 ea 81 4b 3e 0b 42 66 3e c1 71 a9 bd 04 31 19 3c
       0.19873777 0.22486131 -0.0827365 0.009350065
000390 57 71 2a bc 48 37 5d bd 6e ce 20 be bd a7 c4 3d
       -0.010402999 -0.0540078 -0.15703747 0.09602306
0003a0 27 7c 7c be b3 bb 9d 3c 05 5d 6d bc 42 46 3d 3c
       -0.24656735 0.019254541 -0.01448751 0.011552395
0003b0 6b 7e 95 3c f8 e9 eb 3d 7b c8 14 bc f6 2f 00 3e
       0.018248757 0.115192354 -0.009081001 0.12518296
0003c0 00 d5 34 be c3 06 fc bd 44 45 85 3c 1c 35 11 be
       -0.17659378 -0.12305977 0.01626838 -0.14180416
0003d0 44 a2 d8 bb b4 1a f2 bd 02 e5 f5 bd 5b 49 ff bd
       -0.0066111404 -0.118214995 -0.120065704 -0.12465163
0003e0 c5 81 b4 3d 1b 85 81 bd bb 9e 08 3e 27 d1 c1 3d
       0.08813814 -0.06324216 0.13341801 0.09463721
0003f0 1c d5 b8 bd e6 3f 5b be bc b1 b4 bc ae da d1 3d
       -0.090250224 -0.21411094 -0.022057407 0.10246788

AFeatRNN.weight_hh_l0 f4 [256, 64]
000000 93 e4 09 bd 5e c8 0b 3d 9d 14 0d bd ad b3 51 bd
       -0.03366525 0.034126632 -0.034443486 -0.051196743
000010 f0 b2 16 3d 26 e3 94 bc 6c 22 bc bd 5d 94 da 3c
       0.03679174 -0.018174719 -0.09186253 0.026682073
000020 0a 1f 95 3d a6 f4 05 3d 93 1d 0b 3e 38 21 32 3e
       0.07281311 0.032704018 0.135855 0.17395484
000030 0c 4f cb bc 21 84 82 3d 95 00 9a bd 60 35 3b bd
       -0.024817966 0.06372858 -0.07519642 -0.0457052
000040 23 9c eb bc 78 17 ce bd 99 b1 17 be cf 86 4d 3e
       -0.028760975 -0.1006307 -0.14813842 0.20070957
000050 0f fe 45 bc 83 35 a1 bd b8 8a 24 be 4f 27 d8 3c
       -0.012084498 -0.07871535 -0.16068542 0.026385931
000060 f7 04 98 bd 83 40 2d 3c 4a 4e 8f 3d 75 ba 15 3c
       -0.07422822 0.010574463 0.06997354 0.009138693
000070 f2 66 35 bd 7c 20 b6 3d bc 47 6e 3d a5 88 73 bc
       -0.04428763 0.08892915 0.05817388 -0.014864122
000080 1e 1e c9 3d 6c 97 36 3d 8e 1f 58 bd 87 21 8d bd
       0.098201975 0.044578 -0.052764468 -0.068911605
000090 d4 e9 a2 bd 98 40 3a 3e 09 de dc bd e9 11 16 3e
       -0.079547554 0.18188703 -0.10784537 0.1465527
0000a0 0a 35 19 3d e1 b8 1b 3d a0 0c c1 3d 38 75 7e bd
       0.037404098 0.03801811 0.09426236 -0.062123507
0000b0 5e 55 ea bc cb cf b0 3c ee 66 80 bd 39 66 de 3d
       -0.02860516 0.021583458 -0.06269632 0.10859341
0000c0 ab a2 b5 bd fb 65 04 be 8e 45 94 3d 66 de ea 3d
       -0.08868917 -0.12929527 0.07239829 0.114682004
0000d0 05 1d 3c 3d 1c b9 94 3d 1f 1d eb bb c1 ab b9 3d
       0.045926113 0.07261869 -0.0071751024 0.090659626
0000e0 3b 49 9f bb 67 f4 d1 bd a4 08 95 b9 0a f6 de bd
       -0.0048610247 -0.10251694 -0.00028425932 -0.10886772
0000f0 3a 55 0a bd a4 98 27 bd 46 f4 9f bd c0 5f 5b 3d
       -0.033772685 -0.040917054 -0.07810263 0.05355811
000100 71 5e 9b 3d 55 0b 65 bd 14 93 d8 bd 50 6e 9b bd
       0.07586373 -0.05591901 -0.10574928 -0.075894
000110 13 2b 25 3e d4 fc 22 3c 37 af 9d 3d cb 9e 76 bc
       0.16129713 0.009947974 0.07699435 -0.015052508
000120 05 d2 bb 3d 67 d3 a9 bd 0c 32 bd bd 8e 8f 2a bd
       0.091709174 -0.08292275 -0.09238061 -0.04164081
000130 b6 3c 2f be 69 c2 f8 bd 8d 88 2e 3d be a5 66 bd
       -0.17113003 -0.12146456 0.042610694 -0.056310408
000140 b3 a1 43 be ac ba 62 3d 93 0f 96 bd 8e d1 ff bd
       -0.19104652 0.055353805 -0.07327189 -0.12491141
000150 a0 b5 cf bc 4a 8b a9 3c a0 4a 00 bd 5b 3c 00 be
       -0.02535516 0.020696301 -0.031321168 -0.12523024
000160 7c 20 be bd c2 a2 46 3d e9 e5 82 3c e2 e9 dc 3d
       -0.0928354 0.04849506 0.01597877 0.10786797
000170 f0 97 b0 bc 3b 36 14 3d 37 5d 95 bd 0d d4 df 3d
       -0.021556824 0.03618453 -0.0729317 0.10929117
000180 89 08 56 3d d7 89 1d bd 15 0b 2d be 2d 22 97 bd
       0.052254234 -0.038461532 -0.16898759 -0.073795654
000190 b8 31 4a bd 7b 1c a8 bd c5 35 0a 39 14 92 1d bd
       -0.04936382 -0.08208557 0.00013180736 -0.03846939
0001a0 5f 94 5f 3d 55 ee 31 3e 43 f4 cb 3c 02 79 c7 bd
       0.054584857 0.17376073 0.024896747 -0.09739877
0001b0 84 a2 af 3c d4 c2 8b bc 11 21 1a 3c 3b 0a 84 bd
       0.021439798 -0.017060675 0.009407298 -0.06447264
0001c0 4e ba 18 be cd 6e 95 3c da 5a d9 bd 49 d3 37 bd
       -0.1491482 0.01824131 -0.10613032 -0.04487923
0001d0 fc fb 87 bd c1 83 03 3c 0b 24 a9 bd 89 94 e1 3d
       -0.06639859 0.008027018 -0.08258828 0.11014659
0001e0 fc d4 1e 3e c7 26 3c bd 0d 45 3e 3d 8a 17 1c be
       0.15510935 -0.04593542 0.04645257 -0.15243354
0001f0 93 44 18 be 6f 1c 86 bd 13 28 41 bd 6b 68 88 3d
       -0.14869909 -0.06548392 -0.04715736 0.06660541
000200 4c 8a 7f 3c e4 fb 51 bd d5 8f f8 3d 31 43 d3 3c
       0.015596937 -0.051265612 0.12136809 0.025788875
000210 da 84 13 bd 90 7d 6d 3d 89 eb 1c bd a7 57 65 bd
       -0.03601537 0.057981074 -0.03831056 -0.055991795
000220 b1 71 06 be e6 d4 73 bd 51 86 26 bd fc 37 8b bd
       -0.13129307 -0.059529208 -0.040655438 -0.067977875
000230 fc 06 72 3c 93 ac d8 3d 89 ab a1 3c dd 2a 6c 3d
       0.014772173 0.10579791 0.019735115 0.057658065
000240 48 d7 ff bc fd 98 45 3d f1 f4 0a 3d 09 2a a2 3d
       -0.031230584 0.048241604 0.033925 0.07918174
000250 80 23 0e 3e 1e a1 e8 bb 2b 75 e5 bd c1 00 66 3d
       0.1388073 -0.007099285 -0.11203989 0.056153063
000260 a0 c5 6a bd e4 1c 04 3c dd 1a 24 3d ef 0d 4b bd
       -0.057317376 0.008063529 0.04006468 -0.049573835
000270 38 24 87 3d c0 99 5b 3d 9b f7 dd 3b a7 81 11 3e
       0.06598705 0.053613424 0.0067739016 0.14209615
000280 fe 61 a1 3d b8 0f 5a bd 33 5b 0c 3d 45 5c 6e 3d
       0.07880019 -0.053237647 0.03426666 0.058193464
000290 55 d7 ee bd 92 e8 15 be 5f 72 cd 3d 11 92 e8 3b
       -0.11662165 -0.146395 0.1003158 0.0070974906
0002a0 ec 08 a9 bd 9e c0 0c 3e b4 a5 92 bd a1 cb 86 3b
       -0.08253655 0.13745353 -0.071605116 0.00411363
0002b0 29 b5 d2 bd 49 8f 96 bd 55 18 41 bd c5 e9 cb bd
       -0.1028846 -0.07351548 -0.047142345 -0.099566974
0002c0 a2 7e 08 3e 8e 48 b9 3d 6c de 6d bd 36 6b 9b 3b
       0.13329557 0.09047042 -0.058073446 0.004743005
0002d0 0d 92 63 3d 50 95 fb bc 03 87 cb bd bb 8e 5b 3c
       0.055559207 -0.030710846 -0.09937861 0.013400729
0002e0 64 72 1c bc 65 99 e6 3c d6 7d 17 3e a0 d2 3c 3c
       -0.009548757 0.028149316 0.14794096 0.011524826
0002f0 e6 2a c0 bc ca 31 87 3d 2d 17 79 bc 94 10 59 bd
       -0.023457956 0.066012934 -0.015203279 -0.052994326
000300 3d 68 98 bd 65 ac 0c be 1f a0 05 3d 7a 6d 69 3d
       -0.07441757 -0.13737638 0.032623406 0.05698917
000310 16 9a 89 bd c3 4a fd bb 9b 32 71 bc 12 a2 19 3d
       -0.06718843 -0.0077298596 -0.014721538 0.037508078
000320 7b 1e 52 bd e3 fa f8 3d 7f 1e f3 bc 4e c5 63 be
       -0.0512986 0.12157228 -0.029677628 -0.22243235
000330 94 ab 00 3d 29 d1 53 3e a0 bd 9c 3c f3 76 d0 3c
       0.03141363 0.20685257 0.019133389 0.025447344
000340 cf 76 78 bc 2e 7d 4b bd db f1 6c 3d 00 66 f9 3d
       -0.015165045 -0.049679928 0.05784784 0.12177658
000350 87 e3 51 3d 28 62 24 3d 06 a4 04 be 0f 4e 60 3c
       0.051242378 0.04013267 -0.12953195 0.013690486
000360 84 c6 02 3e 9a 01 9f bb c8 47 09 be 52 09 5a bd
       0.1277104 -0.004852486 -0.13406289 -0.053231545
000370 e2 41 f3 3d ac 01 d3 bd 60 c6 9a bc 87 67 4f 3d
       0.118778005 -0.10303053 -0.01889342 0.05063584
000380 50 e8 06 3e 59 cb ae 3b 23 c8 18 bd f8 d7 e0 b9
       0.13174558 0.0053342995 -0.03730024 -0.0004288552
000390 65 3c 45 3d 3e d1 a3 3c 33 f6 06 be 7c c6 48 3e
       0.0481533 0.019997235 -0.13179855 0.19606966
0003a0 20 da d1 3d 39 aa a8 3b b4 1f 0f bd c3 ed b8 3d
       0.10246682 0.0051472452 -0.034942344 0.090297244
0003b0 35 b6 13 bd 86 7e e8 3d 07 56 d1 3c ab 0e 30 be
       -0.036062438 0.113522574 0.025553716 -0.17193095
0003c0 29 50 e0 bd 50 da e5 bd 4c c2 14 bd 3a f4 61 bd
       -0.10952789 -0.112232804 -0.03631811 -0.055164553
0003d0 80 00 cf 3d 4e f9 d3 3d 24 df aa bd e7 0f 0b bb
       0.10107517 0.103502855 -0.08343342 -0.0021219195
0003e0 a8 16 45 3e 2c e2 21 be 7e b8 e5 3c 8f 17 c2 bd
       0.19246924 -0.15808934 0.028042074 -0.0947715
0003f0 50 df 81 3e a0 ad f0 3c 2e a3 67 3d 6c 3e f8 3c
       0.25365686 0.029379666 0.056552105 0.030303203

AFeatRNN.bias_ih_l0 f4 [256]
000000 b6 92 ac ba 23 4d b3 bd bb 92 32 3d 17 b2 7c bd
       -0.0013166282 -0.08754947 0.043596964 -0.061693277
000010 24 b2 dd bd fb df 9a 3d 5b cf f6 3d 38 bf bc 3d
       -0.10824993 0.07562252 0.12051269 0.092161596
000020 eb 1a d7 3c 26 13 fd 3d 64 5c 61 bd 5d 3a ba 3c
       0.026257953 0.12357168 -0.05501975 0.022732908
000030 ca dc 13 39 43 4f 5d 3c a2 30 cc bd 0a 15 25 3d
       0.00014101263 0.013507667 -0.099702135 0.040303268
000040 8e af 52 bd 89 7a 81 3d 09 b9 c6 3d 02 32 85 bd
       -0.051436953 0.063222 0.097032614 -0.06503679
000050 b5 16 9f bd dc 90 77 3d 46 88 1b bd b7 64 8a 3d
       -0.07768003 0.060440883 -0.037971757 0.06757491
000060 80 d2 cb 3d 7e cc ae 3d 2a 61 09 be d5 a0 a6 bd
       0.09952259 0.085350975 -0.13415971 -0.08136145
000070 6f f6 8c 3c 54 39 c4 bd 64 df e4 3d 38 8f 23 bc
       0.017207352 -0.09581247 0.11175421 -0.0099828765
000080 99 df bc 3d f2 20 d5 bd 9a 20 e8 bd 53 9c 01 3e
       0.09222335 -0.104066744 -0.11334343 0.12657289
000090 0a 68 3a bd 48 6e 25 bd 9b 2c 85 3d 06 77 0b 3d
       -0.045509376 -0.040388376 0.065026484 0.034049056
0000a0 c3 87 8e 3c 4a cd 0c 3c 8f 80 e1 bd 64 75 fb bd
       0.01739872 0.008593867 -0.11010849 -0.1227825
0000b0 b1 18 d6 3d 95 32 19 3e 59 db cf 3d ae ae d3 3d
       0.10453928 0.14960702 0.10149259 0.10336052
0000c0 b7 11 e3 3d 35 c9 96 bd 52 8f 9e 3d 7c d9 92 bd
       0.11087363 -0.07362596 0.0774218 -0.07170388
0000d0 26 c5 c1 bc 8e 90 d7 bd ae 18 54 bd 37 fd ab bd
       -0.023653578 -0.105256185 -0.05178135 -0.08397906
0000e0 70 6b 43 3d 7c b9 25 3e cc b4 c6 3d 23 c7 0c 3e
       0.047709882 0.16184038 0.09702453 0.1374784
0000f0 81 56 df 3d ee 24 22 3d 53 87 92 bd 78 a4 a9 bd
       0.10905171 0.039586 -0.07154717 -0.08283323
000100 d1 98 18 3c 21 aa 1f bd f0 5a d7 bd 7f e9 16 bd
       0.009313778 -0.038980607 -0.10515392 -0.036843773
000110 fa e1 b8 3d 01 00 02 be b8 c6 e9 3b 84 2b d8 bd
       0.090274766 -0.12695314 0.007134285 -0.10555175
000120 31 14 44 3d 81 a0 11 3e a4 1f 18 bd b1 82 cd bd
       0.04787082 0.14221384 -0.03713955 -0.10034693
000130 0e fa fe bc d3 cb f0 bd 3c 06 29 bd 57 50 e7 bc
       -0.031125095 -0.117576264 -0.04126571 -0.028236551
000140 e4 92 d8 3a 7b c8 a9 3c 71 df dd bd 11 c4 86 3d
       0.0016523269 0.02072548 -0.10833634 0.065803654
000150 9e 8a d3 3d 95 5a d7 bd e9 61 00 3e 12 af 2a 3d
       0.103291735 -0.10515324 0.1253735 0.041670866
000160 69 d6 ff 3c 75 53 7b 3c e4 d1 91 bc 78 fa c9 bd
       0.031230168 0.015339722 -0.017800279 -0.09862226
000170 ac 2e 1a bd 67 ce c4 3d 84 2e b5 bd 87 36 30 3d
       -0.037642166 0.096096806 -0.08846763 0.04302075
000180 bf 97 fc bc 9f a5 c2 3d 24 29 c4 bc d0 df b6 3d
       -0.030834077 0.09504246 -0.023945399 0.089294076
000190 63 53 01 3d 3a 39 dd bd c9 07 be bd 94 0f 08 3c
       0.031573664 -0.10801931 -0.09278829 0.008304495
0001a0 3d 8a d5 bc d3 f0 d8 3d b2 12 32 bd 01 57 29 bc
       -0.026066894 0.105928086 -0.04347486 -0.010335685
0001b0 7c bd 0e be 67 ce a6 3d db a0 a0 3d 49 c7 2b 3a
       -0.1393947 0.08144837 0.07843181 0.0006552828
0001c0 a8 73 86 bd c4 71 42 3d 0d 35 e0 3c bc 94 83 bd
       -0.065650284 0.047471777 0.027369047 -0.06424853
0001d0 1d 9f c1 bd f0 69 8a 3d 9a 19 91 bd 03 57 32 3c
       -0.094541766 0.06758487 -0.07084961 0.010885003
0001e0 7d 28 03 bd df 80 7e 3d 0d 89 85 3c 59 7f 38 bc
       -0.032021035 0.06213462 0.016300702 -0.011260831
0001f0 80 1c df bd b3 fd ae bc a0 0f 2a 3d bd b7 b2 3d
       -0.10894108 -0.021361208 0.041518807 0.087264515
000200 fb 40 6a bd e2 c7 17 3d e1 c6 3e bd 72 0e d2 bc
       -0.057190876 0.037055857 -0.046576384 -0.025641654
000210 78 89 31 3d cd 5c 01 3e e6 49 fb 3d 3e 56 0a bd
       0.04334399 0.12633057 0.122699544 -0.033773653
000220 0b f9 07 be 84 25 31 3b b5 1a ad bd f0 b2 a1 3d
       -0.13278596 0.0027030418 -0.084523596 0.07895458
000230 1a 0a f6 3d db e0 1f 3d d7 2f de bd 57 8c d8 bd
       0.120136455 0.0390328 -0.108489685 -0.10573643
000240 38 9d 63 bd 75 02 80 3d 9c f7 ef bd 87 c3 d9 bb
       -0.055569857 0.06250469 -0.117171496 -0.006645623
000250 cc 51 77 bc 30 21 75 3d 4f 1e 9d 3d 56 42 46 3c
       -0.0150951855 0.059846103 0.076717965 0.012100777
000260 39 dc c3 3b d4 31 fc bc d7 2e 9b 3d 80 68 23 3d
       0.0059771803 -0.030785479 0.07577293 0.03989458
000270 74 23 18 bd c5 e8 ad 3d 9a 54 4a bd a9 01 5e bd
       -0.037143186 0.08491663 -0.04939709 -0.054200802
000280 af 06 33 3d ba 48 1c bb 97 a4 d9 3d ca a1 fb 3c
       0.043707546 -0.002384706 0.10627096 0.030716795
000290 e8 24 03 bd 53 84 62 3d ca 9f 8b 3d e2 bd e7 bd
       -0.03201762 0.055301975 0.06817587 -0.11315514
0002a0 7e a3 97 bd e2 67 89 bc fd ee cf bc 54 eb 67 3c
       -0.074042305 -0.016773168 -0.025382513 0.014155228
0002b0 c4 d3 a4 bc 38 0f b6 3d d3 b5 d9 bc 5f b3 a4 bc
       -0.020120509 0.088896215 -0.026575958 -0.020105062
0002c0 8d 62 b1 3d da b5 ea bc 1e c0 ba bd 6c 87 70 3d
       0.08661375 -0.028651167 -0.09118675 0.0587229
0002d0 77 87 f5 3d 64 78 14 bc ca ae b2 bd e0 56 e9 3b
       0.119887285 -0.0090619065 -0.087247446 0.007120952
0002e0 8d 96 45 3d 88 58 92 3d 8a 65 46 3d 34 64 1e bd
       0.04823928 0.07145792 0.04843668 -0.03866978
0002f0 6b 29 be bd f6 d6 e1 bd 8c 4a e0 3d 10 36 01 be
       -0.092852436 -0.11027329 0.10951719 -0.1261828
000300 5f f2 19 3d e2 1a 58 3d 2c e5 f1 bd 44 15 89 bc
       0.03758466 0.052760012 -0.11811289 -0.016733773
000310 0d a5 3b bc 50 5f 23 bd 23 c1 9e bd 67 cd 75 3d
       -0.011452925 -0.03988582 -0.07751682 0.06001034
000320 07 0d 80 bd 00 89 0e be e1 e3 bf bc 01 9b de 3c
       -0.06252485 -0.13919449 -0.02342409 0.027173521
000330 96 74 fa 3d 2c 73 8f bd 74 41 a9 bd 71 a6 a5 bd
       0.12229268 -0.07004389 -0.08264437 -0.08088387
000340 4e 9c b7 3d 2d f5 be 3d ce 59 a9 bd 95 86 0d 3d
       0.0896536 0.09324107 -0.08269082 0.034552176
000350 d4 c1 f8 3d e0 1b 9f 3d 1a 57 63 bd b3 b2 10 3d
       0.12146345 0.077689886 -0.05550299 0.03532667
000360 e2 29 e4 3d f2 71 a2 3c 2f 24 8c bd 7a df 7c 3c
       0.11140801 0.019829724 -0.06842839 0.01543414
000370 d7 2a a0 bd f0 a9 9a 3d 3a 3c 16 3e 01 50 16 bc
       -0.07820671 0.07551944 0.14671412 -0.009174348
000380 38 76 b6 bd 4a a4 47 3d 38 65 61 3c 7e 66 0b 3e
       -0.08909267 0.048740663 0.013757043 0.13613316
000390 80 3f fe 3b 02 a3 78 3d 97 39 d3 3d 2b f8 a4 bd
       0.0077590346 0.06070233 0.10313719 -0.08055147
0003a0 c4 e6 2b bb d9 cd 9d bd 72 79 fe 3d 95 f4 e7 bd
       -0.0026230076 -0.07705278 0.124255076 -0.11325947
0003b0 28 b8 18 3c 15 0a 0a bd db ea a4 3d dc a8 ba bd
       0.00932125 -0.03370102 0.080526076 -0.091142386
0003c0 e3 74 ba 3d 3c 89 93 3d 9f d4 e0 3d 46 7d ca 3b
       0.091043256 0.0720391 0.10978054 0.0061794845
0003d0 75 32 97 bd 34 34 c7 3d d6 30 a6 3b c5 f2 df bb
       -0.07382671 0.09726754 0.0050717397 -0.0068343603
0003e0 e4 94 77 bd 5b 75 e9 bc a0 22 c6 3d 7e f4 99 bc
       -0.060444728 -0.028498342 0.09674573 -0.01879334
0003f0 53 90 41 bd 1c 2c c1 bd b7 02 61 bc 59 8f cb bd
       -0.04725678 -0.09432241 -0.013733557 -0.09939451

AFeatRNN.bias_hh_l0 f4 [256]
000000 22 18 d9 3d 98 93 61 bd 7d 5c e4 3b 5c 9b ba 3d
       0.10600306 -0.055072397 0.0069690333 0.09111664
000010 da 5c 71 bd cd a9 68 bd 10 2a 6a 39 0c 46 72 bd
       -0.05892644 -0.05680256 0.00022331649 -0.059148833
000020 6d 95 20 bd 15 38 d7 3c 38 07 a1 3d 6d 20 19 3d
       -0.039205004 0.02627186 0.07862705 0.03738444
000030 ee 5c 00 bd 1c 8c 74 bb 97 81 12 3d 92 f6 e4 bc
       -0.031338625 -0.0037314957 0.035768118 -0.027949605
000040 88 88 34 bd ff 24 d2 3d 66 26 4f bd 55 c9 55 bc
       -0.04407552 0.10260963 -0.05057373 -0.01304849
000050 25 0b e2 bd 59 56 8e bd 08 dc 6a bd 62 44 23 3d
       -0.11037282 -0.06950063 -0.057338744 0.039860137
000060 1b 3d 07 3e 24 f8 3e 3d ae 17 f6 bd b7 e8 4b 3d
       0.13206904 0.046623364 -0.12016235 0.04978248
000070 b8 2c 55 ba 9f 5c 08 3d 40 53 4b bc c0 c8 8f bd
       -0.0008131969 0.033291455 -0.012409985 -0.07020712
000080 50 c5 ea 3d e2 58 af bd 55 b7 c1 3d 18 1c 63 bd
       0.114634156 -0.08561875 0.09458796 -0.055446714
000090 e3 1d 6b bd c2 5a ae bc a0 de dd ba 58 05 60 3d
       -0.05740155 -0.021283511 -0.0016927309 0.054692596
0000a0 49 f5 f1 bd 05 99 87 bd 72 5f f8 3b 50 6a ec bc
       -0.118143626 -0.06620983 0.0075797373 -0.028859288
0000b0 4d 8d 8d 3d ac 4a d8 3d fe db cf bc f9 25 a1 3d
       0.069117166 0.105611175 -0.025373455 0.07868571
0000c0 ad 23 bd bc 9b 67 04 3e 06 f2 8e 3d f1 bd c6 3d
       -0.0230883 0.12930147 0.06979756 0.09704197
0000d0 31 0c 71 3c 08 e7 a4 3d 50 80 57 bc a9 b8 b3 3d
       0.014712379 0.08051878 -0.013153151 0.087754555
0000e0 3f 4b 4a bc 15 d6 d1 3c a1 23 9f bd 53 86 7d bd
       -0.012347042 0.025614778 -0.077704675 -0.06189568
0000f0 d1 0e 20 3d 90 a6 c5 3d a1 70 9c bd 36 91 76 3b
       0.03907663 0.0965091 -0.0763867 0.0037623174
000100 15 ca bd bc e3 f0 58 bd 1a 5b df bd 92 ab 27 bd
       -0.02316765 -0.052964102 -0.10906048 -0.040935107
000110 62 de 4a 3d e7 99 91 3d ae 9c c9 bd 34 73 86 bd
       0.049528487 0.07109433 -0.098443374 -0.06564942
000120 78 0f 9c 3c 39 9a 46 3d 2b 43 9a bd 0d ca 93 bd
       0.019050345 0.048486922 -0.075323425 -0.072162725
000130 c6 48 6a bd c9 0c 93 bd 4b af d9 3c 58 aa d7 bd
       -0.05719831 -0.07180173 0.026572844 -0.10530537
000140 58 6d 12 bd 5b 72 31 bd 1f 11 7a bd 9d fc a9 3c
       -0.03574881 -0.04332195 -0.061051484 0.020750338
000150 03 e3 0f 3e d9 34 7b bc dd 8c cd bd 41 32 16 be
       0.14051442 -0.015332424 -0.10036633 -0.14667608
000160 63 b8 f8 bd c9 81 fb 3c 45 cd c2 3c 9f 6e 89 bd
       -0.12144544 0.030701535 0.02377952 -0.067105524
000170 f2 44 11 be 1d f4 66 3d f3 b3 d6 3c d9 12 8e bd
       -0.14186457 0.05638515 0.026208853 -0.06937189
000180 81 4d 9d 3c fb a9 c6 3d f6 6d ef 3d 0b 8f 1d 3d
       0.019201996 0.0970039 0.11690895 0.038466495
000190 22 42 aa 3d 6e 24 ec 3d f6 0b e2 3c 8f 02 0e 3e
       0.08313395 0.11530386 0.027593594 0.13868164
0001a0 1e d7 54 bd fc e7 c0 bd d0 04 63 3d c0 95 75 bd
       -0.051962964 -0.094192475 0.05542451 -0.059957266
0001b0 43 ea 2e bd 09 4e e4 b8 17 99 4a bc 9e fe 03 be
       -0.042703878 -0.000108864224 -0.012365601 -0.12890097
0001c0 81 01 2e bc d7 53 c1 3d 2c 3a 32 bc 26 11 8e 3d
       -0.010620476 0.09439819 -0.010878127 0.069368646
0001d0 a3 2f a6 3d 55 8e 9a bd 7f 34 ea bd b3 cb 60 3d
       0.08114555 -0.07546679 -0.11435794 0.054881763
0001e0 9e 40 20 bd 5d f2 ac bd 22 58 a1 bb 50 ad 5a bd
       -0.039124124 -0.084446646 -0.0049238363 -0.05338794
0001f0 f4 2f 4f 3d 00 db 90 bd a2 32 6e bd e0 5c b4 bc
       0.05058284 -0.07073021 -0.058153756 -0.022016943
000200 67 15 5e bd c4 82 c0 bd f7 07 c2 3d 0d dd b6 bd
       -0.05421963 -0.093999416 0.094741754 -0.08928881
000210 bf 1f 5e bd b8 44 f7 3d 6a 75 d3 3d 6b d2 56 bb
       -0.054229494 0.12073654 0.10325129 -0.0032779227
000220 e4 84 f9 bd 66 a7 a9 bd 3f 8a 8a bd 83 a0 1a 3d
       -0.1218355 -0.08283882 -0.067646496 0.037750732
000230 bb 88 cb bc 44 de 09 bd bb 7b 8e bd 1f c2 d1 bd
       -0.024845472 -0.033659235 -0.069571935 -0.10242104
000240 cf b0 a0 bd 11 fd a0 3d d4 dc 20 bd 08 1c 9f bd
       -0.078462236 0.078607686 -0.039273098 -0.077690184
000250 84 04 b6 bd ca c8 65 3d bf f5 38 bd 9c 8b bf bd
       -0.0888758 0.05609969 -0.045156237 -0.093528
000260 c4 1d 93 3d b3 ae aa 3d 8b 05 ba bd d1 d2 b4 3d
       0.07183412 0.083341025 -0.090830885 0.088292725
000270 f8 f9 23 bd 05 6b 87 3d 27 02 76 3d 14 99 aa 3d
       -0.04003331 0.06612209 0.060060646 0.083299786
000280 64 98 18 bd b9 41 10 3d f3 22 e2 3d 32 c5 d3 bd
       -0.037254706 0.035218928 0.11041822 -0.103403464
000290 35 4d e4 3d cf 7d d0 bd e3 e7 6b bc b6 24 5d 3d
       0.111475386 -0.10180246 -0.014398548 0.05399009
0002a0 a4 f2 c8 bc 69 14 99 bd db 22 3d bd 82 ca bc 3d
       -0.024529763 -0.07474596 -0.04617582 0.09218313
0002b0 3c da b7 bc 33 c1 74 3d dd 1f e1 bd fe 8e 85 bd
       -0.02244293 0.05975456 -0.109924056 -0.06521414
0002c0 27 09 ac bd 15 f5 62 bd e3 42 81 3d 99 49 c6 bd
       -0.08400183 -0.05540951 0.06311586 -0.096820064
0002d0 23 fc ce bd 15 dd 95 bd 46 16 db 3d 6c 79 32 3d
       -0.10106685 -0.07317559 0.10697608 0.04357283
0002e0 5b 1a 9d bd c2 e0 86 bc 35 91 b1 bd 91 89 1d 3d
       -0.076710425 -0.016464595 -0.08670274 0.03846127
0002f0 1b c3 2d bc d5 de 62 3c cf d2 8d bd 58 8a f7 bd
       -0.010605599 0.013847073 -0.06924974 -0.12086934
000300 d7 d9 ce 3b 0b 0f a1 3c 7d 1b 05 3c f8 26 7e bd
       0.0063125896 0.019660493 0.0081242295 -0.062048882
000310 59 a7 95 bd 14 0b de bd 47 cc d2 bd 03 e0 f3 bb
       -0.0730731 -0.10841957 -0.10292869 -0.0074424758
000320 f4 1d 6e 3d b4 32 84 3d 40 49 d9 3d b4 96 95 3d
       0.058134034 0.06454983 0.106096745 0.07304135
000330 39 6c 51 3d 7a fa 37 3d fa c4 b1 3d 9a 5b 15 3d
       0.0511286 0.044916607 0.086801484 0.03646431
000340 3e a5 c1 3d 24 8f fb bc 8a 7c c0 bd 49 45 8a bd
       0.094553456 -0.030707903 -0.09398754 -0.06751496
000350 44 ac 29 3d 79 13 33 3d 53 75 ad 3d 9e 7e e0 bd
       0.04142405 0.043719742 0.084696434 -0.1096165
000360 8b d6 7f bd 7d f4 d1 bc 27 23 ee 3d 23 17 9c 3d
       -0.062460463 -0.025629276 0.116277985 0.076216005
000370 ab 62 b0 bd 86 06 c6 3d ca ca f5 3d 33 4f 22 3d
       -0.086125694 0.09669213 0.120015696 0.03962631
000380 a5 dd 67 3c 22 1b 06 bd 79 86 ad 3c 35 16 ba 3d
       0.014151965 -0.03274072 0.021182286 0.09086267
000390 0c f1 02 be c3 a2 79 bc 09 59 1c bc 84 be fe ba
       -0.12787265 -0.015236559 -0.009542712 -0.001943544
0003a0 74 2f 74 bd 78 c9 ad 3d 80 26 09 3e 64 54 95 bd
       -0.059615567 0.08485693 0.13393593 -0.07291487
0003b0 a4 7d cf 3d f4 05 23 3e 80 c7 21 bd 0f c1 90 bc
       0.10131386 0.1592024 -0.0394969 -0.017670183
0003c0 f9 f0 b9 3d f0 b7 e3 3c 1b 10 81 3d b4 39 67 bd
       0.09079165 0.02779767 0.063019 -0.056451514
0003d0 c8 5e 06 bd 33 7c 02 3e b9 83 3c 3d 76 a9 24 3c
       -0.032805234 0.1274269 0.046024058 0.010050168
0003e0 34 c6 4e bd 74 7e 24 3e 06 32 9f bd 3e a1 e0 3d
       -0.05048199 0.16063863 -0.07773213 0.109682545
0003f0 72 6d 29 3d 9b be c2 3d 89 9c 0d bd 91 2a 87 bd
       0.04136414 0.09509011 -0.03457311 -0.06599916

AFeatRNN.weight_ih_l1 f4 [256, 64]
000000 5a 7f c4 3d c6 95 0a be 9c 55 ee bd d3 f1 d2 bd
       0.09594603 -0.13533697 -0.116374224 -0.103000306
000010 fe 96 ba 3c 86 00 8f 3d d9 0d 7e 3d 76 91 42 3d
       0.022777077 0.06982522 0.062024925 0.047502004
000020 75 7b fa 3d c5 38 bd 3c ea 77 ad bc b4 2c 6a be
       0.12230579 0.023098359 -0.021175344 -0.22868615
000030 5f 69 83 3e 4c a2 06 be 37 9a d5 bd d0 77 a4 bd
       0.2566633 -0.13147849 -0.10429805 -0.08030665
000040 c9 63 e5 3d 73 db 27 bd 08 66 1c be 65 75 69 bd
       0.11200673 -0.040980767 -0.15273297 -0.05699672
000050 da 3f 18 be 07 fb 6c 3e f6 b1 73 bc 0e af 11 3d
       -0.14868107 0.23142634 -0.014873972 0.035567336
000060 af 9d 0b 3d f5 23 51 3d 66 47 95 bd 84 b2 db bc
       0.034085926 0.051059682 -0.07289009 -0.026818521
000070 26 f5 7b 3d c5 69 60 bd 09 8b 1f be 10 31 b2 3e
       0.06151309 -0.05478837 -0.15580381 0.34803057
000080 f5 ac 1d 3d 0b 4e e0 bd 70 6e c7 bd 0a ac ce bd
       0.038495023 -0.109523855 -0.09737861 -0.100914076
000090 04 23 e3 3c fd 43 de bd 76 d1 25 be cb 70 23 bd
       0.027726658 -0.108528115 -0.16193184 -0.03990249
0000a0 12 7d 4f 3d 6b a8 a0 3d 4b 58 73 bd 19 2c d8 bd
       0.050656386 0.07844623 -0.059410375 -0.10555286
0000b0 44 9e e4 bb 28 d3 38 3e d7 83 43 3d 82 d4 15 be
       -0.0069768745 0.180493 0.047733154 -0.14631847
0000c0 3d 6a 8a bd 31 05 00 be 8b 4d 1b 3e b1 43 e4 3d
       -0.067585446 -0.1250198 0.15166299 0.111457236
0000d0 06 b6 b6 bd 1c 28 70 bd e4 2b 62 bd 19 fc 26 be
       -0.08921437 -0.058632 -0.05521764 -0.16307105
0000e0 11 91 03 3e fc a0 b5 bd f5 2c e3 3d a4 41 c5 bd
       0.12848307 -0.08868596 0.11092559 -0.096316606
0000f0 35 7b 90 3e fc 83 b4 bd bf 99 20 3e 1a 6f 81 3e
       0.28219 -0.088142365 0.1568365 0.25280076
000100 8e 90 38 3d f7 00 c4 bd 81 f7 bb bd a9 dd fd bd
       0.045059733 -0.095704965 -0.09178067 -0.12395794
000110 9b 28 9b 3c 4e cc 16 bd 4c d6 13 bd 6d 63 a8 bc
       0.01894026 -0.036815934 -0.03609304 -0.020555222
000120 4e d7 d6 bc 19 f6 3f 3e 9a d4 c8 bc 93 45 75 bd
       -0.026225712 0.18746223 -0.024515439 -0.059880804
000130 e7 08 49 3e b1 99 e7 bc 76 3f 46 bd db 4b 88 be
       0.19632302 -0.028271528 -0.048400365 -0.26620373
000140 96 2e 03 3d f3 7b 0c be fc 48 fa bc b3 0f 0d bd
       0.03202685 -0.13719158 -0.03055238 -0.0344388
000150 87 05 1c 3d bc 76 19 3e 65 78 05 3e bb b8 36 bb
       0.03809121 0.149867 0.13034208 -0.0027881104
000160 5b c2 68 bd e1 f8 56 3e ae b4 32 be b2 68 86 3d
       -0.056825977 0.20993377 -0.17451736 0.06562938
000170 f5 0c cb 3c 7f 6d 44 be bd ca aa bc ba 45 84 3e
       0.024786452 -0.19182394 -0.020848626 0.25834447
000180 43 e3 9f 3d ea 57 13 3e 50 3d 83 be 9d 34 11 be
       0.078070186 0.14389005 -0.25632715 -0.14180227
000190 15 aa e1 3d 5f 3e 82 bd f7 76 92 bc f7 b2 58 3d
       0.11018769 -0.063595526 -0.017878992 0.05290505
0001a0 54 75 78 3e e0 15 38 3e 5f 11 14 3d db b2 4f be
       0.24263507 0.17977095 0.03614938 -0.20283072
0001b0 dd 72 11 3d 85 0b 11 3a 63 fd 68 3e 74 e7 d0 3d
       0.035509933 0.00055330276 0.2275291 0.10200396
0001c0 c5 15 1d b9 47 66 f2 3c 21 f5 9a bb e8 d7 94 bc
       -0.00014980797 0.029589785 -0.0047289287 -0.018169358
0001d0 bc 4d 1e 3d 67 cc 9b bc e5 d5 ff 3b 8b 75 0e be
       0.038648352 -0.019018365 0.0078074806 -0.13912027
0001e0 f8 7a 99 3e af 33 0b be 50 06 0a 3e ce 31 93 bb
       0.2997663 -0.13593934 0.1347897 -0.004492021
0001f0 61 23 80 3e 36 f5 a0 3d 2d 4a d1 3d c3 af 9a 3d
       0.25026992 0.0785927 0.10219226 0.07553055
000200 96 c1 08 be c4 81 58 be 1d 69 6d bd 03 bd 87 3b
       -0.13355097 -0.21143252 -0.057961572 0.004142405
000210 c5 cd 01 3e 08 d0 af bd 3c 91 a0 bc d9 21 22 3e
       0.12676151 -0.08584601 -0.019600503 0.15833224
000220 c8 f8 0a 3e 19 1a e5 bc 48 8c 23 3e cd 05 e9 bd
       0.13571465 -0.027966546 0.15971482 -0.113780595
000230 15 81 18 3d 04 2d 61 3c d9 3e f8 3c 01 24 ff bd
       0.037232477 0.013743643 0.030303406 -0.12458039
000240 24 be cb bd 48 eb fc bc 91 ed f2 bd 8b a0 94 bc
       -0.09948376 -0.03087391 -0.118617184 -0.01814296
000250 1c cd b6 ba 9e 5a 24 3e 26 13 c8 bd dd e4 62 bd
       -0.0013946625 0.16050193 -0.09769277 -0.055394042
000260 ed 5a 02 bd 43 5a 9a bd 7f 0b 8b bd 1b 8a 5f be
       -0.031824995 -0.07536747 -0.06789302 -0.21830027
000270 ba b0 97 bd 8d 2b 2d be c1 c5 9f 3d 33 c4 94 bd
       -0.07406755 -0.16911145 0.078013904 -0.072639845
000280 67 d1 03 3d d5 5b 4d 3e 1e 42 55 be 95 95 ef bd
       0.032182124 0.20054562 -0.20826003 -0.116984524
000290 9e 0f 40 3e 37 e6 85 bc 30 42 aa bd e1 47 8b bd
       0.18755957 -0.016345127 -0.083134055 -0.06800819
0002a0 14 7d 89 3d 5a 18 37 3e 05 8f 82 bd 0b b7 3f 3e
       0.0671331 0.17880383 -0.06374935 0.18722169
0002b0 76 be 35 be 29 85 43 be 56 d8 6a bd bb 2f 2e 3e
       -0.17748436 -0.19093765 -0.05733522 0.17010395
0002c0 7e 44 c3 3c 6c 45 33 bd e6 9d fa 3c 75 e3 88 3d
       0.02383637 -0.043767378 0.03059287 0.06684009
0002d0 9f 9e 18 be ef e0 2a 3d e5 fe b0 3c 51 45 33 3e
       -0.14904259 0.04171842 0.021605918 0.17506911
0002e0 74 8a b7 3d 8b d3 3d bc 57 f3 07 3c 44 fe a0 bc
       0.08961955 -0.01158608 0.008297763 -0.019652493
0002f0 dd a7 49 bd d3 1a 23 3d e6 31 0b 3e 4a 7c 49 3d
       -0.049232353 0.039820503 0.13593253 0.049190797
000300 73 fd 6d bd a5 8b 25 3e 16 ed 1f 3c 94 e9 44 bc
       -0.058103036 0.16166551 0.009761116 -0.01201858
000310 c7 87 12 be 67 fa 59 3d c1 ae 87 3d 63 1d a8 3b
       -0.14309607 0.053217318 0.066251285 0.0051304563
000320 04 e0 57 bd 4e ec 22 bd 80 8e 03 3e 2a 10 26 bd
       -0.052703872 -0.03977614 0.12847328 -0.04054276
000330 b2 74 32 bd 73 d4 f9 bd 8b 02 86 3d df 57 23 bd
       -0.04356832 -0.121987246 0.06543454 -0.039878722
000340 57 70 ea bd 03 99 18 be 89 69 ca 3c 9d 34 0e 3d
       -0.114472084 -0.1490212 0.024708526 0.034718145
000350 4f 2d 56 3e 91 49 a2 bc d0 b1 85 bd 78 a3 7e bc
       0.20915721 -0.01981047 -0.06528056 -0.015541904
000360 40 a0 7e bd 4b c7 fa 3d 62 8f 10 be 51 5a de bd
       -0.062164545 0.12245043 -0.14117196 -0.1085707
000370 37 ee 52 3d 69 dd 89 bb 6e ce a0 be 8b 0f 58 3d
       0.05149671 -0.0042073024 -0.31407493 0.052749198
000380 f4 76 87 3d 8a 1e f0 3c 34 94 f5 3d f8 fe ce bd
       0.066144854 0.029311437 0.11991158 -0.10107225
000390 38 e7 e5 3d da 74 1c 3e 05 c8 85 3d 7c 92 0b 3e
       0.11225742 0.1527895 0.06532291 0.13630098
0003a0 a8 b1 6a bd ef bc c9 3c 57 c0 27 be d4 76 0e be
       -0.057298332 0.024626223 -0.16381966 -0.13912517
0003b0 35 50 26 bd ff 81 f5 3d 05 a7 c9 bc 45 e3 e2 bc
       -0.040603835 0.119876854 -0.024615774 -0.027696261
0003c0 e8 d8 4d be 45 8a 57 bc 8e 7b 9e bd fe f0 0c 3e
       -0.20102274 -0.013155525 -0.0773841 0.13763806
0003d0 c8 6b 1d bd 6d 10 3d 3e 4e 65 11 bd 83 7f a6 bd
       -0.038432866 0.18463297 -0.035497002 -0.0812979
0003e0 16 9a 57 3e c7 14 a3 3d fd c6 2f be 8b 8a 36 be
       0.21054873 0.07962947 -0.17165752 -0.17826287
0003f0 a1 b0 2f 3e 79 8a 35 3d 6f aa 02 3e 66 56 8a 3e
       0.17157222 0.04432151 0.12760328 0.27019042

AFeatRNN.weight_hh_l1 f4 [256, 64]
000000 b6 78 e6 bd 7d f4 0d be 31 0b 65 bd 16 97 ca 3c
       -0.112534925 -0.13862796 -0.055918876 0.024730247
000010 a5 8e ae bd ea 51 07 3e 9d 4e 5d 3d aa 56 3f bb
       -0.08523301 0.13214841 0.05403005 -0.0029195943
000020 30 f5 f7 bc c1 f3 6d bd 6b a8 2f bd 9b 3e b9 3d
       -0.030268282 -0.05809379 -0.042885225 0.09045144
000030 00 8c 4d bb 2c 71 9b bd 77 9c 54 be 5e f7 a8 bd
       -0.0031363964 -0.07589945 -0.20762812 -0.082503065
000040 bd 49 4a 3c d5 60 0c 3e 75 83 64 bd 18 61 09 3e
       0.012346682 0.13708813 -0.05578943 0.13415945
000050 c1 4d 19 3d e4 12 e8 3d c1 55 e9 3d ff 47 91 bd
       0.037427668 0.11331728 0.113933094 -0.0709381
000060 f6 e9 1d bd 78 20 92 bd ac 68 d9 bd 5e 5b 81 bc
       -0.0385532 -0.07135099 -0.10615668 -0.015790638
000070 06 0c 30 3d 4f 92 80 3d 8b 97 0e bd e7 f1 d0 bc
       0.042980216 0.06277906 -0.03481249 -0.025505973
000080 f8 64 95 3d 74 4b 22 bd 5b 73 c7 bd 31 21 01 3e
       0.07294649 -0.03962274 -0.09738799 0.12610318
000090 07 63 b9 3c b7 b7 5d bd 7f 97 8c bd 59 94 43 bd
       0.022630228 -0.054130282 -0.06864833 -0.047748897
0000a0 23 07 70 bd 3c 11 da bd c4 a5 60 bd 06 d7 df 3c
       -0.058600556 -0.106478184 -0.054845586 0.02732421
0000b0 83 31 bb 3d 4a 82 da bc d4 63 f4 bd ba e6 21 ba
       0.09140303 -0.026673455 -0.11933103 -0.00061760435
0000c0 a0 27 d7 3d e8 25 cf bd a3 bf ad 3d f7 b8 13 3e
       0.10505605 -0.10114652 0.084838174 0.14426027
0000d0 cb 8e a7 3d 43 b0 94 3d 37 2f bd bd 4d 12 d0 bd
       0.081815325 0.07260182 -0.09237521 -0.101597406
0000e0 8c fe e5 3c 2e 96 d1 bd 40 22 c4 3d 59 74 a1 3d
       0.028075479 -0.102337226 0.09576845 0.0788352
0000f0 71 c0 ed 3c c3 8a 9f 3d d4 64 3f bd e3 dd 2e be
       0.029022427 0.077901386 -0.046727017 -0.1707683
000100 84 ca 7f 3c c1 e0 99 bd 37 f5 17 bd d8 b6 1d 3c
       0.015612248 -0.075135715 -0.03709909 0.009626113
000110 84 aa b4 3d f4 50 48 bd d2 c4 6e bd 6e 11 79 3d
       0.08821586 -0.048905328 -0.05829317 0.060807638
000120 18 39 44 3c 2e 88 8b 3d 88 9c f4 3d c6 03 9e bb
       0.011976503 0.068130836 0.119439185 -0.004822227
000130 b7 ad 04 bc d9 5d 92 b9 74 69 2b 3c 6c 64 4e 3c
       -0.0080980575 -0.00027917212 0.010462154 0.012597185
000140 54 a7 be bd 20 b3 3b 3d 9f 22 cd bd 74 6d ad bd
       -0.09309259 0.045825124 -0.10016369 -0.08468142
000150 f2 17 b4 bd 71 ae ef 3d 88 aa c7 bc f0 eb a3 3d
       -0.0879363 0.11703194 -0.024373308 0.08003986
000160 63 d1 1a be 4d 60 89 3d 9e 14 ec bc bf d3 98 3b
       -0.15118937 0.06707821 -0.028818425 0.004663914
000170 e1 f8 3e 3c 38 49 51 bd 1d db b4 3d de 94 3f bd
       0.011656017 -0.051095217 0.08830855 -0.04677283
000180 94 7c 7a bd b4 49 31 bd 21 5e e4 bd 71 35 c9 bd
       -0.061153963 -0.04328318 -0.11150766 -0.09824646
000190 34 f0 56 bd 0a 0e 01 bd 8a c5 2b 3e e5 e9 2d 3c
       -0.05247517 -0.03150753 0.16774574 0.010614847
0001a0 b5 8d b2 bd cd d7 a3 3d d0 65 9e bb 18 21 be bd
       -0.08718435 0.08000145 -0.0048339143 -0.09283656
0001b0 cb e3 c3 3d ae 82 ef 3d 91 fa 27 3d 94 df 15 39
       0.095649324 0.11694847 0.041010443 0.00014293037
0001c0 5c f3 6a bd 38 aa 25 3c 0a 20 1e bd 7e 8a e3 bd
       -0.05736099 0.010111384 -0.038604774 -0.111104
0001d0 cc d4 92 3c d5 ef c5 bc be 92 5e 3d 21 0f 03 3e
       0.017923735 -0.024162212 0.054339163 0.1279874
0001e0 da 41 55 3d 8c 61 b1 3d 9b 0c 89 bd 8a 16 1e be
       0.052064754 0.08661184 -0.066918574 -0.15438285
0001f0 80 f8 a5 bd cb 44 b3 bd 0c 9a 8f 3d e2 73 33 bb
       -0.08104038 -0.087533556 0.07011804 -0.0027382304
000200 1a be 9a 3d a1 25 11 be eb e3 33 be eb bb 00 bd
       0.0755579 -0.1417451 -0.17567413 -0.031429213
000210 12 1d a9 bd e7 79 81 3d 27 92 7d bd 8a 38 da 3c
       -0.08257498 0.06322079 -0.06190696 0.026638288
000220 59 d7 ae bc 42 da 4b 3d c3 d0 d0 3d 27 0d 53 3d
       -0.02134292 0.049768694 0.10196068 0.051526215
000230 0e c4 d9 3d 5f d5 0b be 9a 3c 26 bd fa 6e a7 bd
       0.106330976 -0.13655613 -0.040585138 -0.08175464
000240 b2 27 5a be 9c 87 8e 3d e4 52 e2 3d d5 e9 af bb
       -0.21304205 0.06959459 0.110509664 -0.005368451
000250 0f 9f 1b be 40 b6 f6 bd 2b 07 34 bb 62 d5 03 3e
       -0.15197395 -0.1204648 -0.0027470093 0.12874368
000260 82 49 ce 3c 0e 7c 21 be 6d 13 cd 3d a7 79 88 3d
       0.025181536 -0.1576998 0.10013471 0.06663828
000270 a5 31 0c be 72 69 09 bd ac 13 02 be b0 96 66 3c
       -0.13690813 -0.033547826 -0.12702817 0.014074013
000280 b0 c6 3b 3d 88 ca 06 3e 8c 24 a0 3c d4 80 81 3b
       0.04584378 0.13163197 0.019548677 0.003952125
000290 bd bd 58 bd 5f 59 af 3d 2a 7d 19 bc 9e ac 3a 3e
       -0.052915324 0.08561968 -0.00936822 0.1822991
0002a0 24 fa 80 bd f5 3f ff 3b 9d 63 b3 3d 7f 7b 89 3d
       -0.062977105 0.0077896067 0.08759234 0.06713008
0002b0 bd e8 a1 3d 4d 3e d2 3c 23 bb d8 bd b5 03 c2 3c
       0.079057194 0.025664473 -0.105825685 0.023683408
0002c0 80 fe d3 bd f3 c8 df 3c 3b f0 33 3e 98 fe f9 3d
       -0.103512764 0.0273175 0.1757211 0.12206763
0002d0 ff 2b 88 bc fc 98 16 3e 57 b1 3e 3d 4d d9 ef 3d
       -0.016622541 0.14706796 0.046555843 0.11711369
0002e0 ab d3 e2 3d 5e 5a b6 bd 81 28 63 3d db 10 52 3c
       0.11075529 -0.08903955 0.05545855 0.0128214015
0002f0 52 b3 2c be 6f 79 16 3e 46 36 9c 3d 55 f0 c7 3d
       -0.1686528 0.1469476 0.07627539 0.097626366
000300 72 96 06 3e 25 7b fd bd 4d c3 52 bc 5e 96 12 bc
       0.13143328 -0.123770036 -0.012863946 -0.008946983
000310 ca 45 81 3d de 0c 8a 3c ab b1 e7 3b c6 72 cc 3c
       0.06312139 0.016851839 0.00707074 0.024957072
000320 a9 30 37 be 11 5b f6 3c 1e d0 f6 3d 80 cb de 3d
       -0.17889656 0.03007272 0.12051414 0.10878658
000330 eb 0b dc 3c 5e 33 cf 3d bd f2 81 bb a0 36 e9 3c
       0.026861152 0.101172194 -0.0039657042 0.02846843
000340 cd 15 79 bd 37 46 da bd a2 0a 4a bd 1b 31 f2 3d
       -0.060811806 -0.10657924 -0.049326546 0.118257724
000350 7a 75 05 bd f1 58 57 3c d0 de 8a bc 55 3e 73 bd
       -0.032582738 0.013143764 -0.016951948 -0.059385616
000360 de 59 f6 bb f7 2d dc bb ff b0 20 3c 23 aa 13 be
       -0.007518037 -0.0067193466 0.009807824 -0.14420371
000370 58 e3 20 bb 91 38 93 3c 33 9f 2e bd 29 ca 1c 3d
       -0.002454957 0.017971309 -0.042632293 0.038278732
000380 45 61 2a bd af ab 60 bd ee d1 14 3d 2a 8c f4 bd
       -0.04159667 -0.05485123 0.036333017 -0.11940797
000390 8b f0 09 be 26 3f 4d bc 13 8b d6 bd 7b ab 2f bd
       -0.13470666 -0.012527263 -0.10475745 -0.042888146
0003a0 04 da 5f bd e7 e1 fd 3d 40 ec f6 bb 7c a3 13 bb
       -0.054651275 0.12396603 -0.0075354874 -0.0022527864
0003b0 ba e5 f3 bd 54 39 e5 3d bc 2b b3 bd e9 69 fb 3c
       -0.11909051 0.11192575 -0.08748576 0.03069015
0003c0 3e 57 47 ba 03 ee ac 3d 07 42 5c bc 47 a8 68 bd
       -0.00076042477 0.08443835 -0.0134434765 -0.056801107
0003d0 07 c7 86 bd f8 a5 e0 3d 03 60 eb 3c 0c 3d 9a bc
       -0.0658093 0.10969156 0.028732305 -0.018827938
0003e0 6d 0a 21 3e 44 b3 cd 3d a4 58 03 3e cb 15 dd bc
       0.15726633 0.10043958 0.12826782 -0.02698793
0003f0 7e 8e 17 be 1c 16 38 3d 33 a5 87 3d 2d 3a c1 3d
       -0.1480045 0.04494296 0.06623306 0.09434924

AFeatRNN.bias_ih_l1 f4 [256]
000000 6a 89 b6 3d d9 8c f1 3d 31 4a 07 3e d7 63 e1 bc
       0.089129284 0.11794443 0.13211896 -0.027513428
000010 e2 2a ca 3d 44 6a eb 3b da 70 c0 bd 73 01 d3 3d
       0.098714605 0.0071842987 -0.09396525 0.10303011
000020 01 ad ba 3d 0e 5c 19 3c f1 e1 2b 3d 5c 98 6a bc
       0.09115029 0.009360326 0.04196352 -0.014318552
000030 0a 31 98 3d ad f9 92 3c a0 b0 49 3e be 8b 3c 3d
       0.074312285 0.01794132 0.19696283 0.046031706
000040 9d 3e 49 bc ea fe b8 3d e3 4f d3 3d 04 7b 37 3e
       -0.012282995 0.09032996 0.103179716 0.1791802
000050 31 ce 77 bd 7b da 0a 3e b3 d5 c1 3d 77 34 2e 3d
       -0.060499374 0.13559906 0.09464588 0.042530503
000060 e2 4c 84 3d c4 ee ab bd d2 14 38 bd 3f 85 30 3d
       0.06459977 -0.0839515 -0.04494173 0.043095823
000070 f2 f2 8d bd 49 e8 e3 bc 7b 45 db 3b 40 96 be bd
       -0.06931104 -0.027820723 0.0066916323 -0.09306002
000080 8e b0 9b 3d eb c3 04 3b 9c c2 26 bd ec b8 ab bb
       0.076020345 0.0020258378 -0.040712938 -0.0052405503
000090 36 a1 e7 3b 24 f2 f5 3d 49 53 6a 3d 17 1e 18 3e
       0.0070687784 0.12009075 0.057208333 0.14855228
0000a0 d2 62 23 3e a8 fb 3c bc f1 df e0 bc 6b 97 23 3e
       0.15955666 -0.011534609 -0.027450534 0.1597573
0000b0 e3 12 a9 3d fc b6 a3 bb ae a8 b8 bd 04 d2 1f 3b
       0.082555555 -0.0049961787 -0.09016548 0.0024386654
0000c0 ee 76 24 3e 54 8c 85 3e 04 cf 46 3d 83 8c 33 3e
       0.16060993 0.26083624 0.04853727 0.1753407
0000d0 3f 94 07 bd bf 1a 20 3e 46 7e e8 3b 22 10 7a 3d
       -0.033100363 0.15635203 0.007095131 0.06105054
0000e0 b2 21 8f bd 9b eb 12 bd a7 d9 70 3d 1c 27 b2 3d
       -0.06988849 -0.035869222 0.05880132 0.08698866
0000f0 b8 02 b0 bd a8 5a 4a 3d a7 34 36 3c 22 67 e0 3d
       -0.085942686 0.049402863 0.011120952 0.10957171
000100 f2 08 3f 3a aa 1b f0 bd ff 37 1f bd 4c 5a 88 bd
       0.0007287405 -0.117240265 -0.03887176 -0.06657848
000110 77 a6 79 3d be 93 98 3d a1 91 d2 3d 0c 7d 9d 3d
       0.06094977 0.074500546 0.10281683 0.076898664
000120 8c 56 dd bd 0b 8e de 3d 81 4c d7 3c ba 50 a0 bd
       -0.10807523 0.10866936 0.026281597 -0.07827897
000130 ba 44 52 bc 51 53 22 bc 48 6d 4c 3d b4 08 c2 3d
       -0.0128337685 -0.0099075595 0.049908906 0.09474316
000140 42 71 3c be da 36 19 be be f7 b9 3c f3 e4 7b 3b
       -0.1840258 -0.1496233 0.02270114 0.0038436025
000150 43 aa 4b bd ff 0e 7e 3c d0 bf 1a bd 2c f4 82 bd
       -0.04972292 0.015506505 -0.037780583 -0.06394228
000160 01 2a a3 bc 5e 01 2b bb 19 28 fe bc f8 df c8 bd
       -0.01991749 -0.0026093344 -0.03102498 -0.09808344
000170 be f2 ef bd 92 ac 95 bc c2 aa 11 bd 1b 7f 2e be
       -0.11716221 -0.018270764 -0.035563238 -0.17040674
000180 3f fe e2 3c 43 98 81 bd 8b 78 12 be 8c 55 26 3d
       0.027709125 -0.0632787 -0.14303796 0.040608928
000190 4b a1 46 bc c2 d9 ae 3d bd 11 89 bc 02 b6 b4 3d
       -0.012123416 0.08537628 -0.016732091 0.08823778
0001a0 5b 42 d1 bd 2a 97 1d bc d7 bd 92 3a 3c dc fc 3d
       -0.102177344 -0.00961856 0.0011195493 0.12346694
0001b0 ff b9 f7 bd 60 85 14 bd e8 2f 64 3d 2d 1c a7 bd
       -0.12096023 -0.03626001 0.05570975 -0.08159671
0001c0 31 dc ed 3d 50 88 06 3e ec 51 92 bc a3 69 28 3c
       0.11614264 0.13137937 -0.017861329 0.010279092
0001d0 8f 66 4c 3c b0 1d cb 3c 26 14 e1 3d 18 18 eb 3c
       0.012475624 0.02479443 0.10990171 0.028698012
0001e0 2f 26 49 bd 67 07 f4 bd b2 c4 26 3d 65 32 d6 bd
       -0.04910868 -0.119154744 0.040714927 -0.10458831
0001f0 ec 9d 92 3d e7 54 88 bd 23 23 c7 3b 2c c0 0b be
       0.071590275 -0.06656819 0.0060771867 -0.13647527
000200 11 89 ac bb 11 9e 08 3d d0 9b e7 bd 69 7b 79 3d
       -0.005265363 0.03335387 -0.11309016 0.06090871
000210 a9 81 b3 bd af e4 31 bd 9f af 6c bd dc 9b 6f ba
       -0.08764965 -0.04343098 -0.057784673 -0.00091403513
000220 42 9d cb bd 82 b9 3c 3d e6 02 36 3d 53 b0 bd bc
       -0.09942104 0.04607535 0.044436358 -0.023155367
000230 d3 2c 60 bd 7c 7b cb 3d dc 96 6a bd 7d 41 aa 3d
       -0.054730248 0.09935662 -0.057272777 0.08313272
000240 23 30 f5 3c e2 b4 e9 3d e0 19 a8 bc 9a 20 10 bd
       0.02993018 0.11411454 -0.02052015 -0.03518734
000250 02 70 80 bd 7d 3b 10 3d b3 34 c4 bd 42 dd 31 3d
       -0.06271364 0.035212982 -0.09580364 0.0434239
000260 f9 f9 b9 bd c2 c4 57 bd 50 5f fa 3d e5 5e bb 3d
       -0.090808816 -0.052677877 0.12225211 0.09148959
000270 9b 29 f0 bd a5 30 8a bd 97 a1 60 be 26 6f b1 3d
       -0.117266856 -0.067475595 -0.21936642 0.08663778
000280 ea 47 4e bd 41 6a 19 3d 5f 74 dc bc b1 79 b7 3d
       -0.05036155 0.037454847 -0.026910959 0.08958758
000290 9e bc fb bc 6c ae 7f bd b2 43 80 3d d4 24 a0 bd
       -0.030729588 -0.0624222 0.06262912 -0.078195244
0002a0 d4 bd f3 bd 3b b0 84 3d 57 77 d0 bd 1d ac 2c be
       -0.11901441 0.06478926 -0.10179012 -0.16862531
0002b0 81 e7 4c bc 6b 69 29 bd ef e5 41 3c f7 3d c5 3b
       -0.012506367 -0.0413603 0.011834606 0.0060193497
0002c0 a3 84 80 bd bd 74 53 3d 17 cb 18 3b de b5 d5 3d
       -0.062752984 0.051625002 0.002331441 0.10435079
0002d0 31 9b d9 bd 1e 86 02 3e da 12 07 be 69 37 bc bd
       -0.106253035 0.12746474 -0.13190785 -0.09190256
0002e0 77 72 17 3e 0e 4c 8b 3d 40 aa 20 3d 01 a1 0d bc
       0.14789759 0.06801616 0.039224863 -0.008644343
0002f0 20 cc 19 be 18 bb 0d bd 5e fd 7c ba ba 7d d9 bc
       -0.15019274 -0.034602255 -0.0009650792 -0.026549209
000300 32 2c a6 3d 5a 6e bc bc 95 2a 06 bb 56 79 87 3d
       0.08113898 -0.023001838 -0.0020472158 0.0661494
000310 4e 99 ba 3c b9 84 1c 3d 23 28 06 3d b8 71 2f 3d
       0.02277818 0.03821251 0.03275312 0.04283306
000320 12 44 4c 3d 4d 71 83 bc b4 10 42 3e 01 5e 81 bb
       0.049869604 -0.016045237 0.18951684 -0.0039479737
000330 06 5c e2 bc 44 bb a0 3b 94 dd 47 3e ee d4 91 3d
       -0.02763177 0.0049051363 0.19518119 0.07120691
000340 b7 9e e1 3c 13 6a b2 3d b4 cb d0 3d ed 31 3d bc
       0.027541501 0.08711638 0.10195103 -0.011547548
000350 ba 2a 4c bd 60 4a 41 3d dc 68 15 bd 9f c2 42 3d
       -0.049845435 0.04719007 -0.036476955 0.047548886
000360 af 7a 3f 3e 49 46 14 3d f4 26 49 bd 5e fb 4f 3d
       0.18699144 0.03619984 -0.049109414 0.05077683
000370 8e d6 af 3d c0 3b 15 bd 60 11 41 bd c2 ba 22 bd
       0.08585845 -0.036433935 -0.04713571 -0.039728887
000380 04 e8 50 3b 59 94 5f bd 97 2e 25 3e 0b 6e 89 3d
       0.0031876573 -0.054584835 0.16131054 0.06710442
000390 00 a9 fa 3d 64 07 54 3d 2e 58 e1 3d 5b 93 bc 3d
       0.122392654 0.05176486 0.11003147 0.09207793
0003a0 ac a6 58 3d f5 6b d9 bd 46 5f 3f bd b4 09 2d 3d
       0.052893326 -0.10616294 -0.04672172 0.04224558
0003b0 ba d5 f5 3d 7f 88 31 3e ff 31 e7 3d a4 97 09 3e
       0.12003656 0.17337225 0.11288833 0.13436753
0003c0 75 24 02 3e bd dc 2f 3c f4 f0 02 be a1 53 3b 3e
       0.1270922 0.01073378 -0.12787229 0.1829362
0003d0 6d da 34 bd 00 25 f7 3d a4 66 ab bc ec 5b 8f bd
       -0.04415362 0.12067604 -0.020922966 -0.069999546
0003e0 3f 95 7c 3d 46 c8 4c 3b 4c 2e ed 3d 7b 25 03 bd
       0.06166577 0.0031247302 0.11581096 -0.032018166
0003f0 d1 f5 b1 3d 07 25 fb 3d ea a3 31 3e 2c 3d 95 3c
       0.08689464 0.12262922 0.17347685 0.018217646
