STD/checkpoints/original/VA_METRIC_state_epoch40.pth (torch, 684542 bytes, 24 tensors)

AFeatRNN.weight_ih_l0 f4 [256, 128]
0	0x3d16782b	0.036735695
1	0x3da625ee	0.08112703
2	0x3d9a8405	0.07544712
3	0x3ccb7468	0.02483578
4	0xbd8dad4a	-0.06917818
5	0x3e2209d1	0.15824057
6	0x3e24a2a0	0.16077662
7	0x3dc92c9f	0.09822964
8	0xbd9f4dae	-0.07778488
9	0xbc8d2825	-0.017231056
10	0xbd9f3775	-0.077742495
11	0xbcb04165	-0.021515558
12	0xbd994493	-0.074837826
13	0xbce497de	-0.027904447
14	0x3da3d7ac	0.080001205
15	0xbdc3006b	-0.09521564
16	0x3df30607	0.11866384
17	0x3e01c7d5	0.12673886
18	0x3c1a6afd	0.009424922
19	0x3d5a0772	0.053229757
20	0xbc74e6fc	-0.014947649
21	0xbc8df562	-0.017328922
22	0x3dd4348c	0.10361585
23	0xbdd8d2be	-0.10587071
24	0x3e14c9cf	0.14530109
25	0x3d12c743	0.035834562
26	0x3ca7e34d	0.020494128
27	0xbd7ce204	-0.061738983
28	0x3db5d75a	0.08878966
29	0xbda508e5	-0.08058337
30	0x3c713939	0.014723116
31	0xbd8c5b0a	-0.06853302
32	0x3d852400	0.06501007
33	0x3df21a13	0.118213795
34	0x3df92eb9	0.12167115
35	0xbd5c316f	-0.05375808
36	0x3b822adb	0.003972394
37	0x3d522c96	0.05131205
38	0x3d8488ab	0.0647138
39	0xbdab6224	-0.08368328
40	0x3c437d81	0.011931778
41	0x3d1b49e0	0.03791225
42	0xbe0d6bb4	-0.13810617
43	0x3e481d07	0.19542323
44	0xbc3cbeea	-0.011520127
45	0x3cbfe89f	0.023426352
46	0x3d94367e	0.07236956
47	0x3d09a367	0.0336031
48	0x3c572a7e	0.0131326895
49	0xbd37bb8a	-0.044856586
50	0xbdc0d101	-0.09414864
51	0x3e066e21	0.13127948
52	0x3d21bb74	0.03948541
53	0xbd086223	-0.033296715
54	0xbdd62f30	-0.10458219
55	0x3e006140	0.12537098
56	0xbc44c856	-0.012010654
57	0x3da90155	0.08252207
58	0xbd5e4008	-0.054260284
59	0xbd82b2fe	-0.06381796
60	0x3d88cf45	0.066801585
61	0xbceb47df	-0.028720794
62	0xbd8ccf52	-0.06875481
63	0x3dda5eb5	0.10662595
64	0x3dd1587f	0.102219574
65	0x3cdbcaca	0.026830096
66	0x3d4ce8d8	0.050026745
67	0x3bc76a14	0.0060856435
68	0x3e0d58c0	0.13803387
69	0x3df4441d	0.11927054
70	0xbe0e5235	-0.13898547
71	0x3e1fed7b	0.15617935
72	0x3cb225b1	0.021746488
73	0x3d81a8b7	0.06331008
74	0xbdbed94b	-0.09318789
75	0x3d8aeacb	0.067830645
76	0x3daeb2cb	0.08530196
77	0x3dbc7e27	0.09203749
78	0xbcb16bce	-0.02165785
79	0xbd460814	-0.048347548
80	0x3c7b3dfb	0.0153346015
81	0x3c8e8d6b	0.017401418
82	0xbd496310	-0.04916674
83	0x3caead48	0.021322861
84	0x3e419119	0.18903007
85	0x3c07f3aa	0.00829784
86	0x3e1a3fde	0.15063426
87	0xbb26b507	-0.002543749
88	0x3da32814	0.07966629
89	0x3d2902ee	0.04126256
90	0xbcf1db00	-0.029523373
91	0x3d1ff6ca	0.039053716
92	0x3c359ce6	0.011084771
93	0x3da2df5e	0.0795276
94	0x3e0502ee	0.12989399
95	0x3b1aedb5	0.002364022
96	0x3c0e7ee3	0.008697244
97	0xbd646f79	-0.05577037
98	0x3de44f8c	0.11147985
99	0xbdea9993	-0.11455073
100	0x3c8ff8b8	0.017574653
101	0x3d030100	0.031983376
102	0x3e449fa7	0.19201528
103	0x3d7f1526	0.062276028
104	0x3d19d4c0	0.03755641
105	0x3d9acd45	0.07558683
106	0xbc3524b6	-0.011056116
107	0xb9266de0	-0.00015871925
108	0x3de9e95e	0.114214644
109	0xbd104920	-0.035225987
110	0x3dca57d5	0.09880034
111	0x3d1d135e	0.038348548
112	0xbd8daa60	-0.06917262
113	0x3cc8e9fd	0.024525637
114	0xbdc6a451	-0.096993096
115	0x3d90efe8	0.070770085
116	0xbda92e0d	-0.082607366
117	0x3ddcf698	0.107892215
118	0xbd9d9d1a	-0.0769598
119	0xbcf3c80c	-0.029758476
120	0xbc4a3e14	-0.012343902
121	0x3dc48216	0.095951244
122	0x3c9d8bd2	0.01923171
123	0x3e2de835	0.16983111
124	0xbdf3cfba	-0.11904855
125	0x3d13df10	0.0361014
126	0xbcc324e0	-0.023821294
127	0x3e1bb20a	0.15204635
128	0x3c9798d1	0.018505486
129	0x3d1a7d9e	0.037717454
130	0xbddb32c4	-0.10703042
131	0xbe2bb801	-0.1676941
132	0x3d92f01c	0.071747035
133	0xbc2461a0	-0.010033041
134	0x3e16b008	0.14715588
135	0x3dc4b4c8	0.09604794
136	0xbd114a4f	-0.035471257
137	0xbceeb6e3	-0.029139942
138	0x3dbd02d8	0.09229058
139	0xbdbeda22	-0.09318949
140	0x3d04de07	0.032438304
141	0x3ca5352a	0.020166952
142	0x3d68f6a1	0.05687583
143	0x3dbe4375	0.0929021
144	0x3ca5be22	0.020232264
145	0xbcd3dce5	-0.025862167
146	0xbd3ef734	-0.04662247
147	0xbdda17c9	-0.10649068
148	0x3da70f52	0.08157219
149	0x3d0464ad	0.032322574
150	0xbe6786e6	-0.22610053
151	0xbe053b0c	-0.13010806
152	0xbd72b07e	-0.059250347
153	0x38d06cdd	9.93849e-05
154	0x3d93d8f4	0.07219115
155	0x3ce77143	0.02825225
156	0x3e270dba	0.1631383
157	0x3dca97a6	0.09892206
158	0xbdc871a3	-0.097872995
159	0x3d8deb7f	0.06929683
160	0xbd148ec8	-0.03626898
161	0x3d508c03	0.050914776
162	0xbccf3f68	-0.02529879
163	0xbcc68e57	-0.024237795
164	0xbd59c45a	-0.05316577
165	0xbda0d8b5	-0.078538336
166	0x3d81c373	0.06336107
167	0xbd66814a	-0.056275643
168	0x3e3cc668	0.18435061
169	0x3d83dc9a	0.06438561
170	0xbcefcd2d	-0.02927264
171	0x3d57b1d6	0.052659832
172	0x3e4cc7a9	0.1999804
173	0xbd425862	-0.04744757
174	0xbd1d9fef	-0.038482603
175	0x3dccb319	0.09995098
176	0x3dd3edac	0.10348067
177	0xbcd82c90	-0.026388437
178	0x3dad7150	0.08468878
179	0xbe39d306	-0.18146905
180	0x3dcd11a6	0.10013132
181	0x3de3cf70	0.1112355
182	0xbd5047ca	-0.050849713
183	0x3d96a857	0.07356327
184	0x3d43c36b	0.047793787
185	0xbda220cb	-0.07916411
186	0x3c001f69	0.007819989
187	0xbbc58b47	-0.006028566
188	0xbdac5fc8	-0.08416706
189	0x3de5a8a9	0.1121381
190	0x3dc87ac8	0.09789044
191	0xbba72870	-0.005101256
192	0xbded61a1	-0.11590887
193	0x3da26ce8	0.079309285
194	0x3d44b740	0.048026323
195	0xbd176767	-0.036963847
196	0x3ccb7620	0.0248366
197	0xbcbe38c2	-0.023220424
198	0x3e3a1dcb	0.18175428
199	0xbde89518	-0.113565624
200	0xbd3ebc6d	-0.046566416
201	0xbc211b82	-0.0098332185
202	0xbd732c63	-0.059368502
203	0x3dfbd41f	0.12296318
204	0x3d55041b	0.05200587
205	0x3d91ab0b	0.07112702
206	0x3df110a9	0.11770756
207	0x3da0c3b0	0.078498244
208	0x3df4017e	0.11914347
209	0x3dce1d06	0.100641295
210	0xbb68342b	-0.0035431485
211	0x3dd38863	0.10328748
212	0xbe05cebc	-0.13067144
213	0xbda33013	-0.07968154
214	0x3d900de3	0.07033899
215	0xbdf6fdd5	-0.12060133
216	0x3da4c557	0.08045452
217	0x3dac4499	0.084115215
218	0x3e1fef0b	0.15618531
219	0xbd0b9108	-0.03407386
220	0xbe011b12	-0.12607983
221	0x3c9424d0	0.01808396
222	0x3e2048c2	0.15652755
223	0x3d8c47f9	0.06849665
224	0x3e135d4b	0.14391057
225	0x3e4817cf	0.19540332
226	0xbdab7efc	-0.0837383
227	0x3b8b2202	0.0042459974
228	0xbcb64914	-0.022251643
229	0xbd883b9f	-0.06651997
230	0xbe11e561	-0.14247657
231	0x3cf3dcbd	0.029768342
232	0xbe537ad4	-0.20652324
233	0x3cb0dad6	0.021588724
234	0xbced1839	-0.028942214
235	0x3c8a5efc	0.016890995
236	0xba2fbfbf	-0.00067042926
237	0x3dd8aa79	0.1057939
238	0x3cff81e0	0.031189859
239	0x3dfbe758	0.12299985
240	0xbe02cd2d	-0.12773581
241	0xbdd0e098	-0.10199088
242	0x3ca77c25	0.020444939
243	0xbdfbb33e	-0.12290047
244	0xbc8da704	-0.017291553
245	0xbde77433	-0.1130146
246	0xbe0211c8	-0.12702096
247	0xbe02bc17	-0.12767063
248	0x3d64d96b	0.05587141
249	0xbcf31cb9	-0.029676782
250	0x3ddd38a0	0.10801816
251	0x3dd01870	0.10160911
252	0xbdb07c51	-0.086174615
253	0xbe4ba492	-0.19886997
254	0xbc8f673d	-0.017505283
255	0x3dc39735	0.09550325

AFeatRNN.weight_hh_l0 f4 [256, 64]
0	0xbd57ba5f	-0.05266797
1	0x3cd9dfd7	0.026595993
2	0xbd1ce964	-0.038308516
3	0xba08f09f	-0.00052238436
4	0x3d3c97b0	0.046043098
5	0xbce5e767	-0.028064443
6	0xbda70b94	-0.08156505
7	0xbb8180a2	-0.003952102
8	0x3dadc5cf	0.084849946
9	0x3d1a08d4	0.037606075
10	0x3e1f7e43	0.15575509
11	0x3e1546f6	0.1457785
12	0xbd86e453	-0.06586518
13	0x3d575746	0.052573465
14	0xbdafdbcf	-0.08586847
15	0xbd287e4e	-0.04113608
16	0xbc6345c8	-0.013871618
17	0xbd99154c	-0.07474765
18	0xbe1d66d9	-0.15371265
19	0x3e706719	0.23476829
20	0xbc1a0532	-0.009400653
21	0xbd788769	-0.060676012
22	0xbdf9e6ea	-0.122022465
23	0x3d4a4a81	0.04938746
24	0xbd517b2c	-0.051142856
25	0x3d0eafe4	0.03483571
26	0x3d2c690d	0.04209237
27	0x3cced857	0.025249643
28	0xbd0947c3	-0.033515703
29	0x3d9a2a96	0.07527654
30	0x3d7b98ad	0.0614249
31	0x3c23dac3	0.010000887
32	0x3dd0f13d	0.102022626
33	0x3d3ae08b	0.045624297
34	0xbd64042e	-0.05566805
35	0xbd9003ef	-0.07032
36	0xbdc1ec99	-0.094689555
37	0x3e1bee22	0.15227559
38	0xbdff31e8	-0.12460691
39	0x3e0f956b	0.14021842
40	0x3d3f65a3	0.046727788
41	0x3d4f4f07	0.050612476
42	0x3db902a7	0.09033709
43	0xbdc427cc	-0.09577903
44	0xbd21a5c7	-0.03946474
45	0x3c91ae5d	0.017783338
46	0xbd54f013	-0.051986765
47	0x3deea33b	0.116522275
48	0xbdc46f52	-0.09591545
49	0xbde9fcab	-0.11425146
50	0x3d9af2b0	0.0756582
51	0x3dfbb08a	0.122895315
52	0x3d192a9d	0.037394155
53	0x3da0549e	0.078286394
54	0xbc8f2741	-0.017474772
55	0x3dc8d29e	0.09805797
56	0x3d16263c	0.036657557
57	0xbda9ea36	-0.08296625
58	0x3d323bc9	0.043514047
59	0xbdf2b3ce	-0.11850701
60	0xbc96ddd3	-0.01841632
61	0xbd1bfa70	-0.038080633
62	0xbd6e3fe6	-0.058166407
63	0x3d43dfc0	0.047820807
64	0x3da2d6e7	0.079511456
65	0xbd9d93da	-0.07694216
66	0xbdec0993	-0.11525264
67	0xbdc94f42	-0.0982957
68	0x3e2367a9	0.15957512
69	0x3c782527	0.015145577
70	0x3db173c4	0.08664659
71	0xbcbbd78c	-0.02292993
72	0x3d9bd8f2	0.076097384
73	0xbda374d4	-0.079812676
74	0xbdeed5df	-0.116618864
75	0xbd3b6b32	-0.045756526
76	0xbe2dea50	-0.16983914
77	0xbdfc518d	-0.12320242
78	0x3d1d12fc	0.038348183
79	0xbd5b8fa3	-0.05360378
80	0xbe2dc84b	-0.16970937
81	0x3db0de48	0.08636147
82	0xbdaedd94	-0.085383564
83	0xbdd20354	-0.10254541
84	0xbc56e99e	-0.013117222
85	0x3bc14a0c	0.0058987197
86	0xbd019105	-0.031632442
87	0xbdf33e85	-0.11877159
88	0xbde5a958	-0.112139404
89	0x3d5bcb17	0.05366048
90	0x3c9f0b6a	0.019414622
91	0x3dfe8cf6	0.1242923
92	0x3ab68150	0.0013924036
93	0x3d7cb5fc	0.06169699
94	0xbddbe677	-0.10737317
95	0x3de5bcef	0.11217677
96	0x3d801a7d	0.06255052
97	0xbd05a24a	-0.032625474
98	0xbe1f21a7	-0.15540181
99	0xbe026541	-0.12733938
100	0xbd414cbb	-0.047192317
101	0xbd8a60a8	-0.06756717
102	0xbafdd8f8	-0.001936703
103	0xbd5ae808	-0.05344394
104	0x3d4e0e12	0.050306387
105	0x3e29260f	0.16518424
106	0x3c8b5583	0.017008549
107	0xbd6de37d	-0.058078278
108	0x3cc02439	0.023454772
109	0xbb5bf3b9	-0.0033562018
110	0x3c8031bc	0.015648715
111	0xbdb56678	-0.08857435
112	0xbe158be4	-0.14604145
113	0x3ba6a954	0.0050861035
114	0xbe071f53	-0.13195543
115	0xbd2fb839	-0.042900298
116	0xbd9be95e	-0.07612871
117	0x3c5b8977	0.013399473
118	0xbd8d9437	-0.06913035
119	0x3d8ce419	0.06879444
120	0x3e0f4c4d	0.1399395
121	0xbd1aa517	-0.0377551
122	0x3d57a578	0.052648038
123	0xbe1d053a	-0.15334025
124	0xbe083d37	-0.13304602
125	0xbd56a914	-0.05240734
126	0xbb7b0d47	-0.0038307474
127	0x3d451402	0.048114784
128	0xba8a6348	-0.0010558153
129	0xbd794c3f	-0.06086373
130	0x3df95129	0.12173683
131	0x3cfd792c	0.030941568
132	0xbcff5714	-0.031169452
133	0x3d70b269	0.058763895
134	0xbd15c1ed	-0.036561895
135	0xbd81c946	-0.06337218
136	0xbe05e1da	-0.13074437
137	0xbd7028f1	-0.058632795
138	0xbccf8f22	-0.025336806
139	0xbd753e0f	-0.059873637
140	0x3b0a8f7f	0.002114266
141	0x3ddd5d85	0.10808853
142	0x3cc9755c	0.024592094
143	0x3da0ebee	0.078575
144	0xbd08a4ee	-0.033360414
145	0x3d5beae1	0.053690795
146	0x3cedfe0c	0.029051803
147	0x3dba6b38	0.091024816
148	0x3dfd8159	0.12378187
149	0xbc7b14d7	-0.015324793
150	0xbdd8efc7	-0.10592609
151	0x3d5db518	0.054127783
152	0xbd5e96b1	-0.05434293
153	0xbc8ec1de	-0.017426427
154	0x3d3a4f1a	0.045485593
155	0xbd7bd8bc	-0.06148599
156	0x3d8df688	0.06931788
157	0x3d52c302	0.051455505
158	0x3ba07864	0.004897164
159	0x3df8a408	0.121406615
160	0x3d95e755	0.07319514
161	0xbd2c638e	-0.04208713
162	0x3ce9cb29	0.028539257
163	0x3d80f3f5	0.06296531
164	0xbdd0ab8f	-0.10188972
165	0xbe05fbb2	-0.13084295
166	0x3dbc8a1d	0.092060305
167	0x3c027240	0.00796181
168	0xbdc41845	-0.095749415
169	0x3e0b4f00	0.13604355
170	0xbda9c556	-0.08289592
171	0x3c8766a9	0.016528444
172	0xbdd84007	-0.10559087
173	0xbd9d4580	-0.07679272
174	0xbd6a155f	-0.057149287
175	0xbdbfbe84	-0.0936251
176	0x3e0f750d	0.14009495
177	0x3dc48586	0.0959578
178	0xbd6753d0	-0.056476414
179	0x3abc22fc	0.0014353688
180	0x3d613c56	0.05498918
181	0xbcae7810	-0.021297485
182	0xbdd0aaab	-0.10188802
183	0x3ccd8a8f	0.025090484
184	0x3af6cc5c	0.0018829214
185	0x3d21df1a	0.039519407
186	0x3e0909f5	0.13382705
187	0x3c1ef1df	0.009701221
188	0xbcda9beb	-0.026685676
189	0x3d8bdb8d	0.06828985
190	0xbcb232a8	-0.02175267
191	0xbd304b65	-0.04304065
192	0xbcfb3208	-0.030663505
193	0xbe092052	-0.13391235
194	0x3ce4bf89	0.027923362
195	0x3d1d0f65	0.03834476
196	0xbd9dbb01	-0.07701684
197	0xbcb81294	-0.022469796
198	0xbc9283cd	-0.017885113
199	0x3d4a63bf	0.04941153
200	0xbd2c994b	-0.04213838
201	0x3dd28403	0.102790855
202	0xbd163e12	-0.03668029
203	0xbe3ad36d	-0.18244715
204	0x3d17eb23	0.03708948
205	0x3e1a3949	0.15060915
206	0xbb8c9d24	-0.0042911936
207	0x3d65fefb	0.05615137
208	0xbc90a057	-0.017654581
209	0xbc5482e8	-0.012970664
210	0x3d828ed0	0.063748956
211	0x3d557786	0.05211594
212	0x3d82b20d	0.06381617
213	0x3d86f88b	0.065903746
214	0xbe00f52d	-0.12593527
215	0xbc99d467	-0.01877804
216	0x3debf473	0.11521234
217	0x3c5554b6	0.013020685
218	0xbde667d6	-0.11250274
219	0xbb921bbd	-0.004458873
220	0x3e05954e	0.13045236
221	0xbdbed468	-0.09317857
222	0xbd11123b	-0.035417777
223	0x3d477af3	0.048701238
224	0x3e00543f	0.12532137
225	0xbcfd5004	-0.030921943
226	0x3c7339fa	0.014845366
227	0xbbe9eab1	-0.007138573
228	0x3d3055a4	0.043050423
229	0xbc95c41d	-0.01828199
230	0xbe000363	-0.12501292
231	0x3e2a7bca	0.16648784
232	0x3da5ca77	0.08095258
233	0x3ace7d58	0.0015753908
234	0xbae5ed51	-0.0017542039
235	0x3d63504d	0.055496503
236	0xbca4f7c9	-0.020137684
237	0x3d13a505	0.036046047
238	0x3d0f7678	0.03502509
239	0xbe0bbd29	-0.13646378
240	0xbdcdc0eb	-0.10046562
241	0xbda972c4	-0.08273843
242	0xbd42d96c	-0.04757063
243	0xbd9d0d26	-0.076685235
244	0x3dba82ea	0.09107001
245	0x3dc659d5	0.09685103
246	0xbda44f4e	-0.08022939
247	0xbcbc267e	-0.022967573
248	0x3e2661f5	0.16248305
249	0xbe00e032	-0.12585524
250	0x3ce87add	0.028378898
251	0xbdd16d91	-0.10225976
252	0x3e81e0e7	0.253669
253	0x3ca11c8c	0.019666933
254	0x3d986f32	0.07443084
255	0x3c3039dc	0.010755982

AFeatRNN.bias_ih_l0 f4 [256]
0	0x3b121d28	0.002229521
1	0xbdc1f1ee	-0.094699726
2	0x3d45d529	0.04829899
3	0xbd7b24f4	-0.061314538
4	0xbdd1f102	-0.10251047
5	0x3da557b4	0.08073369
6	0x3e00426f	0.12525342
7	0x3db79ab9	0.08965058
8	0x3cbc4a4b	0.022984644
9	0x3df39c67	0.11895066
10	0xbd8aa9df	-0.067706816
11	0x3c85423c	0.016266935
12	0xbaaf1393	-0.0013357274
13	0x3ca5a225	0.020218918
14	0xbdcc4abe	-0.099751934
15	0x3cfd1530	0.030893892
16	0xbd498538	-0.049199313
17	0x3d8d2926	0.06892614
18	0x3dc2e563	0.09516408
19	0xbd856fea	-0.065154865
20	0xbd9d247c	-0.076729745
21	0x3d774183	0.06036521
22	0xbd0a0473	-0.03369565
23	0x3d8aebaf	0.06783234
24	0x3decd783	0.11564543
25	0x3db48dae	0.08816086
26	0xbdf1c197	-0.118045025
27	0xbda68521	-0.08130861
28	0x3c8fea17	0.017567677
29	0xbdc66b98	-0.09688491
30	0x3dea999e	0.114550814
31	0xbb982b40	-0.0046438277
32	0x3dbf2ecc	0.09335098
33	0xbdbe4707	-0.09290891
34	0xbde8e54c	-0.1137186
35	0x3dfcd242	0.12344791
36	0xbd3ab870	-0.04558605
37	0xbd1786f1	-0.036993925
38	0x3d91753a	0.07102437
39	0x3d2cff85	0.04223587
40	0x3c825878	0.015911326
41	0x3caff5a0	0.021479428
42	0xbdd1a45d	-0.10236428
43	0xbde4d5fd	-0.111736275
44	0x3de30164	0.110842496
45	0x3e248d78	0.16069591
46	0x3de39525	0.111124314
47	0x3dd5ce35	0.104397215
48	0x3de46bf7	0.11153405
49	0xbda05b66	-0.07829933
50	0x3db959ea	0.09050353
51	0xbd8d506d	-0.069001056
52	0xbc6716c5	-0.01410455
53	0xbdd81279	-0.105503984
54	0xbd4cc5c1	-0.04999328
55	0xbd976f6f	-0.07394301
56	0x3d2bd4b0	0.04195088
57	0x3e1e6cc9	0.15471186
58	0x3dca5e3d	0.09881256
59	0x3e0cf856	0.13766608
60	0x3ddb12c2	0.10696937
61	0x3d2cd6c6	0.04219701
62	0xbd8a1a16	-0.06743257
63	0xbdab9de4	-0.083797246
64	0x3c07ea7e	0.008295653
65	0xbd328d37	-0.043591704
66	0xbdd270e9	-0.10275442
67	0xbd48fe0d	-0.049070407
68	0x3dbed5d9	0.09318132
69	0xbe07a9d7	-0.13248383
70	0x3c3dfd15	0.011595984
71	0xbdd0058d	-0.10157309
72	0x3d332953	0.04374058
73	0x3e0f35a8	0.13985312
74	0xbccaecfe	-0.02477121
75	0xbdcad2d5	-0.09903494
76	0xbd1c3d4a	-0.038144387
77	0xbdfacf99	-0.12246627
78	0xbd2a7d46	-0.041623376
79	0xbd1a5033	-0.03767414
80	0xbca4f1bf	-0.020134805
81	0x3ccd7b1c	0.025083117
82	0xbdd89203	-0.105747245
83	0x3d6af123	0.057358872
84	0x3dc98f38	0.0984177
85	0xbdb43776	-0.08799641
86	0x3e04cfb7	0.12969862
87	0x3d21d943	0.039513838
88	0x3d0e11e5	0.034685034
89	0x3c5e7662	0.013578029
90	0xbca1e48e	-0.019762304
91	0xbdc145a4	-0.09437111
92	0xbd1b8e5d	-0.037977565
93	0x3dbe9241	0.093052395
94	0xbdae2298	-0.08502692
95	0x3d584cc1	0.052807573
96	0xbce543bc	-0.0279864
97	0x3dc231d2	0.09482159
98	0xbd2a8f35	-0.04164048
99	0x3dc056be	0.09391545
100	0x3d0f6d79	0.03501651
101	0xbddd0251	-0.107914574
102	0xbda778df	-0.08177351
103	0x3b79244e	0.0038016024
104	0xbc96e8e0	-0.01842159
105	0x3dde392b	0.10850748
106	0xbd25ebd8	-0.04050812
107	0xbc02f891	-0.007993833
108	0xbe0dc528	-0.1384474
109	0x3da50c3a	0.08058973
110	0x3daf88ba	0.085710004
111	0xbc62fba8	-0.013853945
112	0xbd815684	-0.0631533
113	0x3d559c7b	0.052151185
114	0x3cd4f423	0.02599532
115	0xbd8fa32e	-0.07013546
116	0xbdb956ab	-0.09049734
117	0x3d666a93	0.05625398
118	0xbd92e24d	-0.0717207
119	0x3c25991f	0.010107308
120	0xbce59e83	-0.028029686
121	0x3d713278	0.05888602
122	0x3c1a7b0d	0.009428752
123	0x3a002c85	0.00048894464
124	0xbde5f14f	-0.112276666
125	0xbca22a62	-0.0197956
126	0x3d3336cf	0.04375344
127	0x3dbf8776	0.09352009
128	0xbd5de999	-0.054177854
129	0x3d1ebcbe	0.038754217
130	0xbd4848a7	-0.04889741
131	0xbcea5993	-0.028607165
132	0x3d2f9490	0.04286629
133	0x3dfad8ad	0.12248359
134	0x3df6fd65	0.1206005
135	0xbcf71ea8	-0.030165985
136	0xbe0526fe	-0.13003156
137	0x3afa0b9a	0.0019076944
138	0xbdaf95cd	-0.08573494
139	0x3d9e1045	0.07717947
140	0x3defec53	0.11714997
141	0x3d1cb75e	0.03826081
142	0xbdda5299	-0.106602855
143	0xbddf395a	-0.10899611
144	0xbd66ce7c	-0.056349263
145	0x3d857f7c	0.06518456
146	0xbdf5fecf	-0.120114915
147	0xbc1301c0	-0.008972585
148	0xbc4d4c4e	-0.0125303995
149	0x3d7ce742	0.061743982
150	0x3d9bad3d	0.07601402
151	0x3c858d0e	0.016302612
152	0x3c037266	0.00802288
153	0xbd057e44	-0.03259112
154	0x3d98876c	0.07447705
155	0x3d2297f6	0.039695702
156	0xbd1a67ed	-0.037696768
157	0x3dae33b6	0.08505957
158	0xbd3f2586	-0.046666645
159	0xbd5e1526	-0.054219387
160	0x3d356738	0.04428789
161	0xbb1b0bfa	-0.0023658262
162	0x3dd2df36	0.1029648
163	0x3d0f5af1	0.034998838
164	0xbce941bf	-0.028473733
165	0x3d5cbade	0.053889148
166	0x3d8bc108	0.06823927
167	0xbde98774	-0.11402789
168	0xbd9527d3	-0.072829865
169	0xbc81bd22	-0.015837256
170	0xbcb494f9	-0.022043692
171	0xbab736b6	-0.0013978097
172	0xbc9b4951	-0.018955858
173	0x3daf05e1	0.08546043
174	0xbce65e32	-0.028121088
175	0xbc997356	-0.018731754
176	0x3dad0255	0.084477104
177	0xbceab217	-0.028649373
178	0xbdba8e19	-0.09109134
179	0x3d6e62cf	0.0581997
180	0x3debc02b	0.115112625
181	0xbbce6ee5	-0.0062998408
182	0xbdb3619a	-0.087588504
183	0x3c2417c4	0.010015432
184	0x3d47d765	0.0487894
185	0x3d9346ac	0.07191214
186	0x3d4497f1	0.047996465
187	0xbd19dc3e	-0.037563555
188	0xbdb3e011	-0.08782972
189	0xbde349ca	-0.110980585
190	0x3dddce8b	0.108304106
191	0xbe02f8cb	-0.1279022
192	0x3d252f6e	0.040328436
193	0x3d40664e	0.046972565
194	0xbdea55e4	-0.114421636
195	0xbc79e709	-0.015252837
196	0xbc86936b	-0.016427716
197	0xbcef4693	-0.029208457
198	0xbd957cb5	-0.072991766
199	0x3d5385d9	0.05164132
200	0xbd788b05	-0.060679454
201	0xbe08e450	-0.13368344
202	0xbd085c61	-0.033291224
203	0x3ca67642	0.020320062
204	0x3e02f489	0.12788595
205	0xbd8cc6ed	-0.068738796
206	0xbda4579c	-0.08024523
207	0xbdb97dd1	-0.09057201
208	0x3daf8a43	0.08571293
209	0x3dcb8d11	0.09939016
210	0xbdb5bbb2	-0.08873691
211	0x3d1df759	0.038565967
212	0x3df93667	0.121685795
213	0x3d92aa68	0.07161409
214	0xbd4caeb7	-0.04997131
215	0x3d132950	0.03592807
216	0x3df2c7bf	0.11854505
217	0x3cf1d56a	0.029520709
218	0xbd8741ee	-0.06604372
219	0x3c90ada4	0.017660923
220	0xbd9dfc56	-0.07714145
221	0x3d9c7b3f	0.07640695
222	0x3e0d6496	0.13807902
223	0xbc593ab4	-0.013258625
224	0xbdb065b5	-0.08613149
225	0x3d41fa44	0.047357813
226	0x3b1a28b2	0.0023522791
227	0x3e09050d	0.13380833
228	0x3c3603fc	0.011109348
229	0x3d916006	0.07098393
230	0x3de6a498	0.112618625
231	0xbd8ccd69	-0.068751164
232	0xbc29f87a	-0.010374183
233	0xbd897109	-0.06711013
234	0x3dfed79f	0.1244347
235	0xbdd1fe2c	-0.102535576
236	0x3c63befb	0.013900514
237	0xbd2d47cd	-0.042304803
238	0x3db3d5a9	0.08780987
239	0xbdc64fb6	-0.096831724
240	0x3dc098bd	0.094041325
241	0x3d8f82fe	0.07007407
242	0x3defe02f	0.117126815
243	0xba2f836d	-0.0006695304
244	0xbd8a05e3	-0.06739404
245	0x3dc2538f	0.09488594
246	0x3bc837d9	0.006110173
247	0xbb9a547f	-0.0047097798
248	0xbd8c98d9	-0.06865091
249	0xbd246240	-0.04013276
250	0x3db76d76	0.08956425
251	0xbbb40aad	-0.0054944367
252	0xbd39f9f4	-0.04540439
253	0xbda038fb	-0.07823368
254	0xbb3e2faf	-0.002902012
255	0xbdc999f9	-0.09843821

AFeatRNN.bias_hh_l0 f4 [256]
0	0x3de05b57	0.10954922
1	0xbd7edd32	-0.062222667
2	0x3c3f37d8	0.011671029
3	0x3dbb61e8	0.091495335
4	0xbd59dab0	-0.053187072
5	0xbd53ba46	-0.051691316
6	0x3ba2a9e0	0.0049640983
7	0xbd7c8f14	-0.061659887
8	0xbd2dfdac	-0.04247825
9	0x3cb15d04	0.021650799
10	0x3d870b87	0.065939955
11	0x3cfd4887	0.030918373
12	0xbd06695c	-0.032815322
13	0x3b4347de	0.0029797475
14	0x3d124d5c	0.035718307
15	0xbd1905b2	-0.037358947
16	0xbd2b5e32	-0.04183788
17	0x3dddd399	0.10831375
18	0xbd56cdac	-0.052442238
19	0xbc57b8c4	-0.01316661
20	0xbde018ec	-0.109422535
21	0xbd8e7e0e	-0.06957637
22	0xbd595836	-0.05306264
23	0x3d245261	0.040117625
24	0x3e17bf8a	0.1481916
25	0x3d4a7a71	0.049433175
26	0xbdd516f5	-0.10404769
27	0x3d4c2021	0.049835328
28	0xb9ed6d36	-0.0004528553
29	0x3d03f81c	0.032219037
30	0xbc1d81d1	-0.00961347
31	0xbd84d989	-0.06486804
32	0x3ded1483	0.11576178
33	0xbd987ef7	-0.074460916
34	0x3dc0f2a2	0.094212785
35	0xbd6fe8de	-0.05857169
36	0xbd6b6e49	-0.057478223
37	0xbc928c1c	-0.017889075
38	0x3b8d1287	0.004305187
39	0x3d80c6ec	0.06287941
40	0xbdf50113	-0.119630955
41	0xbd5a6aa2	-0.05332435
42	0x3c7b1116	0.015323898
43	0xbc91ecb1	-0.017813059
44	0x3d9a7600	0.07542038
45	0x3def0076	0.1167001
46	0xbc80f490	-0.015741616
47	0x3da34580	0.079722404
48	0xbcb7bb0e	-0.022428062
49	0x3dff3d01	0.124628074
50	0x3da9bc9e	0.08287929
51	0x3dcc4701	0.099744804
52	0x3cc6bfe7	0.024261428
53	0x3da4651d	0.08027098
54	0xbc3a34a6	-0.011365091
55	0x3dc84671	0.09779061
56	0xbc945303	-0.01810599
57	0x3c97705b	0.018486192
58	0xbd9b7a30	-0.07591665
59	0xbd7cc193	-0.061708044
60	0x3d17873e	0.03699421
61	0x3dcaff78	0.09912008
62	0xbd940364	-0.07227209
63	0x3b3763ac	0.0027982993
64	0xbcc62141	-0.024185779
65	0xbd6bd3f9	-0.0575752
66	0xbdda7113	-0.106660984
67	0xbd59c020	-0.05316174
68	0x3d56c619	0.052435014
69	0x3d86463c	0.06556365
70	0xbdc0798d	-0.09398184
71	0xbd7c9a85	-0.0616708
72	0x3c747346	0.014920061
73	0x3d3cee91	0.046125952
74	0xbd80ee9c	-0.06295511
75	0xbd911a31	-0.07085074
76	0xbd838468	-0.06421739
77	0xbd9d1085	-0.076691665
78	0x3cd6c166	0.026215266
79	0xbdeafe65	-0.11474303
80	0xbd6baacb	-0.057535928
81	0xbd1f9905	-0.03896429
82	0xbd6f763d	-0.05846237
83	0x3c499d60	0.0123055875
84	0x3e0ae55b	0.13564055
85	0x3aef2129	0.0018244135
86	0xbdc4b144	-0.09604123
87	0xbe1867ae	-0.148833
88	0xbdf1a4fa	-0.11799045
89	0x3ced134e	0.02893987
90	0x3cb2ba98	0.02181749
91	0xbd80b9ca	-0.062854365
92	0xbe119cdb	-0.14219992
93	0x3d5a7bd7	0.05334076
94	0x3cf2e38b	0.029649517
95	0xbd740f9f	-0.05958521
96	0x3cb4a180	0.022049665
97	0x3dc6362e	0.09678303
98	0x3dcb30a5	0.099213876
99	0x3d307cdb	0.04308782
100	0x3db14f2f	0.08657681
101	0x3dec5b57	0.11540859
102	0x3d1e23c8	0.038608342
103	0x3e09661c	0.13417858
104	0xbd358663	-0.044317614
105	0xbdbb9fa4	-0.091613084
106	0x3d6f2ba9	0.058391247
107	0xbd6bfe13	-0.05761535
108	0xbd2b08e7	-0.041756537
109	0xba7da45a	-0.00096756744
110	0xbba6b3eb	-0.005087366
111	0xbe12da20	-0.1434102
112	0xbc051811	-0.008123414
113	0x3dcae92b	0.099077545
114	0xbc48bbfe	-0.012251852
115	0x3d8202ad	0.063481666
116	0x3dae7815	0.085189976
117	0xbdb1c2f5	-0.08679763
118	0xbdebfd32	-0.115229025
119	0x3d5d9c35	0.05410405
120	0xbd0fe764	-0.03513278
121	0xbdb399a0	-0.08769536
122	0xbc41431f	-0.011795788
123	0xbd2a8cc0	-0.041638136
124	0x3d418648	0.0472472
125	0xbd8da62b	-0.0691646
126	0xbd650b71	-0.055919115
127	0xbc811db5	-0.015761236
128	0xbd51be05	-0.051206607
129	0xbdbd0853	-0.09230103
130	0x3dbd4725	0.09242085
131	0xbdbcefd0	-0.09225428
132	0xbd6014a7	-0.054707196
133	0x3def63dd	0.11688969
134	0x3dcf28ef	0.10115229
135	0x39ace54f	0.00032977245
136	0xbdf3e0cf	-0.11908113
137	0xbdab487d	-0.083634354
138	0xbd8d0557	-0.06885784
139	0x3d135b57	0.03597578
140	0xbce3ffd0	-0.027831942
141	0xbd0d07c0	-0.03443122
142	0xbd8a9e7d	-0.067685105
143	0xbdd86f22	-0.10568072
144	0xbda2495d	-0.07924149
145	0x3da67a16	0.08128755
146	0xbd2ceb42	-0.042216547
147	0xbda3e00e	-0.080017194
148	0xbdb0c3c7	-0.086310916
149	0x3d6d8ee4	0.0579976
150	0xbd3bd7f7	-0.045860257
151	0xbdb6f0a4	-0.08932617
152	0x3d974e56	0.07387988
153	0x3da6fc12	0.08153547
154	0xbdbcacf6	-0.09212677
155	0x3db46a95	0.088093914
156	0xbd263e71	-0.040586893
157	0x3d87b5f6	0.06626503
158	0x3d80989d	0.06279109
159	0x3daa8f4e	0.083281144
160	0xbd1637d1	-0.036674324
161	0x3d105588	0.03523782
162	0x3ddb5d92	0.107112065
163	0xbdcb002f	-0.099121444
164	0x3deb8f2e	0.11501919
165	0xbdd36289	-0.103215285
166	0xbc6add7f	-0.014335035
167	0x3d599193	0.053117346
168	0xbcbf040b	-0.023317358
169	0xbd9729b4	-0.07381001
170	0xbd2f75d2	-0.04283697
171	0x3d9cf04e	0.07663022
172	0xbcae4fc9	-0.021278279
173	0x3d66aeb4	0.056318954
174	0xbde449f4	-0.11146918
175	0xbd82bef3	-0.06384077
176	0xbdb0695f	-0.08613848
177	0xbd62f333	-0.055407714
178	0x3d8174e9	0.06321127
179	0xbdc75bf9	-0.09734339
180	0xbdd8c36f	-0.10584151
181	0xbd9034ed	-0.07041345
182	0x3dda6376	0.10663502
183	0x3d3e5486	0.046467327
184	0xbd9bf9f5	-0.07616035
185	0xbc832855	-0.016010443
186	0xbdb277fb	-0.08714291
187	0x3d221187	0.039567497
188	0xbbb6f10d	-0.0055829347
189	0x3c57481f	0.013139754
190	0xbd904ed0	-0.07046282
191	0xbdfb0fe8	-0.12258893
192	0x3c146128	0.009056367
193	0x3c634bf6	0.013873091
194	0x3c4195cb	0.011815499
195	0xbd7815f6	-0.06056782
196	0xbd9fd7a1	-0.078048
197	0xbdc82d0a	-0.097742155
198	0xbdc987d9	-0.09840364
199	0xbc818738	-0.015811548
200	0x3d75ad1f	0.059979554
201	0x3d8f7bfb	0.07006069
202	0x3dc5141d	0.09622977
203	0x3d878d84	0.06618789
204	0x3d685511	0.05672175
205	0x3d3d52f5	0.046221692
206	0x3db6aed2	0.08920063
207	0x3cdb597d	0.02677607
208	0x3db99333	0.09061279
209	0xbcc92f9d	-0.024558837
210	0xbdccde6e	-0.100033626
211	0xbd820cdc	-0.06350109
212	0x3d2a9590	0.04164654
213	0x3d1a3082	0.037643917
214	0x3db8c968	0.0902279
215	0xbddf4333	-0.10901489
216	0xbd629af4	-0.055323556
217	0xbc829113	-0.015938317
218	0x3df30568	0.118662655
219	0x3da0a6aa	0.07844289
220	0xbdae342a	-0.08506043
221	0x3dc7d7d5	0.097579636
222	0x3de41b70	0.11138046
223	0x3d119481	0.035542015
224	0x3c8c30a9	0.017113047
225	0xbd0bc52a	-0.034123577
226	0x3c2031fd	0.009777543
227	0x3db55362	0.08853795
228	0xbdff0573	-0.12452211
229	0xbba25e7a	-0.00495511
230	0xb880993d	-6.1320585e-05
231	0x3c217e2f	0.009856745
232	0xbd89f793	-0.06736674
233	0x3dc22648	0.09479958
234	0x3e095593	0.1341155
235	0xbd7ebbec	-0.062190935
236	0x3dd8de65	0.105892934
237	0x3e1a3694	0.15059882
238	0xbd03f1d5	-0.03221305
239	0xbcbf5c5c	-0.02335947
240	0x3dc014d3	0.09378972
241	0x3cd39f07	0.025832666
242	0x3d901bab	0.07036527
243	0xbd81a3a9	-0.06330044
244	0xbcd80b37	-0.026372535
245	0x3e000bf2	0.12504557
246	0x3d40c4a6	0.04706254
247	0x3c4778a6	0.012174761
248	0xbd70631d	-0.05868827
249	0x3e189498	0.14900434
250	0xbdade730	-0.08491361
251	0x3dfbddae	0.122981414
252	0x3d3103cf	0.043216523
253	0x3de3b1bc	0.111178845
254	0xbcc27d95	-0.023741523
255	0xbd85352c	-0.06504282

AFeatRNN.weight_ih_l1 f4 [256, 64]
0	0x3d8b460d	0.068004705
1	0xbe07c6ca	-0.13259426
2	0xbdcec5ab	-0.10096296
3	0xbda162d1	-0.07880176
4	0x3d2326ae	0.03983181
5	0x3d9f2cbd	0.07772205
6	0x3d7cce93	0.061720442
7	0x3cf32c26	0.029684138
8	0x3df4bd88	0.11950213
9	0x3c30aa17	0.01078274
10	0xbc89b4b5	-0.0168098
11	0xbe7500d5	-0.23926099
12	0x3e613fa8	0.21996939
13	0xbde53333	-0.11191406
14	0xbddbd9af	-0.10734879
15	0xbd139843	-0.03603388
16	0x3db9304b	0.09042414
17	0xbcf9884a	-0.030460496
18	0xbe1adb71	-0.15122773
19	0xbd260b73	-0.040538263
20	0xbe0640e4	-0.13110691
21	0x3e405014	0.18780547
22	0xbc55b4b6	-0.013043573
23	0x3cc0108c	0.02344539
24	0x3d22695f	0.03965127
25	0x3d12991a	0.03579054
26	0xbd9b417b	-0.07580849
27	0xbd033c8a	-0.032040156
28	0x3d6a1346	0.057147287
29	0xbd1080ac	-0.03527896
30	0xbe1cd073	-0.15313892
31	0x3e931a11	0.28730825
32	0x3ccead6d	0.02522918
33	0xbde717e9	-0.112838574
34	0xbd9fed1a	-0.078088954
35	0xbdb17fa2	-0.08666922
36	0x3cacb9c0	0.021084666
37	0xbdd396e2	-0.10331513
38	0xbe18dc0e	-0.14927694
39	0xbc893065	-0.01674671
40	0x3cafba89	0.021451252
41	0x3d96054d	0.0732523
42	0xbd9e7743	-0.07737591
43	0xbdb9291a	-0.090410426
44	0x3b8f1bae	0.0043673133
45	0x3e26967e	0.16268346
46	0x3c962800	0.01832962
47	0xbdee577f	-0.11637782
48	0xbd362eac	-0.044478104
49	0xbde473f4	-0.11154929
50	0x3e17913e	0.14801499
51	0x3e041a30	0.12900615
52	0xbdb5d5ca	-0.08878668
53	0xbbc33014	-0.005956659
54	0xbd331b9b	-0.0437275
55	0xbe06a2a7	-0.13147984
56	0x3dd1bceb	0.10241111
57	0xbdab21fb	-0.08356091
58	0x3db53da1	0.088496454
59	0xbdaa28af	-0.08308541
60	0x3e4f0c1c	0.20219463
61	0xbdaeb5a7	-0.08530741
62	0x3e12ea2a	0.14347139
63	0x3e61a77e	0.2203655
64	0x3cc9adf0	0.024619073
65	0xbdb387d5	-0.08766142
66	0xbdaed580	-0.08536816
67	0xbdd04f92	-0.10171427
68	0x3cece931	0.028919788
69	0xbceb689c	-0.028736405
70	0xbcdcec02	-0.026968006
71	0xbd27e721	-0.040991906
72	0xbd1dd291	-0.03853089
73	0x3e40bcbe	0.18822
74	0xbca472d4	-0.020074286
75	0xbd73f374	-0.059558347
76	0x3e350970	0.17679381
77	0xbc77f6ad	-0.015134496
78	0xbd6f99bd	-0.058496226
79	0xbe3d9637	-0.18514334
80	0x3d254767	0.040351298
81	0xbe036760	-0.12832403
82	0xbd31ac20	-0.04337704
83	0xbc4f99f6	-0.0126709845
84	0x3d501ffe	0.05081176
85	0x3e135f0d	0.14391728
86	0x3dedd109	0.11612136
87	0xbc87f26b	-0.016595086
88	0xbd41ebf8	-0.047344178
89	0x3e28ce15	0.16484864
90	0xbe33b2c0	-0.17548656
91	0x3d45b2fe	0.048266403
92	0x3cc5c805	0.024143228
93	0xbe44c86b	-0.19217078
94	0xbd243e6e	-0.0400986
95	0x3e674039	0.22583093
96	0x3d8d8be3	0.06911447
97	0x3e0db46f	0.13838361
98	0xbe5d9bb4	-0.21641427
99	0xbe1e359a	-0.15450135
100	0x3e050b61	0.12992622
101	0xbd2fb487	-0.042896774
102	0xbc7680a4	-0.015045319
103	0x3d812b4f	0.063070886
104	0x3e3f73ac	0.18696469
105	0x3e27cf80	0.16387749
106	0x3bdf962f	0.006823323
107	0xbe27aaab	-0.16373698
108	0x3d27ab4f	0.040934857
109	0x3c366a09	0.011133679
110	0x3e4b4c58	0.19853342
111	0x3df6d72d	0.1205276
112	0x3c978900	0.018497944
113	0x3d06ecb1	0.03294057
114	0x3c67b1bf	0.014141499
115	0x3b098b26	0.002098748
116	0x3ccb816d	0.024841988
117	0xbc289763	-0.01029
118	0x3c136c02	0.008997919
119	0xbe046d98	-0.12932432
120	0x3e77cda7	0.24199544
121	0xbe0c9f68	-0.13732684
122	0x3de0029a	0.10937996
123	0xbad21bb4	-0.0016029985
124	0x3e59eaac	0.21280926
125	0x3da734f7	0.08164399
126	0x3dd7d0a1	0.1053784
127	0x3da287be	0.07936047
128	0xbe27e7d2	-0.16397026
129	0xbe4d19cd	-0.20029373
130	0xbd56a552	-0.052403755
131	0x3cd1eb57	0.025624914
132	0x3e0555d3	0.1302102
133	0xbda8745e	-0.0822532
134	0xbc901cb4	-0.017591812
135	0x3de623c1	0.11237288
136	0x3e074175	0.13208564
137	0xbd0f7e31	-0.035032455
138	0x3e31c0f0	0.17358756
139	0xbdd36173	-0.10321321
140	0x3da7861f	0.081798784
141	0x3cda4e64	0.026648708
142	0x3d3ae105	0.04562475
143	0xbdd3328d	-0.10312376
144	0xbda01067	-0.078156285
145	0xbd07f138	-0.03318903
146	0xbdfa8bdd	-0.12233708
147	0x399a7073	0.0002945695
148	0xbcb6f6ac	-0.02233442
149	0x3e3748e9	0.17898907
150	0xbdc69f7e	-0.096983895
151	0xbd28b589	-0.04118875
152	0xbd2f69b2	-0.04282541
153	0xbd408ca2	-0.047009118
154	0xbd987dd6	-0.07445876
155	0xbe63721f	-0.22211502
156	0xbd529267	-0.05140915
157	0xbe0e358b	-0.13887613
158	0x3da691b5	0.0813326
159	0xbd533c32	-0.05157108
160	0x3d0957be	0.033530943
161	0x3e44ffb9	0.19238175
162	0xbe68b1f1	-0.2272413
163	0xbdde81b0	-0.1086458
164	0x3e2bbba4	0.16770798
165	0x3aeb2024	0.0017938656
166	0xbda669bd	-0.08125637
167	0xbc91c60f	-0.017794637
168	0x3d6fe00e	0.058563285
169	0x3e2f38cb	0.17111509
170	0xbdf026ac	-0.11726126
171	0x3e39d343	0.18146996
172	0xbe3744d9	-0.17897357
173	0xbe2c6a2b	-0.16837375
174	0xbd823655	-0.06358019
175	0x3e0c3bd0	0.13694692
176	0x3cec2b4e	0.028829243
177	0xbd367976	-0.044549428
178	0x3d5022e1	0.050814513
179	0x3d0e66a0	0.03476584
180	0xbe0aff5f	-0.13573979
181	0x3d0d40ba	0.034485556
182	0x3c65e25b	0.014031018
183	0x3e1a792f	0.1508529
184	0x3da83677	0.08213513
185	0xbd46eb04	-0.048563972
186	0xbb80445f	-0.0039144005
187	0xbbef0c5c	-0.0072951745
188	0xbcffe71b	-0.03123813
189	0x3d17912e	0.03700369
190	0x3e07932b	0.13239734
191	0x3dc03ae7	0.09386235
192	0xbd5fc033	-0.054626655
193	0x3e093d16	0.13402209
194	0x3c9647a6	0.018344712
195	0xbd92d736	-0.071699545
196	0xbe11f0d2	-0.14252022
197	0x3d858975	0.065203585
198	0x3d96cdda	0.07363482
199	0x3c07507c	0.008258935
200	0xbd8470c8	-0.06466824
201	0xbd2f0e78	-0.042738408
202	0x3dd7363e	0.10508393
203	0xbd0dafde	-0.03459155
204	0xbd23bac5	-0.03997304
205	0xbdf0a9a9	-0.1175111
206	0x3d7ad8fc	0.06124209
207	0x3cafa3b7	0.02144037
208	0xbdbf0718	-0.09327525
209	0xbe176126	-0.14783153
210	0x3c17429d	0.00923219
211	0x3d6395eb	0.055562895
212	0x3e575e65	0.21032102
213	0xbd079e1b	-0.033109765
214	0xbd9b9cbf	-0.07598256
215	0xbb40ec87	-0.0029437856
216	0xbd83bdca	-0.06432684
217	0x3e0660c9	0.13122858
218	0xbe040726	-0.12893352
219	0xbdd374c2	-0.10325004
220	0x3d357925	0.044304986
221	0xbb490ab4	-0.0030676546
222	0xbe9ded77	-0.30845234
223	0x3d54421e	0.051820867
224	0x3d81152e	0.06302868
225	0x3cd4a291	0.025956424
226	0x3df9122a	0.12161668
227	0xbddf2031	-0.10894812
228	0x3df7d40b	0.12100991
229	0x3e1b8970	0.15189147
230	0x3d8a00a4	0.067384034
231	0x3df4a21e	0.11944984
232	0xbd513c3a	-0.051082827
233	0xbb9f6533	-0.004864359
234	0xbe167b15	-0.1469539
235	0xbde21515	-0.11039177
236	0xbd248708	-0.04016784
237	0x3e0dc921	0.13846256
238	0xbcf870cf	-0.030327229
239	0xbd025977	-0.0318236
240	0xbe40f4d7	-0.18843399
241	0xbc507771	-0.01272379
242	0xbd9dc204	-0.07703021
243	0x3e2956bd	0.16536994
244	0xbd57693a	-0.052590586
245	0x3e3c3c70	0.1838243
246	0xbc5a820c	-0.01333667
247	0xbdc14451	-0.094368584
248	0x3e4888e4	0.1958347
249	0x3d994597	0.07483976
250	0xbe1e451a	-0.15456048
251	0xbe2d4836	-0.16922078
252	0x3e261d07	0.1622201
253	0x3d4d8f81	0.050185684
254	0x3df1c73a	0.118055776
255	0x3e7d06c2	0.24709609

AFeatRNN.weight_hh_l1 f4 [256, 64]
0	0xbdd6eef8	-0.104947984
1	0xbe0ffb59	-0.14060725
2	0xbd3ce827	-0.046119835
3	0x3d11c643	0.035589468
4	0xbdaa3984	-0.083117515
5	0x3e065635	0.13118823
6	0x3d4b8bb3	0.049693774
7	0x3c5fa683	0.013650539
8	0xbcc5e0f2	-0.024155114
9	0xbd750b3e	-0.059825175
10	0xbd2d9804	-0.0423813
11	0x3dbffd53	0.0937449
12	0x3bff4442	0.0077901194
13	0xbda0ab2b	-0.07845148
14	0xbe434b5a	-0.19071713
15	0xbd82df5c	-0.06390259
16	0x3bc33330	0.0059570298
17	0x3df336a5	0.11875657
18	0xbd203b66	-0.039119147
19	0x3e05d2b2	0.13068655
20	0x3d3c2c40	0.045940638
21	0x3de17c3c	0.11010024
22	0x3dc43a59	0.095814414
23	0xbd930f6d	-0.071806766
24	0xbd2c5c11	-0.04207999
25	0xbd9b25a8	-0.07575542
26	0xbda23453	-0.07920136
27	0xbaa46434	-0.001254207
28	0x3d3c3498	0.045948595
29	0x3d80a93c	0.06282279
30	0xbcf40167	-0.029785825
31	0xbd4d694f	-0.05014926
32	0x3d3ebc1a	0.046566106
33	0xbd3e3a9d	-0.046442617
34	0xbdcf3f0a	-0.101194456
35	0x3df9cde1	0.121974714
36	0x3ccc6201	0.024949076
37	0xbd8d63cf	-0.069038026
38	0xbd9004c9	-0.07032163
39	0xbc6be0fe	-0.014396904
40	0xbd956dea	-0.07296355
41	0xbdc5a625	-0.0965083
42	0xbda35a42	-0.079762
43	0x3c94a15c	0.018143348
44	0x3da8a516	0.08234613
45	0xbc35cb13	-0.01109578
46	0xbdd252a1	-0.102696665
47	0xbbb0e69f	-0.005398586
48	0x3de3d429	0.11124451
49	0xbde32733	-0.11091461
50	0x3dadc42e	0.08484684
51	0x3e22d35d	0.15900941
52	0x3daf3235	0.08554498
53	0x3d40414e	0.04693728
54	0xbddd2ef9	-0.10799975
55	0xbdf46adb	-0.119344436
56	0x3d091091	0.033463065
57	0xbdd0ed22	-0.102014795
58	0x3ddbd8c2	0.10734703
59	0x3db66e56	0.08907764
60	0x3cc0b087	0.023521675
61	0x3dae74ee	0.08518396
62	0xbd28b5a1	-0.04118884
63	0xbe195e37	-0.14977346
64	0x3ce3fc5d	0.027830297
65	0xbdc55c3a	-0.096367314
66	0xbd5d79f2	-0.054071374
67	0x3d0d988e	0.034569316
68	0x3dcad872	0.09904565
69	0xbd12a73c	-0.03580402
70	0xbd7a2ffa	-0.06108091
71	0x3d9e37da	0.077254966
72	0x3c12e562	0.008965822
73	0x3d7b4696	0.061346613
74	0x3dcaea8f	0.0990802
75	0x3c959cfe	0.018263336
76	0x3c663c8a	0.01405252
77	0x3bd2e795	0.006436298
78	0x3ca3ee7e	0.020011183
79	0x3d0c6a17	0.034280863
80	0xbdc81d03	-0.097711585
81	0x3cc3c67e	0.02389836
82	0xbdbacd78	-0.09121221
83	0xbda73c0d	-0.08165751
84	0xbd8dbdff	-0.069210045
85	0x3deac526	0.11463384
86	0xbc603c4a	-0.013686249
87	0x3dadc075	0.08483974
88	0xbe2437e5	-0.16036947
89	0x3d7f7791	0.062369887
90	0x3b882217	0.0041544545
91	0x3ca5fa29	0.020260887
92	0x3d0ee0ee	0.03488248
93	0xbd84a59d	-0.06476901
94	0x3d9f0a76	0.07765667
95	0xbd2c4d23	-0.04206575
96	0xbde3054e	-0.11084996
97	0xbd3d95ba	-0.04628537
98	0xbddaf145	-0.1069055
99	0xbdabd773	-0.08390703
100	0xbd8432a7	-0.06454974
101	0xbd7e3682	-0.0620637
102	0x3e1953ca	0.14973369
103	0x3ce5f6fb	0.028071871
104	0xbde1d10c	-0.11026201
105	0x3dc823af	0.09772431
106	0xbc4386e3	-0.011934015
107	0xbddaf8c2	-0.10691978
108	0x3dd54396	0.104132816
109	0x3e07ea3a	0.13272944
110	0x3d8d3072	0.06894006
111	0xbb00b1c0	-0.0019637197
112	0xbd8c3a64	-0.06847075
113	0xbc019a83	-0.007910374
114	0xbd055959	-0.03255591
115	0xbdbd0332	-0.09229125
116	0x3cf8c99d	0.030369574
117	0xbd4741f7	-0.048646893
118	0x3d032d96	0.032025896
119	0x3de15ed9	0.11004419
120	0x3d848f9a	0.06472702
121	0x3dce4c1c	0.100731105
122	0xbd5505f8	-0.052007645
123	0xbe0f3328	-0.13984358
124	0xbdc45750	-0.09586966
125	0xbd92f952	-0.0717646
126	0x3dae6586	0.08515458
127	0x3c9ebb88	0.019376531
128	0x3dc18155	0.09448496
129	0xbe1d448c	-0.1535818
130	0xbe30f287	-0.17280017
131	0xbc8e4191	-0.017365249
132	0xbd85a2bd	-0.065251805
133	0x3db56c80	0.08858585
134	0xbdd67d9f	-0.10473179
135	0x3d394fd5	0.04524215
136	0xbd05779f	-0.032584783
137	0x3d26a180	0.040681362
138	0x3dc574ef	0.09641444
139	0x3d5af993	0.05346067
140	0x3dd5d11d	0.10440276
141	0xbde305f2	-0.11085118
142	0xbd699d33	-0.057034682
143	0xbd36a892	-0.044594355
144	0xbe35d857	-0.17758308
145	0x3d57881b	0.052620035
146	0x3e07a59c	0.13246769
147	0x3c0599c5	0.008154337
148	0xbdf0c13d	-0.11755607
149	0xbdd122d0	-0.10211718
150	0xbba02828	-0.0048875995
151	0x3de07c76	0.10961239
152	0x3cbf51b6	0.023354392
153	0xbe22535e	-0.15852115
154	0x3dd34b82	0.10317136
155	0x3db5174a	0.08842333
156	0xbddefdf8	-0.108882844
157	0xbd20b8d3	-0.039238762
158	0xbe0b8454	-0.13624698
159	0x3c95dce4	0.018293805
160	0x3d9bef8a	0.07614048
161	0x3e156a9e	0.14591452
162	0x3cb9931d	0.022653157
163	0xbc939847	-0.018016947
164	0xbd6fb471	-0.05852169
165	0x3da5d633	0.08097496
166	0xbc81d609	-0.01584913
167	0x3e3dfea6	0.18554172
168	0xbd95de12	-0.07317747
169	0x3c24f0cc	0.010067176
170	0x3d9b1190	0.07571709
171	0x3d586f46	0.052840494
172	0x3dc100b3	0.094239615
173	0x3d0512ac	0.03248851
174	0xbd9ce48a	-0.07660778
175	0x3d022221	0.03177083
176	0xbdd815db	-0.105510436
177	0x3c74069a	0.014894152
178	0x3e37ef68	0.1796242
179	0x3e20c9fc	0.15702051
180	0x3b10d65e	0.002210043
181	0x3e12845d	0.14308305
182	0x3d271798	0.040793985
183	0x3dc7ab40	0.0974946
184	0x3dea1fae	0.11431824
185	0xbd87f821	-0.06639124
186	0x3d853891	0.0650493
187	0x3cf31e84	0.029677637
188	0xbe327725	-0.17428263
189	0x3e29e21b	0.16590159
190	0x3deb4241	0.11487246
191	0x3e144da1	0.14482738
192	0x3de1f263	0.1103256
193	0xbdeae38e	-0.11469184
194	0xbca0c203	-0.019623762
195	0xbc6a6425	-0.014306103
196	0x3d9b74c8	0.07590634
197	0x3cc3b965	0.023892114
198	0x3ac52910	0.0015042145
199	0x3c7eda47	0.015554971
200	0xbe26b2fc	-0.16279215
201	0x3cdffa64	0.027341075
202	0x3de1848a	0.11011608
203	0x3ddf4077	0.109009676
204	0x3ce60d0a	0.02808239
205	0x3ded63c1	0.11591292
206	0xbb8091d6	-0.003923635
207	0x3c91f621	0.017817559
208	0xbd2ccf57	-0.042189922
209	0xbdc8b422	-0.097999826
210	0xbd721eec	-0.05911152
211	0x3dd2a429	0.10285217
212	0xbcc3a3b5	-0.023881773
213	0x3d237177	0.03990313
214	0x3b44e5c2	0.0030044173
215	0xbd956de4	-0.072963506
216	0xbc245eb1	-0.010032342
217	0x3bb48dca	0.0055100666
218	0x3c9c4555	0.019076029
219	0xbe1c1229	-0.15241303
220	0x3c21a3d3	0.009865719
221	0x3cad59d6	0.021161001
222	0xbd17895a	-0.036996223
223	0x3d82fade	0.06395505
224	0xbd67a6d1	-0.056555573
225	0xbd5f3016	-0.054489218
226	0x3c93d1b4	0.01804433
227	0xbdd525be	-0.104075894
228	0xbde84cc3	-0.11342766
229	0xbd2942bc	-0.04132341
230	0xbdf434d0	-0.11924136
231	0xbd406673	-0.046972703
232	0xbd54676c	-0.051856443
233	0x3dead2dc	0.114659995
234	0xbbd52381	-0.0065044765
235	0xb9895be9	-0.00026199155
236	0xbddfbeb9	-0.10925049
237	0x3e02cbf5	0.12773116
238	0xbdb3128d	-0.08743773
239	0x3d10a021	0.03530896
240	0x3bb90b72	0.0056471163
241	0x3dc539d5	0.09630171
242	0xbcacaa85	-0.021077404
243	0xbd555f1e	-0.052092664
244	0xbd71c3f0	-0.05902475
245	0x3debccce	0.11513673
246	0x3cfdef7c	0.030997984
247	0xbc65fc52	-0.014037209
248	0x3e1b4691	0.15163638
249	0x3ddce12f	0.10785138
250	0x3df0137b	0.117224656
251	0xbcb9e2d0	-0.02269116
252	0xbe0baf93	-0.13641195
253	0x3cd7e438	0.02635394
254	0x3d9145f2	0.07093419
255	0x3dcbfa00	0.09959793

AFeatRNN.bias_ih_l1 f4 [256]
0	0x3d92f87d	0.07176302
1	0x3dedcc9f	0.11611294
2	0x3e02593b	0.12729351
3	0xbd01dab4	-0.031702712
4	0x3db5a2c8	0.08868939
5	0x3bb76842	0.0055971453
6	0xbdb8ca21	-0.09022928
7	0x3db3b997	0.08775633
8	0x3dcdbed3	0.100461625
9	0xbc19d6e8	-0.009389617
10	0x3d136381	0.035983566
11	0xbc2e4033	-0.0106354235
12	0x3da62fb8	0.081145704
13	0x3c540253	0.012940007
14	0x3e4d036b	0.20020835
15	0x3d0e3004	0.03471376
16	0xbd2d7c67	-0.042354967
17	0x3db3557f	0.087565415
18	0x3ddf0b4b	0.10890826
19	0x3e2ac670	0.1667726
20	0xbd54baa4	-0.051935807
21	0x3e0a0f65	0.13482435
22	0x3db0cc00	0.0863266
23	0x3ceedb0f	0.02915719
24	0x3d5df6e0	0.054190516
25	0xbd9e3bdb	-0.0772626
26	0xbccfa193	-0.0253456
27	0x3d1f8737	0.03894731
28	0xbd47e9a3	-0.048806798
29	0xbc8d00f2	-0.017212365
30	0xbc06c589	-0.008225807
31	0xbdafa0e8	-0.08575612
32	0x3d9f58e2	0.07780625
33	0x3c7b87f1	0.015352235
34	0xbd379d2b	-0.04482762
35	0xbce86d12	-0.028372321
36	0xbb1cbe26	-0.0023917048
37	0x3e0255cc	0.12728041
38	0x3d84180c	0.06449899
39	0x3e087a99	0.13328017
40	0x3e2f64af	0.17128251
41	0xba84fc8c	-0.0010146066
42	0xbc983eb2	-0.018584583
43	0x3e10890e	0.14114782
44	0x3da06bb5	0.078330435
45	0xbba6b606	-0.005087617
46	0xbdbd646d	-0.0924767
47	0x3c0ad27b	0.008473034
48	0x3e206382	0.15662959
49	0x3e700619	0.23439826
50	0x3d9e4177	0.0772733
51	0x3e36e68c	0.17861384
52	0xbd0cce86	-0.034376644
53	0x3e16f542	0.14741996
54	0x3a750182	0.0009346233
55	0x3d5bafe8	0.053634554
56	0xbd872176	-0.06598179
57	0xbcf57872	-0.02996466
58	0x3d4af1b9	0.04954693
59	0x3dc68b45	0.09694532
60	0xbdb4f33b	-0.08835455
61	0x3d28616e	0.04110854
62	0x3c7e6751	0.015527562
63	0x3db6e73e	0.08930825
64	0x3ae6b74e	0.0017602236
65	0xbdde50ad	-0.108552314
66	0xbc5e087b	-0.013551827
67	0xbd862dcb	-0.06551703
68	0x3d8e2060	0.06939769
69	0x3d9380f6	0.07202332
70	0x3dc32ec5	0.09530405
71	0x3d8d77b3	0.069075964
72	0xbdb79f0d	-0.089658834
73	0x3dce19a5	0.10063485
74	0x3d00d757	0.031455364
75	0xbd8d8063	-0.069092534
76	0x3c51d479	0.012807005
77	0xbc272791	-0.010202304
78	0x3db311f5	0.087436594
79	0x3db5b77d	0.08872888
80	0xbe38622d	-0.18006201
81	0xbe110eee	-0.14165851
82	0x3d04d9ac	0.03243415
83	0xba6b5046	-0.00089765
84	0xbd2ef2e5	-0.04271211
85	0x3d05584b	0.032554906
86	0xbcd4d40f	-0.025980024
87	0xbd91d8d9	-0.071214385
88	0xbb94c865	-0.0045404905
89	0x3cbe5f97	0.02323894
90	0xbc808a59	-0.01569097
91	0xbdbd6550	-0.092478395
92	0xbda6e6b1	-0.0814947
93	0x3ad48f6d	0.0016217061
94	0xbce5d12e	-0.028053846
95	0xbe1d67e3	-0.15371661
96	0x3d0cccd3	0.034375023
97	0xbd2ec06f	-0.042663988
98	0xbe088edf	-0.13335751
99	0x3d2e70ed	0.042588163
100	0xbac4c356	-0.0015011828
101	0x3dc6135a	0.0967166
102	0xbc196f47	-0.0093649095
103	0x3de00023	0.10937526
104	0xbdc4c731	-0.09608305
105	0x3b6d532d	0.0036212907
106	0x3cd1ce9f	0.02561122
107	0x3dff763b	0.124737225
108	0xbde507c3	-0.11183121
109	0xbc946f7f	-0.018119572
110	0x3d6dc54c	0.058049485
111	0xbd943abb	-0.072377644
112	0x3dd83606	0.10557179
113	0x3df63301	0.12021447
114	0x3c3933cb	0.011303852
115	0x3c6a51f6	0.014301768
116	0x3c2b014d	0.010437322
117	0x3c5db614	0.01353218
118	0x3de027d1	0.109450944
119	0x3c5837a1	0.013196857
120	0xbd26f48f	-0.040760573
121	0xbde0160a	-0.109417036
122	0x3d085c61	0.033291224
123	0xbdb54ecb	-0.08852919
124	0x3da9f577	0.08298772
125	0xbd79deeb	-0.061003607
126	0x3c5836f7	0.013196698
127	0xbe0e95f4	-0.1392439
128	0xbc4623fb	-0.012093539
129	0x3d1fba13	0.038995814
130	0xbdec67dc	-0.11543247
131	0x3d844ff3	0.064605616
132	0xbdbe2031	-0.09283484
133	0xbd36860c	-0.04456143
134	0xbd6f1003	-0.05836488
135	0xbc4a7556	-0.012357077
136	0xbdaef7ac	-0.085433334
137	0x3d00cbb4	0.031444266
138	0x3d1cf0ef	0.03831571
139	0xbcd56415	-0.0260487
140	0xbd5f71ee	-0.05455201
141	0x3dc917d6	0.098189995
142	0xbd149e9f	-0.036284085
143	0x3da23367	0.079199605
144	0x3cbf6fb3	0.023368692
145	0x3ddc1beb	0.107475124
146	0xbca2c82f	-0.019870846
147	0xbd4f4c4b	-0.050609868
148	0xbd80a422	-0.06281306
149	0x3cd4fbf1	0.025999041
150	0xbdd17e41	-0.10229159
151	0x3d39ce3f	0.045362707
152	0xbdafe9a1	-0.08589483
153	0xbd656e40	-0.056013346
154	0x3df49f4f	0.11944448
155	0x3ddbfc80	0.1074152
156	0xbdf24635	-0.11829797
157	0xbd82358b	-0.06357869
158	0xbe4cf685	-0.20015915
159	0x3dbdf142	0.09274532
160	0xbd4c91eb	-0.049943846
161	0x3d1162f5	0.035494763
162	0xbc769d83	-0.015052202
163	0x3dbb4ab0	0.09145105
164	0xbd01cbb8	-0.031688422
165	0xbd8e9dc3	-0.069636844
166	0x3d7cbe0b	0.061704677
167	0xbdbb5dfc	-0.091487855
168	0xbdf0f2ce	-0.11765061
169	0x3d8950ff	0.06704902
170	0xbdce163a	-0.10062833
171	0xbe1fda2e	-0.15610573
172	0xbc703e3e	-0.014663277
173	0xbd5e5802	-0.05428315
174	0x3c407333	0.011746216
175	0x3c98db51	0.018659266
176	0xbd763557	-0.060109463
177	0x3d428c5e	0.047497146
178	0xbbbbaaaa	-0.005727132
179	0x3dcf61d6	0.101260826
180	0xbdc59b31	-0.09648741
181	0x3df74c2e	0.12075077
182	0xbdffa38b	-0.12482365
183	0xbdc0cd87	-0.09414201
184	0x3e0d5fe0	0.13806105
185	0x3d9cad56	0.07650249
186	0x3cd1f554	0.025629677
187	0xbb464c88	-0.0030258019
188	0xbe1010d3	-0.14068918
189	0xbd2162aa	-0.039400734
190	0x3a05940d	0.00050956086
191	0xbcd2d9b3	-0.025738573
192	0x3d82a167	0.06378441
193	0xbcb9f2b8	-0.022698745
194	0xbbfffde2	-0.0078122476
195	0x3d7df4c7	0.062001016
196	0x3bf39abe	0.007434218
197	0x3d304748	0.04303673
198	0x3ce8c46d	0.028413976
199	0x3d18347b	0.037159424
200	0x3d8484fd	0.06470678
201	0xbbf4f105	-0.007475021
202	0x3e485d09	0.1956674
203	0xba6b3fe1	-0.0008974057
204	0xbcaff916	-0.021481078
205	0x3a8169e3	0.0009873476
206	0x3e40a5c5	0.18813236
207	0x3d7bf94a	0.061517037
208	0x3b6f8236	0.0036546118
209	0x3db3ff68	0.08788949
210	0x3dce9cdb	0.100885116
211	0xbc5338e2	-0.01289198
212	0xbd41cd37	-0.04731485
213	0x3d5c455f	0.053777095
214	0xbd2bdfe0	-0.04196155
215	0x3d1a996f	0.037743982
216	0x3e36e877	0.17862116
217	0x3d3fce79	0.046827767
218	0xbd0f4fbf	-0.03498816
219	0x3d6f8583	0.058476936
220	0x3de0ad29	0.10970528
221	0xbcc7a338	-0.024369821
222	0xbd66df86	-0.056365512
223	0xbce50eee	-0.02796122
224	0x3b93892e	0.004502437
225	0xbd24823a	-0.040163256
226	0x3e204606	0.15651712
227	0x3d1658cc	0.036705777
228	0x3df5929f	0.119908564
229	0x3d7fee38	0.062483042
230	0x3df6e741	0.12055827
231	0x3da2a906	0.07942395
232	0x3d587f76	0.05285593
233	0xbdb4b41b	-0.08823415
234	0xbd1af8c3	-0.037834894
235	0x3cfe3fcb	0.031036278
236	0x3defc755	0.117079414
237	0x3e324ff4	0.17413312
238	0x3e00dff0	0.12585425
239	0x3e1982b3	0.14991264
240	0x3e068b3f	0.13139056
241	0x3a40f421	0.0007360597
242	0xbdd47c8c	-0.10375318
243	0x3e3c7ade	0.18406245
244	0xbd0b7b86	-0.034053348
245	0x3df49516	0.119424984
246	0xbc9ac9c9	-0.018895047
247	0xbd95a139	-0.073061414
248	0x3d8b949e	0.06815456
249	0x3c59fa93	0.01330437
250	0x3df4a965	0.11946372
251	0xbcb18d33	-0.021673774
252	0x3db6841b	0.08911916
253	0x3df12204	0.11774066
254	0x3e3361a4	0.17517716
255	0xbab8be66	-0.0014094829
