STD/checkpoints/original/VA_METRIC_state_epoch80.pth (torch, 684542 bytes, 24 tensors)

AFeatRNN.weight_ih_l0 f4 [256, 128]
00000000: 311a df3c bdb7 473d b419 7d3d f19e a83c
00000010: fa59 acbd a73e 163e 2eae 1b3e 55ea bd3d
00000020: 0085 b1bd 92b0 c6bc 3744 a1bd 522b 96bc
00000030: c480 bebd 68d5 3bbd 8272 9d3d 0906 d3bd
00000040: 0de6 d13d 60fc d53d c660 49bc 1b81 693d
00000050: f940 7ebc db48 afbc 7eb8 b53d 5d65 d8bd
00000060: 0ff9 093e 0e44 223d ad63 9c3a 6aff bdbd
00000070: 1aa3 b43d b21f bdbd 6a54 28bb d029 9fbd
00000080: 8e78 4f3d d8cb f83d 8ea1 ec3d 1c70 a3bd
00000090: 5827 c23c 3168 433d 8573 373d efdb a3bd
000000a0: 369b d13c 8e69 d43c 24ed 09be 8a94 493e
000000b0: 1b1b edbc fc8f 333c 06d6 9b3d 3375 7a3d
000000c0: 09c4 563c bb2b 7bbd 32bb 98bd 383b 083e
000000d0: 54f9 543c d740 43bd 2a26 c4bd cbd4 ef3d
000000e0: 5cac 11bd 1d7c b13d 5741 a2bd 5818 96bd
000000f0: 0563 3c3d 881d 9ebc 7da4 e1bd 10ad d03d
00000100: ad2a de3d 7fcc dc3c c97b ff3c 2424 02bc
00000110: 4518 093e 6541 da3d 06dd 17be ce8a 233e
00000120: 40e8 493c 84a4 5e3d 155a bcbd 8864 b83d
00000130: 955e ae3d cca0 ce3d 55f8 99bc 90ea 75bd
00000140: a4a0 8f3c a308 ba3b d0ff 5bbd 6047 283a
00000150: ac25 583e df72 7cbc bafa 1d3e 7ab3 1cbd
00000160: df2c 3b3d 1779 aa3c a16c 99bd 8355 de3c
00000170: c5c3 82bc bddd 973d 484b e63d 18c1 98bc
00000180: b4e2 2a3d 72c8 41bd 1685 c73d 9d71 0dbe
00000190: eea0 8fba 05da 7c3d 42fc 5b3e a197 ec3c
000001a0: 0e8a 813d 549a a43d d60c 12bd ca3e 81bc
000001b0: ee54 c93d a798 2abd 3ef6 a23d c908 8f3c
000001c0: 5009 bfbd d070 ca3c a344 04be 79b6 853d
000001d0: 3c71 bbbd a10c dd3d b4bc 91bd 37cb 86bd
000001e0: 612e 1abc bec5 983d 84ae dabb 1573 463e
000001f0: 753f 0abe 67cc 103d 7de2 1abc 5bc0 0e3e
00000200: 4a3b 053d 2c69 263d 9952 c1bd cfe8 2bbe
00000210: fa72 873d 52f5 50bc 513f 343e fb34 d53d
00000220: acd7 05bd d2d8 5cbc e4ec bb3d ccdc debd
00000230: c923 b73c 84d3 063d 4db9 463d e5a7 c23d
00000240: 62a5 7a3d 1172 d9bc c420 5cbd 5408 e9bd
00000250: 7a9f 173e b906 423d 385f 62be d90b 0ebe
00000260: c8c8 38bd 80a0 873b 84e8 963d a2d0 813d
00000270: 4a96 373e 361f ff3d a1f6 e1bd a049 bb3d
00000280: 2bcf 8dbd c55f 263d 8451 6dbd d594 39bc
00000290: a9af b2bd ab9b bebd 3744 fc3d 76f7 36bd
000002a0: 08df 6b3e abc8 853d aa0c d2bd 2770 663d
000002b0: 02aa 783e f5d6 a8bc 81d6 5abd 6aa2 d63d
000002c0: d7c3 0f3e 5df1 efbc 7772 ce3d 4195 32be
000002d0: 9cdc d03d 1dd0 e63d 3f68 b8bc e5e5 a43d
000002e0: 3e0d 893d ea52 acbd ea3d 9c3c 4ba8 c9bc
000002f0: 914c b1bd 3006 c53d 546e ad3d 3fd3 02bd
00000300: d4fc 03be 6be3 b13d c884 8a3d e207 433b
00000310: a285 e43c 8359 073b 6e62 453e 2ffe dfbd
00000320: 3d43 3dbd 3a8e 913c 9911 43bd 0296 dd3d
00000330: 4e53 8a3d d896 883d f304 113e a467 0d3d
00000340: ca60 fe3d bc7b e13d 7ef9 3dbc 156e 1e3e
00000350: 2632 f8bd 11ff 1fbd 5761 993d 81ef e4bd
00000360: f788 c43d cd74 853d 3478 463e 9473 1bbd
00000370: 7f1b 0cbe d4cb bc3c 5239 2b3e 5831 8b3d
00000380: af4d 613e eef3 6b3e 4234 a6bd a809 f83b
00000390: abe6 46bc 78dd 25bd 2ea3 18be 76d3 de3d
000003a0: ae17 7ebe 482c 743c cc91 6ebc 67db 533c
000003b0: 3ef8 f93c 5af1 e93d 0f4e 0cbc 57d0 023e
000003c0: 0aa1 52be 56d7 f1bd d642 693c 45d3 17be
000003d0: c26b beba 6cfb ffbd 0e9a b5bd d18d 01be
000003e0: 0076 b53d e102 8ebd d31b 143e bbf8 c03d
000003f0: ff43 b7bd 2f33 59be 8e4b c2bc af22 d53d
0.027234169 0.04875921 0.06179209 0.020583602 -0.08415599 0.14672337 0.15203163 0.09273211
-0.08667946 -0.024254117 -0.07874339 -0.018331204 -0.09301904 -0.045857817 0.07687856 -0.103038855
0.10248957 0.10448527 -0.012291139 0.05700789 -0.01551842 -0.021397045 0.0887308 -0.105662085
0.13473915 0.039615683 0.0011931561 -0.09277232 0.08820172 -0.09234561 -0.002568508 -0.07771647
0.05065208 0.12148255 0.115542516 -0.079803675 0.023700401 0.047706787 0.044787902 -0.080009334
0.025586706 0.025929239 -0.13469368 0.1968557 -0.028943589 0.0109596215 0.07609181 0.061146926
0.013108262 -0.061321 -0.0745758 0.1330384 0.012998898 -0.047669258 -0.09577592 0.11710509
-0.035564765 0.08666251 -0.07922619 -0.07328862 0.04599287 -0.019301191 -0.11017702 0.10189259
0.108479835 0.02695298 0.031186955 -0.007943187 0.13388164 0.10657004 -0.14830408 0.15970919
0.012323439 0.054356113 -0.09196869 0.0900355 0.08514134 0.10089263 -0.018795172 -0.06003815
0.017532654 0.005677299 -0.05371076 0.0006419327 0.2110812 -0.015408247 0.15427676 -0.0382571
0.04569709 0.020809693 -0.074914224 0.027140385 -0.01596249 0.0741534 0.112448275 -0.018646762
0.041720107 -0.0473103 0.09742181 -0.13812871 -0.0010957995 0.061731357 0.21482947 0.028880896
0.0632516 0.08037248 -0.035656773 -0.01577701 0.09830652 -0.041649487 0.07957123 0.017460244
-0.09327948 0.024711996 -0.12916808 0.065289445 -0.09152457 0.107934244 -0.071160704 -0.06581729
-0.009410472 0.07459591 -0.006673636 0.19379838 -0.1350077 0.035351183 -0.009453413 0.13940565
0.032527246 0.040627643 -0.094395824 -0.16788028 0.06613727 -0.012753801 0.17602278 0.10410496
-0.032676384 -0.013479428 0.09176043 -0.108819574 0.02235593 0.03291656 0.04851656 0.095046796
0.061192878 -0.026543649 -0.053742185 -0.113785416 0.14806929 0.047369692 -0.22106636 -0.13871707
-0.045113355 0.004139006 0.073685676 0.06338622 0.17928424 0.12457125 -0.11033369 0.09144902
-0.0692428 0.040618677 -0.057939067 -0.011326988 -0.08724911 -0.09307035 0.123176984 -0.04466959
0.23034298 0.06532415 -0.10256322 0.0562593 0.24283603 -0.020610312 -0.053427223 0.10480197
0.1403955 -0.029289896 0.10080426 -0.17439748 0.10198328 0.11270163 -0.022510646 0.080516614
0.06691979 -0.08414252 0.019072492 -0.024616381 -0.08657182 0.09620321 0.08468309 -0.03193974
-0.12889415 0.08685955 0.06763607 0.0029759337 0.027895752 0.0020652718 0.19275829 -0.109371535
-0.0462067 0.017768014 -0.047624204 0.10819627 0.0675417 0.06669396 0.14162044 0.034522668
0.12420805 0.110099286 -0.011595128 0.1547168 -0.1211894 -0.03906161 0.07489269 -0.11178494
0.095964365 0.065164186 0.19381791 -0.03795202 -0.13682364 0.023046412 0.16721085 0.06796521
0.2200229 0.2304227 -0.08115436 0.0075695105 -0.0121399565 -0.040494412 -0.14905998 0.10880177
-0.2481372 0.014903136 -0.014561128 0.012930728 0.030513879 0.11422987 -0.0085635325 0.12774788
-0.20569244 -0.1180865 0.014237126 -0.14826687 -0.0014527964 -0.12499127 -0.08867274 -0.12651755
0.08860397 -0.06934143 0.14463739 0.094224416 -0.08948516 -0.21210931 -0.023717668 0.10407006

AFeatRNN.weight_hh_l0 f4 [256, 64]
00000000: e9ee f9bc 5a84 c63c feaa 06bd eef4 71bd
00000010: 8d43 873c b5d8 98bc 8ba2 c2bd ab10 c13c
00000020: d6ee 6a3d 416f e53c cc27 0b3e a365 3b3e
00000030: 50b0 273b 5566 7d3d d1bf a0bd 9a8a 45bd
00000040: 80d6 d2bb 31ef dcbd 159f 1abe c401 423e
00000050: 168e 10bd 79f1 afbd 5351 47be 8635 903c
00000060: 9fda 9ebd a3af 2b3c f1e2 813d 4997 f4bb
00000070: 3a72 23bd 2e9d b73d c85a 993d eeb5 bebc
00000080: d35f c53d b334 2f3d 6082 6abd f8a4 95bd
00000090: 9974 bdbd 4a04 473e c4d0 d0bd b379 243e
000000a0: 6cfb 1f3d 32b0 043d 58c3 c13d 44ed 87bd
000000b0: d2bb ccbc 0005 363d 0fe1 7dbd 1d58 b33d
000000c0: bb5f a6bd e769 fbbd c95b a63d 7f40 ed3d
000000d0: 77db 483d 0918 7d3d ed71 50bc 52b8 9a3d
000000e0: 1040 88bc 0ce6 f3bd 40c1 743c ef12 d2bd
000000f0: 2008 05bd 2cf0 45bd 20b5 acbd e01e 8b3d
00000100: 7761 a73d 5a3c 2bbd 6ac8 cabd 38a8 bcbd
00000110: aadf 1e3e 4ed6 313b 520d 903d 697e 6cbb
00000120: 6a5e b03d 262e 9cbd ea2a afbd 18f0 0dbd
00000130: 283c 29be 6254 1bbe 4ec9 293d a71a 98bd
00000140: e7a8 4cbe 047f 5c3d 078f 5cbd d4f6 0cbe
00000150: b10c a3bc 7b5b bf3c 53c3 cabc 54b6 edbd
00000160: 0c73 e1bd 7bc2 3d3d dbd7 d73c 1fd7 ea3d
00000170: 4867 24bd 34b7 3d3d 60ba 93bd eb30 dc3d
00000180: b288 2e3d 3468 2bbd 1923 29be 5b74 72bd
00000190: 72b9 26bd 4046 bebd 9cbd 0d3c c458 41bd
000001a0: a3c6 773d 5fe4 233e 24ff 0d3d 1f60 d9bd
000001b0: 98b9 d83c a5f2 ccbc 07db 0c3c a3ec 59bd
000001c0: c09f 1cbe 41c6 bb3c 8c32 d9bd 3c25 3ebd
000001d0: e847 83bd 5b43 d63b 699b 97bd e799 e03d
000001e0: d8d1 0a3e c9aa dbbc a5fe 3e3d c7e1 19be
000001f0: 20ae 14be a6ee 9abd 014e 87bd b7e5 843d
00000200: 7eae 513c f94e 34bd 3c5f fc3d 4f59 dc3c
00000210: 154c 24bd 1fb9 623d 0ec7 18bd 0d47 6fbd
00000220: 8e90 0abe ef72 78bd 2d83 3abd cab7 84bd
00000230: 34ea a33c 3ab7 d53d a4ff 953c a0ed 883d
00000240: 044f 24bd ec11 563d 9f88 063d 55d0 943d
00000250: 84a1 153e d291 a23b 7700 d3bd 5f04 633d
00000260: 86f5 86bd 1ae1 4c3c 10c7 3b3d e62d 38bd
00000270: fd39 703d e683 773d a5bf 0abb 993d 133e
00000280: 6919 9e3d f9ef 79bd 671f 393d ab52 7a3d
00000290: cd14 eabd f98b 14be ff68 d03d e29e 9a3b
000002a0: 3149 c1bd f355 113e 9645 8bbd 42ca 4e3b
000002b0: ac4c cfbd e8e8 8dbd e0c0 36bd 82de c9bd
000002c0: fdf1 093e ce0f be3d 850c 77bd 62ee 283c
000002d0: 81ab 583d 7435 03bd 9126 c7bd 2b95 2a3c
000002e0: a6f3 95bc 038b c43c 76f0 153e abef 4a3c
000002f0: 6d40 ccbc 4519 873d 83a8 9cbb 1622 5dbd
00000300: 8836 b5bd 33d1 13be d7d7 023d 694f 703d
00000310: 5494 4cbd 6a81 97bb 8708 69bb bb5a c53c
00000320: df3d 14bd cdb5 073e a0af 3ebb a5d3 68be
00000330: 4a49 fc3c a858 573e f009 753c 8571 8c3c
00000340: 6256 a7bc f7eb 92bd 99e0 303d 9b45 133e
00000350: 8387 2d3d 459e 353d be24 05be 00c8 5f3c
00000360: 1927 f63d 5719 81bc 693a 0ebe d65f 95bd
00000370: 78da e13d 2134 ebbd ffed 08bc 21df 5f3d
00000380: 5312 103e b914 803b d315 59bd c075 0c3c
00000390: 34e5 883d 04e9 023d 1678 12be 8ed9 523e
000003a0: ad58 ef3d b4eb 2f3c cf12 32bd 3f86 d13d
000003b0: 7d5d 49bd cd7a 0f3e 1889 ba3c 51f7 35be
000003c0: 96dd dfbd c369 f7bd a14f debc c26c 6cbd
000003d0: 6379 b93d 2c22 003e 9a3f aebd 4d57 863c
000003e0: f1c4 513e e84d 23be 2673 b43b 81e2 cbbd
000003f0: 7f7b 803e bcec 133d 94d1 7b3d 5413 3d3d
-0.030509429 0.024233032 -0.032877915 -0.059071474 0.016511703 -0.018658021 -0.09503659 0.023567518
0.057356678 0.028007152 0.135894 0.1830049 0.0025587268 0.06186517 -0.07849086 -0.048227884
-0.006434262 -0.1078781 -0.15099747 0.18945986 -0.035291754 -0.08590979 -0.19464616 0.017603647
-0.077565424 0.010478887 0.06342114 -0.0074643237 -0.039903857 0.089655265 0.07488018 -0.02328011
0.09637418 0.042774867 -0.05725324 -0.07306856 -0.09250755 0.1943523 -0.10196069 0.1606205
0.039058134 0.032394595 0.09461087 -0.06637052 -0.024991903 0.044438362 -0.06198221 0.08757041
-0.08123728 -0.12276059 0.081229754 0.11584567 0.049037423 0.0617905 -0.0127224745 0.075546876
-0.01663211 -0.11909112 0.0149386525 -0.102575175 -0.03247845 -0.04832475 -0.08432984 0.06792998
0.08172887 -0.041805603 -0.09901507 -0.09211773 0.15515009 0.0027135792 0.07033791 -0.0036086089
0.08611758 -0.076259896 -0.08553107 -0.0346528 -0.16526854 -0.15168908 0.041451745 -0.074269585
-0.19986306 0.05383207 -0.05384734 -0.13766032 -0.019903513 0.023359051 -0.024751341 -0.11607042
-0.110082716 0.04632805 0.026348045 0.11466812 -0.04013756 0.046317294 -0.072132826 0.10751518
0.04261083 -0.041847423 -0.16517295 -0.059192996 -0.0407042 -0.09290743 0.008651163 -0.047203794
0.06049217 0.16005085 0.03466715 -0.10614037 0.026455685 -0.025018046 0.008597142 -0.05320419
-0.15295315 0.022921683 -0.10605344 -0.04642223 -0.064101994 0.006538791 -0.07402689 0.109668545
0.13556612 -0.026814835 0.046629567 -0.15027533 -0.14519548 -0.0756505 -0.06606675 0.06489127
0.01279795 -0.044020627 0.12322852 0.026898054 -0.04011162 0.055352326 -0.03729921 -0.05841737
-0.13531706 -0.060656484 -0.045535255 -0.064803675 0.020009138 0.10435338 0.018310376 0.06685948
-0.040114418 0.052263185 0.032845136 0.07266299 0.14612395 0.004961231 -0.10302823 0.05542409
-0.06589799 0.01250484 0.045844138 -0.044965647 0.058649052 0.060428523 -0.0021171358 0.14378966
0.0771969 -0.06101987 0.045195963 0.061113995 -0.11429749 -0.1450652 0.101762764 0.0047186473
-0.09437788 0.14192943 -0.06800382 0.003155366 -0.10122046 -0.06929189 -0.044617534 -0.09856893
0.13471217 0.09280358 -0.060314674 0.010310741 0.052897934 -0.0320334 -0.09724153 0.010411541
-0.018304657 0.023992067 0.1464251 0.012386243 -0.024933064 0.06596617 -0.0047808303 -0.053987585
-0.08848292 -0.14435272 0.031944122 0.05866948 -0.049946144 -0.0046235817 -0.0035558061 0.024091115
-0.036191817 0.13252945 -0.002909638 -0.22736986 0.030796666 0.21029913 0.014955983 0.017143974
-0.020426933 -0.07173913 0.043182943 0.14382021 0.042365562 0.04434039 -0.13002297 0.013658524
0.12019176 -0.015759153 -0.13889469 -0.0729367 0.11027998 -0.11484552 -0.008357524 0.05465615
0.1406949 0.0039087203 -0.05299933 0.008572996 0.06684342 0.031960502 -0.14303622 0.20590803
0.116868354 0.010737348 -0.04347497 0.102306835 -0.049161423 0.14011689 0.02277045 -0.17770125
-0.10930936 -0.12080719 -0.02713758 -0.057720907 0.09056356 0.12513036 -0.08508225 0.01639905
0.20485283 -0.15947688 0.005506891 -0.099553116 0.2509422 0.03611444 0.061479166 0.04616101

AFeatRNN.bias_ih_l0 f4 [256]
00000000: 06fa 17bc 9319 afbd 844a 333d e5a7 56bd
00000010: dc6e debd 41b0 a03d d368 ef3d da12 b23d
00000020: cd5b ba3c db70 003e e94d 46bd 9a27 ce3c
00000030: 39a8 873a 39e8 a43c 8878 cfbd 3db3 253d
00000040: 6612 61bd 8e78 863d 53ff c83d da77 91bd
00000050: 64db 9abd 6104 9d3d a7e2 febc f32a 9d3d
00000060: 133b e53d e5e4 a23d 499b 0cbe c060 aebd
00000070: 23a2 c43c 5c51 c4bd 3d63 ef3d 26b8 aabb
00000080: 2e46 c63d ab26 dcbd af14 01be 5081 093e
00000090: 26f7 38bd 2188 2ebd fd71 8e3d 600c fd3c
000000a0: 0f92 913c dd49 e83b 6ee2 d8bd 5968 fbbd
000000b0: 9c62 cf3d 8738 ff3d 9a22 d13d d1ba d43d
000000c0: 38c9 e23d 0742 9ebd 7abb 933d 4582 96bd
000000d0: 8e8f bebc ddf2 dbbd 941f 5fbd 3708 a9bd
000000e0: 1b73 283d 6c52 203e 0850 b33d 087f 0d3e
000000f0: e91a d93d 9f33 fa3c d521 91bd 8f88 afbd
00000100: d572 a0b9 75e6 05bd 2fc7 dbbd 30cf f7bc
00000110: 89b4 bb3d d12a fbbd 0d4d 393b f144 d9bd
00000120: 4b23 373d bedf 193e e98e 1dbd 6aed c7bd
00000130: 840e d2bc 7287 e6bd a8d4 2fbd 95bd e8bc
00000140: 4571 ddb9 306c bb3c 6dd4 dfbd fadc 7c3d
00000150: 8030 d13d 8b1e bebd 0692 053e cf18 243d
00000160: 987a 113d 2b3a a13c 0e3b 88bc 22fd d2bd
00000170: 5c5a 1ebd a3a4 b13d c46b b0bd c86d 553d
00000180: e4d4 09bd fdb0 c63d 50fa dcbc 03f2 b63d
00000190: 9d98 003d 19e9 d7bd 731e c2bd 0826 5c3b
000001a0: 57a7 c7bc 400d da3d 7b4e 2fbd eade 47bc
000001b0: 9b2e 12be 01a0 913d 5ece a13d e69d 9a3b
000001c0: e478 83bd 42e2 293d 47be eb3c 7081 8cbd
000001d0: a1b5 bdbd c214 6f3d 76d5 98bd e4d5 333c
000001e0: e880 04bd d0c0 6d3d 10f0 603c 4f0a 51bc
000001f0: ece2 d3bd 2e9e 06bd 5cc9 1e3d 6b67 a53d
00000200: c0b1 69bd f4b6 213d e61f 41bd 72bf c2bc
00000210: f200 303d 1be2 fc3d b3aa fa3d a147 08bd
00000220: 0255 05be 4148 833b 301f acbd ac44 9e3d
00000230: 4b86 f63d 2f70 1e3d 5460 dcbd 555f d8bd
00000240: 29b3 6cbd 9865 813d 8a8e eebd bf91 c3bb
00000250: de92 4abc d5cb 723d fd12 9b3d 77ff 5c3c
00000260: bad7 933b 452f 04bd 3f3b 993d 5901 263d
00000270: d050 1dbd 991f ae3d 926d 4dbd 8949 5fbd
00000280: 5723 303d 492e 0cbb 66a0 d73d 21fa 013d
00000290: d988 f8bc 171b 5d3d 2306 953d a55d eabd
000002a0: 3269 99bd 76e2 95bc a3a2 cdbc cede 403b
000002b0: 0fed 99bc f698 b23d 1433 f3bc 47f5 87bc
000002c0: e56e b83d efcf f4bc 4a12 bebd 13ac 703d
000002d0: bf8d f43d cc4c d2bb 59a6 adbd 5edb 033c
000002e0: d0a3 3e3d 0e48 953d 5919 3e3d 7721 23bd
000002f0: a4b2 bebd cc4d e3bd 87ca e03d 421d 00be
00000300: 589c 1c3d dc4f 683d f869 f1bd 9449 09bc
00000310: 7a27 d4bb 09e7 24bd ff9d 9ebd 6155 543d
00000320: e806 8fbd 36db 0dbe 67c8 7cbc 1508 f33c
00000330: c322 f83d 68e3 8bbd 9fb1 b1bd 5d35 b5bd
00000340: d0fe b73d cf74 c23d 4a96 a0bd 453a 013d
00000350: 9f52 f83d 4ed1 b93d 8036 4fbd fb43 293d
00000360: 44bb f83d 1d58 903c da15 88bd 341e 7f3c
00000370: 8188 98bd ff63 963d 9362 1c3e 4284 c5bb
00000380: 0e09 b5bd 27f5 493d 4e82 833c 18bd 133e
00000390: 22b1 d63b 00d2 7a3d e862 d43d 8e4b aebd
000003a0: 66af 0c3a 299a 9bbd d9f7 033e 661a e8bd
000003b0: b3f2 f13b 8901 26bd 85e8 a93d a06e b6bd
000003c0: fa70 bd3d 1e1d 8b3d 5a8d e13d 3689 a73b
000003d0: 810e 95bd 9664 cf3d dcd4 d43a 66a7 0abb
000003e0: 8029 80bd bcac 21bd db4d c43d 4ba4 adbc
000003f0: bf00 41bd c7e2 cebd 2423 f2bb 9337 cbbd
-0.009275919 -0.085498 0.043772236 -0.05240621 -0.108609885 0.07846118 0.116899155 0.08695002
0.022748852 0.12543051 -0.048414145 0.025165368 0.0010349817 0.020130264 -0.101304114 0.040454138
-0.054949187 0.06565963 0.09814324 -0.07102938 -0.07561377 0.07666851 -0.031113936 0.076742075
0.11192908 0.079538144 -0.13731112 -0.08514547 0.024003094 -0.095858306 0.1168885 -0.0052099405
0.096813545 -0.10749563 -0.12605546 0.13428235 -0.045157574 -0.04261029 0.06955335 0.03088969
0.017769841 0.0070888833 -0.10590063 -0.12275762 0.1012623 0.124619536 0.10211678 0.10387195
0.11073536 -0.077274375 0.07213493 -0.07349066 -0.023261812 -0.10739682 -0.054473475 -0.0825352
0.041125398 0.15656441 0.08755499 0.1381799 0.10600836 0.030542193 -0.07086531 -0.08570968
-0.00030603135 -0.032690484 -0.10731351 -0.030250162 0.09165294 -0.12264026 0.0028274686 -0.10608853
0.044711392 0.15026757 -0.038466368 -0.0976208 -0.025641687 -0.11256303 -0.042927414 -0.028410712
-0.00042236797 0.022878736 -0.10929189 0.061734177 0.10214329 -0.09283169 0.13043985 0.04006272
0.035517305 0.019681057 -0.016629722 -0.103021875 -0.038660392 0.0867398 -0.08614305 0.05210665
-0.033650294 0.097017266 -0.026974827 0.08932879 0.031395543 -0.10542507 -0.09478464 0.0033592004
-0.024371786 0.106470585 -0.042799454 -0.012199143 -0.14275591 0.071105964 0.079006895 0.00471853
-0.064195424 0.041475542 0.028777255 -0.06860626 -0.092631586 0.058369406 -0.074625894 0.0109762885
-0.032349497 0.05804521 0.01372911 -0.012758805 -0.10346016 -0.032865696 0.03876625 0.08076366
-0.05705428 0.03948112 -0.04714956 -0.023772929 0.04296965 0.12347814 0.122395895 -0.033271436
-0.13020709 0.004006416 -0.08404386 0.07727942 0.12037333 0.038681205 -0.10760561 -0.10565058
-0.057788048 0.063182056 -0.11648281 -0.005968302 -0.012364117 0.05927642 0.07571981 0.013488642
0.0045118006 -0.032271642 0.074820034 0.04052863 -0.038407147 0.085021205 -0.050153323 -0.054513488
0.043002453 -0.0021389893 0.105286404 0.031732682 -0.030338692 0.053980913 0.07276561 -0.114436425
-0.074907675 -0.018296462 -0.025101965 0.0029429677 -0.018789796 0.08720581 -0.029687442 -0.01659645
0.090055265 -0.029884307 -0.09280832 0.058757853 0.119410984 -0.0064178463 -0.08478994 0.008047907
0.046542943 0.07289134 0.046410892 -0.039826836 -0.09311417 -0.11098823 0.10976129 -0.12511161
0.03823504 0.056716785 -0.1178779 -0.008379359 -0.0064744325 -0.040259395 -0.07744979 0.051839236
-0.06983739 -0.13853154 -0.015428639 0.02966694 0.12116005 -0.06830484 -0.08676457 -0.08848069
0.089841485 0.09494936 -0.07841165 0.03154971 0.12125134 0.09073125 -0.050589085 0.041324597
0.12145093 0.01762014 -0.06644793 0.015571166 -0.07447911 0.073432915 0.15271978 -0.0060277293
-0.08839618 0.04930606 0.016053345 0.14427602 0.0065518776 0.061235428 0.10370427 -0.08510505
0.00053667126 -0.07597763 0.12887515 -0.1133316 0.0073836683 -0.040528808 0.08296303 -0.08907819
0.09250064 0.06792663 0.11013289 0.0051127924 -0.07278157 0.10126607 0.0016237753 -0.0021156906
-0.062579155 -0.039471373 0.09585162 -0.021196505 -0.047119852 -0.10101848 -0.007389443 -0.09922709

AFeatRNN.bias_hh_l0 f4 [256]
00000000: 31cb c83d 822c 59bd d01a ea3b 78a0 cd3d
00000010: 3dd6 72bd 4709 5dbd a02f 5ebb 65cf 83bd
00000020: f3f4 2ebd 8072 e63c 798e ae3d 0d17 233d
00000030: 0b67 f9bc 9f78 3d3b b9f1 0b3d 25ba e3bc
00000040: 60eb 42bd 0223 d73d d799 4abd 1cfc 9bbc
00000050: d4cf ddbd df34 5abd 0cc5 4ebd e3d0 483d
00000060: 60f1 133e e828 273d e68b fcbd da68 3c3d
00000070: 2209 c43b 922c 083d f368 eebb 6202 86bd
00000080: e52b f43d 9b5e b6bd 8fae a73d 4c88 43bd
00000090: ffac 69bd 6b8e c0bc 5fbe 393b 8614 533d
000000a0: b232 f1bd 0bae 8abd ea20 413c f935 ecbc
000000b0: 38d7 863d 091e a53d 05bf cabc 1c32 a23d
000000c0: ca45 bebc 35ab 003e 2e1e 843d 2815 c33d
000000d0: 6777 773c b984 a03d 00ce 81bc a9ad b63d
000000e0: 4816 9bbc 829d a63c 6588 b2bd a8a6 7abd
000000f0: 9c97 133d ff20 b33d 230b 9bbd ed36 683a
00000100: 254c 06bd 372d 3fbd 59c7 e3bd a7a9 0cbd
00000110: 9f83 503d 1d6f 9a3d b16e d2bd a08c 87bd
00000120: b12d 823c 3797 673d d1fa 9cbd c634 8ebd
00000130: fcd2 53bd 67c8 88bd 8112 cc3c b005 d8bd
00000140: d2ec 1abd 77a0 28bd 0dfb 7dbd 4ca6 883c
00000150: f7b5 0e3e 6950 45bb 9f2c c3bd d4d7 17be
00000160: b1f0 efbd 1d89 0f3d 1f64 cc3c 4b71 92bd
00000170: dd4f 12be 98a0 403d 07bf e93c 79ee 76bd
00000180: 843b 863c 59b5 ca3d 9e39 e93d 7fb3 1d3d
00000190: bfe4 a93d 8f74 f13d 4ab1 d13c 29f2 083e
000001a0: a7e5 4dbd 8fcb bfbd 08c9 653d b137 7dbd
000001b0: beae 3cbd c03b 2bbc 642d 41bc ebaa ffbd
000001c0: 472b 16bc 170c b53d ba27 1bbc 7224 853d
000001d0: 1f19 aa3d dd6d adbd 5bf0 f1bd 692b 613d
000001e0: 0999 21bd 5c52 b5bd 5c9c f5bb 11d0 60bd
000001f0: 1aa3 653d aa6a a8bd e778 79bd 409e e9bc
00000200: 2c86 5dbd 398b bbbd 86db c03d 5709 b3bd
00000210: 45a8 5fbd 356d f13d 36d6 d23d a5e8 35bb
00000220: ed3c f4bd 0dfc a6bd ba8e 89bd f1c3 133d
00000230: 3298 c9bc f04e 0bbd 38ac 8cbd 1d95 d1bd
00000240: ca3b a5bd 3360 a23d b40a 1ebd edb8 9dbd
00000250: aa6c b0bd 7173 633d 790c 3dbd fcb3 bcbd
00000260: 7e1d 903d 83a3 a73d 23f9 bbbd 381f b63d
00000270: 5427 29bd d9a1 873d 2fe9 723d 27f5 a93d
00000280: bc7b 1bbd 5d43 113d c21e e03d 93b0 d1bd
00000290: 76bd e73d 6732 d3bd 05b5 20bc 36e5 573d
000002a0: 7d09 d0bc 1133 9cbd a0fc 3bbd 17d4 a53d
000002b0: 88f3 acbc 9cd4 6d3d 237f e7bd f4be 7cbd
000002c0: cffc a4bd 2302 68bd 6ee1 7b3d 4437 c6bd
000002d0: dbf5 cfbd da72 90bd b71e e03d 6745 363d
000002e0: b093 a0bd 4745 76bc 54b7 b5bd 4ecc 183d
000002f0: d20c 32bc 2c28 573c d452 8dbd ba58 f5bd
00000300: c229 e43b 0579 c13c 1ff5 083c aeee 5bbd
00000310: 3475 8bbd f0ce debd 23a9 d2bd 3dd0 7fbc
00000320: 322a 503d 528e 853d 21a9 e93d f2b1 9a3d
00000330: 88c8 4c3d 081a 3f3d cf54 a93d 5a7b ec3c
00000340: c007 c23d 7890 edbc 06b9 b7bd 786b 90bd
00000350: dccd 283d 487e 683d 9e85 b73d fa35 d4bd
00000360: cfb3 56bd 520e e4bc 7831 f23d fa5e 9c3d
00000370: 55c0 a8bd 95c0 c13d c40b 013e b732 2f3d
00000380: fb46 733c 44ca 03bd 2d56 c03c 73c3 ca3d
00000390: 722d 04be e1e6 70bc 970e 13bc b2e5 d4bb
000003a0: 453e 67bd 28fd af3d 9ee1 0d3e 357a 95bd
000003b0: ce85 cb3d 1408 1c3e 34cc 17bd 48b0 7fbc
000003c0: 10ed bc3d 8907 c23c dac8 813d 3298 6bbd
000003d0: e816 02bd 6094 063e 5164 2e3d 06f9 713c
000003e0: 4f84 57bd f541 193e cb06 a1bd 4bb5 db3d
000003f0: 06fd 293d f007 b53d 8340 e7bc cfd2 86bd
0.09804381 -0.05302096 0.0071443096 0.100403726 -0.059286345 -0.053963926 -0.0033902898 -0.06436042
-0.04271407 0.02813077 0.08523268 0.039816905 -0.030444643 0.0028911007 0.03416607 -0.027798722
-0.047587752 0.10504724 -0.04946312 -0.019041114 -0.10830656 -0.053273078 -0.050480887 0.049027335
0.14447546 0.040810496 -0.12331371 0.04599843 0.005982534 0.03324563 -0.0072756945 -0.06543423
0.11922435 -0.08904763 0.08187591 -0.047737405 -0.057049748 -0.02350541 0.002834223 0.051533245
-0.117772475 -0.06771477 0.0117876325 -0.02883433 0.065840185 0.080623694 -0.024749288 0.07919714
-0.023226637 0.1256531 0.06451069 0.095255196 0.015104151 0.07837815 -0.015845299 0.08919842
-0.018931523 0.020338777 -0.087174214 -0.061194092 0.036033258 0.08746528 -0.075704835 0.0008858282
-0.03278746 -0.04667398 -0.11122007 -0.03434148 0.050906774 0.075407244 -0.10275019 -0.06618619
0.015890928 0.056540694 -0.07665027 -0.069436595 -0.051714882 -0.06678849 0.024911167 -0.1054796
-0.037823506 -0.041168656 -0.062007 0.016680859 0.13936602 -0.0030107743 -0.09529995 -0.14828426
-0.1171583 0.03504287 0.024950085 -0.07150515 -0.14288278 0.047028154 0.028533472 -0.06028602
0.016385801 0.098978706 0.11387943 0.03850126 0.08295583 0.1178981 0.025597233 0.13373627
-0.05026784 -0.093649976 0.05609992 -0.06182069 -0.046065085 -0.010451257 -0.011790607 -0.12483772
-0.009165592 0.088401966 -0.009469921 0.06501092 0.08305573 -0.084682204 -0.11813422 0.05497304
-0.039452586 -0.088535994 -0.007495446 -0.054885928 0.05606375 -0.082234696 -0.060906317 -0.028517842
-0.054083034 -0.09157414 0.09416871 -0.08742016 -0.054603834 0.11788408 0.10294764 -0.0027757075
-0.11925683 -0.081535436 -0.06716676 0.036075536 -0.024608705 -0.034010828 -0.068687856 -0.10233519
-0.080680445 0.07928505 -0.038584426 -0.077012874 -0.08614476 0.055530015 -0.046154473 -0.09214017
0.07036875 0.08185484 -0.091783784 0.08892673 -0.04129727 0.06622667 0.059304412 0.08298712
-0.0379598 0.035464633 0.109433666 -0.10238757 0.11315434 -0.10312348 -0.009808783 0.052708827
-0.02539515 -0.07626928 -0.04589522 0.080970936 -0.021112218 0.05806409 -0.11303546 -0.061705545
-0.08056032 -0.056642663 0.061494283 -0.0967851 -0.10154315 -0.07053156 0.109433584 0.04449978
-0.07840669 -0.015031165 -0.08872858 0.037304215 -0.010867314 0.013132136 -0.06900564 -0.11979814
0.0069629857 0.023617277 0.008359223 -0.05369442 -0.06809464 -0.10879314 -0.102861665 -0.015613613
0.05082149 0.06521286 0.11409212 0.075534716 0.04999593 0.046655685 0.08268129 0.028867412
0.094741344 -0.028999552 -0.08970837 -0.07051748 0.041211948 0.056761056 0.08961032 -0.10361858
-0.052417573 -0.02783886 0.11825842 0.07635303 -0.082398094 0.0946056 0.12602144 0.042772975
0.014848466 -0.032175317 0.023478592 0.0990056 -0.12907961 -0.014703483 -0.008975646 -0.0064971084
-0.05645587 0.085932076 0.13855597 -0.072987 0.099376306 0.15237457 -0.037059978 -0.015605994
0.092249036 0.023685234 0.063371375 -0.05751819 -0.031760126 0.13142538 0.042576138 0.0147688445
-0.052616414 0.14966567 -0.07862624 0.10727938 0.041501068 0.088394046 -0.028229004 -0.06583177

AFeatRNN.weight_ih_l1 f4 [256, 64]
00000000: 49eb c63d 8626 0bbe e863 f3bd 7a82 b6bd
00000010: 6fae b23c eb01 8c3d 06b1 813d 24ed 533d
00000020: 1cf2 f73d b27d c63c 9d3f 11bd d76e 67be
00000030: e239 833e 897e f8bd cfbc e3bd f239 9fbd
00000040: e4a1 f73d 319e 13bd 2325 1cbe 4cd7 86bd
00000050: 7d2d 1cbe 6ce6 7d3e ebdd 97bc c8f8 683d
00000060: 3a03 233d 5250 463d 851c 93bd eb25 afbc
00000070: e72d 5b3d d831 42bd 0386 1bbe 42c7 b83e
00000080: 3f76 1a3d 3fb7 cdbd 247b c6bd e4c4 d8bd
00000090: 98b6 9a3c 665d dbbd 8487 27be 2284 1bbd
000000a0: 0153 5f3d 3327 a03d 97e9 8ebd 601d d8bd
000000b0: 84fd bebb 5bed 3d3e 0668 5c3d 7ce3 12be
000000c0: 30b0 a5bd 7b66 06be 51d7 123e 0f33 bf3d
000000d0: 6e0b c4bd 0412 9cbd 99e6 70bd 54d1 35be
000000e0: 108c 023e e90d bebd d3d4 053e 5c68 c3bd
000000f0: fa65 983e 6a56 b8bd 6f51 203e 018c 733e
00000100: da6d 273d 1417 b1bd 72af bbbd dc53 fbbd
00000110: de5d 723c ddee 23bd 8ff2 09bd 3106 9abc
00000120: 797b 8dbc 263d 423e a59c a7bc 0ea7 83bd
00000130: 96a4 423e 7fe2 ccbc 5391 3bbd d552 8dbe
00000140: 9081 d03c 5ab2 02be 9079 dfbc ff02 55bd
00000150: e82b 013d 3a8b 193e 2170 143e 2fb7 9a3b
00000160: fcd0 6fbd 78fb 563e 9c3d 30be 5ff2 933d
00000170: e9b3 243c 3714 3dbe 5425 bebc 4f88 893e
00000180: 5da0 9b3d b6b1 1f3e 0177 88be 4f3b 07be
00000190: aae7 d73d ea94 8fbd f458 afbc be9d 603d
000001a0: 5030 833e 67ef 383e e734 3b3d b6c2 50be
000001b0: c21a 143d a68f 92bb 6523 7b3e b1af ed3d
000001c0: 1390 3dbc d991 de3c 8b89 9fbc a0db e6bc
000001d0: a03b 263d badd 6cbc 71c9 233c ae59 0abe
000001e0: 12f1 a13e 2a7b 0abe afef 123e 26a9 bbbb
000001f0: 4f47 803e 0dd8 973d 3f28 dd3d 6c35 893d
00000200: 2cab ffbd 1c55 58be a0f2 86bd a715 39bc
00000210: 2ae5 0b3e 6d04 b7bd 2d5c cfbc a34e 223e
00000220: e0ce 113e f939 d0bc ec4e 1b3e 12b2 eebd
00000230: 2723 133d 1632 3d3c e37f dd3c 2fe9 08be
00000240: 7da1 ddbd ffe4 fabc bc37 f6bd 8c2d e6bc
00000250: d88c 65ba ebf4 0e3e edcd c1bd cc3f 59bd
00000260: 4415 06bd 69de 96bd 5017 90bd 651a 5abe
00000270: ed8c b1bd ce14 35be 5883 b13d 947c b1bd
00000280: 2c1d e43c 15ad 583e 309e 60be c4a5 00be
00000290: f5e3 303e 9374 7cbc 34fd b1bd 870e b3bd
000002a0: 64ba 923d 5793 443e 7f02 69bd 441c 3d3e
000002b0: 567c 35be 5a3c 4ebe 7995 88bd a062 1e3e
000002c0: e302 ce3c 63a5 0ebd 3729 0c3d ed51 9d3d
000002d0: c058 14be 0bfb 1d3d 1047 a03c a793 433e
000002e0: 841c c03d 5661 91bb b5d5 8a3c 3cce bcbc
000002f0: 6c87 68bd 45b6 283d c875 053e 0b76 1b3d
00000300: 3fb7 59bd a58d 283e 8c02 043c ad8f ebbb
00000310: 0bf5 0ebe 37ba 2a3d d610 8a3d 127d 003c
00000320: 65c5 39bd 54d1 0fbd 87d9 233e c7f7 3abd
00000330: 8183 1ebd 422d 07be 1ef5 863d b171 48bd
00000340: f74a f6bd 1cec 17be 4dc8 fa3c d5a1 fd3c
00000350: 6b5c 5c3e 8bff 993b 27d5 57bd eac5 a9bb
00000360: 90fc 91bd 5570 013e df17 0fbe 3c89 dbbd
00000370: bf42 4c3d 9f0c 54bb 5ae1 a6be 969b 823d
00000380: 12b4 8b3d 61e3 e03c 4ea9 e83d 2546 c9bd
00000390: 4c5e f93d ac5d 183e 07bd 913d 2e9e 0d3e
000003a0: bcfd 58bd e74c 993c 4699 1fbe d09d 0bbe
000003b0: 7718 23bd 97e6 023e f857 0abc b268 39bc
000003c0: a8c8 5abe 97c0 8abc ac8a 9bbd 73e8 053e
000003d0: 33d4 10bd a82d 3d3e b96b 08bd 2f58 aebd
000003e0: 911c 643e 40e5 ae3d a4f2 2ebe 416e 37be
000003f0: 6187 3d3e 1e47 1b3d 6a32 073e bf59 883e
0.09712846 -0.13588914 -0.1188429 -0.08911605 0.021811692 0.06836303 0.06332593 0.051739827
0.121067256 0.024229858 -0.035461057 -0.22600876 0.256301 -0.1213351 -0.11119997 -0.07774724
0.12091425 -0.036039535 -0.15248542 -0.06584033 -0.15251727 0.2479493 -0.018538436 0.05687788
0.039798 0.048416443 -0.07183174 -0.021380385 0.053510573 -0.047410816 -0.1518784 0.36089522
0.037710425 -0.10044717 -0.09691456 -0.10584429 0.018885896 -0.10711174 -0.16360289 -0.03796781
0.054522518 0.07819977 -0.069781475 -0.10552478 -0.0058285613 0.18547575 0.053810142 -0.14344591
-0.08090246 -0.1312503 0.14339949 0.093359105 -0.095724925 -0.07620624 -0.058813665 -0.17755634
0.12748742 -0.09279997 0.13069467 -0.09541389 0.29765302 -0.09000857 0.15656064 0.23783876
0.040876247 -0.0864698 -0.09164323 -0.12271854 0.0147928875 -0.04002272 -0.033678588 -0.01880178
-0.01727079 0.18968639 -0.020460436 -0.064283475 0.19008097 -0.025010346 -0.04579289 -0.27602258
0.025452405 -0.12763348 -0.027279645 -0.05200481 0.031536013 0.14994517 0.14495899 0.004721544
-0.058548912 0.20994365 -0.17211002 0.07223963 0.01005266 -0.18464743 -0.023211159 0.26861808
0.07598946 0.15595135 -0.26653293 -0.13206218 0.10542233 -0.07010825 -0.02140472 0.054837935
0.25622797 0.18060075 0.04570475 -0.20386776 0.03615833 -0.0044726906 0.2452522 0.11605776
-0.0115699945 0.027169155 -0.019474765 -0.028180897 0.040584207 -0.014457161 0.009996758 -0.13510773
0.31629235 -0.13523546 0.14349245 -0.005726951 0.25054404 0.07414255 0.10798692 0.066996425
-0.1248382 -0.21126217 -0.06589246 -0.011296666 0.13661638 -0.08936391 -0.025312508 0.1585031
0.14239073 -0.025418269 0.15166825 -0.11655058 0.035922196 0.011547586 0.02703852 -0.13370202
-0.10821817 -0.030626772 -0.12022349 -0.02809789 -0.0008756644 0.13960616 -0.09463105 -0.053039357
-0.032735124 -0.0736664 -0.070356965 -0.21299131 -0.086694576 -0.17683718 0.0866763 -0.086663395
0.027845941 0.21159776 -0.21935344 -0.12563235 0.17274459 -0.015408653 -0.08690873 -0.08743005
0.071644574 0.1919683 -0.056887146 0.18467814 -0.17723212 -0.2014021 -0.06669135 0.1546731
0.02514786 -0.034825694 0.034218993 0.07681642 -0.1448698 0.03856949 0.019565135 0.19099294
0.09380439 -0.004436652 0.016947607 -0.023047559 -0.056769773 0.04118945 0.13033211 0.03795437
-0.053153273 0.16460283 0.008057248 -0.0071887583 -0.13960664 0.041681495 0.067414925 0.007842319
-0.045354266 -0.03511174 0.16000949 -0.045646455 -0.03869963 -0.13200858 0.06589721 -0.04893655
-0.12026017 -0.14836162 0.030613089 0.030960957 0.2151963 0.0046996525 -0.052693512 -0.005181064
-0.071282506 0.12640508 -0.1397395 -0.10719535 0.04986834 -0.0032356156 -0.32593805 0.06377332
0.06821455 0.027452173 0.11360417 -0.09827832 0.12176189 0.14879483 0.07116132 0.13829872
-0.052976355 0.018713428 -0.15585813 -0.1363442 -0.039818253 0.12783276 -0.008443825 -0.011316465
-0.21365607 -0.016937537 -0.07594809 0.13076954 -0.03535862 0.18474448 -0.033305857 -0.085129134
0.22276522 0.0853982 -0.17084748 -0.17913152 0.18508674 0.03790962 0.13202825 0.2663097

AFeatRNN.weight_hh_l1 f4 [256, 64]
00000000: 8e5b f3bd a3bc 09be fc1c 64bd 7044 b43c
00000010: f431 a9bd 8a42 033e c185 3e3d 7381 f8bb
00000020: d689 ecbc d547 53bd f8e4 3cbd dbd3 af3d
00000030: 982b 5cbb e6de 9abd 0bd1 53be b9ba b6bd
00000040: 2cd3 9e3c 52d0 0e3e 36c4 55bd 19e3 0b3e
00000050: 0f3a 233d 4e57 e63d 949f fe3d 967f 92bd
00000060: ed75 0dbd 5fa4 84bd 94b2 f0bd 186e 1ebc
00000070: d15a 113d 09e7 833d 42ed 02bd 403d 29bc
00000080: da5f 953d 7685 26bd 30dc cabd 5754 f13d
00000090: 12dc e03c 4248 4ebd 863b 88bd 4657 4dbd
000000a0: fb2d 68bd 1464 dabd d0e6 48bd 8be2 0a3d
000000b0: 702b ba3d 6af3 ffbc 9535 f2bd fd92 a43b
000000c0: e7a8 c73d cb1b c5bd 9393 ad3d 1a21 0f3e
000000d0: 6ee9 963d 82dd 913d ba06 afbd 29a2 c5bd
000000e0: 2eb6 e03c 55e9 dbbd 9ed4 bf3d 21f8 983d
000000f0: 9822 033d 5c3e 943d fde0 46bd 5b1f 44be
00000100: f7ac 3d3c ca9e 89bd 98d5 f3bc b545 1f3b
00000110: 476a a23d aac8 63bd b7c6 47bd 61c8 673d
00000120: 6613 453c 1b17 9e3d 0853 f33d be24 d8bb
00000130: 421e 5dbc 3ffb 78bb 5271 473c d56a 063c
00000140: e6f4 bbbd 1263 653d 4830 d1bd 3d46 a9bd
00000150: 603e c9bd aa4b e73d 954d 03bd bc8c a73d
00000160: 625c 1dbe 88f1 853d 660b 2ebd 91e4 613b
00000170: b545 a5ba 800b 3cbd 93ef b53d 61f7 46bd
00000180: 24f2 7ebd f560 38bd 3064 f9bd 44f7 debd
00000190: 0226 35bd ddd3 a1bc 10d1 323e 93eb 7f3c
000001a0: 2b0a b0bd f79d a43d 96bc 06bc 0e66 b4bd
000001b0: 653d b53d 9891 e33d 957b 1f3d 43bc 14bb
000001c0: b699 59bd 9f79 633c 7af9 26bd 637d f4bd
000001d0: b881 053c e38a a3bc 9862 753d 67e1 ff3d
000001e0: e107 553d 7cbd 9c3d e8e8 8abd fd67 26be
000001f0: 2950 a3bd f5e5 bfbd f77a 683d 5166 bfbc
00000200: c57a a83d 6af1 14be e3c2 32be 96a8 d5bc
00000210: f58b b1bd bc99 693d fe1d 10bd b4c7 fd3c
00000220: 5400 c3bc 3925 6b3d dd23 d63d 2a36 763d
00000230: 0ba8 f03d 766e 12be 45d5 02bd 3e7e a1bd
00000240: c9b0 64be 9142 903d 54fe ef3d bed5 a13a
00000250: dd57 1cbe bb33 0abe a6d7 aebb aa68 0d3e
00000260: ec61 cf3c ce03 29be 2b45 b63d 3044 953d
00000270: 9d00 11be bc2f 1bbd 9c91 02be 2519 333c
00000280: dc73 683d 12dc 083e 7b57 083d cfc3 043a
00000290: 5a64 7ebd 0c39 ad3d 190d a13a 00ef 393e
000002a0: a3cc 84bd 1458 593c 2ad1 cb3d bc58 8b3d
000002b0: a3c1 983d 7ac2 ba3c eb64 e4bd f993 2a3c
000002c0: c8c6 debd 2811 9d3c dd76 343e e0cc ee3d
000002d0: 3098 e6bc a964 043e bc05 303d a6dd e63d
000002e0: d609 f13d 1bf8 c9bd 5b9f 793d af62 593c
000002f0: 1fdd 34be 28aa 193e 4f02 8e3d 7612 c43d
00000300: 944e 033e 63fb fabd 729e 98bc a02e 60bc
00000310: 82b5 6a3d ccaa 833c ed43 7e3c 6d88 9f3c
00000320: 4dd7 36be f76b c23c 0b45 003e 3098 e33d
00000330: 2b71 e13c 3134 ca3d aa1c 85ba 41dc e23c
00000340: e0fd 87bd 4c7f d7bd 3955 60bd 0421 f03d
00000350: 4e02 01bd 89b0 8d3c d389 cdbc 9a56 89bd
00000360: 9ac2 76bc 3b4c 83bb bf41 0e3c f1eb 1abe
00000370: 565d 9fbb a601 a63c 8484 2cbd 5131 043d
00000380: d806 33bd ff3c 85bd 0706 ef3c 6ceb f2bd
00000390: 79ee 03be 7108 9dbc ca6e e2bd b894 40bd
000003a0: 55e5 5ebd 800f f73d 9d3d cabb 59d8 6f3a
000003b0: 80ad f8bd b4a1 f03d db75 a6bd b132 003d
000003c0: a8f6 b43b 06ad aa3d d03b 8dbc bffe 64bd
000003d0: e925 88bd b121 e03d 3799 c13c 8cfa e7bc
000003e0: 7c74 1c3e e63c d03d 4906 023e 3e7e fabc
000003f0: 4fe4 14be cd44 243d 2926 823d 0db7 be3d
-0.11882697 -0.13450865 -0.055691704 0.02200529 -0.08261481 0.12818351 0.046514276 -0.007583791
-0.028874319 -0.051582176 -0.0461168 0.0858533 -0.003359532 -0.07562046 -0.20685212 -0.08922333
0.019387804 0.13946655 -0.052189074 0.1366085 0.03985029 0.11247121 0.12432781 -0.07153241
-0.03453629 -0.06476664 -0.11752811 -0.009669803 0.035487 0.06440551 -0.031964548 -0.010329545
0.07293673 -0.040654622 -0.09905279 0.11783665 0.027448688 -0.05036188 -0.06651978 -0.05013206
-0.056684475 -0.1066362 -0.049048245 0.033907454 0.09090316 -0.031243999 -0.11826626 0.005022405
0.097490124 -0.09624442 0.08475413 0.13977471 0.07368742 0.071223274 -0.08546205 -0.0965007
0.02743062 -0.10737864 0.093667254 0.07469202 0.032015413 0.072384566 -0.04855441 -0.19152586
0.011576883 -0.0671974 -0.029764935 0.0024303023 0.07930427 -0.05561129 -0.048773494 0.05658758
0.012028551 0.07719251 0.11881071 -0.006596177 -0.013495984 -0.0037991551 0.012173014 0.008204182
-0.0917757 0.056002684 -0.10214287 -0.0826535 -0.0982635 0.11293729 -0.03205641 0.0818114
-0.15367272 0.06540209 -0.04249134 0.0034468512 -0.0012609275 -0.045909405 0.08883586 -0.048575763
-0.062242642 -0.04501434 -0.121773124 -0.10887006 -0.0442257 -0.019754345 0.17462564 0.01562013
-0.085956894 0.08037942 -0.008223673 -0.08808528 0.08849601 0.11111754 0.038936216 -0.002269522
-0.053125106 0.013883977 -0.040765263 -0.11937978 0.008148603 -0.019963687 0.05990848 0.12494164
0.052009467 0.07653329 -0.067827046 -0.16250606 -0.07974274 -0.09370033 0.056757893 -0.023364218
0.082265414 -0.14545217 -0.17457156 -0.026081365 -0.08669273 0.05703138 -0.035184853 0.030979015
-0.023803867 0.057408545 0.10456059 0.06011025 0.11750802 -0.1429995 -0.03194167 -0.07885407
-0.22333063 0.070439465 0.11718431 0.0012347025 -0.15267892 -0.13496296 -0.005335766 0.13809457
0.025315247 -0.16505358 0.088999115 0.07288396 -0.1416039 -0.03788732 -0.12750858 0.010931288
0.056751117 0.133652 0.033286553 0.0005064578 -0.06210742 0.084581465 0.0012287229 0.18157578
-0.06484344 0.013265628 0.09952004 0.06804034 0.07458808 0.022797812 -0.11152061 0.010411256
-0.10877758 0.01917322 0.17623468 0.116601706 -0.02814874 0.12929024 0.04297422 0.11272745
0.11769454 -0.098617755 0.06094299 0.013268157 -0.17662476 0.15006316 0.06934034 0.09573834
0.12822944 -0.122549795 -0.01863024 -0.013682991 0.057302006 0.016072653 0.015519124 0.019474233
-0.17855568 0.023733122 0.12526338 0.11113012 0.027519783 0.09873236 -0.0010155637 0.027692916
-0.0664022 -0.10522327 -0.054768775 0.11725047 -0.03149634 0.017296093 -0.025090134 -0.06705971
-0.015061045 -0.00400689 0.008682667 -0.15129067 -0.0048634214 0.020264458 -0.042118564 0.032273594
-0.0437077 -0.06505775 0.029177679 -0.118613094 -0.12883939 -0.019169064 -0.110562876 -0.04701683
-0.054417927 0.12063503 -0.0061718957 0.0009149365 -0.121424675 0.117495924 -0.08127948 0.031298343
0.005522568 0.08333783 -0.017240435 -0.055907007 -0.06647856 0.10943926 0.023632629 -0.028317712
0.1527881 0.101678655 0.1269771 -0.030577775 -0.14540218 0.040104676 0.06354935 0.09312258

AFeatRNN.bias_ih_l1 f4 [256]
00000000: e38e b93d f34c fc3d 17f9 0a3e 880d dfbc
00000010: 242a c33d 368d 223c eaca bebd a9d0 d63d
00000020: 76f2 b83d dbe5 b63c 6cce 413d c864 82bc
00000030: 2d82 9c3d 362e ac3c 53d8 533e 4eab 5e3d
00000040: 7733 b2bc 4652 bd3d dc2f c73d f550 383e
00000050: 3afd 61bd 6cef 103e 41e2 c93d d613 223d
00000060: 0ad1 8f3d ee8e abbd 074e 55bd ed58 253d
00000070: 7dbb 86bd e54c f5bc 2412 283c d22d c5bd
00000080: 955f ae3d 7641 b6ba 8a02 30bd b9fb 2abc
00000090: 2eb8 163c 7f2d f43d 4c1a 8b3d acb8 1e3e
000000a0: 3e98 2a3e 49e3 37bc 1b35 92bc c7e8 2d3e
000000b0: 8fd0 af3d 438a 40bb 1e3b c0bd d00f 543b
000000c0: 0405 243e 07ee 843e 5e6e 223d 956b 353e
000000d0: 8a4f 12bd a8fc 243e d692 c2ba d6ca 823d
000000e0: 9b47 93bd 4fa2 28bd 61f8 873d cac5 a63d
000000f0: 2f49 b1bd 076d 643d 3cfb 583c a1f5 ec3d
00000100: ec0d 43bb d00a ebbd 947d 01bd ea9c 91bd
00000110: fc0a 5c3d 6837 8a3d 3539 d13d 349b 913d
00000120: b086 ebbd b5d8 f93d 08d6 d13c 71eb a6bd
00000130: d5d6 76bc 6487 0cbc e448 333d f890 d53d
00000140: 4dfe 53be 7c2e 1bbe f6ba ae3c 2e25 e03b
00000150: b9d9 49bd a924 883c faa4 14bd 0037 7bbd
00000160: 7c34 afbc a1d2 ecbb 8b39 13bd 523a d9bd
00000170: 11bd fcbd 9f22 c5bc 8e78 20bd c5f5 2fbe
00000180: 2aba c43c 9808 8dbd de04 15be 49cc 233d
00000190: 43df 4fbc 1e10 aa3d 0219 96bc 5123 b93d
000001a0: a107 c0bd 9525 3bbc 33a2 1f3c aa67 003e
000001b0: c4b6 00be 391b 1cbd 02c7 493d 0b7b adbd
000001c0: 7b89 ea3d 5893 073e af2b 04bd 208e 123c
000001d0: 4306 263c bb90 f33c 3c88 dd3d 62c1 003d
000001e0: bdb2 5ebd 959c 00be 1b8f 323d 9fad e5bd
000001f0: c307 893d c6a7 82bd 6a47 663b 02fe 0bbe
00000200: 6bb6 82bb 3bd8 043d e893 e4bd a7d4 7f3d
00000210: 908a adbd 2aa4 28bd 1f31 65bd 276e b63a
00000220: d84b c5bd 4d16 283d c0c3 2a3d 516c b7bc
00000230: 891d 58bd d516 cc3d 67b4 7dbd 03aa b03d
00000240: 041b f23c 8d1e ed3d 39d9 a0bc 85bb 0bbd
00000250: 0010 84bd 3372 093d bac4 c3bd 1adf 2a3d
00000260: 95bc bebd 9a82 4ebd 4f8c f73d 7550 b83d
00000270: a03d f4bd e6fb 88bd 459a 64be 2fbe ad3d
00000280: 0d56 38bd b68f 153d 75b6 eabc e23e ba3d
00000290: a281 0abd 5b47 71bd c0bc 853d b9e0 9bbd
000002a0: be04 f5bd 355a 843d f686 d9bd 9c93 33be
000002b0: ad0f 31bc 740e 23bd 8128 363c e8cd e33b
000002c0: e33e 7bbd 8c15 583d 0367 f53a 0768 d83d
000002d0: 9bd2 e1bd 6f16 063e eace 08be 9847 bbbd
000002e0: f736 193e b8f1 873d 76d3 283d 68da fabb
000002f0: bb00 1abe 872c 05bd 0aeb 8b39 33d2 d5bc
00000300: e511 a63d b4c8 8ebc 540b ab3a cc64 843d
00000310: e320 a03c 6300 243d 866f 0d3d 90d6 273d
00000320: 2531 453d 6ffc 8cbc 4a02 433e a880 48bb
00000330: 74c0 d8bc bb9e bc3b e50e 503e 0a50 9f3d
00000340: 541e 883c e692 b03d 0043 c53d c4fd 80bc
00000350: aed7 40bd f89a 523d 27f2 11bd f931 3e3d
00000360: 42e5 3e3e 284f 073d a16e 70bd 51a7 393d
00000370: e564 b03d 1716 1ebd 217e 3dbd 7025 30bd
00000380: f625 813c 24a1 6bbd 84bc 223e f530 883d
00000390: f971 003e 97e7 4e3d d862 ed3d e27f d63d
000003a0: ef29 723d 8f7f ddbd 0132 1bbd 1281 413d
000003b0: 7fdf fc3d f9c7 2f3e e968 dc3d 67dd 053e
000003c0: f9af fc3d 76f3 163c 10ad 0cbe ce37 3f3e
000003d0: b363 48bd 1a2c f73d 9564 d9bc c247 8cbd
000003e0: 851f 703d 02d0 10bb 4f5a f63d 2978 15bd
000003f0: de10 ae3d 3e77 033e 6e3f 333e f205 c13c
0.090604566 0.123193644 0.13571583 -0.027228132 0.09529522 0.009921363 -0.093160465 0.104890175
0.09030621 0.0223264 0.047316 -0.015917197 0.076420166 0.021018129 0.2068799 0.054362588
-0.021753056 0.09244208 0.09725925 0.17999633 -0.055173136 0.14153832 0.09857608 0.0395697
0.07022293 -0.08376871 -0.052076366 0.04036801 -0.06578729 -0.029943893 0.010258231 -0.0962788
0.085143246 -0.0013905007 -0.04297117 -0.010435992 0.009199185 0.1192274 0.06792125 0.15500134
0.16659638 -0.011223623 -0.017847588 0.16983329 0.08584701 -0.0029379285 -0.09386276 0.0032358058
0.16017538 0.2596285 0.039656036 0.1771682 -0.035720386 0.16112006 -0.0014844786 0.06386344
-0.07191392 -0.041170415 0.066391714 0.08143194 -0.08656537 0.05576804 0.013243493 0.115702875
-0.0029762937 -0.11476672 -0.0316139 -0.07110007 0.053721413 0.06748849 0.102159895 0.07109681
-0.11500299 0.12199537 0.025614753 -0.08150376 -0.015065868 -0.0085772015 0.043770686 0.10428041
-0.20702477 -0.15154451 0.021329384 0.0068403697 -0.049279902 0.016619043 -0.036290146 -0.06133175
-0.021387331 -0.0072272574 -0.03594355 -0.10606827 -0.12340749 -0.02406436 -0.03917747 -0.17183597
0.024014551 -0.06886405 -0.14552638 0.039989743 -0.012687507 0.08303855 -0.018322472 0.09039939
-0.09376455 -0.0114225345 0.009743261 0.12539545 -0.1256972 -0.0381119 0.049262054 -0.08470734
0.114520036 0.13239801 -0.032268222 0.008945018 0.010133329 0.029732099 0.10817 0.031434424
-0.054369677 -0.12559731 0.043593507 -0.11214756 0.066909336 -0.063796565 0.003513778 -0.13671115
-0.003989031 0.032432776 -0.111610234 0.06245866 -0.08473694 -0.041172184 -0.05595505 0.0013918326
-0.09633607 0.041036893 0.041690588 -0.022390516 -0.052762542 0.09965292 -0.061939623 0.08626177
0.029553898 0.11578093 -0.01963483 -0.03411438 -0.06448364 0.033556174 -0.09559007 0.041716672
-0.09313313 -0.05041752 0.120873086 0.08999721 -0.119258165 -0.06688671 -0.22324474 0.0848354
-0.04500394 0.036514007 -0.028651455 0.09094025 -0.033815034 -0.05890594 0.06530142 -0.07611222
-0.11963795 0.06462518 -0.10621445 -0.17536777 -0.01080696 -0.039808705 0.011118055 0.006952036
-0.06133927 0.052754924 0.0018722716 0.10566717 -0.11026498 0.13094495 -0.13360181 -0.09144515
0.14962374 0.06637901 0.04121729 -0.0076554306 -0.15039341 -0.032513168 0.00026687264 -0.026101207
0.08108882 -0.017429687 0.0013049641 0.06464538 0.019546932 0.04003943 0.034530185 0.040976107
0.04814257 -0.017210213 0.19043842 -0.0030594263 -0.026458956 0.005756227 0.20318182 0.07778938
0.016616024 0.08621769 0.0963192 -0.015746005 -0.04708069 0.05141732 -0.035631325 0.046434376
0.18642142 0.033034474 -0.058699254 0.04532558 0.08612994 -0.038595285 -0.046262864 -0.043004453
0.015765171 -0.057526723 0.15892226 0.06649963 0.12543477 0.05051383 0.115911186 0.104736105
0.059122022 -0.108153455 -0.037889484 0.04724223 0.12347316 0.17166127 0.107621975 0.1307274
0.123382516 0.009213319 -0.13737893 0.18673632 -0.048923206 0.120689586 -0.026537219 -0.06849624
0.05862381 -0.0022096639 0.12028944 -0.036491547 0.08499311 0.12838456 0.17504665 0.023562405
