STD/checkpoints/original/VA_METRIC_state_epoch10.pth (torch, 684542 bytes, 24 tensors)

AFeatRNN.weight_ih_l0 f4 [256, 128]
0.03051142 0.10150197 0.07186345 0.022903929 -0.06325189 0.15022439 0.15989348 0.10344771
-0.08178069 -0.020582382 -0.085551284 -0.008989031 -0.08361566 -0.028396338 0.077415235 -0.10157871
0.12535429 0.13660307 0.0016361856 0.03140509 -0.054613944 -0.025443507 0.114526406 -0.106431894
0.121832296 0.03818861 0.004840269 -0.046947483 0.08319601 -0.053182818 0.014375681 -0.04519066
0.06469223 0.10935458 0.08880418 -0.050802115 -0.014329376 0.07780082 0.051497094 -0.06420696
0.00026175813 0.05698517 -0.10686649 0.17646767 0.0007352428 0.030086542 0.038617935 0.010361744
0.0074459384 -0.041696142 -0.095831715 0.12057099 0.08065973 -0.03642857 -0.09384267 0.09177785
-0.007608477 0.08490271 -0.04828255 -0.059595365 0.074886106 -0.054296404 -0.059550874 0.09566764
0.07719523 0.03856532 0.043899488 0.011201781 0.1334405 0.11352638 -0.12451194 0.13518126
0.004184338 0.053912554 -0.09687652 0.04676252 0.08141686 0.086928934 -0.018521218 -0.07374696
0.019532673 -0.015635261 -0.048410233 0.015724987 0.14467333 0.015634822 0.140683 0.00033780962
0.09628362 0.052169308 0.006403778 0.01921556 0.017567711 0.066752344 0.1281417 0.009742666
-0.011067749 -0.046108782 0.09518675 -0.09938355 0.010419083 0.019801501 0.15696284 0.07048063
0.02608064 0.043773875 -0.01731798 -0.0104754185 0.12825897 -0.04170153 0.10399028 0.046067845
-0.07193499 -0.012046155 -0.08361352 0.0748527 -0.078644976 0.09788255 -0.06461391 -0.016961075
-0.018300947 0.10559119 -0.009490407 0.15748103 -0.10388622 0.028919058 -0.049371842 0.1490668
0.014419897 0.084342234 -0.10819089 -0.14440858 0.08508218 -0.015961546 0.13199627 0.103061415
-0.0025060903 -0.039404698 0.10704128 -0.095864646 0.06462976 0.023814347 0.06117535 0.06565903
0.011463613 -0.00075829914 -0.039131753 -0.10881481 -0.010436781 0.028575234 -0.16080411 -0.10257889
-0.084218144 0.018331176 0.09720789 -0.026348565 0.12648393 0.08482113 -0.099328525 0.062458508
0.00396974 0.061313 0.0313041 -0.041192327 -0.022311218 -0.094441116 0.036685407 -0.060301155
0.13265179 0.056919094 0.031270128 0.07464884 0.14474586 -0.07400842 -0.026298834 0.116592415
0.05688444 0.005506104 0.06290308 -0.1477211 0.0919845 0.12261124 -0.066169865 0.043419953
0.013289557 -0.081979394 0.00070572423 0.03477247 -0.08021982 0.10772147 0.096045434 -0.010884463
-0.1142095 0.08804224 0.035530366 -0.066994876 0.031696256 0.004265674 0.14325391 -0.11756313
-0.028066538 -0.05193113 -0.07865389 0.12008941 0.09241568 0.051300928 0.08097293 0.10655271
0.10204107 0.13734259 0.0006991052 0.09854252 -0.11432023 -0.08738871 0.063432485 -0.12319712
0.052170806 0.03383996 0.107145675 -0.029125057 -0.09129944 0.04144355 0.13894494 0.070103526
0.098657526 0.113192864 -0.07100606 -0.0150651615 -0.052660428 -0.03496196 -0.12516674 -0.009603255
-0.09668458 0.05564941 -0.057437513 0.043963183 -0.02571655 0.08983813 0.06795719 0.116746865
-0.102947466 -0.04058568 0.01692893 -0.061253816 -0.05896721 -0.100212224 -0.11710466 -0.13112257
0.04536689 -2.3870361e-05 0.06579684 0.10920054 -0.091452435 -0.12247365 -0.035691407 0.091411896
00000000: 16f3 f93c 44e0 cf3d 252d 933d 05a1 bb3c
00000010: 358a 81bd 6cd4 193e 1ebb 233e 65dc d33d
00000020: a27c a7bd 629c a8bc 8335 afbd bb46 13bc
00000030: b03e abbd 709f e8bc e18b 9e3d 8008 d0bd
00000040: e05c 003e ade1 0b3e 4775 d63a a0a2 003d
00000050: dfb2 5fbd e76e d0bc d28c ea3d f7f8 d9bd
00000060: 3683 f93d a96b 1c3d 1f9b 9e3b 014c 40bd
00000070: ab62 aa3d 3ad6 59bd fa87 6b3c d719 39bd
00000080: 5c7d 843d 4bf5 df3d f7de b53d e115 50bd
00000090: c2c5 6abc 0956 9f3d 9eee 523d f07e 83bd
000000a0: 953c 8939 4869 693d d1dc dabd f1b3 343e
000000b0: 4fbd 403a 0d78 f63c d72d 1e3d 4ec4 293c
000000c0: 0ffd f33b 93c9 2abd 6b43 c4bd eced f63d
000000d0: ee30 a53d 2036 15bd 9630 c0bd 07f6 bb3d
000000e0: 8850 f9bb 79e1 ad3d ecc3 45bd 451a 74bd
000000f0: e35d 993d e865 5ebd 9eeb 73bd 65ed c33d
00000100: 8818 9e3d abf6 1d3d f3cf 333d ad87 373c
00000110: a0a4 083e 8580 e83d 1e00 ffbd f56c 0a3e
00000120: c51c 893b 69d3 5c3d 3267 c6bd 0e8a 3f3d
00000130: e2bd a63d cc07 b23d cfb9 97bc a508 97bd
00000140: fc02 a03c 8515 80bc cf49 46bd b0d1 803c
00000150: 3f25 143e 9914 803c 340f 103e 0a1c b139
00000160: 5930 c53d 7caf 553d c9d6 d13b f369 9d3c
00000170: 29ea 8f3c 74b5 883d 9437 033e b49f 1f3c
00000180: 8155 35bc 90dc 3cbd 45f1 c23d 9a89 cbbd
00000190: cdb4 2a3c c236 a23c deba 203e 2658 903d
000001a0: 11a7 d53c 3c4c 333d 70de 8dbc 17a1 2bbc
000001b0: 5256 033e 39cf 2abd dbf8 d43d a3b1 3c3d
000001c0: a752 93bd 3c5d 45bc 913d abbd 5f4c 993d
000001d0: 9e10 a1bd a576 c83d 4c54 84bd f4f1 8abc
000001e0: deeb 95bc 3240 d83d a77d 1bbc b542 213e
000001f0: 4cc2 d4bd a9e7 ec3c 213a 4abd f8a4 183e
00000200: 6f41 6c3c 9fbb ac3d 2f93 ddbd d8df 13be
00000210: 913f ae3d cac1 82bc 082a 073e dd11 d33d
00000220: 383d 24bb d266 21bd 7538 db3d af54 c4bd
00000230: 9c5c 843d 4e16 c33c 0193 7a3d 3e78 863d
00000240: e1d1 3b3c 98c8 46ba 9e48 20bd 4dda debd
00000250: 08ff 2abc 9c16 ea3c d5a9 24be e214 d2bd
00000260: 907a acbd 432b 963c ee14 c73d f2d8 d7bc
00000270: 0185 013e b3b6 ad3d c16c cbbd 7ed4 7f3d
00000280: 9814 823b 5723 7b3d ba38 003d 49b9 28bd
00000290: 04c6 b6bc 586a c1bd 7043 163d 58fe 76bd
000002a0: dfd5 073e ff23 693d 1b15 003d 7ee1 983d
000002b0: 4238 143e ba91 97bd a770 d7bc 01c8 ee3d
000002c0: a9ff 683d 8c6c b43b 54d3 803d 3344 17be
000002d0: 5f62 bc3d 9a1b fb3d 1184 87bd 1fd9 313d
000002e0: 71bc 593c d0e4 a7bd 5a00 393a 946d 0e3d
000002f0: 4a4a a4bd 139d dc3d 78b3 c43d bf54 32bc
00000300: ace6 e9bd 7d4f b43d 4a88 113d 9c34 89bd
00000310: efd3 013d 11c7 8b3b 27b1 123e f0c4 f0bd
00000320: cceb e5bc bdb5 54bd 4a15 a1bd 70f1 f53d
00000330: 6f44 bd3d ec20 523d 23d5 a53d 4f38 da3d
00000340: e9fa d03d 89a3 0c3e 2844 373a a9d0 c93d
00000350: ba20 eabd daf8 b2bd e4e8 813d c64e fcbd
00000360: 0eb1 553d c59b 0a3d 316f db3d ac97 eebc
00000370: 33fb babd b6c0 293d 9547 0e3e 7092 8f3d
00000380: f50c ca3d a9d1 e73d a06b 91bd ded3 76bc
00000390: 76b2 57bd 4634 0fbd b62b 00be f956 1dbc
000003a0: 9102 c6bd a3f0 633d 9943 6bbd bd12 343d
000003b0: 84ab d2bc 0efd b73d 242d 8b3d fb18 ef3d
000003c0: 1fd6 d2bd 2c3d 26bd 8aae 8a3c 48e5 7abd
000003d0: 9a87 71bd 113c cdbd 91d4 efbd ff44 06be
000003e0: a2d2 393d 363d c8b7 7ec0 863d 88a4 df3d
000003f0: 6a4b bbbd 77d3 fabd 2731 12bd 2936 bb3d

AFeatRNN.weight_hh_l0 f4 [256, 64]
-0.06399609 0.003263165 -0.044322997 0.008661523 0.03503334 -0.023187183 -0.07370586 0.031600464
0.0955149 0.0428599 0.15994723 0.11538437 -0.099383354 0.01421994 -0.051439073 0.034730777
-0.005623433 -0.037205003 -0.16742864 0.17018114 -0.0052095954 -0.07337736 -0.06868098 0.03495179
-0.01723755 -0.038799595 0.026429757 0.013410005 -0.030373713 0.08760419 0.03557575 -0.009449627
0.10098038 0.045632377 -0.11523494 -0.05533987 -0.08719797 0.11855653 -0.13513657 0.122107685
0.054029267 0.07419598 0.056364965 -0.11536953 -0.051134635 0.003130152 -0.06449294 0.07503042
-0.099777244 -0.09395098 0.059705622 0.15157734 0.032422267 0.056254152 -0.028145809 0.10582518
0.08116994 -0.09219177 0.019442359 -0.12503506 0.025415244 -0.03003964 -0.0030993375 0.06396211
0.06289093 -0.09281958 -0.112717204 -0.034266792 0.11809865 0.016846213 0.08984911 -0.03256159
0.060952265 -0.08524444 -0.12301693 -0.02877221 -0.15865245 -0.09646204 0.02991693 -0.011313586
-0.14743783 0.09085671 -0.061819825 -0.06731673 -0.045424398 0.042511575 -0.032931358 -0.053070143
-0.099047735 0.052990068 0.043650627 0.11475281 0.029546475 0.049716614 -0.11765163 0.108085215
0.0514406 -0.03847648 -0.12133691 -0.12639032 -0.035302825 -0.05163627 -0.0009736804 -0.020055206
0.016791884 0.13378625 0.015256077 -0.049683616 0.0336318 0.031669013 0.0066480143 -0.075830124
-0.13936558 -0.036522016 -0.13275272 -0.0947811 -0.07944577 -0.021320548 -0.061588947 0.0044537135
0.0500462 -0.041949764 0.046591386 -0.13917756 -0.096691824 -0.07853903 -0.06337705 0.048252016
-0.011198095 -0.04968427 0.11786258 0.08036343 -0.04824638 0.06359099 -0.028326117 -0.05646501
-0.12780412 -0.055138607 -0.010916538 -0.03860377 -0.025015077 0.09892619 0.021297583 0.121969335
-0.02398033 0.045158792 0.026009377 0.10860832 0.092699654 -0.010302133 -0.1025003 0.073727734
-0.05652458 -0.05837709 0.05715987 -0.057450444 0.08534793 0.06935393 0.005505709 0.09667816
0.075273655 -0.045296658 0.029535944 0.08933529 -0.0805108 -0.117427304 0.08189904 0.027171262
-0.10068698 0.12343993 -0.0977581 0.009091467 -0.11108346 -0.0704112 -0.062461127 -0.078387275
0.13528287 0.09577426 -0.05899387 0.0021624488 0.041306965 -0.00084882084 -0.109482534 0.044893842
-0.01720468 0.020311555 0.10860393 -0.0015920928 -0.05484364 0.08469943 -0.00439517 -0.02694248
0.049214307 -0.07106002 0.032963034 -0.0016122911 -0.08180201 -0.017155955 -0.024849026 0.048772022
-0.04934601 0.106134124 -0.031521797 -0.044257767 0.058096383 0.12029419 -0.002649521 -0.0012431087
-0.05213383 -0.00032847954 0.07462338 0.04098654 0.055204473 0.042109054 -0.10805265 -0.06431951
0.06872259 0.052887738 -0.09160673 0.03672492 0.10740451 -0.032020777 0.003922439 -0.0149902105
0.1055275 -0.044934236 0.025601482 -0.030099813 0.06125878 -0.06363243 -0.12284954 0.09927021
0.03553203 -0.027280891 0.08730059 -0.005701618 -0.006573889 -0.06414852 0.094965816 -0.07179593
-0.068439215 0.0094211465 -0.09763843 -0.099312454 0.093987815 0.13993677 -0.07343953 0.009634201
0.090784974 -0.08066795 0.025967078 -0.10368801 0.09037912 0.008215428 0.06317883 -0.032944612
00000000: 6210 83bd d3da 553b 088c 35bd 10e9 0d3c
00000010: 1f7f 0f3d 0cf3 bdbc 19f3 96bd 7d6f 013d
00000020: 519d c33d dd8d 2f3d 35c9 233e a44e ec3d
00000030: 8089 cbbd c0fa 683c c7b1 52bd dc41 0e3d
00000040: c644 b8bb 4664 18bd 6a72 2bbe f743 2e3e
00000050: 41b5 aabb df46 96bd 9da8 8cbd 9c29 0f3d
00000060: c335 8dbc 53ec 1ebd 3883 d83c a3b5 5b3c
00000070: 4bd2 f8bc d369 b33d e1b7 113d 9cd2 1abc
00000080: cdce ce3d 04e9 3a3d 4c00 ecbd 0fac 62bd
00000090: d994 b2bd c4cd f23d 3e61 0abe 9813 fa3d
000000a0: cb4d 5d3d 10f4 973d f3de 663d dc46 ecbd
000000b0: 8d72 51bd 3c23 4d3b e014 84bd 8da9 993d
000000c0: 0358 ccbd 5f69 c0bd e28d 743d 1737 1b3e
000000d0: 36cd 043d c16a 663d 0a92 e6bc dfba d83d
000000e0: 6d3c a63d 0acf bcbd 9545 9f3c 3109 00be
000000f0: a133 d03c b115 f6bc 411e 4bbb 91fe 823d
00000100: f6cc 803d 3118 bebd 47d8 e6bd 565b 0cbd
00000110: b4dd f13d 1201 8a3c cf02 b83d 4d5f 05bd
00000120: 15a9 793d a394 aebd 4df0 fbbd b3b3 ebbc
00000130: ca75 22be e48d c5bd 5914 f53c 9e5c 39bc
00000140: f1f9 16be 1513 ba3d c936 7dbd 5bdd 89bd
00000150: ef0e 3abd 9e20 2e3d 08e3 06bd 1460 59bd
00000160: 8ad9 cabd 1d0c 593d 00cb 323d 8503 eb3d
00000170: 730b f23c a6a3 4b3d 56f3 f0bd c85b dd3d
00000180: 61b3 523d 8399 1dbd 7c7f f8bd 776c 01be
00000190: b299 10bd 8e80 53bd 963e 7fba d14a a4bc
000001a0: 228f 893c 43ff 083e a0f4 793c 0c81 4bbd
000001b0: 80c1 093d 5eb7 013d 96d7 d93b d34c 9bbd
000001c0: dab5 0ebe 1c98 15bd 54f0 07be 981c c2bd
000001d0: 77b4 a2bd 6ea8 aebc b144 7cbd 75f0 913b
000001e0: 3ffd 4c3d 84d3 2bbd 9cd6 3e3d 9084 0ebe
000001f0: 5d06 c6bd 12d9 a0bd d4cb 81bd e8a3 453d
00000200: 3778 37bc bc81 4bbd f061 f13d 9595 a43d
00000210: ff9d 45bd fe3b 823d 2c0c e8bc db47 67bd
00000220: 15df 02be 05d9 61bd 47db 32bc fd1e 1ebd
00000230: 6bec ccbc d099 ca3d 4578 ae3c 0fcb f93d
00000240: 6672 c4bc 6df8 383d 9e11 d53c 0a6e de3d
00000250: 51d9 bd3d 47ca 28bc adeb d1bd 91fe 963d
00000260: 5186 67bd d11c 6fbd 7820 6a3d 2851 6bbd
00000270: e5ca ae3d 6f09 8e3d 3c69 b43b 33ff c53d
00000280: 1329 9a3d fd88 39bd 5df5 f13c 6cf5 b63d
00000290: d9e2 a4bd ba7d f0bd afba a73d 4496 de3c
000002a0: fa34 cebd 13ce fc3d 6635 c8bd 60f4 143c
000002b0: ba7f e3bd bf33 90bd 3dd7 7fbd 8289 a0bd
000002c0: 9887 0a3e 4c25 c43d 8ea3 71bd dfb7 0d3b
000002d0: 7e31 293d 6783 5eba 6138 e0bd 9be2 373d
000002e0: d4f0 8cbc 6b64 a63c bd6b de3d c5ad d0ba
000002f0: baa3 60bd e576 ad3d 5c05 90bb 7ab6 dcbc
00000300: f194 493d ea87 91bd 3f04 073d 8353 d3ba
00000310: d087 a7bd a58a 8cbc 2f90 cbbc 2cc5 473d
00000320: 0b1f 4abd d95c d93d 001d 01bd a247 35bd
00000330: 79f6 6d3d cd5c f63d 96a3 2dbb ceef a2ba
00000340: 488a 55bd c737 acb9 25d4 983d 81e1 273d
00000350: 161e 623d 8b7a 2c3d b54a ddbd f2b9 83bd
00000360: 6ebe 8c3d d0a0 583d 4f9c bbbd df6c 163d
00000370: e5f6 db3d 3828 03bd ce87 803b 8099 75bc
00000380: cd1e d83d f60c 38bd 33ba d13c e293 f6bc
00000390: 7dea 7a3d b851 82bd 8a98 fbbd 2e4e cb3d
000003a0: 098a 113d 2d7c dfbc a7ca b23d a3d4 babb
000003b0: c769 d7bb 4d60 83bd 707d c23d bf09 93bd
000003c0: dc29 8cbd 275b 1a3c a8f6 c7bd 5464 cbbd
000003d0: af7c c03d 964b 0f3e 7767 96bd c5d8 1d3c
000003e0: 79ed b93d 3d35 a5bd e9b8 d43c 615a d4bd
000003f0: b018 b93d 019a 063c e763 813d eef0 06bd

AFeatRNN.bias_ih_l0 f4 [256]
-0.0013051813 -0.09875793 0.05517041 -0.060186215 -0.0835869 0.07296773 0.12339504 0.09647084
0.021463238 0.111710146 -0.066838235 0.012185073 -0.016147664 0.028096387 -0.086559325 0.006528708
-0.04008619 0.05861124 0.106092565 -0.049320247 -0.065265186 0.042850293 -0.04585729 0.075258635
0.1022463 0.0643305 -0.08656758 -0.071081914 0.025801703 -0.08961124 0.12622407 -0.024264686
0.097714745 -0.06514423 -0.11319296 0.11485426 -0.051168926 -0.031213054 0.06336896 0.049108695
0.02696753 0.03935942 -0.09447687 -0.10934287 0.1260885 0.1529636 0.10882723 0.12751871
0.11848378 -0.083217174 0.09915038 -0.06423551 -0.013330367 -0.10369171 -0.045869913 -0.0653254
0.038293205 0.16074753 0.113797195 0.12628394 0.10464017 0.04205672 -0.08530457 -0.07871993
0.0036300179 -0.032356877 -0.09417647 -0.04963804 0.08762395 -0.12146101 0.028765427 -0.09755949
0.05570718 0.14975855 -0.01940897 -0.08982433 -0.0414568 -0.12424132 -0.02749493 -0.049491283
-0.009174108 0.020374464 -0.081522584 0.06553131 0.08001528 -0.06879354 0.12483243 0.043601703
0.033686776 0.012119145 -0.023521945 -0.09003134 -0.027396748 0.09544344 -0.086718865 0.056213483
-0.016590575 0.08405634 -0.06883671 0.09732915 0.040612217 -0.102630936 -0.08733642 -0.0014539853
-0.012050525 0.1118184 -0.045473617 -0.009187122 -0.11485667 0.07439638 0.0923874 -0.0035181304
-0.05776985 0.056841798 0.030950805 -0.07944806 -0.08828243 0.07276963 -0.06624923 0.010796939
-0.02501488 0.07100648 0.022023248 0.026366279 -0.09277776 -0.01275628 0.053653665 0.11060242
-0.054258127 0.039361708 -0.057672337 -0.025768477 0.03789292 0.121359125 0.12360208 -0.030173352
-0.122893564 -0.005120254 -0.08432903 0.073186085 0.1158067 0.03568183 -0.10371023 -0.10077251
-0.0586304 0.062436894 -0.12007896 -0.009201518 -0.009753758 0.067957155 0.07991611 0.008833689
0.0073847612 -0.03586272 0.0726417 0.041237164 -0.03820168 0.08449111 -0.05133581 -0.05094222
0.042709038 -0.0022908978 0.09812277 0.038218796 -0.02669637 0.053414635 0.06994533 -0.11663391
-0.06261648 -0.014900493 -0.019014847 0.002267308 -0.02354042 0.086203076 -0.02434944 -0.01638956
0.08168668 -0.027590858 -0.09178611 0.063665554 0.112694435 -0.002374671 -0.09263452 0.01344323
0.061712496 0.0718539 0.04834493 -0.033494446 -0.084695905 -0.10995254 0.11358296 -0.12697929
0.052518897 0.05380436 -0.10619078 -0.01786921 -0.0055659637 -0.027879834 -0.053799216 0.0570194
-0.043505393 -0.10945268 -0.03968879 0.028751628 0.12830205 -0.061314844 -0.06506036 -0.11393944
0.09770215 0.1155757 -0.07898001 0.058678333 0.1082903 0.050662473 -0.05304996 0.050172534
0.10326833 0.023647344 -0.05575878 0.03600539 -0.070286386 0.082409024 0.13120466 -0.025121108
-0.07016419 0.040804762 -0.017980475 0.12389422 0.019341527 0.07150306 0.10811183 -0.064037286
-0.008098876 -0.06443226 0.12183555 -0.098922886 0.038602397 -0.06455065 0.08476984 -0.08548252
0.09852574 0.07106117 0.13044968 0.011199813 -0.0653856 0.0850522 0.016024375 -0.0046196496
-0.069906496 -0.03557673 0.0885561 0.017550236 -0.056033127 -0.06092348 -0.000502898 -0.0985575
00000000: 9e12 abba 9941 cabd 5efa 613d d285 76bd
00000010: 9c2f abbd 1b70 953d 8ab6 fc3d 8192 c53d
00000020: acd3 af3c 4ac8 e43d 7ce2 88bd e7a3 473c
00000030: 1b48 84bc 652a e63c 0446 b1bd c6ee d53b
00000040: 6b31 24bd 5712 703d 0f47 d93d 0704 4abd
00000050: c1a9 85bd ca83 2f3d dbd4 3bbd 3321 9a3d
00000060: 8266 d13d b6bf 833d 584a b1bd 6593 91bd
00000070: 185e d33c 1986 b7bd e240 013e bcc6 c6bc
00000080: ab1e c83d 576a 85bd b6d1 e7bd b638 eb3d
00000090: 8296 51bd 85b2 ffbc 96c7 813d 3326 493d
000000a0: 02eb dc3c 5837 213d 177d c1bd 28ef dfbd
000000b0: 581d 013e 7da2 1c3e d0e0 de3d 4494 023e
000000c0: a0a7 f23d c46d aabd 5b0f cb3d e88d 83bd
000000d0: 9d67 5abc 525c d4bd 17e2 3bbd 53c9 85bd
000000e0: 56d9 1c3d 009b 243e 810e e93d 9450 013e
000000f0: 964d d63d ab43 2c3d 2ab4 aebd ea37 a1bd
00000100: 98e5 6d3b a588 04bd 98df c0bd 4251 4bbd
00000110: 2f74 b33d 8dc0 f8bd 79a5 eb3c 45cd c7bd
00000120: 362d 643d 4e5a 193e 8fff 9ebc d1f5 b7bd
00000130: 9bce 29bd 3c72 febd 0c3d e1bc 5fb7 4abd
00000140: ff4e 16bc 59e8 a63c 50f5 a6bd 4835 863d
00000150: 0ddf a33d a1e3 8cbd 25a8 ff3d b397 323d
00000160: 25fb 093d 618f 463c 18b1 c0bc 5a62 b8bd
00000170: 256f e0bc da77 c33d a999 b1bd 1c40 663d
00000180: f5e8 87bc bb25 ac3d 43fa 8cbd 8154 c73d
00000190: ff58 263d 2b30 d2bd 70dd b2bd a793 beba
000001a0: 916f 45bc 0c01 e53d 8b42 3abd 9585 16bc
000001b0: f939 ebbd 215d 983d 9b35 bd3d 6f90 66bb
000001c0: 14a0 6cbd f2d2 683d 8b8c fd3c aab5 a2bd
000001d0: 6bcd b4bd 3e08 953d adad 87bd a5e5 303c
000001e0: 01ec ccbc d86b 913d 196a b43c 18fe d73c
000001f0: 4402 bebd b7ff 50bc f2c3 5b3d 8683 e23d
00000200: c53d 5ebd be39 213d d439 6cbd 6a18 d3bc
00000210: 9b35 1b3d 228b f83d 1623 fd3d 1b2e f7bc
00000220: 9faf fbbd cec7 a7bb b3b4 acbd 96e2 953d
00000230: 102c ed3d 1c27 123d 0766 d4bd d161 cebd
00000240: 6e26 70bd d4bd 7f3d f5eb f5bd f7c1 16bc
00000250: 3ace 1fbc 1f2d 8b3d 0fab a33d 2dbb 103c
00000260: defb f13b cae4 12bd 2cc5 943d 4de8 283d
00000270: 5d79 1cbd ad09 ad3d 8045 52bd caa8 50bd
00000280: acef 2e3d e322 16bb 97f4 c83d 508b 1c3d
00000290: 59b2 dabc 4ec9 5a3d 7f3f 8f3d c2dd eebd
000002a0: 123d 80bd 3321 74bc 06c5 9bbc 1e97 143b
000002b0: d7d7 c0bc 3d8b b03d 7a78 c7bc 6643 86bc
000002c0: 594b a73d 3906 e2bc 5bfa bbbd 1663 823d
000002d0: 57cc e63d 5ea0 1bbb 2bb7 bdbd fe40 5c3c
000002e0: 3ec6 7c3d 2328 933d 5505 463d 7931 09bd
000002f0: 0c75 adbd cc2e e1bd 2f9e e83d dc06 02be
00000300: 0e1e 573d f661 5c3d 8d7a d9bd 7362 92bc
00000310: b062 b6bb 4064 e4bc 915c 5cbd 2d8d 693d
00000320: b632 32bd ba28 e0bd b690 22bd 8988 eb3c
00000330: 9d61 033e 4625 7bbd 5e3e 85bd 1559 e9bd
00000340: 1118 c83d f4b2 ec3d 45c0 a1bd b158 703d
00000350: 4ec7 dd3d 7483 4f3d ea4a 59bd b781 4d3d
00000360: 597e d33d 13b8 c13c 5263 64bd 637a 133d
00000370: 4ff2 8fbd 10c6 a83d 845a 063e c8ca cdbc
00000380: 3eb2 8fbd e522 273d ca4b 93bc 41bc fd3d
00000390: 1f72 9e3c 3270 923d bc69 dd3d fb25 83bd
000003a0: 26b1 04bc 10f5 83bd eb84 f93d 1598 cabd
000003b0: 8c1d 1e3d 2233 84bd cf9b ad3d 7611 afbd
000003c0: ddc7 c93d 8588 913d 9a94 053e 6c7f 373c
000003d0: e3e8 85bd d92f ae3d 8d45 833c 6e60 97bb
000003e0: 232b 8fbd e8b8 11bd e75c b53d 83c5 8f3c
000003f0: fe82 65bd e68a 79bd ead4 03ba 84d8 c9bd

AFeatRNN.bias_hh_l0 f4 [256]
0.10601439 -0.06628081 0.018542452 0.09262358 -0.03426355 -0.059457283 0.0031056742 -0.054839715
-0.04399964 0.014410305 0.066808596 0.026836468 -0.047627307 0.010857151 0.048910927 -0.061724164
-0.032724734 0.09799885 -0.04151374 0.0026679519 -0.09795799 -0.08709129 -0.06522426 0.047543913
0.13479234 0.025603028 -0.07257025 0.06006217 0.0077811554 0.039492767 0.0020596918 -0.08448906
0.12012555 -0.046696283 0.094738424 -0.067165345 -0.063061126 -0.012108251 -0.0033501985 0.06975223
-0.108574726 -0.035444397 0.023211421 -0.015419632 0.090666346 0.108968124 -0.018038744 0.102843866
-0.015478283 0.119710594 0.09152614 0.104510255 0.025035603 0.082083255 -0.007241768 0.1064082
-0.021763662 0.024521748 -0.060932018 -0.07309029 0.034665063 0.09897979 -0.0901441 0.0078757405
-0.028851412 -0.04634034 -0.098083034 -0.053729374 0.046877608 0.07658651 -0.07681238 -0.057657313
0.02688663 0.056031227 -0.057592846 -0.061640125 -0.06752991 -0.07846666 0.040343657 -0.12656018
-0.046575274 -0.043672957 -0.03423783 0.020478016 0.11723802 0.021027245 -0.10090751 -0.1447449
-0.11898868 0.027480988 0.018057834 -0.05851471 -0.13161892 0.055731732 0.027957605 -0.056179266
0.0334455 0.08601778 0.07201772 0.04650148 0.09217236 0.120692216 0.033045404 0.12892318
-0.037946608 -0.08830216 0.05342575 -0.05880867 -0.018165763 -0.0071608517 0.0015901099 -0.13307425
-0.002739943 0.10376829 -0.007296395 0.054169096 0.087404884 -0.07028198 -0.10975756 0.054793674
-0.032117963 -0.07557489 0.00079868786 -0.015760804 0.06674604 -0.06212523 -0.04601889 0.0013209769
-0.05128688 -0.09169334 0.08364587 -0.08941562 -0.059680566 0.115765214 0.10415404 0.00032243307
-0.11194338 -0.090662315 -0.06745193 0.03198243 -0.029175134 -0.0370102 -0.06479248 -0.09745712
-0.0815225 0.07853984 -0.042180665 -0.08024613 -0.083534144 0.06421079 -0.04195838 -0.096795075
0.073241785 0.07826386 -0.09396212 0.08963547 -0.041091803 0.065696575 0.05812192 0.08655827
-0.038253188 0.03531278 0.10227003 -0.09590134 0.1167965 -0.1036898 -0.012629017 0.050511394
-0.013103851 -0.07287321 -0.0398081 0.08029531 -0.025862843 0.05706164 -0.107697554 -0.06149858
-0.0889289 -0.05434914 0.062516525 -0.091877595 -0.1082597 -0.0664883 0.101589 0.04989515
-0.06323721 -0.016068509 -0.08679445 0.043636613 -0.0024491309 0.01416777 -0.065183975 -0.1216663
0.021246893 0.020704867 0.020046351 -0.063184276 -0.06718621 -0.09641342 -0.07921107 -0.010433425
0.07715375 0.09429149 0.089832164 0.074619465 0.05713797 0.05364551 0.104385495 0.0034086602
0.10260201 -0.0083735045 -0.090276726 -0.04338874 0.028250914 0.016692324 0.08714926 -0.09477058
-0.07060031 -0.021811688 0.12894772 0.09678738 -0.07820537 0.10358171 0.10450639 0.023679513
0.033080302 -0.040676627 -0.0105552105 0.078623876 -0.11628987 -0.0044360464 -0.004568146 0.014570672
-0.065091416 0.09747734 0.13151616 -0.058578163 0.130595 0.12835294 -0.035253163 -0.012010282
0.098274134 0.026819732 0.08368842 -0.051431086 -0.024363957 0.1152117 0.05697674 0.012264893
-0.059944008 0.15356056 -0.08592176 0.14602603 0.032587793 0.12848909 -0.021342423 -0.065162145
00000000: 131e d93d 3cbe 87bd 57e6 973c 6eb1 bd3d
00000010: f057 0cbd 7b89 73bd 9188 4b3b 9c9f 60bd
00000020: f738 34bd 3319 6c3c f2d2 883d 27d8 db3c
00000030: da14 43bd 31e2 313c d356 483d 7ad2 7cbd
00000040: 5f0a 06bd 9fb3 c83d 500a 2abd ced8 2e3b
00000050: 339e c8bd eb5c b2bd 4c94 85bd 68bd 423d
00000060: 0107 0a3e 71bd d13c b69f 94bd c003 763d
00000070: 10f9 fe3b 2bc3 213d e5fb 063b 9a08 adbd
00000080: 6204 f63d 9a44 3fbd 3806 c23d fc8d 89bd
00000090: 3126 81bd b061 46bc 018f 5bbb 42da 8e3d
000000a0: 6d5c debd 252e 11bd e125 be3c a0a2 7cbc
000000b0: 47af b93d ae2a df3d fdc5 93bc ce9f d23d
000000c0: a098 7dbc d42a f53d 0f72 bb3d 7909 d63d
000000d0: 7717 cd3c 441b a83d 5a4c edbb 8bec d93d
000000e0: b549 b2bc d5e1 c83c da93 79bd 5db0 95bd
000000f0: f4fc 0d3d ebb5 ca3d 789d b8bd 4009 013c
00000100: cc59 ecbc 5ecf 3dbd c2df c8bd 5513 5cbd
00000110: bc02 403d 63d9 9c3d cf4f 9dbd 132a 6cbd
00000120: 5a41 dc3c 0081 653d 7ae6 6bbd 5b7a 7cbd
00000130: 1f4d 8abd 21b3 a0bd 643f 253d fe98 01be
00000140: b7c5 3ebd 6ae2 32bd f83c 0cbd 83c1 a73c
00000150: 7d1a f03d 5441 ac3c 99a8 cebd 0238 14be
00000160: 56b0 f3bd cf1f e13c 06ee 933c 1fad 6fbd
00000170: 1cc7 06be f546 643d 5907 e53c 3b1c 66bd
00000180: 26fe 083d 172a b03d 077e 933d 5678 3e3d
00000190: ddc4 bc3d 7b2d f73d 9e5a 073d 7004 043e
000001a0: e76d 1bbd c3d7 b4bd f6d4 5a3d 5ce1 70bd
000001b0: 5ed0 94bc 94a5 eabb 3c6b d03a 9e44 08be
000001c0: 9e90 33bb 7884 d43d 9916 efbb 6ae0 5d3d
000001d0: 5501 b33d 00f0 8fbd 92c8 e0bd 556f 603d
000001e0: 208e 03bd 02c7 9abd 095f 513a cd1c 81bc
000001f0: 26b2 883d 0677 7ebd 4e7e 3cbd a124 ad3a
00000200: 3112 52bd b8c9 bbbd 874e ab3d 891f b7bd
00000210: 9c73 74bd 5016 ed3d b74e d53d 3c0c a939
00000220: 9242 e5bd 2aad b9bd 3d24 8abd 0200 033d
00000230: b100 efbc 0298 17bd ebb1 84bd 9997 c7bd
00000240: 45f5 a6bd 7fd9 a03d a2c5 2cbd 1558 a4bd
00000250: f313 abbd f280 833d 8ddc 2bbd 7f3c c6bd
00000260: caff 953d cd48 a03d 366f c0bd cd92 b73d
00000270: e14f 28bd ed8b 863d 4011 6e3d 7645 b13d
00000280: 60af 1cbd 22a4 103d f372 d13d ec67 c4bd
00000290: 0133 ef3d 515b d4bd f0e9 4ebc 09e5 4e3d
000002a0: 89b1 56bc 8d3e 95bd d10d 23bd de71 a43d
000002b0: 50de d3bc 77b9 693d 8990 dcbd efe5 7bbd
000002c0: 5b20 b6bd 349d 5ebd aa08 803d 522a bcbd
000002d0: 43b7 ddbd 052b 88bd e50d d03d db5e 4c3d
000002e0: 8382 81bd 1ba2 83bc 4ac1 b1bd 4ebc 323d
000002f0: 9981 20bb ef1f 683c 2d7f 85bd 2e2c f9bd
00000300: f70d ae3c 419d a93c 3f38 a43c c266 81bd
00000310: ec98 89bd 6674 c5bd 6a39 a2bd f5f0 2abc
00000320: c902 9e3d e61b c13d edf9 b73d 17d2 983d
00000330: 8109 6a3d 65bb 5b3d 10c8 d53d d463 5f3b
00000340: 0121 d23d 0631 09bc 01e3 b8bd 64b8 31bd
00000350: 766e e73c 57be 883c 507b b23d 1417 c2bd
00000360: e596 90bd 6dae b2bc df0a 043e 7638 c63d
00000370: 232a a0bd a622 d43d 7207 d63d 8afb c13c
00000380: 367f 073d 899c 26bd c3ef 2cbc 8e05 a13d
00000390: 6229 eebd 415c 91bb 63b0 95bb d4b9 6e3c
000003a0: a64e 85bd 33a2 c73d 2cac 063e a8ef 6fbd
000003b0: b2ba 053e f46e 033e 9f65 10bd c6c6 44bc
000003c0: f343 c93d 0eb5 db3c d664 ab3d 67a9 52bd
000003d0: ec96 c7bc 1df4 eb3d 7160 693d b1f2 483c
000003e0: d987 75bd fb3e 1d3e bff7 afbd d987 153e
000003f0: c77a 053d a592 033e 4ed6 aebc bb73 85bd

AFeatRNN.weight_ih_l1 f4 [256, 64]
0.07114845 -0.108687125 -0.09244184 -0.02873567 0.03920856 0.0816298 0.07090407 0.029022584
0.13703175 0.0028332518 -0.008999373 -0.2031118 0.10817907 -0.09874996 -0.11125059 0.020003067
0.024327205 -0.002235772 -0.14546934 -0.021286635 -0.12050382 0.1332737 0.0046803765 0.0027205478
0.072029546 -0.011811869 -0.07653394 -0.032175664 0.01612366 0.024153292 -0.12699236 0.14799936
0.0191012 -0.124097176 0.0129903825 -0.048030738 -0.0095519675 -0.09492589 -0.14563951 -0.014050571
-0.015559817 0.08835621 -0.057748612 -0.09453649 0.011578294 0.09859373 -0.043270715 -0.09573687
-0.039751746 -0.08899942 0.11551818 0.08678117 -0.10898803 0.06784505 -0.036809575 -0.033679858
-0.0015485899 -0.08018248 0.026302522 -0.07882478 0.099937804 -0.06533937 0.1174637 0.14331453
0.019669572 -0.088744074 -0.06674972 0.012802695 0.02168408 -0.02626667 -0.013870508 -0.05704869
-0.035035275 0.17578782 -0.012384554 -0.02241845 0.10681475 0.0011425922 -0.07349572 0.050597772
0.019458562 -0.11797279 -0.015289669 0.038141154 0.029014936 0.13708441 0.13159503 -0.03337116
0.0053425664 0.046269562 -0.14025874 0.047479052 -0.030015387 -0.1443688 -0.0058229296 0.099452816
0.049228836 0.0833871 -0.11255386 -0.13844725 0.12594533 0.0055094026 -0.014693778 0.06782121
0.11626146 0.1349085 0.022954771 -0.14920413 0.05199792 -0.0014112234 0.14107136 0.14298423
0.025700944 0.041006673 0.020968877 -0.06729431 -0.0013371016 -0.01643173 0.022444643 -0.07001769
0.123480655 -0.13931903 0.054044936 0.006266666 0.12389501 0.078158416 0.032535966 0.03267152
-0.16921195 -0.1773664 -0.030442053 0.08422249 0.07763469 -0.08489279 -0.03356375 0.046427373
0.102251545 -0.05045026 0.1505342 -0.15390866 0.04367994 -0.013987139 0.021078262 -0.09924714
-0.062779225 0.011713284 -0.10307455 0.03334078 -0.019113164 0.17087598 -0.03768874 -0.043237336
-0.03187937 0.006484688 -0.064325884 -0.19000813 -0.04604749 -0.08468399 0.0049634282 -0.05910755
0.013201585 0.15308689 -0.19306779 -0.088909745 0.12514035 0.019009544 -0.045848683 -0.01000528
0.091037735 0.1508523 -0.13419674 0.09357246 -0.15028487 -0.085702315 -0.099401474 0.13090974
0.032893237 -0.07622668 -0.001090952 -0.021958822 -0.12446124 0.024635943 0.03143607 0.09060103
0.034266517 -0.06264144 0.03480245 0.018855331 -0.041322302 -0.00977802 0.1252468 0.083242804
-0.07654678 0.12740986 0.039391 -0.07744339 -0.10744727 0.08327729 0.074099444 0.022737084
-0.058263913 -0.050459944 0.09639106 -0.021763919 -0.06622751 -0.103505075 0.06817983 0.013660578
-0.10601866 -0.15785697 0.007529924 0.11285608 0.14786479 -0.042322837 -0.021703757 0.012325962
-0.027627027 0.10058879 -0.116678305 -0.10351521 -0.032367676 -0.0021208588 -0.2008144 0.05318216
0.04622137 0.06749562 0.097652234 -0.07315403 0.11329571 0.13751985 0.06727514 0.08898991
-0.050029166 -0.0047699125 -0.0699351 -0.07056801 -0.044459034 0.09672991 -0.03397043 -0.024213573
-0.1693217 0.01673491 -0.07624611 0.14304549 -0.04628446 0.16240747 0.010732667 -0.032512743
0.16408852 0.035632797 -0.14975615 -0.1507118 0.106270395 0.024459643 0.07702541 0.18952948
00000000: 47b6 913d 5b97 debd 2652 bdbd 1167 ebbc
00000010: 2899 203d 862d a73d 2736 913d c5c0 ed3c
00000020: 0d52 0c3e 14ae 393b 1b72 13bc 8afc 4fbe
00000030: fd8c dd3d 6b3d cabd 59d7 e3bd 79dd a33c
00000040: d949 c73c 0886 12bb eaf5 14be 4f61 aebc
00000050: b5ca f6bd e778 083e d85d 993b 384b 323b
00000060: 3a84 933d 9286 41bc d4bd 9cbd a1ca 03bd
00000070: c415 843c 20dd c53c 490a 02be 258d 173e
00000080: 1f7a 9c3c a926 febd 9dd5 543c e1bb 44bd
00000090: db7f 1cbc 8168 c2bd 8622 15be 5e34 66bc
000000a0: 9aee 7ebc 1af4 b43d cf89 6cbd 599c c1bd
000000b0: e3b2 3d3c 82eb c93d a23c 31bd b111 c4bd
000000c0: bad2 22bd 5445 b6bd cc94 ec3d 53ba b13d
000000d0: 1e35 dfbd 58f2 8a3d a3c5 16bd e4f3 09bd
000000e0: 0efa caba b636 a4bd 6378 d73c e36e a1bd
000000f0: 31ac cc3d a6d0 85bd cf90 f03d 0bc1 123e
00000100: 1522 a13c 74bf b5bd 14b4 88bd 65c2 513c
00000110: d0a2 b13c 332d d7bc 2141 63bc e3ab 69bd
00000120: 2681 0fbd b901 343e 96e8 4abc e6a6 b7bc
00000130: b1c1 da3d 08c3 953a ed84 96bd 9c3f 4f3d
00000140: 9067 9f3c b89b f1bd 8581 7abc e639 1c3d
00000150: bbb0 ed3c db5f 0c3e d9c0 063e 33b0 08bd
00000160: b210 af3b 2785 3d3d fd9f 0fbe 6579 423d
00000170: d4e2 f5bc 6ad5 13be 46ce bebb ebad cb3d
00000180: 2da4 493d dbc6 aa3d a382 e6bd 1ec5 0dbe
00000190: d0f7 003e 3888 b43b 2cbe 70bc d9e5 8a3d
000001a0: 7d1a ee3d 7425 0a3e a50b bc3c f8c8 18be
000001b0: c5fb 543d cdf8 b8ba 0375 103e 756a 123e
000001c0: c98a d23c 9df6 273d ecc6 ab3c 99d1 89bd
000001d0: af41 afba d69b 86bc d4dd b73c 6f65 8fbd
000001e0: 6de3 fc3d a6a9 0ebe 395e 5d3d 9b58 cd3b
000001f0: abbc fd3d 8511 a03d 6f44 053d 92d2 053d
00000200: e645 2dbe 8a9f 35be 9d61 f9bc d77c ac3d
00000210: f0fe 9e3d 45dc adbd 257a 09bd a12a 3e3d
00000220: 4269 d13d efa4 4ebd a325 1a3e 3b9a 1dbe
00000230: bde9 323d 502a 65bc 52ac ac3c 1642 cbbd
00000240: 6592 80bd 13e9 3f3c c018 d3bd 5790 083d
00000250: 3693 9cbc 1dfa 2e3e 825f 1abd a219 31bd
00000260: f193 02bd 817d d43b 4abd 83bd 7e91 42be
00000270: 4b9c 3cbd cd6e adbd 41a4 a23b c21a 72bd
00000280: 764b 583c cfc2 1c3e 90b3 45be 5016 b6bd
00000290: cb24 003e e7b9 9b3c d4cb 3bbd 30ed 23bc
000002a0: fe71 ba3d 0679 1a3e df6a 09be eba2 bf3d
000002b0: 47e4 19be b284 afbd 0093 cbbd 340d 063e
000002c0: 0fbb 063d bc1c 9cbd 46fe 8eba fde2 b3bc
000002d0: 89e5 febd 51d1 c93c 1cc3 003d 088d b93d
000002e0: 0c5b 0c3d 284a 80bd 048d 0e3d 7f76 9a3c
000002f0: 9341 29bd fd33 20bc b240 003e 347b aa3d
00000300: 8fc4 9cbd bb77 023e 7558 213d a49a 9ebd
00000310: 500d dcbd 498d aa3d 73c1 973d 1f43 ba3c
00000320: 24a6 6ebd 16af 4ebd ad68 c53d 3f4a b2bc
00000330: 4aa2 87bd 78fa d3bd dea1 8b3d 9ed0 5f3c
00000340: 5020 d9bd 42a5 21be 95bd f63b 1721 e73d
00000350: de69 173e b65a 2dbd 14cc b1bc d5f2 493c
00000360: 1352 e2bc 7f01 ce3d 09f5 eebd c8ff d3bd
00000370: f893 04bd 1bfe 0abb 4aa2 4dbe 89d5 593d
00000380: 9f52 3d3d 253b 8a3d e5fd c73d c8d1 95bd
00000390: 9507 e83d 01d2 0c3e 8cc7 893d 5840 b63d
000003a0: 62eb 4cbd ed4c 9cbb 223a 8fbd f685 90bd
000003b0: ad1a 36bd 551a c63d 9424 0bbd 8b5b c6bc
000003c0: ab62 2dbe a617 893c ec26 9cbd 847a 123e
000003d0: c694 3dbd 254e 263e 11d8 2f3c 152c 05bd
000003e0: d206 283e b2f3 113d ad59 19be 3254 1abe
000003f0: 4ba4 d93d 975f c83c 80bf 9d3d 0414 423e

AFeatRNN.weight_hh_l1 f4 [256, 64]
-0.08707076 -0.1505371 0.0014735413 0.049721424 -0.091205664 0.12293265 0.07410086 0.04293259
-0.03368767 -0.04192499 -0.06349858 0.086501755 -0.0035154342 -0.13243675 -0.15814666 -0.06050988
-0.01997605 0.11030576 -0.010946123 0.13726757 0.026095476 0.08128857 0.06869223 -0.0346069
-0.027892338 -0.09479384 -0.05291924 0.015902966 0.037100777 0.055703264 -0.04747828 -0.07545257
0.027572682 -0.039621137 -0.10286104 0.07625444 0.021919388 -0.07022988 -0.06546379 0.061672043
-0.060095057 -0.07559407 -0.12294838 0.006194955 0.05449731 0.011999758 -0.09167931 -0.020043729
0.12850544 -0.12699075 0.103930324 0.1420132 0.08416779 0.04089188 -0.14729005 -0.13520949
0.054035585 -0.122336246 0.12974031 0.078094564 0.008472467 0.10634842 -0.045422275 -0.107395485
0.05364 -0.12239426 -0.0052213734 0.07464319 0.087807216 -0.054158963 -0.05549841 0.10327994
-0.00440362 0.07081503 0.072829984 0.05339274 0.022428643 -0.034827933 0.07387181 0.070462584
-0.14944156 -0.0039097634 -0.060556956 -0.064926304 -0.08755378 0.07965143 0.0095758345 0.10838006
-0.1415807 0.02935682 0.0060009058 0.04743492 0.033530213 -0.07590212 0.058854647 -0.037230592
-0.09779044 -0.043277465 -0.07578316 -0.067980774 -0.09159442 -0.053931978 0.1558237 0.06948589
-0.12921666 0.12964438 -0.033058576 -0.11838987 0.060341045 0.10813108 0.08569375 -0.012553239
-0.060356714 -0.052254666 -0.023382466 -0.11250099 0.027333774 -0.0713665 -0.010515575 0.075151905
0.08226234 0.09330884 -0.022850957 -0.1419945 -0.117661744 -0.032637928 0.07656617 0.06670686
0.07092183 -0.12381482 -0.13833478 -0.028541774 -0.005561639 0.12535544 -0.12203112 0.022526694
-0.0043509384 0.016365815 0.06205501 0.060403835 0.082134105 -0.078904115 -0.06487644 -0.010232708
-0.11215802 0.057323262 0.085600406 -0.02904428 -0.105398245 -0.04699759 -0.005481296 0.055859692
0.011418765 -0.12239224 0.1213212 0.07487132 -0.08881029 0.0041461796 -0.109625146 0.037077013
0.01682935 0.12802489 -0.005515213 -0.09388619 -0.03889638 0.047696885 -0.06330336 0.1690466
-0.05897874 -0.02599355 0.04208554 0.05729028 0.09875937 0.072277926 -0.025778499 0.061360277
-0.08934281 0.049769707 0.15037556 0.1690633 0.03719325 0.13535011 0.08032763 0.120252304
0.0839053 -0.02615081 0.030684458 0.04094425 -0.13905959 0.15210366 0.10944195 0.14322402
0.089158736 -0.09431862 -0.020886797 -0.020559931 0.08792814 0.04571016 0.0069730296 0.004254027
-0.15781601 0.028821947 0.07489848 0.09488398 0.019497074 0.09450155 -0.04207765 -0.03145323
-0.043674618 -0.095003955 -0.088587046 0.10226034 -0.044569414 0.036737237 0.00011740556 -0.08075316
-0.024318146 0.00933969 -0.02837043 -0.14108893 0.0106224045 0.029465958 -0.028639987 0.04777012
-0.04997644 -0.05484963 0.015216742 -0.07927312 -0.10548457 -0.01586999 -0.11429748 -0.08077916
-0.017071078 0.11395906 0.010917491 0.0061608884 -0.09051795 0.1256248 -0.09237054 0.04183341
0.024826868 0.10940559 -0.03618101 -0.089901865 -0.053560253 0.117339626 0.054812293 -0.0005060609
0.14407067 0.10695992 0.10733807 -0.025831414 -0.12619245 -0.0017686044 0.05446269 0.09236073
00000000: 2852 b2bd 6626 1abe d723 c13a b1a8 4b3d
00000010: 09ca babd 1dc4 fb3d 31c2 973d 15da 2f3d
00000020: 15fc 09bd 8ab9 2bbd 8b0b 82bd d527 b13d
00000030: 3363 66bb 809d 07be 33f1 21be 35d9 77bd
00000040: d0a4 a3bc fce7 e13d 5e57 33bc df8f 0c3e
00000050: 2ec6 d53c 9f7a a63d 83ae 8c3d f7bf 0dbd
00000060: 797e e4bc 4623 c2bd d8c1 58bd f046 823c
00000070: fcf6 173d 1b29 643d 9678 42bd e186 9abd
00000080: 1be0 e13c c649 22bd cfa8 d2bd 4a2b 9c3d
00000090: 4a90 b33c afd4 8fbd e111 86bd d39b 7c3d
000000a0: 3c26 76bd 10d1 9abd 5ccc fbbd 0dff ca3b
000000b0: 9238 5f3d a29a 443c 5dc2 bbbd bf32 a4bc
000000c0: ee96 033e dd09 02be 6cd9 d43d e96b 113e
000000d0: 2a60 ac3d 3e7e 273d 34d3 16be 5b74 0abe
000000e0: 6b54 5d3d 6d8b fabd a5da 043e 0bf0 9f3d
000000f0: 1ad0 0a3c 33cd d93d b50c 3abd 2af2 dbbd
00000100: 9eb5 5b3d d7a9 fabd 0e18 abbb 87de 983d
00000110: 45d4 b33d cad5 5dbd 4d52 63bd 6f84 d33d
00000120: 3e4c 90bb 7807 913d e327 953d 59b2 5a3d
00000130: 46bc b73c bca7 0ebd 1b4a 973d b04e 903d
00000140: 3507 19be 791d 80bb 920a 78bd 15f8 84bd
00000150: 654f b3bd 4a20 a33d f6e3 1c3c 5df6 dd3d
00000160: 88fa 10be b77d f03c 3fa3 c43b 1e4b 423d
00000170: fa56 093d 9272 9bbd 9211 713d 1b7f 18bd
00000180: 5b46 c8bd b643 31bd 3434 9bbd 8139 8bbd
00000190: db95 bbbd c7e7 5cbd 3f90 1f3e 9e4e 8e3d
000001a0: 5f51 04be 7fc1 043e 6e68 07bd 6376 f2bd
000001b0: 2c28 773d d473 dd3d 3480 af3d 1aac 4dbc
000001c0: 9a38 77bd fd08 56bd 968c bfbc eb66 e6bd
000001d0: 14eb df3c 9928 92bd 8549 2cbc 3ee9 993d
000001e0: 2879 a83d b518 bf3d ee31 bbbc 0267 11be
000001f0: a4f8 f0bd 59af 05bd b9ce 9c3d 9b9d 883d
00000200: 773f 913d a092 fdbd a2a7 0dbe 70d0 e9bc
00000210: 693e b6bb 2d5d 003e 74eb f9bd e789 b83c
00000220: 5192 8ebb 9a11 863c 652d 7e3d 036a 773d
00000230: ed35 a83d 7b98 a1bd f0dd 84bd 17a7 27bc
00000240: 1bb3 e5bd cccb 6a3d 444f af3d 45ee edbc
00000250: 09db d7bd 8c80 40bd 729c b3bb 22cd 643d
00000260: c615 3b3c c8a8 fabd 4077 f83d 2256 993d
00000270: 2be2 b5bd addc 873b 2683 e0bd 11de 173d
00000280: b4dd 893c f518 033e f6b8 b4bb 6747 c0bd
00000290: d051 1fbd cf5d 433d 31a5 81bd 8d1a 2d3e
000002a0: b193 71bd 6df0 d4bc e361 2c3d 36a9 6a3d
000002b0: 5a42 ca3d 7306 943d 6e2d d3bc ea54 7b3d
000002c0: 5df9 b6bd 52db 4b3d 0dfc 193e ee1e 2d3e
000002d0: f357 183d 3899 0a3e d082 a43d d746 f63d
000002e0: 8bd6 ab3d 393a d6bc f95d fb3c 28b5 273d
000002f0: a365 0ebe 10c1 1b3e 1a23 e03d 51a9 123e
00000300: db98 b63d 1f2a c1bd ca1a abbc 4d6d a8bc
00000310: ab13 b43d 943a 3b3d 037e e43b 5d65 8b3b
00000320: 859a 21be 011c ec3c 6064 993d 8852 c23d
00000330: 54b8 9f3c 078a c13d 9d59 2cbd 1ad5 00bd
00000340: 28e4 32bd 6f91 c2bd 206d b5bd de6d d13d
00000350: 6b8e 36bd c979 163d a137 f638 ea61 a5bd
00000360: d936 c7bc 8005 193c 1b69 e8bc 9e79 10be
00000370: 9809 2e3c 9862 f13c 689e eabc 9aaa 433d
00000380: 18b4 4cbd 01aa 60bd a44f 793c f259 a2bd
00000390: 4b08 d8bd c801 82bc cc14 eabd 8b6f a5bd
000003a0: a5d8 8bbc 5e63 e93d 47df 323c 47e1 c93b
000003b0: 7a61 b9bd caa3 003e c42c bdbd 8259 2b3d
000003c0: b761 cb3c 0a10 e03d 8a32 14bd 781e b8bd
000003d0: ff61 5bbd c24f f03d db82 603d 2ca9 04ba
000003e0: 4387 133e cd0d db3d 10d4 db3d 679c d3bc
000003f0: 9838 01be 84d0 e7ba 4514 5f3d 9f27 bd3d

AFeatRNN.bias_ih_l1 f4 [256]
0.06246232 0.104196966 0.09596658 -0.04825619 0.08384565 -0.024389302 -0.09591931 0.06296542
0.104520924 -0.023116838 -0.004837866 -0.0012307347 0.0727549 -0.011317627 0.13987762 0.008161664
-0.060391 0.08770083 0.08451587 0.14169565 -0.06467157 0.11508702 0.06914145 -0.016067818
0.03797707 -0.07062507 -0.0012881057 0.026219092 -0.044610344 -0.014935489 -0.031497546 -0.066369
0.06825086 0.02743888 -0.06321815 -0.07110841 -0.023337703 0.12139953 0.04433725 0.04113732
0.16427855 0.0023549728 -0.04023171 0.11802976 0.05599958 -0.016428757 -0.09328555 -0.008659476
0.13968046 0.20309156 0.087097764 0.15499398 -0.039940737 0.13486339 -0.036710978 0.043041397
-0.0683396 -0.032735363 0.028479738 0.10124449 -0.093276754 0.015553627 0.01094448 0.06987961
0.03813014 -0.08381303 -0.012750549 -0.06713092 0.12658124 0.07160741 0.105979584 0.06812563
-0.06744567 0.08681391 0.040065635 -0.021717494 0.03815489 0.008168872 0.09025626 0.10372576
-0.14704733 -0.12255816 0.030124914 0.015531669 -0.017854745 0.045086082 -0.01320976 -0.04367198
0.017346168 0.06543351 0.0014317803 -0.070763454 -0.044031627 0.023097558 0.01257119 -0.121914625
0.06108049 -0.028337251 -0.1130706 0.050572433 0.012002907 0.11209949 0.020679846 0.111145504
-0.074225396 0.023415517 0.040947247 0.13229765 -0.08230983 0.027670883 0.07590949 -0.081381835
0.10763451 0.13117228 0.03640159 0.03310136 0.009652726 0.00500588 0.11616795 0.014357006
-0.030011717 -0.100944735 0.036037285 -0.06931523 0.104229055 -0.0625391 0.014245416 -0.111591525
-0.023915866 0.04243758 -0.111137345 0.06020833 -0.104756735 -0.04437717 -0.06288465 -0.029645594
-0.063946486 0.013256132 0.032397076 -0.031096864 -0.054284975 0.093524955 -0.0116368085 0.06934951
0.034258023 0.115458935 0.0014086781 -0.06442848 -0.06891313 0.025821026 -0.10954053 0.052969117
-0.076013915 -0.057818644 0.11499878 0.12230841 -0.114046745 -0.051117513 -0.1548367 0.09558318
-0.053960267 0.03385708 -0.0041024555 0.07627326 -0.0265171 -0.08204452 0.055766854 -0.108403616
-0.10951312 0.06494386 -0.099349864 -0.124236055 -0.018823978 -0.059319947 0.017606562 0.050744873
-0.057022046 0.053874113 -0.01684218 0.0877169 -0.08401113 0.1144277 -0.10729035 -0.08991574
0.13304713 0.086436436 0.01494751 0.00072311604 -0.12702914 -0.04635253 -0.0053745057 -0.027788185
0.054142267 -0.029245416 -0.04092345 0.03913567 -0.01862616 0.011991978 0.02799005 0.031475786
0.083021715 0.003495315 0.16213265 0.0042121494 -0.027932938 -0.027774038 0.119602785 0.05103072
-0.00897913 0.092701726 0.081388794 -0.019439766 -0.0678394 0.04884888 -0.0575077 -0.0043471134
0.14800814 0.06585377 -0.044461083 0.062295828 0.10940629 -0.010003667 -0.06310081 -0.0016436881
-0.0061525367 -0.027224377 0.1431187 -0.024743227 0.11793729 0.055371333 0.101638064 -0.02129078
0.04612506 -0.07383436 -0.060688782 0.023081392 0.09626093 0.14696638 0.122293554 0.15101507
0.12382703 -0.010261633 -0.08182121 0.1605202 -0.023999032 0.120754704 -0.03808092 -0.07310469
0.06654442 0.017459093 0.11901643 -0.013689459 0.09582948 0.10292698 0.15794899 -0.013029646
00000000: 7dd8 7f3d 3865 d53d 208a c43d 48a8 45bd
00000010: 45b7 ab3d 13cc c7bc 5871 c4bd 04f4 803d
00000020: 110f d63d 865f bdbc f686 9ebb 9b50 a1ba
00000030: 8500 953d 916d 39bc 143c 0f3e 80b8 053c
00000040: 8e5c 77bd 7e9c b33d a816 ad3d aa18 113e
00000050: 8772 84bd beb2 eb3d 089a 8d3d a8a0 83bc
00000060: d88d 1b3d e0a3 90bd a8d5 a8ba 6cc9 d63c
00000070: 56b9 36bd fbb3 74bc 9203 01bd 78ec 87bd
00000080: 1bc7 8b3d 81c7 e03c 8478 81bd 49a1 91bd
00000090: b62e bfbc 51a0 f83d fa9a 353d 9b7f 283d
000000a0: a338 283e e355 1a3b 01ca 24bd 96b9 f13d
000000b0: d15f 653d 9a95 86bc 7f0c bfbd 7ae0 0dbc
000000c0: 6508 0f3e 3cf7 4f3e 5060 b23d beb6 1e3e
000000d0: e698 23bd a119 0a3e 405e 16bd 2d4c 303d
000000e0: a2f5 8bbd 8415 06bd 574e e93c 4559 cf3d
000000f0: e207 bfbd a4d4 7e3c 7a50 333c 0a1d 8f3d
00000100: 5a2e 1c3d 2aa6 abbd aee7 50bc f07b 89bd
00000110: 839e 013e e8a6 923d d30b d93d 7385 8b3d
00000120: f520 8abd 7ecb b13d dd1b 243d e3e8 b1bc
00000130: 4d48 1c3d bcd6 053c 46d8 b83d 2c6e d43d
00000140: 9393 16be c6ff fabd 86c8 f63c 8b78 7e3c
00000150: 1d44 92bc 2fac 383d c06d 58bc 64e1 32bd
00000160: 8d19 8e3c 0102 863d 93aa bb3a 6eec 90bd
00000170: 825a 34bd 1737 bd3c 64f7 4d3c 60ae f9bd
00000180: 892f 7a3d 8623 e8bc 8f91 e7bd 0a25 4f3d
00000190: d7a7 443c 6b94 e53d c868 a93c 41a0 e33d
000001a0: 7c03 98bd e6d1 bf3c 4db8 273d 0979 073e
000001b0: 0e92 a8bd 0cae e23c 6f76 9b3d 85ab a6bd
000001c0: 7b6f dc3d 0752 063e d519 153d 4b95 073d
000001d0: 7826 1e3c 5d08 a43b 76e9 ed3d a639 6b3c
000001e0: 22db f5bc 1dbc cebd d59b 133d 25f5 8dbd
000001f0: 0b76 d53d 8014 80bd 9b65 693c 198a e4bd
00000200: 35eb c3bc 07d3 2d3d fa9b e3bd 039d 763d
00000210: b38a d6bd d6c4 35bd abc9 80bd 51db f2bc
00000220: 60f6 82bd 3f30 593c ccb2 043d dabe febc
00000230: ec59 5ebd 038a bf3d 50a8 3ebc 1e07 8e3d
00000240: 2452 0c3d bc75 ec3d 65a3 b83a 14f3 83bd
00000250: 5422 8dbd 9e86 d33c c956 e0bd 25f6 583d
00000260: 2fad 9bbd 3ed3 6cbd 7b84 eb3d d57c fa3d
00000270: 5791 e9bd 9960 51bd 838d 1ebe 1dc1 c33d
00000280: 7105 5dbd b9ad 0a3d e46d 86bb 2835 9c3d
00000290: 643a d9bc f506 a8bd c96b 643d b702 debd
000002a0: 6a48 e0bd 4901 853d f177 cbbd 796f febd
000002b0: be34 9abc 79f9 72bd a33b 903c dbd9 4f3d
000002c0: f38f 69bd 1aab 5c3d 9df8 89bc eba4 b33d
000002d0: 070e acbd 1259 ea3d 0bbb dbbd be25 b8bd
000002e0: 823d 083e 9605 b13d 67e6 743c 7f8f 3d3a
000002f0: ed13 02be 27dc 3dbd 9f1c b0bb 0ca4 e3bc
00000300: 48c4 5d3d 1594 efbc 599f 27bd b94c 203d
00000310: e495 98bc 007a 443c 644b e53c c1ec 003d
00000320: 4a07 aa3d a811 653b 1a06 263e 1206 8a3b
00000330: 9ed3 e4bc 6186 e3bc 4ef2 f43d 9705 513d
00000340: 331d 13bc 67da bd3d 2baf a63d 2540 9fbc
00000350: 62ef 8abd c315 483d 328d 6bbd 3b72 8ebb
00000360: 728f 173e 57de 863d d31c 36bd e929 7f3d
00000370: 6810 e03d 6ce6 23bc ff3a 81bd 0571 d7ba
00000380: 389b c9bb a805 dfbc b58d 123e 4fb2 cabc
00000390: 1b89 f13d 0dcd 623d 9e27 d03d 006a aebc
000003a0: a2ed 3c3d 7836 97bd cd94 78bd 3015 bd3c
000003b0: 7324 c53d 5b7e 163e 0b75 fa3d b2a3 1a3e
000003c0: 0799 fd3d 6920 28bc e191 a7bd 685f 243e
000003d0: 9e99 c4bc 3e4e f73d bdfa 1bbd e9b7 95bd
000003e0: 7148 883d 5f06 8f3c e3be f33d c149 60bc
000003f0: 3f42 c43d 61cb d23d 61bd 213e 4c7a 55bc
