STD/checkpoints/Res/VA_METRIC_state_epoch60.pth (torch, 719026 bytes, 28 tensors)

AFeatRNN.weight_ih_l0 f4 [256, 128]
0	0xbafee504	-0.0019446914
1	0x3d010604	0.031499878
2	0x3e43869b	0.19094317
3	0x3d969c9f	0.07354092
4	0xbd936420	-0.07196832
5	0xbdf0ab14	-0.117513806
6	0xbd8c9005	-0.06863407
7	0x3df3dc1f	0.11907219
8	0x3da262a4	0.079289705
9	0xbd3556b5	-0.044272143
10	0xbe12909f	-0.14312981
11	0xbdeefd76	-0.116694376
12	0x3e2a699a	0.16641846
13	0xbe0f3f7a	-0.13989058
14	0xbd8151eb	-0.06314453
15	0xbe163371	-0.14668061
16	0x3d8f90fe	0.07010077
17	0xbdc3898d	-0.0954772
18	0xbcbc160b	-0.02295973
19	0xbe09d787	-0.13461123
20	0xbcbd2bc3	-0.023092156
21	0x3d9e1973	0.07719698
22	0xbc880251	-0.016602667
23	0xbc257a74	-0.010099996
24	0x3da979ab	0.082751594
25	0x3cabce92	0.020972524
26	0xbd25fabe	-0.04052233
27	0xbda1fead	-0.07909904
28	0x3e05a73d	0.13052078
29	0xbda7c5a1	-0.081919916
30	0x3d2fbdc4	0.042905584
31	0xbd3d0d71	-0.046155397
32	0xbda923cc	-0.08258781
33	0xbd970d20	-0.0737555
34	0xbc98a1cd	-0.01863184
35	0x3d12e7e4	0.03586568
36	0x3d4ef58f	0.05052715
37	0xbd01142d	-0.03151338
38	0x3defb1a8	0.11703807
39	0x3cf76376	0.030198794
40	0xbdd26f66	-0.10275154
41	0x3de312d2	0.11087574
42	0x3d0dd462	0.034626372
43	0xbdbf9bd5	-0.093558945
44	0xbdab488b	-0.08363446
45	0xbd1b3976	-0.037896596
46	0x3d146125	0.036225457
47	0x3d429f98	0.04751548
48	0xbdd79a72	-0.10527505
49	0x3d435506	0.047688507
50	0x3d3d6306	0.046237014
51	0xbdc22ace	-0.094808206
52	0xbdb37567	-0.08762627
53	0xbd7004a6	-0.058598183
54	0xbd5d4503	-0.054020893
55	0x3de8b07b	0.11361786
56	0xbcfeaa8a	-0.031087179
57	0x3dc230d4	0.094819695
58	0xbd0866f2	-0.0333013
59	0x3d7bd73b	0.061484557
60	0xbd36c320	-0.04461968
61	0x3a9ce662	0.0011970515
62	0xbe5f85ad	-0.21828337
63	0xbd3bc314	-0.045840338
64	0x3da4fce1	0.08056045
65	0x3e2924ee	0.16517994
66	0x3cc2cbfc	0.023778908
67	0xbd8db406	-0.06919102
68	0xbceeb629	-0.029139595
69	0x3dcd03a5	0.10010461
70	0xbe034b9f	-0.12821816
71	0xbdb33b5e	-0.08751558
72	0x3d860a91	0.06544984
73	0xbc662dff	-0.014049052
74	0xbc62c214	-0.013840217
75	0x3bfd6739	0.0077332524
76	0xbd42d93e	-0.04757046
77	0xbdbf2456	-0.093331024
78	0x3d6bac98	0.057537645
79	0x3d291d4f	0.041287716
80	0xbc9b56b8	-0.01896225
81	0xbc8072bf	-0.015679715
82	0x3cd569b3	0.026051378
83	0xb92482d2	-0.00015688993
84	0x3e04745c	0.12935013
85	0x3e57906c	0.21051186
86	0xbd2c6d2d	-0.042096306
87	0xbdb4ac2f	-0.08821904
88	0xbd0035ae	-0.031301193
89	0xbdaaef49	-0.08346421
90	0xbd12afb5	-0.0358121
91	0xbd5df93d	-0.05419277
92	0x3cc1b577	0.0236461
93	0x3d876aff	0.06612205
94	0x3cc25b0f	0.02372506
95	0x3d8c11b5	0.06839315
96	0x3d5ace3a	0.05341933
97	0x3dc57672	0.09641732
98	0x3d7fa385	0.062411804
99	0xbcc76917	-0.024342103
100	0x3cf9f90b	0.03051426
101	0x3ca98c5f	0.020696817
102	0x3e1cd8e7	0.15317117
103	0x3e041991	0.12900378
104	0x3dd32b9e	0.10311054
105	0xbdf2b7cb	-0.11851462
106	0x3b83d33c	0.004022984
107	0xbc950750	-0.018191963
108	0x3d8c42c7	0.06848674
109	0x3d2c8dd3	0.04212744
110	0xbd154557	-0.03644308
111	0x3dcf80b3	0.10131969
112	0xbdbff015	-0.09371964
113	0xbd55da8e	-0.052210383
114	0x3d0f3131	0.034959022
115	0x3de6d660	0.112713575
116	0xbe192531	-0.14955594
117	0xbdf17b20	-0.11791062
118	0xbdcc3f63	-0.099730276
119	0x3dcc5d52	0.09978737
120	0xbe2ef7c2	-0.170867
121	0xbd50b12f	-0.050950225
122	0xbbc915b8	-0.0061366223
123	0x3db155f6	0.08658974
124	0x3dfa7405	0.1222916
125	0x3d129370	0.03578514
126	0x3aa4ad97	0.0012563941
127	0x3dcf0633	0.10108604
128	0x3d456bc3	0.048198473
129	0x3d81be36	0.06335108
130	0xbd9a7160	-0.07541156
131	0xbdba914a	-0.09109743
132	0xbde20dc0	-0.11037779
133	0xbc935d7a	-0.017988909
134	0x3dbb514a	0.09146364
135	0xbd8e44db	-0.06946727
136	0xbcb51009	-0.022102373
137	0x3d8686b9	0.06568665
138	0x3cdc7ef2	0.026916001
139	0xbc86c990	-0.016453534
140	0x3d7f41ea	0.06231872
141	0xbb869686	-0.0041072993
142	0x3d67fc4d	0.056637097
143	0x3d43db4e	0.047816567
144	0xbdc7692a	-0.09736855
145	0x3d15e832	0.03659839
146	0xbd144425	-0.0361978
147	0xbd18e7e0	-0.03733051
148	0x3c98e32c	0.018663011
149	0xbd3fdf5d	-0.046843875
150	0x3d8c6e89	0.068570204
151	0x3c162600	0.009164333
152	0x3c9d3483	0.019190079
153	0x3d850022	0.06494166
154	0x3c468fbe	0.012119232
155	0x3defda25	0.1171153
156	0x3e14aa95	0.14518197
157	0x3e2f5f4f	0.17126201
158	0x3de5efeb	0.11227401
159	0x3cc47e8b	0.023986122
160	0xbde086fa	-0.10963245
161	0xbe1e7b64	-0.15476757
162	0x3d9e14a2	0.07718779
163	0xbde0b4ab	-0.1097196
164	0xbd02f147	-0.03196838
165	0xbd8217cc	-0.06352195
166	0xbc9dae5f	-0.019248186
167	0x3e3da78f	0.1852095
168	0x3e1688a4	0.14700562
169	0xb9b1c3e3	-0.00033906018
170	0x3cae72c5	0.02129496
171	0x3cc234dc	0.023706846
172	0xbd426a6d	-0.047464777
173	0xbd5e713d	-0.05430721
174	0x3c90a499	0.017656611
175	0x3d851ea1	0.064999826
176	0xbe4072ae	-0.18793747
177	0x3c81127c	0.015755884
178	0x3de2eeb6	0.11080687
179	0x3d2819ce	0.041040234
180	0x3e417140	0.18890858
181	0xbc111222	-0.008854421
182	0x3e179bbb	0.148055
183	0x3cad8641	0.021182181
184	0xbe3ec52f	-0.18629907
185	0xbd70d24d	-0.05879431
186	0x3cb482b8	0.022034988
187	0xbdb5cefb	-0.08877369
188	0xbd8a6857	-0.067581825
189	0x3c4cd0b8	0.012500934
190	0x3d2ff863	0.04296149
191	0xbc28bac2	-0.010298433
192	0x3d9aeec9	0.07565076
193	0x3dba6b0f	0.09102451
194	0xbcdcd6a9	-0.026957827
195	0xbc2cc70f	-0.010545506
196	0xbd53196e	-0.051537924
197	0x3dc881fb	0.09790417
198	0xbe0c7e1f	-0.13719986
199	0xbd329ab2	-0.04360456
200	0xbdde8561	-0.10865284
201	0x3e184c73	0.14872913
202	0x3de88c3b	0.11354872
203	0x3e0e1c16	0.13877901
204	0xbe4da346	-0.20081815
205	0xbcfe95ae	-0.031077232
206	0xbdeb7c98	-0.11498374
207	0xbd9635aa	-0.07334454
208	0xbd32831c	-0.043582067
209	0x3deed96c	0.11662564
210	0xbcc415ae	-0.023936119
211	0x3d828a49	0.06374032
212	0x3d87db66	0.06633644
213	0x3d4fef19	0.05076513
214	0x3cc7389c	0.024318986
215	0xbcedf86c	-0.02904912
216	0xbe0c4e3b	-0.13701718
217	0xbd1e7569	-0.03868619
218	0x3e3f9bca	0.18711773
219	0x3e2b9ecf	0.167598
220	0x3d848016	0.06469743
221	0x3da54dd0	0.08071482
222	0x3e610e62	0.21978143
223	0xbdca698d	-0.098834135
224	0xbdb8a012	-0.09014906
225	0x3e33edce	0.17571184
226	0xbd9b96f8	-0.075971544
227	0xbcba6dfe	-0.022757526
228	0xbc94a610	-0.018145591
229	0x3b09b8f0	0.0021014772
230	0xbe06513a	-0.13116923
231	0x3ddc54bc	0.10758349
232	0xbd40924e	-0.047014527
233	0xbd440ca1	-0.047863606
234	0x3dcd6fb7	0.100310735
235	0xbdc29278	-0.09500593
236	0x3d31c0d4	0.043396786
237	0x3ddf2e62	0.10897519
238	0x3cfb4eeb	0.03067728
239	0x3cd6799b	0.026181033
240	0xbe0a7972	-0.1352289
241	0xbe0c7533	-0.13716583
242	0xbe0ea5ea	-0.13930479
243	0x3dd4397b	0.10362526
244	0xbdd30a0b	-0.1030465
245	0x3d1bc93a	0.0380337
246	0x3e0be816	0.13662753
247	0xbc5b1e44	-0.013373915
248	0x3d0784ca	0.033085622
249	0xba1108c0	-0.0005532615
250	0x3d2ed5cd	0.042684365
251	0xbde4806e	-0.111573085
252	0xbc67125c	-0.014103498
253	0x3e6167e5	0.22012289
254	0x3e17254e	0.14760324
255	0xbd9c18d3	-0.07621922

AFeatRNN.weight_hh_l0 f4 [256, 64]
0	0xbe135f5b	-0.14391844
1	0x3d96da38	0.07365841
2	0x3db50169	0.088381596
3	0xbdbae2a5	-0.0912526
4	0x3c98d41c	0.01865583
5	0x3cc291ef	0.023751227
6	0x3dcc1a4d	0.09965954
7	0x3d168f90	0.036758006
8	0xbdbc653f	-0.09198999
9	0x3c4a829a	0.012360239
10	0x3d11a917	0.035561647
11	0x3d9d721b	0.076877795
12	0x3ddab990	0.106799245
13	0x3d2828ca	0.041054524
14	0xbc3a0f36	-0.011356166
15	0xbdcd82db	-0.10034724
16	0xbdc0c229	-0.09412033
17	0xbd49775f	-0.049186107
18	0x3d20bb84	0.03924133
19	0x3d1a1ac2	0.037623174
20	0xbc8c12eb	-0.017098865
21	0x3dcab3b3	0.09897556
22	0x3d343e7f	0.044004913
23	0x3d4f685c	0.050636634
24	0xbd751b9e	-0.05984079
25	0xbc2720df	-0.010200708
26	0x3df811d1	0.12112773
27	0x3e08d493	0.1336234
28	0x3d848190	0.064700246
29	0xbb1dbf0d	-0.0024070174
30	0xbd09926f	-0.033586916
31	0xbe1b1ba0	-0.15147257
32	0xbda714b9	-0.081582494
33	0x3c3b7047	0.011440343
34	0xbde1af0f	-0.11019718
35	0x3dc356f5	0.0953807
36	0xbdcc2ed4	-0.09969869
37	0xbd67086c	-0.056404516
38	0x3dab179f	0.08354115
39	0x3c944313	0.01809839
40	0x3cdb61c8	0.026780024
41	0x3d95bac2	0.07311012
42	0xbd88687f	-0.06660556
43	0xbc6c60e3	-0.0144273965
44	0xbccc8e02	-0.024970058
45	0x3c39c37b	0.01133811
46	0x3c91a67f	0.017779587
47	0x3d1aab46	0.037760995
48	0x3ded58ba	0.11589189
49	0x39d045d2	0.00039724872
50	0xbdf52404	-0.1196976
51	0xbe175cde	-0.1478152
52	0xbd3fef84	-0.04685928
53	0xbbc953d4	-0.0061440263
54	0x3d2d7a2a	0.042352833
55	0xbdf8a220	-0.12140298
56	0x3d69df4c	0.057097718
57	0xbdb689e0	-0.08913016
58	0xbd045b95	-0.032313902
59	0xbdb288ed	-0.08717523
60	0xbdbc3e29	-0.091915436
61	0x3d590ac9	0.0529888
62	0x3c636cc1	0.013880909
63	0xbc964eff	-0.018348215
64	0xbe1e7492	-0.15474156
65	0xbda7dcea	-0.08196433
66	0x3d0243fc	0.031803116
67	0xbdd2865b	-0.102795325
68	0xbbbaf56d	-0.0057055266
69	0xbd137bd4	-0.036006764
70	0xbc7d49f8	-0.01545953
71	0xbe0c38fa	-0.1369361
72	0xbd896ca9	-0.067101784
73	0x3d252e48	0.04032734
74	0xbd176bfd	-0.03696822
75	0x3d6ff3a8	0.058581978
76	0x3e12caa3	0.14335112
77	0xbcdad631	-0.026713463
78	0x3d889bc3	0.06670334
79	0xbe574334	-0.2102173
80	0x3df5db23	0.12004688
81	0x3ddfc2e3	0.109258436
82	0xbe6e629b	-0.23279803
83	0xbe324357	-0.174085
84	0x3de8f9d0	0.11375773
85	0xbe077b05	-0.13230522
86	0xbe56b4ca	-0.20967403
87	0xbb93e5c0	-0.0045134723
88	0xbd90e691	-0.07075227
89	0xbd8ee9e6	-0.06978206
90	0xbd081d8c	-0.033231303
91	0x3d4e9823	0.050438058
92	0xbe1d91c6	-0.1538764
93	0xbda75938	-0.08171314
94	0xbd0debdd	-0.034648765
95	0xbdce6071	-0.100769885
96	0x3d083e71	0.033262674
97	0xbd712ec9	-0.05888251
98	0x3d8dd3c1	0.069251545
99	0xbda4bb10	-0.08043492
100	0xbcae8ec3	-0.021308308
101	0xbd654792	-0.055976458
102	0xbe4eb96f	-0.20187925
103	0x3e6b9f00	0.23009872
104	0x3d9b76d1	0.07591022
105	0xbe027a71	-0.1274202
106	0x3bbf422b	0.0058367453
107	0xbde0076d	-0.10938916
108	0xbe41f140	-0.18939686
109	0x3c83a062	0.016067687
110	0x3db7383d	0.089462735
111	0xbda9b136	-0.082857534
112	0x3c869048	0.01642622
113	0xbd696e50	-0.056989968
114	0xbd9f0797	-0.077651195
115	0xbe06385b	-0.13107435
116	0xbd21d1e3	-0.039506804
117	0xbe7cda93	-0.24692754
118	0x3d2d91b4	0.04237528
119	0xbbb79852	-0.005602875
120	0xbd761e17	-0.06008729
121	0xbdccc43b	-0.099983655
122	0xbd1b9c6f	-0.037990984
123	0xbe25b089	-0.16180624
124	0xbc3bfdda	-0.011474097
125	0x3dc26766	0.09492378
126	0x3e3f962c	0.1870963
127	0xbb83f904	-0.0040274877
128	0x3cb42033	0.02198801
129	0x3db383d8	0.087653816
130	0xbc93435c	-0.017976455
131	0x3ccd2fbf	0.025047181
132	0x3c83da08	0.016095176
133	0xbd27f988	-0.041009456
134	0x3e511e94	0.20421821
135	0x3d818d10	0.06325734
136	0xbd95c996	-0.0731384
137	0x3dfed3d9	0.124427505
138	0xbd0e7baa	-0.034785904
139	0xbc01c2bc	-0.007919963
140	0xbe1d10ff	-0.15338515
141	0xbd554cff	-0.052075382
142	0x3dd9b3f4	0.106300265
143	0x3e46572c	0.19369191
144	0x3c343f1d	0.0110013755
145	0x3d45b1f4	0.048265412
146	0xbdd78d51	-0.10525001
147	0xbdd7a3d4	-0.105292946
148	0x3ddfe8d1	0.10933078
149	0x3d354239	0.044252608
150	0x3d074631	0.033025924
151	0xbc8ba77a	-0.017047632
152	0xbcedbeb5	-0.0290216
153	0xbe03f384	-0.12885863
154	0xbdfdb281	-0.123875625
155	0xbca82b16	-0.020528357
156	0xbd1030c4	-0.035202757
157	0x3cd5fea7	0.026122404
158	0x3df911be	0.12161587
159	0x3e550040	0.20800877
160	0x3e4b3d8d	0.19847699
161	0x3e066fe0	0.13128614
162	0x3e6f96db	0.2339739
163	0xbda20348	-0.07910782
164	0xbdf7c58f	-0.12098228
165	0xbe6c4c81	-0.23076059
166	0x3dc75e54	0.097347885
167	0x3dbd279a	0.09236069
168	0xbc1fb8a2	-0.00974861
169	0x3ddf1b38	0.108938634
170	0xbd8f6bf3	-0.070030116
171	0x3e2a5d6c	0.166372
172	0x3ddccd7f	0.10781383
173	0x3d526e6e	0.051374845
174	0x3e2c7c82	0.16844371
175	0xbd267d46	-0.040646814
176	0x3e06a2f5	0.131481
177	0x3dce99e3	0.10087945
178	0x3dc9dedd	0.09856961
179	0xbc84ae72	-0.016196463
180	0x3d8542b9	0.06506867
181	0x3e1b6a02	0.15177158
182	0x38f6f7c6	0.000117763455
183	0xbe0437bb	-0.12911884
184	0x3df98556	0.12183635
185	0x3e9320b9	0.28735903
186	0xbd08a187	-0.03335717
187	0x3d56f2ee	0.05247777
188	0x3d54d7c2	0.051963575
189	0xbc7c6762	-0.015405508
190	0xbe41f6e0	-0.18941832
191	0xbe263d96	-0.1623443
192	0xbe50c713	-0.20388441
193	0xbc839c04	-0.016065605
194	0xbe4cf72b	-0.20016162
195	0x3d77622c	0.06039636
196	0xbde52860	-0.111893415
197	0x3db84063	0.08996656
198	0xbd4c02af	-0.049807247
199	0xbde1db27	-0.11028128
200	0xbd79970d	-0.06093507
201	0x3cf8e664	0.030383296
202	0x3d2fe4ae	0.042942695
203	0xbd14a435	-0.036289413
204	0x3c120640	0.008912623
205	0x3d63ab57	0.055583324
206	0x3df90702	0.1215954
207	0x3d5c4c8a	0.05378393
208	0x3e11f061	0.14251854
209	0x3ddde7af	0.10835206
210	0xbe29e26f	-0.16590284
211	0x3dc4d675	0.09611217
212	0xbcee6f2d	-0.029105747
213	0xbdc5c159	-0.09656019
214	0xbd81341a	-0.06308766
215	0xbdad4afb	-0.08461567
216	0xbd2b92fc	-0.041888222
217	0x3cb600f1	0.022217246
218	0x3c35d394	0.011097807
219	0xbcecf81e	-0.028926905
220	0xbc01dc92	-0.007926123
221	0xbe0908e7	-0.13382302
222	0x3d921610	0.07133114
223	0xbc61b3b8	-0.013775758
224	0x3debe4ce	0.115182504
225	0xbb68d696	-0.0035528294
226	0x3d64b7cc	0.055839345
227	0xbd8ec67a	-0.0697145
228	0xbdf09a1a	-0.117481425
229	0xbe08f253	-0.1337369
230	0x3d831238	0.06399959
231	0x3d72350f	0.059132632
232	0x3a364d38	0.00069542555
233	0xbc6b4310	-0.014359251
234	0xbd88dd52	-0.066828385
235	0xbe3643c0	-0.17799282
236	0xbd1c0198	-0.038087457
237	0xbe2fb27e	-0.17157933
238	0x3ce681a7	0.028137995
239	0xbdeec0df	-0.11657881
240	0x3e4249ad	0.18973418
241	0xbd8b9231	-0.06814993
242	0x3e17288d	0.14761563
243	0x3d756849	0.059913907
244	0x3e0dc6e5	0.13845403
245	0xbd23a8ed	-0.039956022
246	0x3d206d48	0.03916672
247	0x3d776505	0.060399074
248	0x3da5e17d	0.08099649
249	0x3e29a547	0.16566955
250	0xbdba7193	-0.09103694
251	0x3d952a30	0.07283437
252	0xbbb5d6f1	-0.0055493047
253	0x3dc76996	0.09736936
254	0xbd2c7020	-0.04209912
255	0x3d1f96c2	0.038962133

AFeatRNN.bias_ih_l0 f4 [256]
0	0x3da44702	0.08021356
1	0x3cc64a09	0.024205225
2	0xbdb8481c	-0.08998129
3	0x3dbaa4ed	0.09113488
4	0x3ccce1b8	0.025009975
5	0x3db852c3	0.090001605
6	0x3d544ced	0.051831175
7	0x3bbb89e8	0.005723227
8	0x3dbb9541	0.09159327
9	0x3d0833bd	0.033252466
10	0x3d945ffe	0.072448716
11	0xbdf96231	-0.12176932
12	0xbde045f3	-0.10950842
13	0x3d9b37c8	0.07578999
14	0x3dcddca7	0.10051852
15	0x3d32099f	0.043466207
16	0xbd9b4698	-0.07581824
17	0xbd3747e9	-0.044746313
18	0xbcaa9bb0	-0.02082619
19	0x3dc1b09c	0.09457514
20	0xbd3c4895	-0.045967657
21	0xbd984f9b	-0.074370585
22	0x3dae8282	0.08520986
23	0x3c8e31ad	0.017357672
24	0xbbf07e2c	-0.0073392596
25	0x3df7bbfd	0.12096403
26	0x3e13c193	0.14429311
27	0xbe01b5ca	-0.12667003
28	0x3dd698fc	0.10478398
29	0x3ba59df7	0.0050542313
30	0x3b81f7f9	0.003966328
31	0x3deb2bb3	0.11482944
32	0x3d410a4a	0.047128953
33	0x3cd5a7fe	0.026081081
34	0xbbea31e8	-0.0071470626
35	0x3cd16363	0.025560087
36	0x3d07b01d	0.03312694
37	0x3c9b1466	0.018930625
38	0x3da99d2d	0.08281932
39	0xbd827d1c	-0.06371519
40	0x3d0ace01	0.033887867
41	0xbc78ea87	-0.015192634
42	0x3d25fd57	0.040524807
43	0x3d6d7d70	0.057980955
44	0x3d3f73ad	0.046741176
45	0x3ba50577	0.005036052
46	0x3dda08ee	0.106462345
47	0x3daadcc9	0.08342893
48	0xbd736c09	-0.059429202
49	0x3db2fbe9	0.08739454
50	0xb98451d5	-0.00025237972
51	0xbd32fe74	-0.043699697
52	0x3dcf8bc9	0.10134084
53	0xbd4f088a	-0.050545253
54	0x3dfb0e55	0.12258593
55	0xbbefc7dc	-0.0073175263
56	0xbc7d0aaf	-0.015444442
57	0x3dc37d77	0.09545415
58	0x3da777a9	0.0817712
59	0xbdb7071a	-0.089369014
60	0x3dc5be2f	0.09655415
61	0xbb72cebd	-0.0037049495
62	0x3e06254d	0.13100167
63	0x3dc3253d	0.09528587
64	0x3d8b97a4	0.068160325
65	0x3c8cb283	0.017174965
66	0x3d638a2b	0.05555169
67	0xbdc414b2	-0.0957426
68	0xbb9900cd	-0.004669285
69	0xbcd121f2	-0.025528882
70	0x3db085d3	0.08619275
71	0xbc5dcef2	-0.013538109
72	0x3c21e024	0.009880099
73	0xbdfe04f3	-0.12403288
74	0xbd482e1a	-0.04887209
75	0x3da89247	0.08231025
76	0xbd3d118b	-0.04615931
77	0x3d971192	0.07376398
78	0xbdec3777	-0.115340166
79	0xbd9d3be8	-0.07677442
80	0x3d81ce7e	0.063382134
81	0xbc600a13	-0.013674277
82	0xbc0ff940	-0.008787453
83	0xbccf36df	-0.02529472
84	0x3ce40303	0.027833467
85	0x3dc7cc7a	0.09755798
86	0x3ca97cb5	0.020689348
87	0x3c6b0b4a	0.014345953
88	0x3ac4274e	0.0014965327
89	0xbc52b429	-0.012860336
90	0x3c17c40c	0.00926305
91	0xbda9ed91	-0.08297265
92	0x3db7b060	0.08969188
93	0xbd33f919	-0.04393873
94	0xbdc9d524	-0.098551065
95	0x3df103ee	0.11768328
96	0xbcdba7a2	-0.026813332
97	0x3d43cb81	0.0478015
98	0x3d9edb17	0.07756632
99	0x3cb280a3	0.021789854
100	0xbe0211f0	-0.12702155
101	0xbcbf1e38	-0.02332984
102	0x3d67d01d	0.056594957
103	0xbded2aa2	-0.11580397
104	0xbdadd513	-0.08487906
105	0xbd1d0c3d	-0.03834175
106	0x3d3190a0	0.043350816
107	0xbd0cfb85	-0.034419555
108	0x3d999f01	0.07501031
109	0x3d61d350	0.055133164
110	0x3dc7286d	0.097245075
111	0x3dbda107	0.09259229
112	0x3de6f9bc	0.11278102
113	0x3da16aa7	0.078816704
114	0x3d95fefc	0.07324025
115	0x3c68a386	0.014199143
116	0xbcd89d52	-0.026442204
117	0xbdd479b8	-0.103747785
118	0xbd92bc31	-0.07164801
119	0x3d92d415	0.07169358
120	0xbd9afb07	-0.07567411
121	0xbdeb0c41	-0.114769466
122	0x3c71c153	0.014755565
123	0x3d9f1431	0.07767523
124	0x3d23775d	0.039908756
125	0xbe06e9e3	-0.13175158
126	0xbd76311f	-0.06010544
127	0xbb9a7302	-0.004713417
128	0xbdc43701	-0.09580804
129	0xbdaaa3b0	-0.08332002
130	0xbdaf5833	-0.085617445
131	0x3c97d5b5	0.01853452
132	0xbcffcf30	-0.031226724
133	0x3d9788bf	0.07399129
134	0xbd036b8e	-0.032084994
135	0xbdc6f2e9	-0.097143
136	0x3b76bdc8	0.003764974
137	0xbd9fd24a	-0.07803781
138	0x3d83bfe7	0.06433087
139	0x3dbd2cd6	0.092370674
140	0xbde4da59	-0.11174459
141	0x3d540040	0.05175805
142	0x3d24a6e3	0.040198218
143	0x3da289d2	0.079364434
144	0xbbc661c6	-0.006054136
145	0x3c9c391f	0.019070206
146	0xbd0b16e6	-0.033957385
147	0x3c763a4e	0.015028549
148	0x3d307979	0.043084595
149	0xbd964f17	-0.07339304
150	0xbd95df40	-0.07317972
151	0x3d80a600	0.06281662
152	0x3e15e75c	0.14639038
153	0x3db00ed9	0.08596582
154	0xbe01856d	-0.12648554
155	0x3dbe9e20	0.09307504
156	0x3dbaaf81	0.09115506
157	0xbe072e10	-0.13201165
158	0x3c7adb13	0.01531102
159	0x3da0b066	0.07846145
160	0x3d61d517	0.05513486
161	0xbd9e6599	-0.07734222
162	0xbdc5a77a	-0.09651084
163	0x3dbb397d	0.091418244
164	0xb7a52c04	-1.969003e-05
165	0x3d03baa3	0.032160413
166	0x3d9bc819	0.07606525
167	0xbdc1ac03	-0.09456637
168	0x3ccf232d	0.025285328
169	0x3d38c8d0	0.045113385
170	0xbdb6a340	-0.08917856
171	0xbd9d06c1	-0.07667304
172	0x3beff078	0.0073223673
173	0x3bc48d8d	0.0059983195
174	0x3db5bc77	0.088738374
175	0xba2a13b2	-0.000648792
176	0xbba84de8	-0.0051362403
177	0xbb99f858	-0.0046987943
178	0x3d8a9a67	0.06767731
179	0x3df777b4	0.120833784
180	0x3db85967	0.09001427
181	0xbd50b457	-0.050953235
182	0xbdb6c124	-0.089235574
183	0x3def5d2d	0.11687694
184	0x3da96bd7	0.08272522
185	0xbdf58a05	-0.11989216
186	0xbdd8fa4b	-0.105946146
187	0x3cbe590e	0.023235824
188	0xbccf04ec	-0.025270902
189	0x3dc559e4	0.09636286
190	0x3d8726ac	0.06599173
191	0x3d8ba7a1	0.06819082
192	0xbdc8f8aa	-0.09813054
193	0xbda96125	-0.08270482
194	0xbdacb3b4	-0.08432713
195	0xbdf3d0d6	-0.11905067
196	0xbd9e2253	-0.077213906
197	0x3dad54a4	0.084634095
198	0xbb9c4f92	-0.0047702277
199	0xbd9a4255	-0.07532183
200	0xbccf3dbd	-0.025297994
201	0x3cea9c39	0.028638946
202	0x3cfe7ce1	0.031065406
203	0x3cee844e	0.029115822
204	0xbde9b24f	-0.11410963
205	0x3d9cfdcc	0.076655954
206	0x3c6408c9	0.01391811
207	0xba8842e6	-0.0010395914
208	0x3e070270	0.13184524
209	0xbde4ee72	-0.11178292
210	0x3c86536e	0.016397204
211	0x3d84d0d5	0.06485144
212	0xbd5bbf0d	-0.053648997
213	0xbdf11c06	-0.11772923
214	0x3ca66da1	0.020315947
215	0x3cb13a06	0.021634113
216	0xbdad3a5b	-0.08458396
217	0x3e41b520	0.1891675
218	0x3d54df10	0.05197054
219	0x3cc39296	0.023873609
220	0xbd8ec232	-0.069706336
221	0x3cf97f0b	0.030456087
222	0xbd6d4fb9	-0.057937358
223	0x3aaf0ae5	0.0013354687
224	0xbd3c91f1	-0.046037618
225	0x3d3669f0	0.044534624
226	0x3e2f5a6e	0.1712434
227	0xbe0e93ba	-0.1392354
228	0xbde7f249	-0.11325509
229	0x3daf2a67	0.085530095
230	0x3d11ff64	0.03564395
231	0x3d941808	0.07231146
232	0x3decce93	0.115628384
233	0x3b813365	0.0039428943
234	0xbcc67829	-0.024227219
235	0x3d88bf14	0.0667707
236	0x3d13d67b	0.036093216
237	0xbccccbd0	-0.02499953
238	0x3db1f9cb	0.08690222
239	0x3ccab539	0.024744617
240	0xbcdaf15e	-0.026726421
241	0x3e43f23d	0.19135375
242	0x3ce57ae4	0.0280127
243	0xbd86766a	-0.065655544
244	0xbdacf986	-0.0844603
245	0xbd545eca	-0.05184821
246	0xbda660d9	-0.08123941
247	0xbb76816d	-0.0037613765
248	0x3e071309	0.13190855
249	0x3e0ea24e	0.13929102
250	0xbc11273a	-0.00885945
251	0x3e25e744	0.16201502
252	0x3d25f5cb	0.04051761
253	0xbd590068	-0.052978903
254	0xbcc44a91	-0.023961337
255	0x3db95ec5	0.09051279

AFeatRNN.bias_hh_l0 f4 [256]
0	0xbd95e48a	-0.07318981
1	0x3d335379	0.043780778
2	0xbd5bd322	-0.05366815
3	0x3deb7afd	0.114980675
4	0x3cc82899	0.024433421
5	0x3dffa317	0.12482279
6	0x3e1517bf	0.1455984
7	0x3dd834cd	0.10556946
8	0x3c1d7cce	0.009612275
9	0x3dbf4f3f	0.09341287
10	0x3e00cabf	0.12577341
11	0x3db0aa6b	0.08626255
12	0x3d5ffa55	0.054682095
13	0xbab37e2a	-0.0013694216
14	0x3e24c9fc	0.16092676
15	0x3cdd726a	0.027032096
16	0x3dfad69a	0.12247963
17	0xbdf8ecfb	-0.121545754
18	0x3d959b15	0.0730497
19	0x3e06792d	0.13132162
20	0xbd3086f1	-0.04309744
21	0x3c185e04	0.009299759
22	0xbcbf7c23	-0.023374623
23	0xbd29e73d	-0.04148029
24	0x3d40bb45	0.047053594
25	0x3d48e48a	0.049046077
26	0x3e0d6567	0.13808213
27	0xbde86f64	-0.11349371
28	0xbd3a2a95	-0.045450766
29	0x3ce189b0	0.027531475
30	0x3c4d0051	0.0125122825
31	0xbc612f65	-0.01374421
32	0xbc9de4ac	-0.019274078
33	0xbd6aa879	-0.057289574
34	0x3e0da774	0.1383341
35	0x3dabd29b	0.08389779
36	0xbd89cdd9	-0.067287154
37	0x3c76d113	0.015064496
38	0xbe0c3265	-0.13691099
39	0x3db4b641	0.08823825
40	0x3cf9af24	0.030479021
41	0x3d882c47	0.0664907
42	0x3e2c1310	0.16804147
43	0xbd788e74	-0.06068273
44	0xbdf50ca3	-0.11965301
45	0x3d2b24f3	0.041783284
46	0xbdc38038	-0.0954594
47	0xbd6ab77a	-0.057303883
48	0xbb7885bb	-0.0037921506
49	0xbd037f59	-0.03210387
50	0xbda22b0e	-0.07918368
51	0x3d982eff	0.07430839
52	0x3c3da00c	0.011573803
53	0xbd540baf	-0.051768955
54	0x3bf56fc4	0.00749013
55	0x3e04d8c4	0.12973315
56	0xbd688b39	-0.056773398
57	0xbcce4d79	-0.025183426
58	0x3d40887d	0.047005165
59	0xbda5bd84	-0.08092788
60	0xba489ebb	-0.0007653047
61	0x3d973347	0.07382827
62	0x3dee074d	0.11622486
63	0xbd4be4bf	-0.049778696
64	0x3cffcb4b	0.031224867
65	0x3d66e8fb	0.05637453
66	0x3d12077f	0.03565168
67	0x3d22e785	0.039771575
68	0xbdee5e6b	-0.116391025
69	0xbad55b08	-0.001627774
70	0x3d759276	0.05995413
71	0x3da035db	0.07822772
72	0xbcdfe74f	-0.027331976
73	0xbd4137bd	-0.047172297
74	0x3d84a5ae	0.064769134
75	0x3d3907c5	0.045173425
76	0x3cc76cbe	0.024343845
77	0xbcb336fa	-0.0218768
78	0x3da07d3c	0.078363866
79	0xbd4058d7	-0.046959724
80	0x3c26d191	0.0101818
81	0xbd86e8b1	-0.06587351
82	0xbbbb6f8a	-0.0057200836
83	0x3db5215b	0.08844253
84	0xbc69c4a9	-0.014268079
85	0x3dfecffe	0.12442015
86	0xbd171a91	-0.03689057
87	0x3dccaf7d	0.09994409
88	0xbdb93048	-0.09042412
89	0x3b5820c2	0.003297851
90	0x3bf2488d	0.0073939026
91	0x3dd2321b	0.10263463
92	0x3dbd9a82	0.09257986
93	0xbdecf70d	-0.11570559
94	0xbc8e90c8	-0.017403021
95	0x3d9e2b86	0.07723145
96	0x3c356d26	0.011073386
97	0xbe059184	-0.13043791
98	0xbc83f69f	-0.016108809
99	0x3dc03265	0.09384612
100	0xbcc084d6	-0.023500841
101	0xbdc47daa	-0.09594281
102	0x3d90df7a	0.07073875
103	0x3d7b9312	0.061419554
104	0xbe0a568c	-0.13509578
105	0x3a8d602d	0.0010786109
106	0xbcec445a	-0.028841186
107	0xbd19d438	-0.037555903
108	0x3d37a26b	0.04483263
109	0xbde14761	-0.109999426
110	0xbcc7282e	-0.024311151
111	0xbc8bd3f6	-0.017068844
112	0xbd36d452	-0.04463608
113	0x3ce12825	0.027484963
114	0x3e0b36b4	0.13595086
115	0xbd1abd56	-0.03777822
116	0xbd945004	-0.07241824
117	0x3d81b91e	0.063341364
118	0xbda269b1	-0.07930315
119	0xbdd31519	-0.103067584
120	0x3e120d50	0.14262891
121	0x3dd8b9db	0.10582324
122	0xbdc242e4	-0.094854146
123	0x3d5ac68f	0.053412016
124	0x3dde7640	0.10862398
125	0xbd9c0218	-0.07617587
126	0xbd872620	-0.06599069
127	0xbc26ec5e	-0.01018819
128	0xbcb83824	-0.022487707
129	0x3cb87b0d	0.022519613
130	0x3db9a371	0.09064377
131	0xbd99f6e5	-0.075177945
132	0x3d3493a2	0.044086106
133	0xbd8ecf34	-0.069731146
134	0x3d4db2d8	0.050219387
135	0x3e010804	0.12600714
136	0x3df91c0d	0.121635534
137	0x3dd665b2	0.104686156
138	0x3d5738b6	0.05254432
139	0x3d8243bf	0.06360578
140	0xbd12f7e2	-0.03588093
141	0xbe0d97f9	-0.13827504
142	0x3dedaaa1	0.116048105
143	0xbd0b4476	-0.034000836
144	0x3cadfdb9	0.021239148
145	0xbc1c9103	-0.009556058
146	0x3beb2665	0.007176208
147	0x3d8daac0	0.069173336
148	0xbd378847	-0.0448077
149	0x3d0ba8ff	0.034096714
150	0x3ddb517a	0.107089
151	0x3b6caf1f	0.0036115122
152	0x3e272d40	0.16325855
153	0xbd182539	-0.037144873
154	0x3daecd42	0.085352436
155	0x3c0c68f9	0.008569949
156	0xbdababf7	-0.08382409
157	0x3d2195a2	0.03944934
158	0x3d5806cd	0.05274086
159	0x3d3240e2	0.04351891
160	0xbd4baa05	-0.04972269
161	0x3dee3e33	0.11632957
162	0xbc17152e	-0.009221358
163	0xbd6b697c	-0.057473645
164	0x3d75e78f	0.060035285
165	0x3d933aa3	0.071889184
166	0x3dd55a2f	0.10417592
167	0x3d11741b	0.035511117
168	0x3ddef6e8	0.108869374
169	0x3dc15a11	0.09441007
170	0xbb16f57d	-0.0023034506
171	0xbda2f3d4	-0.07956663
172	0x3d89d5a7	0.06730204
173	0xbd99f95f	-0.07518267
174	0x3c0686b7	0.008210829
175	0x3d9a7a2f	0.07542836
176	0x3ddf8c42	0.10915424
177	0x3c7c9b86	0.015417939
178	0xbd92bbe0	-0.071647406
179	0xbc14cc8a	-0.009081969
180	0xbd45b930	-0.04827231
181	0xbdefd57c	-0.11710641
182	0xbcd1e5b6	-0.02562223
183	0xbdd0ac9f	-0.10189175
184	0xbdd19e99	-0.10235328
185	0xbc9942df	-0.018708644
186	0x3d316cf7	0.043316808
187	0xbde2ac64	-0.11068037
188	0xbdf85933	-0.121263884
189	0x3b181a1e	0.0023208926
190	0xbd516b84	-0.051127926
191	0xbdaab4c5	-0.0833526
192	0x3d001682	0.031271465
193	0x3d065a75	0.03280111
194	0x3c7c603c	0.015403803
195	0xbd38feb9	-0.045164797
196	0xbd89f328	-0.067358315
197	0xbd9ec358	-0.077521026
198	0x3dbc5817	0.09196489
199	0x3d9c827c	0.076420754
200	0x3da11fdd	0.078674056
201	0x3c795597	0.01521816
202	0x3c5ceafd	0.01348376
203	0xbdb73b9d	-0.08946917
204	0xbdebda93	-0.11516299
205	0xbd3c1b9b	-0.045924764
206	0x3d980954	0.07423654
207	0xbd03d1ef	-0.03218263
208	0x3cbd24d1	0.023088844
209	0xbdbf5c8e	-0.09343825
210	0x3dc203cb	0.0947338
211	0x3cfb7a41	0.030697944
212	0x3b9f8555	0.0048681893
213	0xbd342945	-0.04398467
214	0x3c6b7e68	0.014373399
215	0xbc049452	-0.008092003
216	0xbc52ed43	-0.01287395
217	0x3def96a8	0.11698657
218	0x3d66c0c3	0.056336176
219	0xbdd707f6	-0.10499565
220	0x3dc0bdf1	0.094112284
221	0x3d9f2a9c	0.07771799
222	0x3c5729c0	0.013132513
223	0x3db0ab40	0.08626413
224	0xbda784b0	-0.08179605
225	0xbd42fb58	-0.04760298
226	0x3e1d7ac1	0.15378858
227	0x3d8e9325	0.06961659
228	0x3d448661	0.047979716
229	0x3c905451	0.01761833
230	0x3d0dc446	0.03461101
231	0xbdb539b1	-0.088488944
232	0x3d19758f	0.03746563
233	0xbd46184e	-0.048363023
234	0x3ce1144e	0.027475502
235	0x3cdcedb0	0.026968807
236	0xbdf87122	-0.12130953
237	0xbbbc1b0e	-0.00574053
238	0xbdbc9f4c	-0.09210071
239	0x3d462495	0.04837473
240	0xbdb2bff6	-0.0872802
241	0x3de5b58d	0.11216269
242	0x3dcc9040	0.09988451
243	0x3d3540ca	0.04425124
244	0x3df426a9	0.11921436
245	0x3e072f35	0.13201602
246	0x3df85fe5	0.121276654
247	0x3dcb7e17	0.09936159
248	0xbde46543	-0.11152127
249	0x3d947425	0.07248715
250	0x3e247042	0.16058448
251	0xbd9912d1	-0.07474292
252	0xbceaa714	-0.028644122
253	0xbd1ad2b1	-0.037798587
254	0x3db7cb2f	0.08974301
255	0xbd50d65a	-0.05098567

AFeatRNN.weight_ih_l1 f4 [256, 64]
0	0xbdcaf424	-0.099098474
1	0xbc9846a2	-0.018588368
2	0xbde8d1e6	-0.1136816
3	0xbd0273a8	-0.03184858
4	0x3e024b7a	0.12724105
5	0x3c96fe2b	0.018431744
6	0xbd05e06b	-0.032684725
7	0x3d432e14	0.047651365
8	0xbc9ff405	-0.019525537
9	0x3d43913f	0.04774594
10	0x3de80c6a	0.11330493
11	0x3e1b2126	0.15149364
12	0x3d3ef7b5	0.04662295
13	0xbd17513c	-0.036942706
14	0x3daafb4e	0.08348714
15	0x3d0f3603	0.03496362
16	0x3dd5bf8e	0.10436927
17	0xbd4118fc	-0.047142968
18	0x3c8a9a54	0.016919293
19	0xbd1b213b	-0.037873488
20	0x3d9d7ec7	0.076901965
21	0xbdfd7599	-0.123759456
22	0x3b9d39fc	0.004798172
23	0x3d19db65	0.037562747
24	0xbdf3aa64	-0.11897734
25	0x3d6de574	0.05808015
26	0x3d071652	0.03298027
27	0xbd6803c8	-0.05664423
28	0x3e0fd5ca	0.14046398
29	0x3db7337d	0.089453675
30	0xbcf08cc5	-0.029364
31	0x3d201aeb	0.03908817
32	0x3def0003	0.11669924
33	0xbb0f54cb	-0.002187061
34	0x3e470e9a	0.19439164
35	0x3dd99b75	0.10625354
36	0x3d8f6a1a	0.07002659
37	0xbe2782bb	-0.16358463
38	0xbe5422ba	-0.20716372
39	0x3ddb369e	0.10703777
40	0x3c807e9b	0.01568537
41	0x3db3ce27	0.08779555
42	0xbd9fa009	-0.07794196
43	0xbd524b11	-0.05134112
44	0xbd33e4c1	-0.04391933
45	0x3dba2ef9	0.090909906
46	0xbcd5071e	-0.02600437
47	0xba530c0a	-0.0008050805
48	0x3dea3320	0.114355326
49	0xbcca5a21	-0.02470118
50	0x3e015e4c	0.12633628
51	0xbe08a0bd	-0.13342567
52	0x3e883f11	0.26610616
53	0xbda20648	-0.07911354
54	0x3e05f5e0	0.13082075
55	0x3e36df4d	0.1785862
56	0x3d5758ee	0.052575044
57	0x3e56b890	0.20968843
58	0x3e1ec0f6	0.15503296
59	0xbe847c31	-0.25876
60	0xbe00d72c	-0.12582082
61	0x3a139830	0.00056302827
62	0x3dc18f01	0.09451104
63	0xbe00ab20	-0.12565279
64	0xbcc39839	-0.023876296
65	0x3d472375	0.0486178
66	0xbe649e42	-0.22325996
67	0xbd4c6b66	-0.04990711
68	0x3cdabb5c	0.026700668
69	0x3cb1fd69	0.02172728
70	0x3e644773	0.2229288
71	0x3e55e1fe	0.2088699
72	0xbda26f3d	-0.07931373
73	0xbd178f40	-0.03700185
74	0x3e48f570	0.19624877
75	0xbe31d249	-0.17365374
76	0x3e273f8d	0.16332836
77	0xbe29c6d8	-0.16579759
78	0x3e047356	0.12934622
79	0x3e0aa074	0.1353777
80	0x3e06a528	0.1314894
81	0x3be4ea79	0.006985959
82	0x3e19fba8	0.15037405
83	0x3c340542	0.010987582
84	0xbe65d846	-0.22445783
85	0x3d32a7e4	0.043617144
86	0x3e265fc2	0.16247466
87	0x3d6d0f37	0.057875838
88	0xbd0e3445	-0.034717817
89	0x3d902893	0.07038989
90	0x3e1f8f6c	0.15582055
91	0xbda3018b	-0.07959279
92	0xba36a85e	-0.00069678377
93	0x3d5ebb5f	0.05437791
94	0x3e3c61e7	0.18396722
95	0xbe1688c1	-0.14700605
96	0x3dee0aa8	0.11623126
97	0x3ca8d13b	0.020607581
98	0xbdd74508	-0.105112135
99	0xbd74ef17	-0.059798326
100	0x3e4d3381	0.20039178
101	0x3dbae0e6	0.09124927
102	0xbd29137c	-0.041278347
103	0x3e357f92	0.17724445
104	0x3be40cfd	0.006959556
105	0xbe2d45f9	-0.16921224
106	0xbc8fd29c	-0.017556481
107	0xbce122b5	-0.02748237
108	0x3e547d76	0.20750985
109	0x3d5ff1bc	0.054673895
110	0x3d89b8ae	0.06724678
111	0x3e114c80	0.14189339
112	0x3e0ae317	0.1356319
113	0x3d14d463	0.03633536
114	0x3ea83904	0.32856
115	0x3e550702	0.20803455
116	0xbe4f72ec	-0.20258683
117	0x3d89553f	0.067057125
118	0xbe815472	-0.2525974
119	0x3dd2d520	0.102945566
120	0x3cc5f1f7	0.02416323
121	0xbc9d1f6a	-0.019180018
122	0xbdf65812	-0.12028517
123	0x3e9aa107	0.3020098
124	0x3ce28228	0.027649954
125	0x3d78f67a	0.060781933
126	0xbdf62655	-0.1201903
127	0xbd398e1c	-0.04530154
128	0x3b69b20e	0.0035659107
129	0x3c8637e0	0.016384065
130	0x3cb0ffe2	0.02160639
131	0xbdd9af56	-0.10629146
132	0x3e0ffb29	0.14060654
133	0x3d71be0b	0.05901913
134	0x3e344fbb	0.1760854
135	0x3cd292ef	0.025704829
136	0x3d9c591a	0.07634182
137	0x3c0a63c0	0.008446634
138	0x3e3068a0	0.17227411
139	0xbe7314d6	-0.23738417
140	0x3db57b6c	0.088614315
141	0xbdf51ae0	-0.119680166
142	0xbde9ae78	-0.114102304
143	0xbcc750be	-0.024330493
144	0x3e193eea	0.14965406
145	0xbd78b1bf	-0.060716387
146	0x3d29909a	0.04139767
147	0xbd893a81	-0.06700612
148	0xbe08139e	-0.13288733
149	0xbb77d121	-0.003781386
150	0xbd654034	-0.055969432
151	0x3d9fa297	0.077946834
152	0xbd48f7c4	-0.049064413
153	0x3c96ec8f	0.018423347
154	0x3c97eab7	0.018544538
155	0xbdcf09d9	-0.101093
156	0xbd734a04	-0.05939676
157	0xbd2e4a1a	-0.042551138
158	0xbd582c3a	-0.052776553
159	0x3df1bbe5	0.11803416
160	0xbdb8746d	-0.090065815
161	0x3cec2aa1	0.02882892
162	0x3b8bbf6e	0.0042647636
163	0x3d3e7219	0.04649553
164	0x3c80b1e4	0.015709825
165	0xbbcef64b	-0.0063159815
166	0x3d9e9dea	0.077449635
167	0xbb9c469d	-0.00476916
168	0x3dbe850e	0.09302722
169	0xbda04ce4	-0.07827166
170	0xbd06e7de	-0.03293597
171	0x3d8dfa9c	0.069325656
172	0xbd2397de	-0.039939754
173	0x3dce74ac	0.10080847
174	0xbc994dfd	-0.018713946
175	0x3d440834	0.047859386
176	0xbde2aff0	-0.11068714
177	0x3e010e8b	0.12603204
178	0x3ddc25d5	0.107494034
179	0x3deadbc6	0.114677
180	0xbd9c563b	-0.07633635
181	0xbdfb5149	-0.12271363
182	0xbc23fed2	-0.010009484
183	0x3d29eb30	0.041484058
184	0xbd1d2fba	-0.038375594
185	0x3e25d003	0.16192631
186	0x3e4a68d6	0.19766554
187	0xbba457c7	-0.0050153467
188	0xbdf6ef43	-0.12057354
189	0xbde4498a	-0.11146839
190	0xbdec4228	-0.11536056
191	0xbe2f92f2	-0.17145899
192	0xbd439436	-0.047748767
193	0x3e406995	0.18790276
194	0xbd1c27c4	-0.03812386
195	0xbd311fe5	-0.043243308
196	0x3d8c7789	0.06858737
197	0xbd23a2cb	-0.039950173
198	0xbdee28ba	-0.11628862
199	0x3d239dd1	0.039945427
200	0x3d8736be	0.06602238
201	0x3d90f283	0.070775054
202	0x3d1ec2ae	0.03875988
203	0x3b91e66e	0.004452518
204	0xbbe530b3	-0.006994331
205	0x3db11cef	0.08648097
206	0xbdee1470	-0.11624992
207	0xbb6f043e	-0.0036471034
208	0xbd94ca24	-0.07265118
209	0x3c6ff815	0.01464655
210	0x3b22eeb1	0.002486151
211	0xbd7bab90	-0.06144291
212	0x3de8aa84	0.11360648
213	0x3bfc4190	0.0076982453
214	0xbd960db9	-0.07326836
215	0x3d4cea3c	0.05002807
216	0x3de75f85	0.11297516
217	0x3c1fcb78	0.009753101
218	0x3e2ecd2e	0.17070457
219	0x3d067374	0.03282495
220	0xbdd4b26d	-0.103855945
221	0xbd5dac12	-0.054119177
222	0xbb36f785	-0.002791853
223	0x3d3295f0	0.043600023
224	0x3d9a053b	0.07520529
225	0x3de78b4c	0.11305866
226	0x3cc347fd	0.023838038
227	0x3e21de56	0.1580747
228	0x3d703d42	0.05865217
229	0xbe021c5a	-0.12706128
230	0xbe0309b8	-0.12796676
231	0xbd4a9545	-0.04945876
232	0x3dbdebec	0.09273514
233	0x3c125045	0.008930271
234	0xbc616795	-0.013757606
235	0x3dd6d45e	0.104897246
236	0xbd80b1fa	-0.06283946
237	0xbddf9fe6	-0.1091917
238	0xbd095084	-0.03352405
239	0xbc471434	-0.012150813
240	0x3bc2e03d	0.0059471414
241	0x3d90e850	0.0707556
242	0xbdadeb7e	-0.08492182
243	0x3da4fbe0	0.08055854
244	0x3dae2ffe	0.085052475
245	0xbdee9208	-0.11648947
246	0x3da24494	0.079232365
247	0xbe152f01	-0.14568712
248	0xbc926401	-0.017869951
249	0xbe277775	-0.16354163
250	0xbdb668f5	-0.08906738
251	0xbda365ae	-0.07978378
252	0x3dacb830	0.084335685
253	0xbc2ddbe0	-0.010611504
254	0xbd375cbd	-0.044766176
255	0xbe0c92e1	-0.13727905

AFeatRNN.weight_hh_l1 f4 [256, 64]
0	0xbd2a8879	-0.041634057
1	0x3d432843	0.04764582
2	0xbd3b5cff	-0.045742985
3	0xb91af9b0	-0.000147796
4	0x3e04ba89	0.12961783
5	0x3cc2b974	0.023770072
6	0xbc9019ef	-0.017590491
7	0x3c6cc3b6	0.014450958
8	0x3dcd1e3a	0.10015531
9	0xbd786e56	-0.0606521
10	0x3db0ccf4	0.08632842
11	0xbd93afc1	-0.07211257
12	0xbd7c9163	-0.06166209
13	0x3bf6cb86	0.007531586
14	0xbd4d7726	-0.050162457
15	0x3d1b1302	0.037859924
16	0xbd8cdb3f	-0.068777554
17	0xbc951f80	-0.018203497
18	0xbaf6dfe3	-0.0018835034
19	0x3e0d3a7c	0.13791841
20	0xbd02bfb0	-0.03192109
21	0x3d49ba19	0.049249742
22	0x3d280ae8	0.041026026
23	0xbc31cfc9	-0.0108527625
24	0x3ccc548c	0.024942659
25	0xbceed464	-0.02915401
26	0x3d7121b1	0.05887002
27	0xbd100f8a	-0.03517107
28	0x3c0360b0	0.008018658
29	0x3dccd2e1	0.100011595
30	0x39ac9453	0.00032916907
31	0x3c2b052f	0.010438248
32	0xbd2d0a59	-0.042246196
33	0xbcc168e7	-0.023609592
34	0xbdcd5bc2	-0.10027267
35	0xbdd425b6	-0.10358755
36	0xbd8944bb	-0.067025624
37	0xbcc7dbaf	-0.024396745
38	0xbdb9cfab	-0.09072813
39	0xbd6aa8bc	-0.057289824
40	0xbd6bd481	-0.057575706
41	0xbdd0ef98	-0.10201949
42	0x3da4195f	0.08012652
43	0x3d2f487d	0.04279374
44	0xbe222a20	-0.15836382
45	0xbd9ea872	-0.07746972
46	0xbd011e0c	-0.031522796
47	0x3d8570a1	0.06515623
48	0x3da091e2	0.07840325
49	0x3d8e2099	0.06939811
50	0xbdf5f69d	-0.120099284
51	0xbd21c8f5	-0.03949829
52	0xbda497ff	-0.080368035
53	0xbca9ea01	-0.020741465
54	0x3deb0d87	0.114771895
55	0xbe191233	-0.14948349
56	0xba1870dd	-0.0005815158
57	0x3cf08066	0.0293581
58	0xbdb78867	-0.089615636
59	0x3d8d2092	0.06890978
60	0xbc8007ec	-0.015628777
61	0xbe1b5d87	-0.15172397
62	0xbd23333d	-0.039843787
63	0x3db2f229	0.08737595
64	0xbe1f4a11	-0.15555598
65	0xbd70d262	-0.058794387
66	0x3e322b7a	0.17399397
67	0xbdab4c2f	-0.0836414
68	0xbe1c4624	-0.15261132
69	0x3e42ae4c	0.19011801
70	0x3d310baf	0.043224033
71	0xbd6d38b3	-0.0579154
72	0x3db7e965	0.08980063
73	0x3b7b96bf	0.0038389412
74	0x3dc7723c	0.09738585
75	0xbc04656b	-0.008080821
76	0xbd62f68c	-0.055410907
77	0x3cf9b395	0.03048114
78	0x3e5b5b9b	0.21421663
79	0x3b914c03	0.00443411
80	0x3d91accd	0.07113037
81	0x3e1a43eb	0.15064971
82	0xbce9ee6a	-0.028556067
83	0xbc835eb1	-0.016036363
84	0x3e2ab8fa	0.16672125
85	0x3d936ee7	0.07198887
86	0xbd814e3e	-0.06313752
87	0xbbd6a147	-0.0065499875
88	0xbe24a483	-0.16078381
89	0xbdb49deb	-0.08819183
90	0x3dfda02f	0.12384068
91	0xbd2b031d	-0.041751016
92	0x3daf11f5	0.08548347
93	0x3d135aeb	0.035975378
94	0xbdf33073	-0.11874475
95	0xbd82a3be	-0.063788876
96	0xbc2d6a9b	-0.010584499
97	0xbd8f70eb	-0.07003959
98	0xbcfedc4a	-0.031110901
99	0x3e27a8a0	0.16372919
100	0xbdab898c	-0.08375844
101	0xbd627984	-0.055291668
102	0x3da868e4	0.08223131
103	0x3c401ab1	0.011725114
104	0x3db7a6cf	0.08967363
105	0xbdbcc0d7	-0.09216469
106	0x3d7af98c	0.061273143
107	0xbd3886e4	-0.045050517
108	0x3e134678	0.1438235
109	0x3caf30d7	0.021385593
110	0xbd0147e0	-0.031562686
111	0x3e0a08e0	0.13479948
112	0xbd438eb4	-0.047743514
113	0x3e2e7b0f	0.1703913
114	0x3c9cb234	0.019127943
115	0xbd9bdf8f	-0.07611
116	0xbe10a368	-0.14124835
117	0x3d51ad6f	0.05119079
118	0xbd07aa9b	-0.033121686
119	0xbc915f78	-0.017745718
120	0x3d888173	0.066653155
121	0x3bf45a45	0.00745705
122	0x3de50257	0.11182087
123	0xbdd89a05	-0.10576252
124	0x3d628e11	0.055311266
125	0x3d5aa85f	0.053383227
126	0x3c2e5be2	0.010642024
127	0xbd81ee7e	-0.06344317
128	0xbe05e150	-0.13074231
129	0xbe1e3cb1	-0.1545284
130	0xbd65c9b8	-0.056100577
131	0x3d15dc9a	0.036587335
132	0xbc790f51	-0.015201406
133	0x3d3137a3	0.04326595
134	0xb9fb87c6	-0.0004797561
135	0xbd9566b5	-0.072949804
136	0x3d3f40d0	0.04669267
137	0x3d278c61	0.04090536
138	0x3e1cb5c3	0.15303712
139	0xbd99056b	-0.074717365
140	0xbdabe652	-0.083935395
141	0x3d8a0963	0.067400716
142	0xbdf2c7d7	-0.11854523
143	0x3d8d3cd6	0.06896369
144	0xbd54470d	-0.05182557
145	0xbc80170c	-0.01563599
146	0xbb1eefb9	-0.0024251773
147	0x3d823411	0.06357587
148	0x3c82eb11	0.015981229
149	0xbd8470cd	-0.064668275
150	0xbd0adb11	-0.033900324
151	0x3d7edc97	0.06222209
152	0xbe47ae9f	-0.19500206
153	0xbd93912c	-0.07205424
154	0x3db31bfe	0.087455735
155	0xbd20c4a3	-0.039250027
156	0xbb93a0a7	-0.0045052352
157	0x3d1f955a	0.038960792
158	0x3d79a328	0.060946614
159	0xbdd75b43	-0.10515454
160	0xbcbc03f4	-0.022951104
161	0xbe2a6705	-0.16640861
162	0x3d8cd8a3	0.06877258
163	0x3df57d1d	0.11986754
164	0x3e0e7cf9	0.13914861
165	0x3d695235	0.056963164
166	0xbc8fa0ef	-0.017532794
167	0x3d627893	0.05529077
168	0x3d23e2c0	0.040011168
169	0xbd69a94f	-0.05704623
170	0x3b87442f	0.004128001
171	0xbd8e8444	-0.069588214
172	0x3cfec51d	0.03109985
173	0xbd237a34	-0.039911464
174	0xbcd5bdb7	-0.02609144
175	0x3cf24f61	0.029578866
176	0x3d65a89e	0.05606901
177	0x3db69db3	0.089167975
178	0x3d584e05	0.05280878
179	0x3deaa274	0.11456767
180	0xbc8bd1ea	-0.017067868
181	0xbcae390a	-0.021267433
182	0x3dbe1f9b	0.09283372
183	0x3e00ea37	0.12589346
184	0xbd06a571	-0.03287262
185	0x3d5fbbcc	0.054622456
186	0xbdb2f2db	-0.08737727
187	0xbbfbf93a	-0.007689622
188	0xbe0674eb	-0.13130538
189	0x3e3232a2	0.17402127
190	0x3d577111	0.052598063
191	0x3d337f33	0.04382248
192	0x3d115865	0.03548469
193	0x3da10719	0.07862682
194	0x3d67762f	0.056509193
195	0xbdac9ade	-0.08427976
196	0xbd2c99f3	-0.042139005
197	0xbda7f98e	-0.08201896
198	0x3def4837	0.11683696
199	0xbdc5fcfc	-0.096673936
200	0xbd2d01f8	-0.042238206
201	0xbdf92dd8	-0.12166947
202	0x3c656e08	0.014003284
203	0xbcd618b1	-0.02613482
204	0x3d6f2278	0.05838248
205	0x3dbe2dcf	0.09286081
206	0x3e17d0b4	0.14825708
207	0xbdea57fa	-0.114425614
208	0x3db2045a	0.08692236
209	0x3dab3396	0.083594486
210	0xbd996f60	-0.07491946
211	0x3cba8233	0.022767162
212	0xbde0f6b9	-0.109845586
213	0xbc0fb831	-0.008771942
214	0x3acbbe89	0.0015544455
215	0xbd9bd9ff	-0.07609939
216	0x3d9bbca1	0.076043375
217	0xbde1a56c	-0.1101788
218	0x3d43384a	0.047661103
219	0x3dbf995c	0.09355423
220	0x3c5f8d30	0.013644502
221	0x3cd13f69	0.025542932
222	0xbd7270db	-0.05918966
223	0xbdf8e2b8	-0.12152618
224	0xbd903437	-0.07041209
225	0x3ce2a054	0.027664341
226	0xbd7e275a	-0.062049247
227	0x3dcf807a	0.10131927
228	0x3da3ab24	0.07991627
229	0xbde2f00b	-0.11080941
230	0xbcc61612	-0.024180446
231	0x3e28974f	0.1646397
232	0x3d3eaee7	0.04655352
233	0xbdc8d914	-0.09807029
234	0xbda5dfbb	-0.08099314
235	0xbe02d375	-0.12775977
236	0xbcd4e625	-0.025988648
237	0xbda0162b	-0.07816728
238	0xbe014680	-0.1262455
239	0xbda2034f	-0.07910787
240	0xbdc91126	-0.09817724
241	0xbd87770f	-0.066145055
242	0x3cc6f73b	0.02428781
243	0xbd073342	-0.033007868
244	0xbcf53738	-0.029933557
245	0xbb854df5	-0.004068131
246	0xbde903ab	-0.11377653
247	0x3d7e7722	0.062125333
248	0xbe029a39	-0.12754144
249	0xbdad3234	-0.08456841
250	0x3db2ba4f	0.08726942
251	0xbd5136c7	-0.05107763
252	0x3d6c9eda	0.05776868
253	0xbddfc3e9	-0.10926039
254	0xbd8c3ff0	-0.068481326
255	0xbd294a9b	-0.041330915

AFeatRNN.bias_ih_l1 f4 [256]
0	0x3cbd0a75	0.023076275
1	0x3e4cc4d8	0.19996965
2	0x3d35b039	0.044357512
3	0x3cf62ea6	0.03005154
4	0x3d1cd26c	0.03828661
5	0x3e1bb414	0.15205413
6	0xbca097a1	-0.019603552
7	0xbc3ecee5	-0.011646007
8	0x3da7cab6	0.08192961
9	0xbbf61cad	-0.0075107426
10	0x3dead41a	0.114662364
11	0x3d0858d6	0.033287846
12	0x3d01855e	0.03162133
13	0x3d9e6dc2	0.077357784
14	0x3bf96ab6	0.007611598
15	0xbdd11d40	-0.10210657
16	0x3dfefc18	0.12450427
17	0xbda2ee5d	-0.079556204
18	0xbd233fe2	-0.039855845
19	0x3e028e27	0.1274954
20	0x3dd2781b	0.102768146
21	0x3e2fc040	0.17163181
22	0x3dc58190	0.09643853
23	0x3d7a49d1	0.061105553
24	0xbdd7fbbc	-0.105460614
25	0x3d9cf25b	0.07663413
26	0xbddbb6d2	-0.107282296
27	0x3e091ea8	0.133906
28	0x3dd6c456	0.10486667
29	0xb81a63d3	-3.680943e-05
30	0x3e071072	0.13189867
31	0x3cdff6a9	0.027339296
32	0x3c622f01	0.013805152
33	0x3de5ecdc	0.11226818
34	0x3e1991a0	0.14996958
35	0x3e2a21d6	0.1661447
36	0xbc8ab5cc	-0.01693239
37	0x3df73a12	0.12071623
38	0x3dc589ae	0.09645401
39	0x3c84f387	0.016229404
40	0x3d49f5f9	0.049306843
41	0xbc3fc43e	-0.011704503
42	0x3e4e19ed	0.20127077
43	0x3d0ea166	0.03482189
44	0x3d1229a3	0.03568424
45	0x3d7b1c4c	0.061306283
46	0x3da2de6a	0.07952578
47	0xbd890124	-0.06689671
48	0x3d993347	0.074804835
49	0x3e0d38c5	0.13791187
50	0xbd5efbe6	-0.054439448
51	0x3d5eb1e4	0.05436887
52	0x3d94308b	0.07235821
53	0xbdc48eae	-0.095975265
54	0xbde7697a	-0.11299415
55	0xbc5d1629	-0.013494053
56	0xbd8146c1	-0.06312323
57	0x3e25820b	0.16162889
58	0x3da2b7d0	0.07945216
59	0x3e1e4b47	0.15458404
60	0x3dd1cb78	0.10243887
61	0x3e02c3d1	0.1277001
62	0x3e4bf512	0.19917706
63	0xbc0f6f48	-0.008754559
64	0xbe154441	-0.14576818
65	0xbd20a1ad	-0.039216686
66	0x3e1052c7	0.14094077
67	0x3d0bfebc	0.03417848
68	0xbd81f5a1	-0.06345678
69	0x3a9d41e6	0.0011997789
70	0x3a915e21	0.0011090675
71	0x3da56bdd	0.08077214
72	0x3d1a87c3	0.03772713
73	0xbe04b0b2	-0.12958029
74	0xbce45066	-0.027870368
75	0x3ca3b1a1	0.019982161
76	0xbca4bd6e	-0.020109858
77	0xbde375e6	-0.11106472
78	0x3d8e6c33	0.06954231
79	0x3b706d6a	0.003668631
80	0xbdff2940	-0.1245904
81	0x3cefbc98	0.029264733
82	0xbdc6966e	-0.09696661
83	0xbd7d68a2	-0.061867364
84	0xbd768a9b	-0.06019078
85	0xbd09011e	-0.03344833
86	0x3da1f078	0.07907194
87	0x3d862602	0.06550218
88	0xbdbf4f84	-0.09341338
89	0xbc2efabd	-0.010679898
90	0x3b96fe07	0.004607919
91	0x3b8504b9	0.004059401
92	0xbe1824ff	-0.14857863
93	0xbd9fc5c4	-0.07801393
94	0x3d893378	0.0669927
95	0x3dc42809	0.095779486
96	0xbd96e82d	-0.07368503
97	0xbdeb6eb9	-0.11495728
98	0xbdb108ee	-0.08644281
99	0x3e01de0e	0.12682363
100	0x3c80ec34	0.01573763
101	0xbe064f30	-0.13116145
102	0xbd975962	-0.07390095
103	0x3d851591	0.06498254
104	0xbe13119d	-0.14362188
105	0xbd167f49	-0.036742482
106	0xbdc947d7	-0.098281555
107	0x3ce64318	0.028108165
108	0xbd83ba0c	-0.0643197
109	0x3e4dbae2	0.20090821
110	0x3d49dc34	0.049282268
111	0xbadc6160	-0.0016813688
112	0x3cd2c6b3	0.025729513
113	0x3da2532f	0.07926022
114	0xbcc3d9af	-0.02390751
115	0x3d6f1149	0.058366094
116	0xbda5f2a4	-0.08102921
117	0x3d913db8	0.0709185
118	0x3d66173c	0.0561745
119	0x3ce20042	0.027588014
120	0x3df7bc46	0.12096457
121	0xbdec860d	-0.11549006
122	0xbd442933	-0.047890853
123	0xbda0bb6d	-0.07848249
124	0x3d1561b5	0.036470134
125	0x3d90415b	0.070437156
126	0x3d62c4ef	0.05536359
127	0xbd820754	-0.06349054
128	0xbbf751a8	-0.007547576
129	0x3cc0a27e	0.023514982
130	0x3d679e29	0.056547318
131	0x3ddb6554	0.10712686
132	0xbd462d4f	-0.048383053
133	0xbdb842ff	-0.089971535
134	0xbe192105	-0.14954002
135	0xbce77287	-0.028252853
136	0x3d337f17	0.043822374
137	0xbd613f50	-0.05499202
138	0x3daf79ec	0.085681766
139	0x3e18b287	0.14911853
140	0xbcb84620	-0.022494376
141	0xbd61063b	-0.054937582
142	0xbb235876	-0.0024924553
143	0xbd3099a4	-0.043115273
144	0x3af10557	0.0018388432
145	0x3d1db77b	0.03850506
146	0xbd467ec7	-0.048460748
147	0xbdb5fd21	-0.08886171
148	0xbd873471	-0.06601799
149	0xbd18cbe9	-0.03730384
150	0xbddf8067	-0.10913163
151	0xbdda8fee	-0.10671984
152	0xbd72f847	-0.059318807
153	0x3df62d60	0.12020373
154	0x3d2f3fd6	0.042785488
155	0x3d2ea8fe	0.042641632
156	0x3d8dbf22	0.06921221
157	0xbc72d708	-0.014821775
158	0xbdcfd431	-0.10147894
159	0xbd8116a9	-0.0630315
160	0x3d892122	0.06695773
161	0xbddfd940	-0.10930109
162	0x3df9663b	0.12177702
163	0x3dbcf00d	0.092254736
164	0x3df43d0b	0.119257055
165	0x3b90c471	0.004417949
166	0x3da7ea4a	0.08198984
167	0xbccbc3be	-0.02487361
168	0xba126df0	-0.000558584
169	0xbdd96d86	-0.10616593
170	0x3d6c0d29	0.057629738
171	0x3cd58140	0.026062608
172	0x3d06b559	0.03288779
173	0x3d9f8186	0.077883765
174	0x3daa3b8a	0.083121374
175	0x3dda8df1	0.106716044
176	0x3ca54e6d	0.020178998
177	0x3e0a3867	0.13498078
178	0x3d81ab58	0.06331509
179	0xbcfecaa2	-0.031102482
180	0x3def0caf	0.11672341
181	0xbc197930	-0.009367272
182	0xbde18d33	-0.1101326
183	0xbd181373	-0.037127923
184	0x3dea6827	0.11445647
185	0x3d848401	0.0647049
186	0x3d5d59f0	0.05404085
187	0xbd178a28	-0.03699699
188	0xbd0cf8f0	-0.034417093
189	0x3d3bffb0	0.04589814
190	0xbda5be3d	-0.08092926
191	0xbda72ec7	-0.08163219
192	0x3e13385e	0.14376971
193	0x3e3e03e6	0.18556175
194	0x3c302949	0.010752031
195	0xbda2d597	-0.07950895
196	0x3d9e2459	0.077217765
197	0x3d2c4340	0.042056322
198	0x3db55cd0	0.08855593
199	0x3e065425	0.13118036
200	0xbd01360d	-0.031545687
201	0x3d3ebb7a	0.04656551
202	0x3d8a1717	0.06742685
203	0xbd9afc17	-0.075676136
204	0x3de33747	0.11094528
205	0x3da8994f	0.08232366
206	0x3de6359d	0.11240695
207	0x3cf5d328	0.030007914
208	0x3dae96f3	0.08524885
209	0xbde5db47	-0.112234645
210	0x3dfa766a	0.12229617
211	0x3e30617c	0.17224687
212	0x3c231938	0.009954743
213	0x3e84861e	0.25883573
214	0x3cd4d947	0.025982512
215	0x3ca8cb24	0.020604677
216	0xbd9f9297	-0.07791632
217	0x3b180f67	0.002320254
218	0x3e0847e2	0.13308671
219	0x3dca7d48	0.09887177
220	0x3d2e3a8d	0.042536307
221	0x3d08098f	0.03321224
222	0x3e2235f8	0.158409
223	0x3df85960	0.12126422
224	0xbc36c44c	-0.011155199
225	0x3d8780c5	0.06616358
226	0x3e0b33c6	0.13593969
227	0x3d9e2a7b	0.07722946
228	0x3d0319c2	0.032006986
229	0x3e27af54	0.16375476
230	0xbbbcad7e	-0.0057579866
231	0x3d5d7ec3	0.054075968
232	0x3e025f90	0.12731767
233	0x3e201f47	0.15636931
234	0x3dbf0ad6	0.09328239
235	0xbd350114	-0.04419048
236	0xbde8d13f	-0.113680355
237	0x3e07e2d0	0.13270116
238	0x3ce9d8bd	0.028545732
239	0x3d23238b	0.03982882
240	0xbd67aee0	-0.05656326
241	0xbde22560	-0.11042285
242	0x3ca1efc1	0.019767644
243	0x3d5bf0b2	0.05369634
244	0x3e9360a3	0.28784665
245	0xbddd5600	-0.10807419
246	0x3d714fa5	0.058913846
247	0x3dd5a3d0	0.104316354
248	0x3dc1e10a	0.09466751
249	0xbba0b27b	-0.004904089
250	0xbd027ba9	-0.031856213
251	0x3e14d334	0.14533693
252	0x3d1b412b	0.037903946
253	0x3d32fa1c	0.043695554
254	0xbb59f912	-0.003326003
255	0xbaa95e96	-0.0012921866
