STD/checkpoints/Res/VA_METRIC_state_epoch100.pth (torch, 719026 bytes, 28 tensors)

AFeatRNN.weight_ih_l0 f4 [256, 128]
0	0x3be5d91c	0.007014407
1	0x3c3e5afb	0.011618371
2	0x3e51c001	0.204834
3	0x3db4aa83	0.08821585
4	0xbd940d64	-0.072291166
5	0xbdf4c8b6	-0.11952345
6	0xbd6d5bf3	-0.057949018
7	0x3e041ac2	0.12900832
8	0x3dcd1bb2	0.10015048
9	0xbd6d7367	-0.057971384
10	0xbe1e4a1f	-0.15457962
11	0xbe0d6a1f	-0.13810013
12	0x3e477479	0.19478025
13	0xbdfbf8a9	-0.123032875
14	0xbdcd0b22	-0.10011889
15	0xbe2e5648	-0.17025101
16	0x3d99c9bf	0.07509183
17	0xbdbc99bf	-0.09209012
18	0xbc938845	-0.018009314
19	0xbe10b7dd	-0.14132638
20	0xbcbb3cb7	-0.0228561
21	0x3dbdfc9c	0.09276697
22	0x3c2affa7	0.010436929
23	0xbabb1333	-0.001427269
24	0x3de96f50	0.11398184
25	0x3d0892b8	0.033343047
26	0xbc8a29b2	-0.016865585
27	0xbdacd5fa	-0.0843925
28	0x3e1135a9	0.14180626
29	0xbd834368	-0.06409341
30	0x3cc68430	0.024232954
31	0xbd5076f1	-0.05089468
32	0xbd8a13d9	-0.06742067
33	0xbdd9276a	-0.10603221
34	0x3b9a75ad	0.004713735
35	0x3c6359b3	0.013876366
36	0x3d82cb21	0.063864
37	0xbcceeb6b	-0.02525874
38	0x3e00f572	0.1259363
39	0x3d401a9d	0.04690038
40	0xbdccea14	-0.10005584
41	0x3de523c1	0.1118846
42	0x3c118e36	0.008884003
43	0xbda9d3fd	-0.08292387
44	0xbd760d24	-0.060071126
45	0xbd03ecd6	-0.032208286
46	0x3c405f91	0.011741535
47	0x3d8da0d2	0.0691544
48	0xbde7c838	-0.113174856
49	0x3d759632	0.05995769
50	0x3d468624	0.04846777
51	0xbdfc8285	-0.12329582
52	0xbdbfccda	-0.09365244
53	0xbd53c377	-0.05170008
54	0xbd49926e	-0.04921191
55	0x3e0f0d50	0.13969922
56	0xbd0683c8	-0.03284052
57	0x3dec4f94	0.11538616
58	0xbd421329	-0.047381554
59	0x3d85d8ef	0.065355174
60	0xbd3bdb8a	-0.045863666
61	0xbcb1a6cb	-0.021685978
62	0xbe77f683	-0.2421513
63	0xbd563694	-0.052298144
64	0x3dcb2594	0.09919277
65	0x3e22d133	0.15900116
66	0x3b98d2f2	0.0046638185
67	0xbd4194fb	-0.04726122
68	0xbc91d699	-0.017802523
69	0x3e09ea98	0.13468397
70	0xbe103d09	-0.14085783
71	0xbdd82a4f	-0.10554945
72	0x3d9d85a4	0.076915056
73	0xbc6ceff0	-0.014461502
74	0xbcf81f87	-0.03028847
75	0xbc0ef000	-0.008724213
76	0xbca156bd	-0.01969468
77	0xbdc92eae	-0.098233566
78	0x3dbfa847	0.09358268
79	0x3d412a44	0.04715945
80	0xbd172adf	-0.03690612
81	0x3d07c01e	0.0331422
82	0x3d0b89e9	0.03406707
83	0x3ce53c1a	0.02798276
84	0x3e376a7a	0.17911711
85	0x3e89d7af	0.26922366
86	0xbd134402	-0.03595353
87	0xbd897661	-0.06712032
88	0xbd38b4d9	-0.045094345
89	0xbdcfc3d9	-0.10144777
90	0xbd348e6c	-0.044081137
91	0xbd67a012	-0.05654914
92	0x3d1c6ac9	0.038187776
93	0x3d7843cb	0.060611527
94	0x3d254f6e	0.040358953
95	0x3d8a6baf	0.0675882
96	0x3db583d3	0.08863034
97	0x3ddeaa7c	0.10872361
98	0x3db3ef3c	0.08785865
99	0xbcd3ab80	-0.025838614
100	0x3d66d245	0.056352872
101	0x3d674198	0.05645904
102	0x3e2cdff2	0.16882303
103	0x3e1c0bfb	0.15238945
104	0x3e00b8c1	0.12570478
105	0xbdc8d3a9	-0.09805996
106	0x3c1840c6	0.009292787
107	0xbca3e055	-0.02000443
108	0x3da87039	0.0822453
109	0x3d0d0afa	0.034434296
110	0xbca6a7c0	-0.020343661
111	0x3dbd3a83	0.09239676
112	0xbdf55a86	-0.119801566
113	0xbd86d296	-0.06583135
114	0x3d0e9140	0.03480649
115	0x3e1e9b0b	0.15488832
116	0xbe055dcf	-0.13024066
117	0xbdce5426	-0.10074644
118	0xbdcdb54d	-0.10044346
119	0x3de77a7a	0.113026574
120	0xbe2bc12a	-0.16772905
121	0xbbec6a09	-0.007214789
122	0x3cb26afb	0.021779528
123	0x3dcc72a2	0.09982802
124	0x3e0c3199	0.13690795
125	0x3e031fe4	0.12805134
126	0x3d351489	0.044209037
127	0x3ddeb7bc	0.10874888
128	0x3d3a463b	0.045477133
129	0x3d90e27e	0.0707445
130	0xbdabef94	-0.08395305
131	0xbdf081b1	-0.11743487
132	0xbde911fb	-0.113803826
133	0xbd8beecc	-0.06832656
134	0x3dbf1cf7	0.093316965
135	0xbd71740e	-0.05894857
136	0xbcc3e4e1	-0.023912849
137	0x3d85fd34	0.06542435
138	0x3cfd4a10	0.030919105
139	0xbd12744d	-0.035755444
140	0x3d805d87	0.06267839
141	0x3a8b4371	0.0010624958
142	0x3d1cde5e	0.038298003
143	0x3ce36f00	0.02776289
144	0xbde5229a	-0.1118824
145	0x3c8e6841	0.017383697
146	0xbd2b42d8	-0.041811794
147	0xbd9f2e4d	-0.07772503
148	0x3d27a16c	0.04092543
149	0xbd20e87e	-0.03928422
150	0x3ddc7187	0.10763841
151	0xbd3a70fd	-0.04551791
152	0x3cef8ebd	0.029242868
153	0x3d9377d1	0.072005875
154	0x3c4280eb	0.011871557
155	0x3e09512c	0.13409871
156	0x3e13858d	0.14406414
157	0x3e20ec14	0.15715057
158	0x3e00326e	0.12519237
159	0x3d24caaf	0.040232357
160	0xbdcba149	-0.09942872
161	0xbe20855f	-0.15675877
162	0x3d29ef40	0.041487932
163	0xbdda71b9	-0.10666222
164	0xbd9610b1	-0.073274024
165	0xbd709436	-0.058735095
166	0xbcf667ab	-0.03007873
167	0x3e425b4a	0.18980137
168	0x3e0abe3c	0.13549131
169	0xbcdc90f4	-0.026924588
170	0xbd072152	-0.03299076
171	0x3bb6397e	0.005561053
172	0xbc42eba8	-0.011897005
173	0xbd0773e1	-0.033069495
174	0xbcb1057a	-0.021609057
175	0x3da2d398	0.079505146
176	0xbe692fca	-0.22772136
177	0x3c89dd0f	0.016829042
178	0x3dcd2174	0.10016146
179	0x3ccc684c	0.024952076
180	0x3e69aa31	0.22818829
181	0xbba88225	-0.0051424676
182	0x3e0233e8	0.12715113
183	0xbbe7d407	-0.007074836
184	0xbe5ee9a3	-0.21768813
185	0xbd1b2f34	-0.037886813
186	0x3d531944	0.051537767
187	0xbdaacdae	-0.083400115
188	0xbda6a866	-0.08137588
189	0x3d2833b2	0.041064925
190	0x3d9f4b30	0.07778013
191	0xbd143e3b	-0.03619216
192	0x3d68da15	0.056848604
193	0x3da2b140	0.07943964
194	0xbd0bb0f3	-0.0341043
195	0xbd78b721	-0.06072152
196	0xbd73c71b	-0.059516054
197	0x3e0ff87f	0.14059637
198	0xbe30fcc6	-0.17283925
199	0xbd2ac778	-0.041694134
200	0xbdf31909	-0.118700095
201	0x3df91820	0.121628046
202	0x3dc07367	0.09397011
203	0x3e13b178	0.14423168
204	0xbe664dfa	-0.22490683
205	0xbd14d733	-0.036338042
206	0xbe0b3fe9	-0.13598599
207	0xbdb5f99b	-0.08885499
208	0xbd2fee33	-0.042951774
209	0x3df0df0d	0.117612936
210	0xbd15e20d	-0.036592532
211	0x3d5e5d42	0.054288156
212	0x3d09680f	0.033546504
213	0x3d78be18	0.060728163
214	0x3cc15ba0	0.02360326
215	0xbd0eadb6	-0.034833632
216	0xbe37675b	-0.1791052
217	0xbd11360d	-0.035451937
218	0x3e38d65e	0.18050525
219	0x3e2cd4dd	0.16878076
220	0x3db925dc	0.09040424
221	0x3db4d428	0.08829528
222	0x3e886a63	0.26643667
223	0xbdd09625	-0.10184888
224	0xbdbac49e	-0.09119533
225	0x3e570bf9	0.21000661
226	0xbd939fe3	-0.0720823
227	0xbcc19797	-0.023631854
228	0xbcf16e59	-0.029471563
229	0x3bb16f1f	0.005414858
230	0xbe316531	-0.17323758
231	0x3dc3db37	0.09563296
232	0xbd2e58fe	-0.04256534
233	0xbd71b73e	-0.059012644
234	0x3da5fdae	0.08105026
235	0xbe050778	-0.1299113
236	0x3d408fda	0.047012188
237	0x3deaf46e	0.114724025
238	0x3d794243	0.060854208
239	0x3cc1805f	0.023620782
240	0xbe292827	-0.16519223
241	0xbe2972c3	-0.16547684
242	0xbe18e7bf	-0.14932154
243	0x3d9632f4	0.07333937
244	0xbdd8e9a6	-0.1059144
245	0x3d75c7cc	0.060004994
246	0x3dd3150e	0.1030675
247	0xbd095175	-0.03352495
248	0x3d0f959b	0.035054784
249	0x3be69de3	0.0070378645
250	0x3d6e6e8a	0.058210887
251	0xbe222383	-0.15833859
252	0xbba6c89b	-0.005089832
253	0x3e4e1ca5	0.20128115
254	0x3dc9f0ec	0.09860405
255	0xbda1551f	-0.07877564

AFeatRNN.weight_hh_l0 f4 [256, 64]
0	0xbe2056e2	-0.15658143
1	0x3d90f947	0.07078796
2	0x3d9c1f26	0.076231286
3	0xbdb96cc2	-0.09053947
4	0x3c11c639	0.008897358
5	0x3d3d0e2e	0.0461561
6	0x3dbbf19a	0.09176941
7	0x3cc1f407	0.023675932
8	0xbdbef089	-0.09323222
9	0x3d184bd1	0.03718168
10	0x3d36703f	0.04454064
11	0x3db3d091	0.08780015
12	0x3dcb42ef	0.09924876
13	0x3d55fae5	0.052241225
14	0xbb426e81	-0.0029667916
15	0xbe2c5d2b	-0.16832416
16	0xbdb1b98c	-0.086779684
17	0xbd49f598	-0.049306482
18	0x3d094180	0.03350973
19	0x3d33ccad	0.043896366
20	0xbd2399b4	-0.039941505
21	0x3db17af0	0.086660266
22	0x3cb2081d	0.021732384
23	0x3d4e6dab	0.050397556
24	0xbd746379	-0.059665177
25	0xbca0948a	-0.019602079
26	0x3e09c7d5	0.13455136
27	0x3e0f787c	0.14010805
28	0x3d84107a	0.06448455
29	0xbc9addca	-0.018904585
30	0xbbf65735	-0.00751772
31	0xbe2b9a02	-0.16757968
32	0xbda7d52b	-0.081949554
33	0x3cac4cf2	0.021032784
34	0xbdd75065	-0.10513381
35	0x3db6dba4	0.08928612
36	0xbdc30840	-0.09523058
37	0xbd68f2b6	-0.056872092
38	0x3db044c0	0.08606863
39	0x3d5e316b	0.054246347
40	0x3d17a94e	0.037026696
41	0x3da79a0c	0.08183679
42	0xbdbdb796	-0.09263532
43	0xbd2a5411	-0.04158408
44	0xbd82671c	-0.06367323
45	0x3c6cdc1d	0.014456776
46	0x3d86b9d2	0.06578411
47	0x3c8db024	0.017295904
48	0x3daeedba	0.085414365
49	0xbccacddf	-0.02475637
50	0xbd7bfd10	-0.061520636
51	0xbdefd4ce	-0.11710511
52	0xbd61d93e	-0.05513882
53	0xbd125922	-0.035729535
54	0x3d5ce80e	0.053932242
55	0xbe28b9e3	-0.1647716
56	0x3d660d51	0.056165043
57	0xbde847f7	-0.11341851
58	0xbd586af7	-0.052836385
59	0xbe04d503	-0.12971883
60	0xbda062f6	-0.07831375
61	0x3afc5f0d	0.0019254402
62	0x3d28145b	0.041035037
63	0xbc80d2f2	-0.015725587
64	0xbe1ec0bd	-0.15503211
65	0xbdf42cb5	-0.1192259
66	0xbd5ecf3f	-0.054396864
67	0xbe0b4c10	-0.13603234
68	0xbb108f0d	-0.002205792
69	0x3c30aa63	0.010782811
70	0x3b017bc9	0.001975762
71	0xbdddb3f4	-0.10825339
72	0xbdba2cfe	-0.09090613
73	0x3ae5de77	0.0017537613
74	0xbd1852f7	-0.037188496
75	0x3d4a211e	0.04934799
76	0x3e0c6d89	0.1371366
77	0xbd581e6e	-0.052763395
78	0x3dfa7018	0.122284114
79	0xbe8061cc	-0.25074613
80	0x3dcc2197	0.09967344
81	0x3dfff225	0.12497357
82	0xbe93aca0	-0.2884264
83	0xbe67f2a1	-0.2265115
84	0x3de340c1	0.11096335
85	0xbe172e5d	-0.1476378
86	0xbe71336e	-0.23554775
87	0xbc43639e	-0.011925606
88	0xbd80d731	-0.062910445
89	0xbd3ea5d4	-0.046544865
90	0xbd6596f4	-0.056052163
91	0x3d131acc	0.035914227
92	0xbe2228f3	-0.15835933
93	0xbdc5dd4b	-0.09661349
94	0xbb6a7230	-0.0035773627
95	0xbd7869ec	-0.06064789
96	0x3d8654af	0.06559121
97	0xbce39da2	-0.027785126
98	0x3db788cb	0.08961638
99	0xbd815705	-0.06315426
100	0xbc87d03d	-0.016578788
101	0xbe057aa3	-0.13035063
102	0xbe34d39e	-0.1765885
103	0x3e81ab71	0.25326112
104	0x3d717148	0.058945924
105	0xbdce270a	-0.1006604
106	0x3d34e7ab	0.04416625
107	0xbe041e10	-0.12902093
108	0xbe2f5841	-0.1712351
109	0x3cf04c7d	0.029333347
110	0x3df51743	0.119673274
111	0xbdc156a4	-0.094403535
112	0xbb550250	-0.00325026
113	0xbcaf3455	-0.021387259
114	0xbd6682e8	-0.056277186
115	0xbe0e1b77	-0.13877665
116	0xbd000a50	-0.031259835
117	0xbe7af97e	-0.24509236
118	0xbc0b25db	-0.008492912
119	0x3c995e6b	0.01872178
120	0xbd9e44c6	-0.07727961
121	0xbd5e16c8	-0.054220945
122	0xbce0c7bc	-0.02743899
123	0xbe204ed2	-0.15655068
124	0xbd4a85dc	-0.049444064
125	0x3e04be22	0.12963155
126	0x3dfae89d	0.12251399
127	0xbd036e79	-0.032087777
128	0x3c3eb621	0.011640103
129	0x3d836a32	0.064167395
130	0xbd8abdb8	-0.06774467
131	0x3ba4f87f	0.005034506
132	0xbd12d3d5	-0.03584655
133	0xbb5eca84	-0.003399522
134	0x3e596941	0.21231557
135	0x3db4ff8a	0.08837803
136	0xbd9dcdb6	-0.07705252
137	0x3df0bf8e	0.11755286
138	0xbd3e4e15	-0.046461184
139	0xbd882d44	-0.06649259
140	0xbe120f61	-0.14263679
141	0xbd6b5376	-0.05745264
142	0x3e062594	0.13100272
143	0x3e7a7d7d	0.24461932
144	0xbba0dc06	-0.0049090413
145	0x3d297ee6	0.041380785
146	0xbddaf093	-0.10690417
147	0xbdf8762e	-0.12131916
148	0x3ddefbd8	0.10887879
149	0x3ce6bb50	0.02816549
150	0x3d81df84	0.0634146
151	0xbd4514bc	-0.048115477
152	0xbcc0b102	-0.023521904
153	0xbe1952be	-0.1497297
154	0xbe18039f	-0.14845131
155	0xbd2abaeb	-0.041682165
156	0xbd2a53fa	-0.041583993
157	0x3d30afc3	0.04313637
158	0x3e17bd6b	0.14818351
159	0x3e6ace46	0.2293025
160	0x3e40e1bb	0.1883611
161	0x3e0ef305	0.13959892
162	0x3ea01568	0.31266332
163	0xbda47ec5	-0.08031992
164	0xbe106447	-0.14100753
165	0xbeb13d3b	-0.34617028
166	0x3e03facb	0.12888639
167	0x3c1f578b	0.009725462
168	0x3c6a05d1	0.014283613
169	0x3e05e4a1	0.13075496
170	0xbd203d14	-0.03912075
171	0x3e26a125	0.1627241
172	0x3e0fc6c5	0.14040668
173	0x3d7a73b4	0.0611455
174	0x3e60257c	0.21889299
175	0xbdc76c56	-0.0973746
176	0x3e272ba6	0.16325244
177	0x3e080fb2	0.13287237
178	0x3e3b5f2c	0.18298024
179	0x3bea0c0d	0.00714255
180	0x3dc18265	0.09448699
181	0x3e48fbf9	0.1962737
182	0xbaa88c64	-0.0012859222
183	0xbd81d1fb	-0.06338879
184	0x3e20d826	0.15707454
185	0x3ea68ce2	0.3252936
186	0xbb6dba80	-0.0036274493
187	0x3ddb2adb	0.107015334
188	0x3da8195c	0.08207962
189	0xbca60903	-0.020267969
190	0xbe7d38de	-0.24728724
191	0xbdfb524e	-0.12271558
192	0xbe5e9dd1	-0.2173989
193	0xbcc459fa	-0.023968685
194	0xbe70f29b	-0.23530047
195	0x3d509759	0.050925586
196	0xbdfa630f	-0.12225925
197	0x3dc0047d	0.09375856
198	0xbd3d6174	-0.046235517
199	0xbdf9914b	-0.121859156
200	0xbd3f0ed3	-0.046644997
201	0x3c0e6307	0.008690602
202	0x3d28d39f	0.041217443
203	0xbd7cef40	-0.061751604
204	0x3c19bfc2	0.0093840975
205	0x3d903775	0.070418276
206	0x3e08d985	0.13364227
207	0x3d98701e	0.0744326
208	0x3e0dd336	0.13850102
209	0x3ddba39c	0.107245654
210	0xbe4ba735	-0.19888003
211	0x3dcb01d7	0.0991246
212	0xbd011657	-0.031515446
213	0xbde77f3d	-0.11303566
214	0xbd2026a1	-0.03909934
215	0xbdaf15b4	-0.085490614
216	0xbd2d9c3a	-0.042385317
217	0x3d1e181b	0.038597208
218	0x3c50a72a	0.0127351675
219	0xbd1d9e3e	-0.03848099
220	0xbc0229c7	-0.007944531
221	0xbe24867a	-0.16066924
222	0x3dcfaf69	0.10140879
223	0xbbb55853	-0.0055342107
224	0x3e1a60e9	0.15076031
225	0x3bc2c43c	0.005943803
226	0x3d9bc6ee	0.07606302
227	0xbd8cb67d	-0.068707444
228	0xbdf0fe89	-0.11767299
229	0xbe1bbb4c	-0.15208167
230	0xbca27248	-0.019829884
231	0x3da15971	0.07878388
232	0xbc2c2cc0	-0.010508716
233	0xbd65b29b	-0.056078535
234	0xbd8290fb	-0.06375309
235	0xbe330429	-0.17482056
236	0xbd773b10	-0.06035906
237	0xbe2754d0	-0.16340947
238	0x3cf650fc	0.030067913
239	0xbdbe31c9	-0.092868395
240	0x3e743f55	0.23852284
241	0xbda45938	-0.080248296
242	0x3e1846f6	0.1487082
243	0x3d601e18	0.0547162
244	0x3e1d19b6	0.15341839
245	0xbcb15db7	-0.021651132
246	0x3c3cb45a	0.011517609
247	0x3df29a5b	0.11845847
248	0x3df03b86	0.11730103
249	0x3e46b790	0.19405961
250	0xbdce2c7d	-0.10067079
251	0x3dbcd216	0.09219758
252	0xbc440982	-0.011965157
253	0x3dfc9e9d	0.123349406
254	0xbc5f11e8	-0.013615109
255	0x3cb7a8e4	0.0224194

AFeatRNN.bias_ih_l0 f4 [256]
0	0x3db62515	0.088937916
1	0x3cb0f75b	0.021602323
2	0xbdb6dca8	-0.089288056
3	0x3da3cb48	0.07997757
4	0x3cd1141d	0.025522286
5	0x3dbaff69	0.09130747
6	0x3d1efe34	0.038816646
7	0x3b0d0918	0.0021520313
8	0x3dcd6615	0.10029236
9	0x3d0402ee	0.032229356
10	0x3d879171	0.066195376
11	0xbe014006	-0.12622079
12	0xbde50020	-0.111816645
13	0x3d8dc79e	0.069228396
14	0x3db831d4	0.08993879
15	0x3d1f5688	0.038900882
16	0xbdb446b5	-0.08802549
17	0xbd547f68	-0.051879317
18	0xbb8064ef	-0.003918282
19	0x3db73b3f	0.08946847
20	0xbd6e44ca	-0.05817107
21	0xbd96bbd8	-0.07360047
22	0x3db2bb97	0.08727186
23	0x3c6aaa1b	0.014322783
24	0xbbf39862	-0.007433937
25	0x3de4f2a0	0.111790895
26	0x3e143aa6	0.14475498
27	0xbe047182	-0.12933925
28	0x3dbab700	0.09116936
29	0xba8fab75	-0.0010961132
30	0x3bb5e43d	0.0055508898
31	0x3de48e3f	0.11159944
32	0x3d1c941e	0.038227193
33	0x3ca59d3f	0.020216582
34	0xbc811c92	-0.015760694
35	0x3c9b2264	0.018937297
36	0x3ce459ae	0.027874794
37	0x3c565062	0.013080688
38	0x3d94819c	0.072512835
39	0xbd89c0da	-0.06726237
40	0x3cfe5bc3	0.031049615
41	0xbcc3344a	-0.023828644
42	0x3d317d69	0.04333249
43	0x3d6c7369	0.05772725
44	0x3d15b488	0.03654912
45	0x3c130251	0.00897272
46	0x3dd7938f	0.105261914
47	0x3da53c08	0.08068091
48	0xbd4dd99a	-0.05025635
49	0x3dab435e	0.08362459
50	0x3b751689	0.0037397465
51	0xbd5bedd6	-0.053693615
52	0x3dce45ec	0.1007193
53	0xbd5ee309	-0.054415736
54	0x3df0c69c	0.11756632
55	0x3a7ff40e	0.0009763845
56	0xbc602b15	-0.013682147
57	0x3dd9e9f1	0.10640324
58	0x3db57d03	0.08861735
59	0xbdbab9bd	-0.09117458
60	0x3db81a93	0.08989444
61	0xbc9b8d29	-0.018988209
62	0x3e08e06f	0.13366865
63	0x3db17687	0.086651854
64	0x3d8303fd	0.06397245
65	0x3c2d0c78	0.010562055
66	0x3d6ce264	0.05783309
67	0xbdc54200	-0.09631729
68	0x3a880f68	0.0010380568
69	0xbd0f98bd	-0.035057772
70	0x3db0973d	0.086225964
71	0xbc5b09a7	-0.0133690005
72	0x3be8b4d8	0.0071016364
73	0xbe0f54bd	-0.13997169
74	0xbd504dd1	-0.05085546
75	0x3dac06b1	0.08399714
76	0xbd3d5305	-0.04622175
77	0x3d95387e	0.07286166
78	0xbde48fd4	-0.111602455
79	0xbd989e8f	-0.07452118
80	0x3d805c74	0.06267634
81	0xbbb1516b	-0.005411317
82	0xbba10751	-0.0049142023
83	0xbd1e6db5	-0.038678844
84	0x3cd2b7a3	0.02572233
85	0x3dcca0af	0.099915855
86	0x3c4c01a4	0.012451563
87	0x3c70ea88	0.014704354
88	0x3b9e3304	0.004827859
89	0xbc459f17	-0.012061856
90	0x3bbe6d7a	0.0058113905
91	0xbd8e7ade	-0.06957029
92	0x3da64c5d	0.08120034
93	0xbd4a38ad	-0.049370456
94	0xbdd4d46c	-0.10392079
95	0x3de645cb	0.11243781
96	0xbd03c3e8	-0.032169253
97	0x3d29d455	0.04146226
98	0x3d9620c3	0.073304676
99	0x3ca8d51f	0.020609437
100	0xbe08df4d	-0.13366432
101	0xbcefad57	-0.02925746
102	0x3d609f78	0.05483958
103	0xbdf31981	-0.11870099
104	0xbdaa1b82	-0.08306028
105	0xbd31217f	-0.043244835
106	0x3d31198d	0.043237258
107	0xbd50d537	-0.050984588
108	0x3d795902	0.0608759
109	0x3d3d35a6	0.04619374
110	0x3de1eb70	0.11031234
111	0x3dc1f2ce	0.094701394
112	0x3dd7cdc1	0.10537291
113	0x3d8fcf46	0.07021956
114	0x3d8205eb	0.06348785
115	0x3cc90034	0.02453623
116	0xbcd74201	-0.02627659
117	0xbdbe0409	-0.092781134
118	0xbda0d0a1	-0.07852293
119	0x3d680921	0.05664933
120	0xbd729d70	-0.059232175
121	0xbde5742f	-0.11203801
122	0x3bc432c1	0.0059874956
123	0x3db08fc7	0.08621173
124	0x3d127d12	0.035763808
125	0xbe0a7e80	-0.13524818
126	0xbd8b33a1	-0.06796957
127	0xbbf0a28d	-0.0073435963
128	0xbdc08c8c	-0.09401807
129	0xbda6fde2	-0.08153893
130	0xbdb046d6	-0.08607261
131	0x3ccd1d7d	0.025038475
132	0xbcea454a	-0.028597493
133	0x3d9565e1	0.072948225
134	0xbcfb69ec	-0.030690156
135	0xbdc51f08	-0.09625059
136	0x3ae63a0c	0.0017564907
137	0xbdab3154	-0.08359018
138	0x3d75d4b7	0.060017314
139	0x3dbc5929	0.091966935
140	0xbddfecdd	-0.1093385
141	0x3d430652	0.04761345
142	0x3d252a81	0.040323738
143	0x3d977a5a	0.073963836
144	0xbba6644d	-0.0050778748
145	0x3cafbad5	0.021451393
146	0xbd009e94	-0.031401232
147	0x3c47858e	0.012177838
148	0x3d224e5f	0.03962552
149	0xbd8d737b	-0.06906792
150	0xbd9435d1	-0.07236827
151	0x3d7e0749	0.062018666
152	0x3e16c318	0.1472286
153	0x3db0574b	0.086104
154	0xbe016fce	-0.12640306
155	0x3dc22c20	0.094810724
156	0x3dc16059	0.09442205
157	0xbe03a2f7	-0.12855135
158	0x3bd18021	0.006393448
159	0x3d99b94b	0.07506045
160	0x3d5a70ec	0.053330347
161	0xbda06633	-0.07831993
162	0xbdcad276	-0.099034235
163	0x3dbf8991	0.093524106
164	0xbb988d62	-0.004655526
165	0x3d089271	0.033342782
166	0x3dade8fd	0.084917046
167	0xbdc34b45	-0.09535841
168	0x3cc74489	0.024324672
169	0x3d511e6b	0.0510544
170	0xbdb3fdb5	-0.08788625
171	0xbd9dbb05	-0.07701687
172	0x3c3c8dac	0.011508387
173	0x3ba45523	0.005015032
174	0x3db30eda	0.08743067
175	0x3ad353a2	0.0016122947
176	0xbc1d3abf	-0.009596526
177	0xbbd56b5c	-0.0065130424
178	0x3d8eba21	0.06969095
179	0x3dfb69b8	0.122760236
180	0x3db5d02b	0.088775955
181	0xbd4a2cfc	-0.049359307
182	0xbdb9941b	-0.09061452
183	0x3defc650	0.11707747
184	0x3da38e02	0.0798607
185	0xbdf535cb	-0.11973151
186	0xbdda2ce5	-0.10653094
187	0x3cba8975	0.022770623
188	0xbced70ff	-0.028984545
189	0x3dc82d52	0.09774269
190	0x3d89e2f6	0.067327425
191	0x3d921f93	0.071349286
192	0xbdc1edb3	-0.09469166
193	0xbd8d5840	-0.06901598
194	0xbd96247e	-0.07331179
195	0xbdfbe2cc	-0.122991174
196	0xbda2a5f7	-0.079418115
197	0x3da02a9b	0.07820626
198	0x3b60b01a	0.0034284652
199	0xbda61956	-0.08110301
200	0xbcc9bb1e	-0.024625357
201	0x3cd98c33	0.02655611
202	0x3ccbbdc4	0.02487076
203	0x3cffe30a	0.03123619
204	0xbdecdc2a	-0.115654305
205	0x3d902b0b	0.0703946
206	0x3c016ca3	0.007899436
207	0x3b34fb87	0.0027615742
208	0x3e071ca4	0.1319452
209	0xbded4f4b	-0.115873896
210	0x3cf27b1c	0.029599719
211	0x3d60b3c7	0.05485895
212	0xbd7f0cfe	-0.06226825
213	0xbe003359	-0.12519588
214	0x3ca84270	0.020539492
215	0x3c6ba59d	0.014382747
216	0xbdb339e5	-0.08751277
217	0x3e457348	0.19282258
218	0x3d22cff7	0.039749112
219	0x3ccc6d0c	0.024954341
220	0xbda5c131	-0.08093489
221	0x3c629845	0.013830249
222	0xbd33b501	-0.04387379
223	0xbb08f5de	-0.0020898501
224	0xbd47c547	-0.048772123
225	0x3d2b79fc	0.04186438
226	0x3e2bf829	0.16793884
227	0xbe12a8c2	-0.14322188
228	0xbdf3686c	-0.11885151
229	0x3da8f86c	0.08250508
230	0x3cba4139	0.022736179
231	0x3d898c7a	0.06716247
232	0x3ddad151	0.10684455
233	0xbbc3c60c	-0.0059745368
234	0xbcc26d8c	-0.023733877
235	0x3d87f25a	0.06638022
236	0x3cce2625	0.025164673
237	0xbcbe46f9	-0.023227202
238	0x3dbafe44	0.091305286
239	0x3cd23cc2	0.025663737
240	0xbcd5e1f9	-0.026108729
241	0x3e4bad39	0.19890298
242	0x3d04fcaf	0.03246754
243	0xbd505109	-0.05085853
244	0xbdb899c7	-0.09013706
245	0xbd4537d9	-0.048148964
246	0xbd9dd2cc	-0.07706222
247	0x3b21aa77	0.0024668255
248	0x3e0214d8	0.12703264
249	0x3e151d5d	0.14561982
250	0xbab36579	-0.0013686857
251	0x3e2a4a4e	0.16629907
252	0x3d2189ec	0.039438173
253	0xbd722ab1	-0.059122745
254	0xbc8367d6	-0.016040724
255	0x3dc22aef	0.09480845

AFeatRNN.bias_hh_l0 f4 [256]
0	0xbd840676	-0.06446545
1	0x3d28aa27	0.041177895
2	0xbd58fc32	-0.052974887
3	0x3dd4a158	0.103823364
4	0x3ccc5afd	0.02494573
5	0x3e0127e5	0.12612875
6	0x3e07c40b	0.13258378
7	0x3dd0e485	0.10199837
8	0x3c9601e2	0.018311445
9	0x3dbd36c1	0.09238959
10	0x3df4c6ef	0.11952006
11	0x3da78c91	0.08181108
12	0x3d5685e1	0.05237377
13	0xbc01f149	-0.007931062
14	0x3e19f496	0.15034708
15	0x3cb80c2f	0.022466747
16	0x3de1d67d	0.110272385
17	0xbe03c459	-0.1286787
18	0x3db83ba8	0.089957535
19	0x3e013e6f	0.12621473
20	0xbd628326	-0.055300854
21	0x3c24fb93	0.010069746
22	0xbcae97f2	-0.021312688
23	0xbd365586	-0.044515155
24	0x3d4057fe	0.046958916
25	0x3d2351b8	0.039872855
26	0x3e0dde7a	0.138544
27	0xbdede6dd	-0.11616299
28	0xbd71ee8f	-0.059065398
29	0x3caf2772	0.021381114
30	0x3c66f67f	0.014096855
31	0xbc8b0d59	-0.016974138
32	0xbce6d127	-0.028175903
33	0xbd8156f2	-0.063154116
34	0x3e04d580	0.12972069
35	0x3d9e4241	0.07727481
36	0xbd948f7f	-0.07253932
37	0x3c16f8c0	0.00921458
38	0xbe16c02e	-0.14721748
39	0x3dad7282	0.08469106
40	0x3ce26ee2	0.027640764
41	0x3d6cf8ec	0.057854578
42	0x3e2ef313	0.17084913
43	0xbd79988b	-0.060936492
44	0xbe04f61f	-0.12984513
45	0x3d3b44ea	0.04572002
46	0xbdc5f597	-0.09665983
47	0xbd75f8fa	-0.060051896
48	0x3bb050b5	0.005380715
49	0xbd12f07a	-0.035873868
50	0xbd99fe1a	-0.07519169
51	0x3d83b74c	0.064314455
52	0x3c3370c2	0.0109521765
53	0xbd63e634	-0.05563946
54	0x3b21e82a	0.002470503
55	0x3e0d56f5	0.13802703
56	0xbd615342	-0.05501104
57	0xbc6936cc	-0.014234256
58	0x3d5c9312	0.053851195
59	0xbda97027	-0.082733445
60	0xbbf34edf	-0.0074251737
61	0x3d6fccd8	0.058544964
62	0x3df37d9e	0.11889194
63	0xbd6f4210	-0.05841261
64	0x3cdd7ce5	0.027037093
65	0x3d4bd2e2	0.04976166
66	0x3d1b5fb8	0.03793308
67	0x3d208cd3	0.0391968
68	0xbde2ae22	-0.110683694
69	0xbc36ca7c	-0.0111566745
70	0x3d75b575	0.059987504
71	0x3da08e7e	0.07839678
72	0xbcf6aa32	-0.030110452
73	0xbd81404b	-0.06311091
74	0x3d8095d8	0.062785804
75	0x3d3ff09c	0.046860322
76	0x3cc6e9cd	0.024281407
77	0xbcba9b96	-0.022779267
78	0x3da824df	0.082101576
79	0xbd371df4	-0.0447063
80	0x3c1b40f5	0.009475936
81	0xbd6bf911	-0.057610575
82	0xbaf211bd	-0.0018468421
83	0x3d99b846	0.075058505
84	0xbc862dae	-0.016379204
85	0x3e01d20b	0.12677781
86	0xbd38d894	-0.04512842
87	0x3dcd6b62	0.10030247
88	0xbdb25da1	-0.087092645
89	0x3b863a59	0.004096311
90	0x3b812ddf	0.003942236
91	0x3deda4ce	0.116036996
92	0x3dac367f	0.08408832
93	0xbdf816d1	-0.12113727
94	0xbcba8dab	-0.02277263
95	0x3d936d63	0.07198598
96	0x3bbb5961	0.005717442
97	0xbe0c0f46	-0.13677701
98	0xbca6e01f	-0.020370541
99	0x3dbdc786	0.09266572
100	0xbcf6efd1	-0.03014365
101	0xbdd0a190	-0.101870656
102	0x3d8d4733	0.06898346
103	0x3d6fb55b	0.058522563
104	0xbe0879d3	-0.13327722
105	0xbb7aa3c3	-0.0038244582
106	0xbced3237	-0.028954608
107	0xbd5dadea	-0.054120935
108	0x3cfb7b34	0.030698396
109	0xbdf39636	-0.11893885
110	0xbc3837d5	-0.01124378
111	0xbc7519c3	-0.014959755
112	0xbd552c1b	-0.052044015
113	0x3c9abaa5	0.018887827
114	0x3e013a49	0.1261989
115	0xbce0cc26	-0.027441096
116	0xbd93f928	-0.07225257
117	0x3d982ecf	0.07430803
118	0xbdb07e21	-0.08617807
119	0xbdf1e49b	-0.11811181
120	0x3e22e37c	0.15907091
121	0x3dde51ed	0.1085547
122	0xbdd437ff	-0.10362243
123	0x3d7dbdd6	0.06194862
124	0x3dd5f938	0.10447925
125	0xbda32b65	-0.07967261
126	0xbd974130	-0.073854804
127	0xbc520416	-0.012818357
128	0xbca98e28	-0.020697668
129	0x3cc711e9	0.024300532
130	0x3db8b4ce	0.09018861
131	0xbd8ca4ef	-0.06867396
132	0x3d3f5884	0.046715274
133	0xbd90f212	-0.07077421
134	0x3d53696e	0.051614217
135	0x3e01f202	0.12689975
136	0x3df4fefd	0.11962698
137	0x3dcb06a8	0.09913379
138	0x3d458daa	0.048230805
139	0x3d817006	0.06320195
140	0xbd091ce5	-0.03347482
141	0xbe11d687	-0.14241992
142	0x3dedec6e	0.11617361
143	0xbd216370	-0.03940147
144	0x3cb5fd1d	0.02221542
145	0xbbeb1b5f	-0.0071748937
146	0x3c1f7422	0.009732278
147	0x3d87d41e	0.06632255
148	0xbd45b361	-0.048266772
149	0x3d1d6040	0.03842187
150	0x3ddcfae9	0.10790045
151	0x3b386397	0.0028135532
152	0x3e2808fc	0.16409677
153	0xbd17941d	-0.037006486
154	0x3daef87c	0.085434884
155	0x3c28d8b7	0.010305575
156	0xbda4fb1f	-0.0805571
157	0x3d2fc227	0.042909767
158	0x3d338004	0.043823257
159	0x3d24528b	0.04011778
160	0xbd530e30	-0.051527202
161	0x3dec3d99	0.11535186
162	0xbc406d1c	-0.011744764
163	0xbd62c937	-0.055367675
164	0x3d62ea77	0.055399384
165	0x3d95a68a	0.073071554
166	0x3de77b13	0.113027714
167	0x3d0e3570	0.03471893
168	0x3ddcff49	0.10790879
169	0x3dcd84d3	0.100351
170	0xba848900	-0.001011163
171	0xbda3a818	-0.07991046
172	0x3d926841	0.07148791
173	0xbd9bfce9	-0.07616598
174	0x3be2339b	0.0069031245
175	0x3d9f1bc7	0.0776897
176	0x3dd669c2	0.104693905
177	0x3c5ee221	0.013603718
178	0xbd8e9c26	-0.06963377
179	0xbbea776a	-0.0071553485
180	0xbd4acba5	-0.049510617
181	0xbdec91e5	-0.11551265
182	0xbcdd31c1	-0.027001264
183	0xbdd0437c	-0.101691216
184	0xbdd77c6e	-0.1052178
185	0xbc97f1d3	-0.018547928
186	0x3d2f0792	0.04273183
187	0xbde3a038	-0.11114544
188	0xbdfff433	-0.12497749
189	0x3b728763	0.0037006966
190	0xbd4bf306	-0.049792312
191	0xbda43cd3	-0.08019414
192	0x3d0e2c59	0.034710262
193	0x3d3e6c31	0.046489898
194	0x3cd86cc2	0.026419047
195	0xbd492288	-0.049105197
196	0xbd8e76cc	-0.069562525
197	0xbdabed61	-0.08394886
198	0x3dcd22a1	0.100163706
199	0x3d90ab7b	0.07063957
200	0x3da28084	0.07934669
201	0x3c573574	0.013135303
202	0x3beed968	0.0072891004
203	0xbdb2e400	-0.08734894
204	0xbdef046e	-0.11670767
205	0xbd55c132	-0.0521862
206	0x3d8bb5c8	0.068217814
207	0xbce88031	-0.028381439
208	0x3cbdf6cf	0.023188977
209	0xbdc7bd67	-0.097529225
210	0x3ddd0db1	0.10793627
211	0x3ca99e8c	0.020705484
212	0xbb75d4ac	-0.0037510796
213	0xbd52be71	-0.05145115
214	0x3c6f2801	0.01459694
215	0xbc7b62b4	-0.015343357
216	0xbc8174c0	-0.015802741
217	0x3df712e6	0.120641515
218	0x3d34b1aa	0.044114746
219	0xbdd4d15b	-0.10391494
220	0x3da9bef2	0.08288373
221	0x3d7a3bee	0.06109231
222	0x3cdeca4f	0.027196078
223	0x3da9a769	0.08283884
224	0xbdad1e66	-0.08453064
225	0xbd4deb4c	-0.050273225
226	0x3e1a187c	0.15048403
227	0x3d86693b	0.0656304
228	0x3d2d99fc	0.04238318
229	0x3c6f18ea	0.014593342
230	0x3cb1cafb	0.021703234
231	0xbdbfc53f	-0.093637936
232	0x3ceaf5ec	0.028681718
233	0xbd6eb77b	-0.05828045
234	0x3ce51ee6	0.027968835
235	0x3cd9babc	0.0265783
236	0xbe07696d	-0.1322381
237	0xbb820868	-0.0039682873
238	0xbdb39ad3	-0.08769765
239	0x3d49e844	0.04929377
240	0xbdb17c1e	-0.086662516
241	0x3df52b7f	0.11971187
242	0x3dd5afe1	0.10433937
243	0x3d71dc7f	0.059048172
244	0x3de88668	0.11353761
245	0x3e0af8e7	0.13571511
246	0x3e0076f1	0.12545373
247	0x3dd83f83	0.10558989
248	0xbdee61ae	-0.11639725
249	0x3da16a22	0.07881571
250	0x3e2c1bf3	0.16807537
251	0xbd904ce2	-0.07045914
252	0xbcf37ebf	-0.029723523
253	0xbd33fcff	-0.043942448
254	0x3dc803dd	0.09766362
255	0xbd3f3dea	-0.046689905

AFeatRNN.weight_ih_l1 f4 [256, 64]
0	0xbdea3e82	-0.11437704
1	0xbcc0e86f	-0.023548333
2	0xbdf5f64c	-0.12009868
3	0xbd2dd22a	-0.042436756
4	0x3ded9544	0.11600736
5	0x3accb815	0.0015618826
6	0xbd1143f8	-0.03546521
7	0x3d4aacf0	0.049481332
8	0xbb8a5cdd	-0.004222496
9	0x3d7fec63	0.062481295
10	0x3ddc7875	0.10765163
11	0x3e3576c5	0.17721088
12	0x3d12fa04	0.035882965
13	0xbceecda0	-0.029150784
14	0x3da9006d	0.08252034
15	0x3d7b4ac9	0.061350618
16	0x3df4ca5c	0.119526595
17	0xbd5385e6	-0.051641367
18	0x3d420e46	0.047376893
19	0xbd03af0b	-0.032149356
20	0x3db728ac	0.089433044
21	0xbe028396	-0.12745509
22	0x3c9780f2	0.018494103
23	0x3cd033b4	0.025415279
24	0xbdf1860d	-0.11793146
25	0x3d5a6ccd	0.053326417
26	0x3d49a916	0.04923352
27	0xbd6f66d1	-0.058447663
28	0x3e0e05e2	0.13869432
29	0x3dcc3997	0.09971922
30	0xbd4abda7	-0.049497273
31	0x3cfb00a2	0.03063995
32	0x3dc9813f	0.09839105
33	0xbbad3f1d	-0.0052870647
34	0x3e5f053d	0.21779342
35	0x3de52a66	0.111897275
36	0x3d82fbe7	0.06395703
37	0xbe2fe6a8	-0.17177832
38	0xbe93a9f9	-0.28840616
39	0x3d98e4dc	0.074655265
40	0xbb082202	-0.0020772223
41	0x3d5eebb6	0.05442401
42	0xbd94d449	-0.07267053
43	0xbd8643c3	-0.06555893
44	0xbd9c4253	-0.07629838
45	0x3e018c99	0.1265129
46	0xbd1d7d83	-0.038449775
47	0x3d176a75	0.03696676
48	0x3dd29f9f	0.102843516
49	0xbcac7e86	-0.021056425
50	0x3de38fea	0.11111434
51	0xbe118aa4	-0.14213043
52	0x3e8c985c	0.2745999
53	0xbd8d5124	-0.06900242
54	0x3e1b8a47	0.15189467
55	0x3e646893	0.22305517
56	0x3d664321	0.056216363
57	0x3e66a9d3	0.2252572
58	0x3e27c33e	0.16383073
59	0xbe87d6e2	-0.2653113
60	0xbe1730ae	-0.14764664
61	0x3cd27c42	0.025694016
62	0x3df26790	0.11836159
63	0xbdb688fd	-0.08912847
64	0xbce6692e	-0.028126325
65	0x3d1588fb	0.036507588
66	0xbe804a59	-0.25056723
67	0xbdb0fe0e	-0.08642207
68	0x3d5b9bd6	0.053615414
69	0x3c49690b	0.012293111
70	0x3e8bf221	0.27333167
71	0x3e471f33	0.19445495
72	0xbe14858a	-0.14504066
73	0xbdf6cf3f	-0.12051248
74	0x3e60e03c	0.21960539
75	0xbe231bcf	-0.15928577
76	0x3e3f2cd5	0.18669446
77	0xbe1fcfef	-0.15606664
78	0x3e1e446f	0.15455793
79	0x3e12d9e6	0.14340934
80	0x3e1f9f44	0.15588099
81	0x3cd7ceb0	0.026343673
82	0x3e477752	0.19479111
83	0xbc045273	-0.008076298
84	0xbe81d793	-0.25359783
85	0x3d015cc6	0.031582616
86	0x3e4413ea	0.19148222
87	0x3d614298	0.05499515
88	0xbc705958	-0.014669739
89	0x3d9b1ccc	0.07573852
90	0x3e217814	0.15768462
91	0xbe008108	-0.12549222
92	0xbb84b528	-0.004049916
93	0x3debe56d	0.11518369
94	0x3e3ca59b	0.18422548
95	0xbe423716	-0.18966326
96	0x3de960e3	0.11395433
97	0x3d849102	0.064729705
98	0xbe05b7fe	-0.13058469
99	0xbd9609db	-0.073260985
100	0x3e655051	0.2239392
101	0x3de44313	0.11145606
102	0xbc194f48	-0.009357281
103	0x3e445413	0.19172697
104	0x3ac525a4	0.0015041125
105	0xbe34c3db	-0.17652838
106	0xbc7d6021	-0.015464813
107	0x3d668020	0.056274533
108	0x3e919660	0.2843504
109	0x39f881bc	0.00047398906
110	0x3d0eef7a	0.03489635
111	0x3e18825d	0.1489348
112	0x3dee201e	0.116272196
113	0x3d062766	0.032752417
114	0x3eb73663	0.3578368
115	0x3e1df6bf	0.15426157
116	0xbe7b4906	-0.24539575
117	0x3d9f6cce	0.07784425
118	0xbe9da4e9	-0.3078988
119	0x3e26b093	0.16278295
120	0x3d28d282	0.04121638
121	0xbd3acd10	-0.04560572
122	0xbdf65342	-0.12027599
123	0x3eb954d8	0.36197543
124	0x3d8b19cc	0.0679203
125	0x3d2aa403	0.04166032
126	0xbddfbaee	-0.10924326
127	0xbd2a37ac	-0.041557
128	0xbc0e58bc	-0.008688148
129	0xbb54a4b4	-0.0032446804
130	0x3d0ef033	0.03489704
131	0xbded1473	-0.11576166
132	0x3e3b9189	0.18317236
133	0x3d894b49	0.06703813
134	0x3e1bb657	0.15206276
135	0x3c20b3af	0.009808465
136	0x3d43e8a7	0.047829296
137	0x3c518d0f	0.012789979
138	0x3e316c34	0.17326432
139	0xbe4eddee	-0.20201847
140	0x3ddd2edb	0.107999526
141	0xbe0b01e9	-0.13574947
142	0xbde9719c	-0.113986224
143	0xbc1cdad0	-0.009573653
144	0x3e308c64	0.17241055
145	0xbd24c1fe	-0.040224068
146	0xbc7dcee7	-0.015491224
147	0xbd3aac26	-0.04557433
148	0xbe02cd39	-0.12773599
149	0x390eba6c	0.00013611623
150	0xbdf29753	-0.11845269
151	0x3db80f38	0.08987278
152	0xbd388ad0	-0.045054257
153	0x3d25df7c	0.040496334
154	0x3ce225ae	0.027605858
155	0xbe304673	-0.17214374
156	0xbd76b123	-0.060227524
157	0xbc5e3d8f	-0.013564481
158	0xbdb3b5d0	-0.08774912
159	0x3e1878c1	0.14889814
160	0xbdf6d542	-0.120523944
161	0x3d08eff5	0.033431966
162	0xbc7c993f	-0.015417396
163	0x3d347720	0.04405892
164	0x3c4affc2	0.012390079
165	0x3c9e37f6	0.019313794
166	0x3d996a52	0.07490982
167	0xbc91b786	-0.017787706
168	0x3d818ac7	0.06325298
169	0xbd6b2c80	-0.057415485
170	0xbd2d7d70	-0.042355955
171	0x3da74cd8	0.08168954
172	0x3c2f52fe	0.010700939
173	0x3e0282fa	0.12745276
174	0x3bdb5c7a	0.0066943737
175	0x3d1b1480	0.037861347
176	0xbdfecb91	-0.12441171
177	0x3de0f3e6	0.1098402
178	0x3d7e1be7	0.06203833
179	0x3ddbee11	0.10738767
180	0xbdb224df	-0.08698439
181	0xbe08db41	-0.13364889
182	0x3d30a490	0.04312569
183	0x3dbce38a	0.09223087
184	0xbc280792	-0.010255711
185	0x3e6275e6	0.22115287
186	0x3e70e750	0.23525739
187	0x3c81d1e0	0.015847147
188	0xbdd906e6	-0.10597019
189	0xbde050db	-0.10952922
190	0xbe0856ac	-0.13314313
191	0xbe153f37	-0.14574896
192	0xbd6edc6d	-0.058315683
193	0x3e4d13fc	0.20027155
194	0xbd8e403a	-0.06945844
195	0xbd2c68b7	-0.04209205
196	0x3d1a55e4	0.037679568
197	0xbc4b1cc2	-0.012396993
198	0xbe0e00b0	-0.1386745
199	0x3c8c4ee1	0.017127456
200	0x3d8ec4b2	0.069711104
201	0x3da5beda	0.08093043
202	0x3d27cf90	0.04096943
203	0xbc1d4ea7	-0.009601272
204	0x3c4cbfe9	0.012496927
205	0x3da9e4cb	0.08295592
206	0xbe059485	-0.13044937
207	0x3cc8e5d9	0.024523662
208	0xbd99b3ed	-0.07505021
209	0x3c84e3e4	0.016221948
210	0xbd26916e	-0.040666036
211	0xbd3384f4	-0.043827966
212	0x3e094613	0.13405637
213	0x3c34d58e	0.0110372435
214	0xbd8027b0	-0.0625757
215	0x3d2d00b0	0.042236984
216	0x3ded9c5f	0.11602091
217	0xbac388fd	-0.0014918145
218	0x3e1d1220	0.15338945
219	0x3d51b4b9	0.05119774
220	0xbdd11f2b	-0.10211023
221	0xbd62388e	-0.055229716
222	0x3ccfc1a5	0.025360892
223	0x3d5e4c45	0.054271955
224	0x3dc78b19	0.09743328
225	0x3df3d5bc	0.11906001
226	0x3d41f85f	0.047356006
227	0x3e2f7b92	0.17136982
228	0x3d662110	0.056183875
229	0xbe2016a7	-0.15633641
230	0xbdf76a7a	-0.12080856
231	0xbd1a67cf	-0.037696656
232	0x3dda2ebb	0.106534444
233	0x3cac10c3	0.021004086
234	0xbcbff8cb	-0.023434063
235	0x3da5695f	0.080767386
236	0xbda848e1	-0.082170255
237	0xbdd21f51	-0.102598794
238	0xbcb9ee0b	-0.022696516
239	0xbbb4f574	-0.0055224244
240	0x3d207051	0.039169613
241	0x3d8dd150	0.06924689
242	0xbd630320	-0.055422902
243	0x3dba3fca	0.09094198
244	0x3dbc101f	0.09182762
245	0xbde4141e	-0.111366495
246	0x3da8e392	0.082465306
247	0xbdf74604	-0.12073901
248	0xbb61ef6f	-0.003447499
249	0xbe273c0e	-0.16331503
250	0xbdcf03ab	-0.101081215
251	0xbdabf27c	-0.083958596
252	0x3dd561e9	0.104190655
253	0x3c11c9a2	0.008898171
254	0xbd7de5cd	-0.061986733
255	0xbe20dbcd	-0.15708847

AFeatRNN.weight_hh_l1 f4 [256, 64]
0	0xbd239148	-0.039933473
1	0x3d7138dc	0.058892116
2	0xbd5cf0a0	-0.053940415
3	0xbcce9259	-0.025216268
4	0x3e1a1bc3	0.15049653
5	0x3c8a7fd4	0.016906656
6	0xbc9f3578	-0.019434676
7	0x3ba1dd48	0.004939709
8	0x3dca87da	0.09889193
9	0xbd7383da	-0.059451915
10	0x3d83d4ab	0.064370476
11	0xbd9416b7	-0.07230895
12	0xbd6efd3e	-0.05834698
13	0x3ac04d8a	0.0014671546
14	0xbd43fd84	-0.047849193
15	0x3d192ff1	0.037399236
16	0xbd82102f	-0.06350743
17	0xbc5a51c8	-0.013325162
18	0xbb067b8a	-0.0020520412
19	0x3e100208	0.14063275
20	0xbd0cdec2	-0.034392126
21	0x3d4f222c	0.0505697
22	0x3cf1f02b	0.029533466
23	0xbc4b6af2	-0.0124156345
24	0x3c8ca2da	0.017167497
25	0xbc9a6e21	-0.018851342
26	0x3d8bebae	0.06832062
27	0xbd12b5c1	-0.035817865
28	0x3bb2e1d2	0.005459049
29	0x3dd7adda	0.105312064
30	0x3ad39cff	0.0016144811
31	0x3bec98a9	0.007220347
32	0xbcf69edf	-0.030105053
33	0xbb8eff68	-0.004363943
34	0xbddcad86	-0.107752845
35	0xbdea9631	-0.11454428
36	0xbd903b86	-0.07042603
37	0xbcce2f68	-0.02516909
38	0xbdb2702b	-0.087128006
39	0xbd65d65d	-0.056112636
40	0xbd96fe11	-0.07372678
41	0xbdd5cf87	-0.10439973
42	0x3da0074b	0.07813891
43	0x3d6bfa81	0.057611946
44	0xbe2c1253	-0.16803865
45	0xbdc9e940	-0.09858942
46	0xbd39e5c7	-0.04538515
47	0x3d7d636c	0.061862394
48	0x3d96ad8e	0.07357322
49	0x3d8701a1	0.065921076
50	0xbdfde2c8	-0.12396771
51	0xbd2ffc77	-0.04296538
52	0xbd99bcad	-0.0750669
53	0xbccf5c19	-0.02531247
54	0x3df9de08	0.12200552
55	0xbe3735aa	-0.17891565
56	0xbc6de4c5	-0.014519875
57	0x3ce6a1fc	0.028153412
58	0xbdb33a8b	-0.087514006
59	0x3d9843bc	0.07434794
60	0xbcc919b4	-0.024548389
61	0xbe2e75bf	-0.17037104
62	0xbd31ada0	-0.043378472
63	0x3dc6e43f	0.09711503
64	0xbe25526d	-0.16144724
65	0xbdac03e5	-0.0839918
66	0x3e4814e4	0.19539219
67	0xbdb9cf58	-0.09072751
68	0xbe09aa93	-0.13443975
69	0x3e60818e	0.21924421
70	0x3d6e80bd	0.058228243
71	0xbdbdf930	-0.09276044
72	0x3dbd3701	0.09239007
73	0x3d1e8955	0.03870519
74	0x3e11449f	0.14186333
75	0xbb8e6f0e	-0.004346735
76	0xbd7e1c8f	-0.062038954
77	0x3cd0465c	0.025424175
78	0x3e599c17	0.2125095
79	0x3c480361	0.012207837
80	0x3d89b1ac	0.06723341
81	0x3e341a49	0.17588152
82	0xbce12d6d	-0.027487481
83	0xbcb4ce99	-0.02207117
84	0x3e230f26	0.15923747
85	0x3d6c6800	0.05771637
86	0xbcb1b641	-0.02169335
87	0xbca00cc7	-0.019537343
88	0xbe380f00	-0.17974472
89	0xbdb0e4a9	-0.086373635
90	0x3e0c05dd	0.13674112
91	0xbcff090b	-0.031132242
92	0x3dc37d6f	0.09545409
93	0x3ccf50e3	0.025307124
94	0xbdd44ff8	-0.10366815
95	0xbd8871c0	-0.06662321
96	0xbc5069b1	-0.012720511
97	0xbdd765d1	-0.10517467
98	0xb7e98c25	-2.7841024e-05
99	0x3e3ba437	0.18324362
100	0xbdac816b	-0.08423122
101	0xbd4234a8	-0.0474135
102	0x3d61dfce	0.055145077
103	0xbc9a00d4	-0.018799223
104	0x3e16204b	0.14660756
105	0xbd934bbe	-0.07192181
106	0x3d8ae5e3	0.06782129
107	0xbd1d4303	-0.038393985
108	0x3e24146f	0.1602342
109	0x3d1e27c6	0.03861215
110	0xbc23a7b0	-0.00998871
111	0x3e0f2f77	0.1398295
112	0xbcfeb941	-0.031094195
113	0x3e415386	0.18879518
114	0x3d3fcd68	0.04682675
115	0xbd9bb3be	-0.076026425
116	0xbe0a3d14	-0.13499862
117	0x3d9b2d03	0.07576945
118	0xbcfff77e	-0.031245943
119	0xbc9c2550	-0.01906076
120	0x3dc3c3a3	0.09558799
121	0x3cbc2ae6	0.022969674
122	0x3dfe8494	0.12427631
123	0xbdb2fd51	-0.087397225
124	0x3d95fb30	0.07323301
125	0x3da06b25	0.07832936
126	0xbc7a5be8	-0.015280701
127	0xbda3e6ce	-0.08003007
128	0xbe08c9d5	-0.13358243
129	0xbe4107dd	-0.18850656
130	0xbd728d98	-0.059217066
131	0x3cf73238	0.030175313
132	0xbd39b39b	-0.0453373
133	0x3d72aa16	0.059244238
134	0x3b5f3fb5	0.0034065072
135	0xbda6c9de	-0.08143972
136	0x3d6fce75	0.058546502
137	0x3d9f2bae	0.07772003
138	0x3e27a303	0.16370778
139	0xbd8ee1fc	-0.06976697
140	0xbdc4929e	-0.095982775
141	0x3da26310	0.07929051
142	0xbe04b35e	-0.12959048
143	0x3d88acab	0.06673559
144	0xbda4b5ec	-0.08042511
145	0x3c256a0e	0.010096086
146	0xbc679ea2	-0.014136942
147	0x3d810e45	0.0630155
148	0x3c7c27c5	0.015390341
149	0xbd5e1677	-0.054220643
150	0xbc030fae	-0.007999344
151	0x3d981ab6	0.0742697
152	0xbe629ac5	-0.22129352
153	0xbdf1e6cb	-0.118115984
154	0x3d8221e1	0.06354118
155	0xbd9ca36e	-0.07648359
156	0x3d2a810f	0.041626986
157	0x3cf1d0af	0.029518453
158	0x3d7d6fc0	0.06187415
159	0xbdaabe21	-0.083370455
160	0xbd2c531e	-0.042071454
161	0xbe365bda	-0.17808476
162	0x3d9b1f7e	0.07574366
163	0x3e04d384	0.12971312
164	0x3e1ca9d7	0.15299164
165	0x3da14fe8	0.07876569
166	0xbcc598d0	-0.024120718
167	0x3d2844d5	0.04108127
168	0x3d760891	0.060066763
169	0xbd413044	-0.04716517
170	0x3cdaf70e	0.026729133
171	0xbd9c2a44	-0.07625249
172	0x3d30e0ca	0.043183126
173	0xbce81b80	-0.028333426
174	0xbb9d76bd	-0.0048054145
175	0x3d424828	0.047432095
176	0x3da09734	0.0784134
177	0x3defde93	0.117123745
178	0x3d3d9523	0.046284806
179	0x3de9686f	0.11396872
180	0xbc73b1b7	-0.0148739135
181	0x3c3b5484	0.011433724
182	0x3da82f6e	0.082121715
183	0x3e2bf29a	0.16791764
184	0xbcb51205	-0.022103319
185	0x3d91c1ef	0.07117068
186	0xbde52c96	-0.11190145
187	0xbb8c823a	-0.004287985
188	0xbdebe8ac	-0.11518988
189	0x3e325f14	0.17419082
190	0x3d3e90a6	0.046524666
191	0x3d4c3ce7	0.04986277
192	0x3ca59a63	0.020215219
193	0x3d88edd2	0.066859856
194	0x3d500227	0.050783303
195	0xbdc340a0	-0.095338106
196	0xbd2497bb	-0.040183764
197	0xbde0ff89	-0.109862395
198	0x3e00cdc1	0.12578489
199	0xbda399b9	-0.07988305
200	0xbd1d0be5	-0.03834142
201	0xbddd51e3	-0.10806634
202	0x3b37552f	0.0027974357
203	0xbce4b79b	-0.027919581
204	0x3d6baa30	0.05753535
205	0x3da3aa54	0.07991472
206	0x3e23f7ab	0.16012447
207	0xbdffdfea	-0.1249388
208	0x3dab524c	0.08365306
209	0x3dae280f	0.08503734
210	0xbd9867d0	-0.07441676
211	0x3ced4374	0.028962828
212	0xbdea1698	-0.11430091
213	0x3c92573d	0.017863864
214	0x3c381ec2	0.011237802
215	0xbdabe336	-0.083929464
216	0x3d2f41ab	0.042787235
217	0xbdf141a7	-0.117801
218	0x3d02f5c8	0.031972677
219	0x3d920eea	0.07131751
220	0x3ca71dd5	0.020399967
221	0x3d059575	0.032613236
222	0xbd6b9d4b	-0.057523053
223	0xbde107bb	-0.109878026
224	0xbd9a630e	-0.075384244
225	0x3d0207b5	0.03174563
226	0xbda35e76	-0.07977001
227	0x3dc29ba0	0.09502339
228	0x3da10d97	0.0786392
229	0xbdd78550	-0.10523474
230	0xbbb4b2bb	-0.0055144704
231	0x3e3b0c3b	0.18266384
232	0x3cf83399	0.030298041
233	0xbdd9574f	-0.10612356
234	0xbdaad9bb	-0.0834231
235	0xbe07580f	-0.13217185
236	0xbcb02793	-0.021503245
237	0xbdb96229	-0.09051926
238	0xbe1128e7	-0.1417576
239	0xbdb700ce	-0.089357
240	0xbdd39b4e	-0.103323564
241	0xbd6a91e6	-0.057268046
242	0x3aa8d4f6	0.001288085
243	0xbd7280ed	-0.059204984
244	0xbc078ac3	-0.008272829
245	0xbc335a6a	-0.010946849
246	0xbddc2c64	-0.10750654
247	0x3db3aabb	0.08772799
248	0xbe0ef995	-0.13962395
249	0xbd9c7cfc	-0.076410264
250	0x3dae28fb	0.0850391
251	0xbd85db67	-0.06535988
252	0x3d693a85	0.056940574
253	0xbdbce910	-0.09224141
254	0xbd55bf80	-0.05218458
255	0xbcbedac3	-0.023297673

AFeatRNN.bias_ih_l1 f4 [256]
0	0x3c5ee94c	0.013605427
1	0x3e6f927c	0.23395723
2	0x3d826792	0.06367411
3	0x3cfaa1a5	0.030594656
4	0x3cedb6d4	0.029017843
5	0x3e299180	0.1655941
6	0xbcd44e33	-0.025916195
7	0xbc94f662	-0.01818389
8	0x3da45ca8	0.08025485
9	0x3bdfffaa	0.0068358975
10	0x3df99e96	0.12188451
11	0x3ceca99e	0.028889474
12	0x3c468973	0.012117731
13	0x3d807cd3	0.06273808
14	0x3c86890f	0.016422777
15	0xbddeb6fe	-0.10874747
16	0x3df947cc	0.12171897
17	0xbdc012a3	-0.09378555
18	0xbd5b723c	-0.05357574
19	0x3df0893f	0.117449276
20	0x3def246a	0.11676867
21	0x3e5255fe	0.20540616
22	0x3dc69981	0.09697247
23	0x3d8fd4fe	0.07023047
24	0xbdccd9d3	-0.10002484
25	0x3da691ba	0.08133264
26	0xbdece171	-0.11566437
27	0x3e135d14	0.14390975
28	0x3dc164e7	0.09443074
29	0x3ca2a09c	0.019851975
30	0x3df76408	0.12079626
31	0x3c8bb876	0.017055731
32	0x3ae93e51	0.0017795061
33	0x3deccdbb	0.115626775
34	0x3e15d750	0.14632916
35	0x3e2c3b4f	0.168195
36	0xbcb24249	-0.021760123
37	0x3df464ba	0.119332746
38	0x3dd22dcc	0.10262641
39	0x3c2d0921	0.0105612585
40	0x3d8556a6	0.065106675
41	0xbbe5538a	-0.006998484
42	0x3e4fb37e	0.20283315
43	0x3d32aeae	0.04362362
44	0x3ceb732a	0.028741438
45	0x3d933efe	0.07189749
46	0x3d9b58b9	0.07585282
47	0xbdb71984	-0.089404136
48	0x3d96a02e	0.073547706
49	0x3e01b061	0.1266494
50	0xbd85908a	-0.06521709
51	0x3d1f76c1	0.038931612
52	0x3da039a9	0.07823498
53	0xbdad925f	-0.08475184
54	0xbe05755e	-0.13033053
55	0xbcea9930	-0.028637499
56	0xbd64d620	-0.055868268
57	0x3e140e81	0.14458658
58	0x3db0673a	0.08613439
59	0x3e1df225	0.15424402
60	0x3db3fe52	0.08788742
61	0x3e0d0cb9	0.13774385
62	0x3e4bbcff	0.19896315
63	0xbc9374ea	-0.018000085
64	0xbe260f15	-0.16216691
65	0xbd51dcae	-0.051235847
66	0x3e1acba4	0.15116745
67	0x3d12fa4e	0.03588324
68	0xbd7686e6	-0.060187243
69	0x3cefffbb	0.029296746
70	0xbc2ad70e	-0.01042725
71	0x3d91f4ab	0.07126745
72	0x3d0c07f9	0.03418729
73	0xbdf4dccd	-0.11956177
74	0xbd2bf21b	-0.041978937
75	0x3c8778ab	0.016537031
76	0xbd17b5d4	-0.03703864
77	0xbe06d358	-0.13166559
78	0x3d9a6dba	0.0754046
79	0xbb886d90	-0.0041634515
80	0xbe0ad678	-0.13558376
81	0x3c821837	0.015880687
82	0xbdd9e0a5	-0.10638551
83	0xbd9a5df2	-0.0753745
84	0xbd0f329a	-0.034960367
85	0xbca978da	-0.02068751
86	0x3da1add0	0.0789448
87	0x3d97b54a	0.07407625
88	0xbd9cf694	-0.076642185
89	0xbb4c91ef	-0.0031214913
90	0xbbde2471	-0.0067792465
91	0xbc36f0ad	-0.01116578
92	0xbe2147ad	-0.15749998
93	0xbd94dc3a	-0.072685674
94	0x3d5e2b8f	0.05424076
95	0x3dac689c	0.0841839
96	0xbdad2159	-0.08453626
97	0xbe14604d	-0.14489861
98	0xbdb09201	-0.08621598
99	0x3dfb8496	0.12281148
100	0x3a92a3de	0.0011187752
101	0xbe0dfc6f	-0.13865827
102	0xbda2cf5d	-0.07949708
103	0x3d4f390b	0.05059151
104	0xbe1c91f4	-0.15290052
105	0xbd386436	-0.045017444
106	0xbde411f9	-0.111362405
107	0x3cd29876	0.025707465
108	0xbdaf5f74	-0.08563128
109	0x3e61e47e	0.22059819
110	0x3d2d602e	0.042328052
111	0xbcde89be	-0.02716529
112	0x3d018144	0.031617418
113	0x3d9769b0	0.07393205
114	0xbd152221	-0.0364095
115	0x3d42ecef	0.04758924
116	0xbdb80bb8	-0.0898661
117	0x3d6ef3f9	0.05833814
118	0x3d3cecdb	0.04612432
119	0x3d172dd6	0.036908947
120	0x3dfc6806	0.123245284
121	0xbe011909	-0.12607206
122	0xbd6ed2c4	-0.05830647
123	0xbdac58e7	-0.08415394
124	0x3caa1443	0.020761615
125	0x3d5ac947	0.05341461
126	0x3d38db41	0.04513097
127	0xbd9a5729	-0.07536156
128	0xbc2096e0	-0.009801596
129	0x3c747ec7	0.014922804
130	0x3d529727	0.05141368
131	0x3de1d2d5	0.11026541
132	0xbd395acb	-0.045252603
133	0xbdc2ca8c	-0.09511289
134	0xbe126bad	-0.14298888
135	0xbd097926	-0.0335628
136	0x3d401d68	0.046903044
137	0xbd5331db	-0.051561218
138	0x3dc09946	0.094042346
139	0x3e1bad47	0.15202819
140	0xbce68665	-0.028140256
141	0xbd36031e	-0.044436567
142	0x3b534e1b	0.00322426
143	0xbd14e590	-0.03635174
144	0x3b95bf31	0.004569911
145	0x3d02e116	0.03195294
146	0xbd4994a6	-0.049214028
147	0xbdb5afa2	-0.0887139
148	0xbd8b47b1	-0.068007834
149	0xbcfa1814	-0.03052906
150	0xbdcdc221	-0.10046793
151	0xbdf6dc47	-0.12053733
152	0xbd85dfd4	-0.065368325
153	0x3df3ddf9	0.11907572
154	0x3d43d95e	0.04781472
155	0x3d0da468	0.03458062
156	0x3d9f46c4	0.07777169
157	0xbc838363	-0.016053861
158	0xbdd4589c	-0.103684634
159	0xbd892dcf	-0.066981904
160	0x3d882ffe	0.06649779
161	0xbdd9d161	-0.10635639
162	0x3df5c8c9	0.12001187
163	0x3dc97993	0.098376416
164	0x3e022717	0.12710224
165	0x3a4e64f8	0.0007873322
166	0x3da865f6	0.082225725
167	0xbccc0c91	-0.024908336
168	0x3b5e7d51	0.0033949206
169	0xbdd1fa4d	-0.10252819
170	0x3d5d2790	0.053992808
171	0x3c943f1f	0.018096505
172	0x3d1abdc0	0.037778616
173	0x3daa0926	0.08302526
174	0x3daa8568	0.083262265
175	0x3dd2f1fa	0.103000596
176	0x3c5a9a63	0.013342473
177	0x3e0e6363	0.139051
178	0x3d88da01	0.06682206
179	0xbcf7825f	-0.030213533
180	0x3dfbe909	0.12300307
181	0xbc24d612	-0.010060804
182	0xbddd1b07	-0.10796171
183	0xbcf4547c	-0.029825442
184	0x3dfa45b2	0.122203246
185	0x3d8ebc1f	0.06969475
186	0x3d653265	0.055956263
187	0xbcf04541	-0.029329898
188	0xbcea918c	-0.028633855
189	0x3d4ee293	0.050509047
190	0xbda7de12	-0.081966534
191	0xbdaf7337	-0.08566897
192	0x3e07e9ba	0.13272753
193	0x3e5ae89b	0.21377794
194	0x3c0c82b0	0.00857608
195	0xbdc01832	-0.09379615
196	0x3d8fbaca	0.07018049
197	0x3d42e044	0.047577158
198	0x3dbca56d	0.0921124
199	0x3e01220e	0.12610647
200	0xbcf8ec82	-0.030386213
201	0x3d5746ed	0.052557874
202	0x3d91a8fc	0.07112309
203	0xbdaeb9da	-0.08531542
204	0x3db1b6d7	0.08677452
205	0x3d8485b6	0.06470816
206	0x3df0cd70	0.11757934
207	0x3ca1391d	0.019680554
208	0x3dad3399	0.08457107
209	0xbe07c575	-0.13258918
210	0x3de1727a	0.11008163
211	0x3e253ecc	0.16137236
212	0x3c6bd915	0.014395018
213	0x3e8e0878	0.27740836
214	0x3ca5dcbc	0.020246856
215	0x3ca4bd7b	0.020109883
216	0xbd7129b0	-0.058877647
217	0x3c58dfc8	0.013236947
218	0x3dfda0d5	0.12384192
219	0x3ddb9ec3	0.10723641
220	0x3ceb6d94	0.028738774
221	0x3d2aa1d5	0.04165824
222	0x3e1a31c1	0.15058042
223	0x3de51610	0.11185849
224	0xbd09c7f4	-0.033637956
225	0x3d8efd29	0.0698188
226	0x3e0f251f	0.13979004
227	0x3d8d9ea0	0.06915021
228	0x3ca10288	0.019654527
229	0x3e29b142	0.16571525
230	0xbbd66c26	-0.006543654
231	0x3d43f812	0.047844
232	0x3e111e1b	0.1417164
233	0x3e245975	0.1604975
234	0x3dbdb138	0.092623174
235	0xbd5ead8d	-0.05436473
236	0xbe00c48c	-0.12574977
237	0x3e053844	0.13009745
238	0x3cdeb53a	0.027186025
239	0x3c76b082	0.015056731
240	0xbd843c6e	-0.064568385
241	0xbdf58879	-0.11988921
242	0x3be8adda	0.007100803
243	0x3d19524d	0.037432004
244	0x3e9dcf00	0.3082199
245	0xbdd96b99	-0.10616226
246	0x3d281e6c	0.041044638
247	0x3dc0b4fc	0.0940952
248	0x3dcb2607	0.099193625
249	0xbcb46052	-0.022018585
250	0xbcf82010	-0.030288726
251	0x3e0e9a88	0.13926136
252	0x3ce744d3	0.02823106
253	0x3d700fb5	0.05860873
254	0xbbdda38c	-0.006763881
255	0xbc4a0c82	-0.012332084
