STD/checkpoints/Res/VA_METRIC_state_epoch10.pth (torch, 719026 bytes, 28 tensors)

AFeatRNN.weight_ih_l0 f4 [256, 128]
00000000: 0cbd 39bc 86a5 cd3c 0da2 303e f998 463d
00000010: f62a 69bd 4b84 acbd 4a37 8dbd 5a65 c83d
00000020: ba7f a73d fefd 18bd 282f 14be 0145 57bd
00000030: dae8 cc3d bd3a e4bd 5597 febc a3a9 a9bd
00000040: d837 c33d d4bf b9bd 63eb 95bc 5502 f5bd
00000050: ac68 b5bc 107b 933d 71c9 2fbd 5df8 0c3c
00000060: 49b4 483d 3c24 0c3d 2531 85bd c0dc a6bd
00000070: b961 cf3d 023d 92bd a49e 943d 65dd babc
00000080: f290 a1bd 681f 41bc 9061 7ebd 9623 953d
00000090: 328f 9a3d 2cb4 03bd 7f35 fa3d a0dc f1bb
000000a0: 7fce c1bd e573 d13d 060d 903d 2179 c4bd
000000b0: 1543 a9bd cd37 33bd 60ee 9e3d 0f6d 493d
000000c0: f1d7 6abd 6c9f 6d3d 84ab 243d 7798 1bbd
000000d0: fabc e4bd 5b90 63bd 9d79 77bd 9553 c43d
000000e0: 94fb 14bc fd3d c13d 7f27 babc 4181 563d
000000f0: eaab 65bd 814c 8c3d 29e0 35be f5b9 eebc
00000100: 4e91 713d edb8 263e e72c 923c c2b4 97bd
00000110: 5f8c 2cbd 84fc 4a3d bc64 c4bd 8d0f bfbd
00000120: 7f67 373d 1279 1abd 09b6 963b 35ca 783c
00000130: 3a12 29bd a98f 8dbd bf6b e53d e497 cc3c
00000140: 42f3 e0ba f0c1 d4bc adc4 b33c f450 3cbd
00000150: 8257 a33d 5b5c 183e 7a76 5ebd 5a4c cbbd
00000160: d956 87bc 7910 3dbd b824 42bc 6828 09bd
00000170: 2cd2 f93c 5f87 833d 7fe7 703c 5231 b03d
00000180: f078 6d3b 02b9 cb3d e0d1 143d 6a1f fb3c
00000190: b24a ca3c 45d9 c3bb d28e 073e 15f7 b63d
000001a0: ff22 8b3d a03e efbd 3572 a0bb 946c 52bc
000001b0: deb4 853d 3f5b e33c 5c2b a5bc b04c 033e
000001c0: 3a6e 27bd a3c5 84bd ab93 863d b48b 203d
000001d0: b149 0fbe 271f e3bd 26c0 12be 9ba5 d33d
000001e0: 04b1 10be a6e8 d1bd c028 8cbd f287 fb3d
000001f0: 98f6 d33d 0421 94bd d578 c1bd e688 ca3d
00000200: 1ae3 163d e7d8 c03d 3eb0 a4bd 3304 a1bd
00000210: 0fa9 bebd bc3c d83c f6a8 a83d 261b d1bd
00000220: a167 a3bc 7561 4a3d 58d4 733d 40ab e83c
00000230: 8e3b a93c 1616 243d b2cd 933d ae0f ce3d
00000240: a402 5dbd 646e 8b3d 8fa1 883c c0ca 7c3c
00000250: ed20 5bbd 94ee a4bd f424 2d3c 8e49 033e
00000260: 5867 02bd 3d76 433d 008b c73c 0cf9 8b3d
00000270: 5ea6 d43d 9fe3 183e 6a9e c43d 6f60 e63c
00000280: eca6 98bd 7b5e fcbd b27d 113e cb08 e2bd
00000290: fac0 e8bb fdf4 a4bd b5df f3bb 3747 ff3d
000002a0: 9ad3 aa3d 7938 773c a201 093d beec 953d
000002b0: 9b51 a9bd 73e4 bcbd f7d3 c83d 8503 7b3d
000002c0: 6f18 ecbd 1522 983d 01ba c83d 1396 983d
000002d0: 65ee e13d ce39 213c e3e3 143e f70e 853d
000002e0: d136 fbbd 9a83 d3bd 5b16 2b3d 3b7f ccbd
000002f0: 1cfc 85bd 306c b53a 5a90 10bb 6936 8dbb
00000300: a883 a33d af6f e73d fe2b a3bc b77f c63c
00000310: b867 6fbd 2c02 433c 4c4b 65bd 3d66 afbd
00000320: 9ddc e2bd 2127 093e 67f3 a93d 75d5 983d
00000330: 8951 f6bd 0b69 37bd 5af3 e6bd f3a4 4ebd
00000340: b30a 83bd 1006 983d c20f 1bbd 4830 9c3d
00000350: ef5c de3d 5cce 013c 5419 dc39 e59b f7bc
00000360: 772c c0bd 7462 9fbd fdf4 1c3e 84dc f73d
00000370: c90a aa3d 0801 a83d a1d1 073e 4fec 98bd
00000380: b2e4 dbbc aca2 163d 36de d2bd 9946 58bd
00000390: f9db acbc cb90 74bd c6a2 b3bd 262f 6c3d
000003a0: 2598 433d d874 26bb 434a e13d 01f5 53bd
000003b0: 35a9 093d d7f7 bd3d f275 85ba a3b9 c73c
000003c0: dcc7 b6bd fb1d 7ebd 430b b9bd ee19 013e
000003d0: f268 c8bd fe36 5e3d eba6 733d 7a28 2b3c
000003e0: 274d 013c e3d8 85bc 8284 17bd a53d 52bc
000003f0: 3a7d 9fbd 4995 073e 769a 1d3e bbd8 adbd
-0.011336576 0.025103342 0.17249317 0.04848573 -0.056925736 -0.084236704 -0.06895311 0.09784956
0.08178659 -0.0373516 -0.14471114 -0.05255604 0.100053504 -0.11144016 -0.03107802 -0.08284309
0.09532136 -0.090697914 -0.018300718 -0.119633354 -0.022144638 0.07201207 -0.04291672 0.008604136
0.04900006 0.034214243 -0.06503514 -0.081475735 0.10126061 -0.071405426 0.07256821 -0.022810647
-0.07888974 -0.011787273 -0.06210476 0.07282178 0.075468436 -0.032154247 0.12217235 -0.007381037
-0.09463214 0.10227183 0.07033734 -0.09593416 -0.08264748 -0.043754388 0.0776031 0.049176272
-0.057334844 0.058013365 0.040202633 -0.0379872 -0.11168857 -0.05555759 -0.060418714 0.095862545
-0.009093184 0.094356515 -0.022723911 0.05236936 -0.056072153 0.068505295 -0.17761292 -0.029141406
0.058976464 0.16281481 0.017843677 -0.07407524 -0.042126056 0.049557224 -0.09589526 -0.09329138
0.044776436 -0.037713118 0.004599337 0.015184929 -0.041277148 -0.069121666 0.112021916 0.02497477
-0.001716234 -0.025971383 0.021944368 -0.04597564 0.07975675 0.14878981 -0.054312207 -0.09926672
-0.016520904 -0.046158288 -0.011849575 -0.0334858 0.030495726 0.06422304 0.0147036305 0.08603157
0.0036235414 0.09947397 0.036332965 0.030654628 0.02469382 -0.0059768283 0.13238075 0.08933846
0.06793784 -0.11681867 -0.004896427 -0.01284327 0.06528638 0.02775347 -0.020162277 0.12822223
-0.040876605 -0.06483009 0.06571134 0.03919573 -0.13992955 -0.11089926 -0.14331111 0.10334321
-0.14130026 -0.10249452 -0.0684371 0.12281789 0.103497684 -0.0723286 -0.09446875 0.098893926
0.036837675 0.09416371 -0.08041428 -0.07862129 -0.09309589 0.026396148 0.08235352 -0.10210256
-0.019946875 0.04940935 0.05952868 0.02840197 0.02065828 0.040060125 0.07216968 0.100615844
-0.053957596 0.06808165 0.0166786 0.015429199 -0.053498197 -0.08053318 0.010567892 0.12821028
-0.031836838 0.047720183 0.024358273 0.06834611 0.103832945 0.1493058 0.096005276 0.028122155
-0.07453713 -0.12322708 0.14208105 -0.110368334 -0.0071030827 -0.0805454 -0.0074424394 0.12464755
0.08341141 0.015089148 0.033448823 0.073205456 -0.08267518 -0.09223261 0.09806054 0.061282653
-0.11528098 0.07428376 0.098011024 0.074504994 0.11031798 0.009840442 0.14540057 0.06496995
-0.12266315 -0.103278354 0.041769367 -0.09985205 -0.06542227 0.0013841446 -0.0022058696 -0.0043094647
0.07984096 0.11300599 -0.019918438 0.024230821 -0.058448523 0.011902373 -0.05598001 -0.08564422
-0.11077235 0.13393833 0.082983784 0.07462589 -0.1202727 -0.04477791 -0.112768844 -0.050450277
-0.06398525 0.07423031 -0.037856825 0.076263964 0.108575694 0.007922735 0.0004198054 -0.030225703
-0.09383481 -0.0778245 0.1532783 0.12102607 0.08302838 0.08203322 0.13263561 -0.07466947
-0.026842449 0.03677623 -0.102962896 -0.052801702 -0.021100985 -0.059708398 -0.08771281 0.05766215
0.04775252 -0.0025399234 0.110004924 -0.051747326 0.033608634 0.09275787 -0.0010182245 0.02438051
-0.08924839 -0.06204031 -0.09035351 0.12607548 -0.09785642 0.054251663 0.059485357 0.010446662
0.00789193 -0.016338771 -0.036991604 -0.01283208 -0.07787557 0.13240542 0.15390953 -0.08488604

AFeatRNN.weight_hh_l0 f4 [256, 64]
00000000: ae41 06be b672 c93d 6106 853d 60a7 a6bd
00000010: 6b2b b23d 8555 6cbc 45ea 6c3d 6515 c23b
00000020: 9489 0fbe 0e65 f0bb c7d8 843c 38cc bf3d
00000030: 0dba d23d ab84 523d d61c 1e3d 3fe8 2b3c
00000040: 3d5d cdbc 7608 8bbd 4f89 d0bc 8c1e 803d
00000050: 222b 563d 460a cc3d b23f f53a 9e6d 173d
00000060: 8485 b2bd 68d9 e4bc 7331 053e 04c2 a33d
00000070: c593 9e3d 7445 68b8 2bc4 cbbd e327 02be
00000080: 5675 e3bc 54f4 4b3b 7d83 a2bd bc67 963d
00000090: b760 cfbd cce1 91bd 457a 1a3d 8415 2f3c
000000a0: 93ec 083d a844 b43d 8553 edbd d12b a5bb
000000b0: 3fcd 483d cce5 23bb d4f9 93bc ee7b 85bc
000000c0: d375 ac3d 7dbe 8ebc d592 17be e448 1abe
000000d0: 3ddf e4bc 8fae 0cbd fdcd 113d 2635 a3bd
000000e0: c336 bd3d c2b1 8bbd 6406 c0bc 4477 cabc
000000f0: 0586 c1bd 55d3 773d 7fe7 943b 36e9 c4bc
00000100: 1ab7 dcbd 18a8 15bd c762 893d 4351 91bd
00000110: 4227 d1bb bc93 78bd 2685 a43c c2e7 03be
00000120: 9744 24bd 913a 2e3d 0e6f 71bd b52f a8bc
00000130: 79eb 0d3e 29e3 7ebc fc66 893d c2e3 b2bd
00000140: 8f12 b83d 1902 ad3d dc76 c8bd 6244 19be
00000150: b427 b53d 8e0a f9bd bff5 cabd e7a6 deba
00000160: 64d1 84bd 063a cdbd 48d3 ccbc 9972 593d
00000170: ddc7 0dbe 74b7 38bd 6d32 adbd 698a 11be
00000180: 49a3 f5bc a9be 90bd 5a6c 8e3d 5110 cbbd
00000190: 0f68 19bd f28a 4abd 9a0e 1bbe 1f6b 2b3e
000001a0: e5e7 d33d c3b0 17be cb15 97bc 4b24 93bd
000001b0: a234 05be 59ae 49bc 06b0 403d 191b b3bd
000001c0: ee98 43bc 655c e93c 3b6d 56bd 8018 66bd
000001d0: c275 59bd 7135 40be f256 123d 29b4 febc
000001e0: 654c 883c 91f4 0abe 1a6b aebd 147a d8bd
000001f0: bcf4 6f3d b996 b13c a011 5f3e 18c9 163c
00000200: 8766 4c3d a012 2bbc 4008 813d 160b 093d
00000210: 9ee5 bb3b 456b 05bd 164b 323e aeb2 5c3d
00000220: 4538 e1bc 38be c73d 9b06 bbbc 8d34 993d
00000230: 85df 04be 62ee 8dbd 8219 333d b06a 8a3d
00000240: 45b3 7d3c 409c a13d a3a4 73bd 3dcc e3bd
00000250: 6acf 343d ab9b bb3d af61 c63d 4c73 c53c
00000260: 1672 8abb 2073 ddbd 1945 0cbe 7b19 653d
00000270: d7ec 55bd 5526 af3c 6b35 823d 74b8 0b3e
00000280: f460 ac3d 89a0 0e3e 7cad a93d 7799 55bd
00000290: 58ad b7bd 8615 c1bd 55ed cf3d 7f82 ed3d
000002a0: 163c 33bd 5d35 923d 4263 70bc c262 093e
000002b0: c7f9 713d 91ff a73d b2a2 b63d 0d8c ffbc
000002c0: 12af 673d f6f0 b03b 3828 35bd c64a 37bd
000002d0: 3673 0abd f5d0 1c3e 9af5 2ebd cece a2bd
000002e0: ae0b 863d 7d8c 3d3e f071 abbc 4d09 e43d
000002f0: 4683 083d 4c75 85bb 6f00 26be eff9 91bd
00000300: 5b87 1cbe 2f08 3ebd d72a ffbd 6412 8e3d
00000310: f271 cfbd 98ab a13d 93d1 98bc f2de 7dbd
00000320: 5c67 b0bd 5e7e d7bc d364 4a3d e13b 8fbb
00000330: e4d0 c83c 36fd e93c dfc7 983d d773 313d
00000340: 9de1 c53d e405 fd3d 1380 03be e9b7 ad3d
00000350: 05e4 8cbd 309f bbbd 9c63 ec3c a552 a0bd
00000360: 8ed8 ccbc 9931 003d 65b0 223d 0f40 0dbd
00000370: d48b b5bc 328e dbbd 5683 0aba c774 44bd
00000380: e4ad c8bb ca51 933c cf53 433c 0d91 2bbd
00000390: 1d4d 96bd 0dd8 c6bd a1ad 2a3d d310 db3c
000003a0: b36c 093d 7b26 51bc f9aa f3bc 1eba 87bd
000003b0: e6c5 103c 907f 0ebe 47e4 d9bc 531f 00be
000003c0: be43 e23d 2934 38bc de85 813d f62f ad3d
000003d0: b7be 833d d5a9 fd3b 35ba c8bc c664 bc3d
000003e0: 0670 5c3d dd4a c23d 2cee b7bd 8b4d a03d
000003f0: 8af3 ae3b d80f a73d 5749 c0bd e7de b53d
-0.13110992 0.098363325 0.06495357 -0.08137393 0.086996876 -0.014424686 0.057840604 0.0059229606
-0.14017326 -0.0073362654 0.016216649 0.093651235 0.102893926 0.051396053 0.03860172 0.0104923835
-0.025068874 -0.06788723 -0.025456099 0.06255826 0.05228723 0.09962897 0.0018710999 0.036969773
-0.08716872 -0.027935699 0.13007145 0.0799599 0.077430286 -5.5377794e-05 -0.099495254 -0.12710528
-0.027765911 0.0031120973 -0.07935236 0.073440045 -0.10125869 -0.071231455 0.03771426 0.010686282
0.03342874 0.08802158 -0.11588196 -0.0050406237 0.049023863 -0.0025008796 -0.018063463 -0.016294446
0.08420911 -0.017424816 -0.14802106 -0.15066868 -0.02793848 -0.03434616 0.035596836 -0.07969122
0.092389606 -0.06821014 -0.023440547 -0.024715073 -0.0944939 0.060504276 0.004544198 -0.024036985
-0.10777111 -0.03653726 0.067082934 -0.070955776 -0.0063828537 -0.060687765 0.020083021 -0.12881377
-0.040104475 0.042536322 -0.0589438 -0.020530561 0.13859357 -0.015557089 0.06709096 -0.087348476
0.08987915 0.08447666 -0.097882956 -0.14967492 0.088454634 -0.12160216 -0.099101536 -0.0016986997
-0.064852506 -0.10020833 -0.02500309 0.053087804 -0.13845773 -0.04509683 -0.084568836 -0.14212956
-0.029985087 -0.070676155 0.0695426 -0.099152215 -0.037452754 -0.049448915 -0.15142289 0.16740082
0.10346965 -0.14813523 -0.018443009 -0.07184657 -0.13008359 -0.012309634 0.04704287 -0.08745403
-0.011938317 0.02848644 -0.052350264 -0.05617571 -0.05309082 -0.18770386 0.03572745 -0.031091766
0.01663799 -0.13569857 -0.08516522 -0.105701596 0.058583006 0.021678315 0.21784067 0.009203218
0.049902465 -0.010441452 0.06300402 0.033457838 0.0057341596 -0.032573003 0.17411456 0.05388134
-0.027492652 0.09753078 -0.022830298 0.074807264 -0.12975891 -0.069302335 0.043725498 0.0675863
0.015484636 0.078911304 -0.05948318 -0.1112294 0.044143118 0.09160551 0.096866004 0.02410283
-0.004225026 -0.10812974 -0.13698234 0.055932503 -0.05222782 0.021380583 0.06357845 0.13644582
0.0841693 0.13928427 0.08285043 -0.05214831 -0.089686096 -0.094279334 0.10152689 0.11597156
-0.043758474 0.071390845 -0.014672102 0.1341658 0.059076097 0.08203042 0.089177504 -0.031194711
0.056563444 0.0053998185 -0.04422781 -0.044749044 -0.03380128 0.15314086 -0.042714693 -0.07949601
0.065451965 0.18510623 -0.020928353 0.111345865 0.033328317 -0.004072821 -0.16211103 -0.07127749
-0.15286009 -0.046394523 -0.12459343 0.069371015 -0.10129155 0.07894057 -0.01865462 -0.061980195
-0.08613464 -0.026305374 0.04941256 -0.004371152 0.02451367 0.028563123 0.074599974 0.043323364
0.09662173 0.12354639 -0.12841825 0.08482344 -0.06879429 -0.09161222 0.028856091 -0.07828263
-0.025005605 0.0312973 0.039719004 -0.03448492 -0.022161402 -0.10720481 -0.0005283853 -0.04796293
-0.006124245 0.017983336 0.011921837 -0.041886378 -0.07338927 -0.09709177 0.04166949 0.02674142
0.03355093 -0.012765522 -0.029744612 -0.06627296 0.008836245 -0.13915849 -0.026598109 -0.12511949
0.11048077 -0.011242905 0.06324361 0.084564134 0.0643286 0.007741193 -0.024502853 0.091989085
0.05381777 0.09486935 -0.089809746 0.0782729 0.0053390907 0.08157319 -0.093889885 0.08880406

AFeatRNN.bias_ih_l0 f4 [256]
00000000: b6c9 a03d bd35 873c e582 9fbd c981 d33d
00000010: fa49 703c 0a04 cf3d 4b0e 653d 5278 d63c
00000020: 20ee e13d fd84 183d 3e8a a33d 0788 e7bd
00000030: a808 cbbd 4549 8a3d c572 c83d b46d 7e3d
00000040: e7a5 87bd 5636 00bd 4834 84bd c9c4 a63d
00000050: f1b8 3fbd c9c9 95bd 7641 b63d 445e ce3c
00000060: 9735 84bb c4c5 053e 6216 0f3e 7f06 eabd
00000070: 4172 f23d dc9e 113a 3887 d43b ccfc e53d
00000080: 57d5 1e3d eb65 2b3d 372c d4b9 8cae ec3c
00000090: 2e87 393d 33b5 973b 6667 b03d 09c6 65bd
000000a0: 9e09 063d ce89 9fbb 728f 9e3c e3a8 703d
000000b0: 38d1 543d fba0 5cbc ff94 f03d 38d7 8e3d
000000c0: 0e3d b2bd 7286 803d 4681 e0ba bc25 efbc
000000d0: 37c9 d43d 7e72 1dbd 6f45 cc3d 8533 4fbb
000000e0: 02e2 e63b 4d03 933d 6f98 843d c0bd dabd
000000f0: 5e21 d13d e4ed 7cbc 5ca9 083e d1ab b33d
00000100: 7dfb ad3d 39e9 bc3c 605c 8a3d e470 adbd
00000110: 412c bb3b 098f 24bd ccd1 873d 2de6 4dbc
00000120: d0b7 e13c cf59 cebd a262 27bd 532d af3d
00000130: 23b3 10bd fa01 613d af45 e2bd ef48 6fbd
00000140: 24e5 8e3d e873 92bc 5c85 323b f9ba 28bd
00000150: da0c f13c c8c4 ac3d 4f04 753d 59c3 a83c
00000160: 2b62 1c3c da0d 7abc e6b6 1f3c 295c aebd
00000170: ccac ce3d 61df 13bd 67bc c9bd 119d f13d
00000180: f2a9 59bc d1bc 773d ff69 a63d a8b4 ac3c
00000190: cd16 f1bd 4154 99bc b2f7 5f3d 2bda e0bd
000001a0: fe88 aabd 2f0d 03bd 7ffe 9a3d 463a 9dbc
000001b0: 50d2 b23d cb40 923d b7eb d83d 5630 b33d
000001c0: 16f1 ef3d cc42 9f3d 692c 6c3d 4b0b babc
000001d0: 4864 b0bc 9818 ccbd 9ef2 afbd 3a4e 963d
000001e0: 970c cdbd 2695 e4bd 6c92 183d 1050 9c3d
000001f0: 1bb0 393d a428 09be e384 5abd 8d83 ccbc
00000200: 26ec d3bd a25c b5bd 8717 acbd b479 fd3c
00000210: 3c28 0cbd da55 8b3d 99c8 21bd b9c9 cdbd
00000220: 8350 a8ba cd1f 9fbd 11b7 833d cce9 be3d
00000230: 3995 dbbd dbf1 573d b46a 1a3d 7bf0 973d
00000240: 9b23 b1bb 3197 233c 8df5 2bbd 0fe1 8c3c
00000250: 82c9 293d 7111 94bd ffb2 91bd 9651 883d
00000260: c9e4 0a3e 708e ab3d d74f fabd 18c4 b63d
00000270: 4195 bc3d 297c 13be 4ced d639 786b a03d
00000280: 3d9b 513d 64ce 92bd 7093 cebd 2bbe 943d
00000290: 4910 c53b a157 133d 45d7 9d3d 279c b1bd
000002a0: 1a1e d73c b30a 123d 05e5 bcbd 667a 98bd
000002b0: 929c 9c3b f516 eb3b dd70 ba3d fc01 d5bb
000002c0: bce1 13bc b931 03bc 13c2 853d b3c9 f33d
000002d0: ad88 ad3d 2e2d 62bd a949 b8bd d8dc e53d
000002e0: 74fe 9d3d e79e f4bd 1c4b d1bd ed27 fa3c
000002f0: a89d a0bc 7b6c bf3d 2fe0 893d c4a6 8c3d
00000300: 56cf c4bd 277d c0bd 021c acbd 8f37 dcbd
00000310: d0be a8bd a32d ab3d 3f71 b1bc 9cad 6abd
00000320: efc8 6cbb 755e 043d 82b9 413d 9233 d53c
00000330: b134 d1bd 5dd3 b53d 5442 c53c 070a ffba
00000340: 8f88 163e 5084 adbd e967 f4bc 5cb0 903d
00000350: adb0 5ebd 3acd d4bd bb85 993c fefb 1c3d
00000360: f16c 93bd 8d82 2b3e 6b86 893d d4bf d83c
00000370: 9012 45bd e544 c13c ec6c 83bd 32c1 d1ba
00000380: a158 05bd c4cb 523d 5927 273e a922 04be
00000390: 2a13 bebd fcdb 9d3d 25b1 113d 577a a83d
000003a0: 9b55 ef3d 9035 173c 2182 a7bc e250 883d
000003b0: ffad 1d3d 18d3 32bd aea9 a83d 494c b43c
000003c0: 7d99 6cbd a0c7 2e3e 4914 f53c 7279 a9bd
000003d0: 63c9 95bd 7e75 7abd 1853 bfbd 69a0 873b
000003e0: de4a 113e cf62 023e 47d7 f3bc e392 063e
000003f0: 7564 173d ee87 80bd f7b1 46bc d7c8 a83d
0.07850973 0.016505117 -0.07788638 0.10327489 0.014666075 0.10108192 0.055921834 0.02618042
0.11031747 0.037236203 0.07985352 -0.11305242 -0.099137604 0.06752256 0.097875156 0.06211634
-0.0662344 -0.03130182 -0.06455284 0.081430025 -0.046807233 -0.07313878 0.088992044 0.025191434
-0.0040347087 0.13063723 0.13973382 -0.1142702 0.118381985 0.0005554983 0.006485846 0.11229858
0.038777675 0.041845243 -0.00040468734 0.028891824 0.045294933 0.004629755 0.08613472 -0.056097064
0.032724015 -0.0048687225 0.01935551 0.058754813 0.05195734 -0.013466115 0.11747169 0.069746435
-0.087030515 0.062756434 -0.001712837 -0.029192798 0.10389941 -0.038439266 0.09974181 -0.0031616401
0.007045985 0.07178364 0.06474387 -0.10680723 0.102114424 -0.015437577 0.13345855 0.08773006
0.08495233 0.023060428 0.067559004 -0.08468798 0.0057120626 -0.04017547 0.066318125 -0.012567085
0.027553469 -0.100757234 -0.040865548 0.08553567 -0.035327088 0.054933526 -0.11048447 -0.058419164
0.06977299 -0.017877534 0.0027240133 -0.041193936 0.029425073 0.084359705 0.059818562 0.020600962
0.009544889 -0.0152620915 0.009748196 -0.08513672 0.10091552 -0.036101703 -0.09850388 0.11797536
-0.013285147 0.060482804 0.08125686 0.021082237 -0.11771927 -0.018716933 0.05467958 -0.10979112
-0.083269104 -0.031994995 0.075680725 -0.019192826 0.0873152 0.071412645 0.10591834 0.08749454
0.11715905 0.07776412 0.05765954 -0.022710463 -0.021532193 -0.099656284 -0.085911974 0.07339139
-0.10012167 -0.1116126 0.037249014 0.07632458 0.045333963 -0.1339441 -0.053349387 -0.024965072
-0.10347776 -0.08855559 -0.08402925 0.030941822 -0.034218058 0.06803484 -0.039497945 -0.10048241
-0.0012841377 -0.077697374 0.064314015 0.09321937 -0.10721821 0.052720886 0.037699416 0.07418915
-0.005405856 0.009984777 -0.041982222 0.01719716 0.04145194 -0.07229889 -0.07114219 0.06656186
0.13563837 0.08376777 -0.122222595 0.08924121 0.092081554 -0.14402832 0.0004099406 0.07832998
0.051173437 -0.07168272 -0.10086715 0.07262834 0.006013904 0.03597224 0.07707075 -0.08672362
0.02625947 0.035654735 -0.092233695 -0.07445221 0.004779407 0.0071743676 0.09103558 -0.0065004807
-0.009025987 -0.00800746 0.06531157 0.119037054 0.084733345 -0.055218868 -0.089984246 0.11223763
0.07714549 -0.11944371 -0.10219404 0.030536616 -0.019606426 0.09346863 0.06732213 0.068677455
-0.09609859 -0.09398871 -0.084037796 -0.107527845 -0.082395196 0.08358314 -0.021660445 -0.057294473
-0.0036130508 0.032316644 0.047296055 0.026025567 -0.10215128 0.08878205 0.02407948 -0.0019457944
0.1470053 -0.08472502 -0.029834704 0.07064888 -0.05436771 -0.10390706 0.018740525 0.038326256
-0.07198513 0.1674902 0.06715091 0.026458658 -0.048113406 0.023592422 -0.064172596 -0.0016003011
-0.032555226 0.051463857 0.16323604 -0.12903847 -0.09280999 0.07707974 0.03556933 0.082264595
0.1168625 0.009229079 -0.020447792 0.06656052 0.038496014 -0.043658346 0.08235489 0.022009032
-0.057763565 0.17068338 0.0299169 -0.08275117 -0.07313802 -0.061147206 -0.09342021 0.0041389954
0.14188716 0.12733005 -0.029765738 0.1314197 0.036961038 -0.062759265 -0.012127391 0.08241432

AFeatRNN.bias_hh_l0 f4 [256]
00000000: d661 99bd 43c9 133d db48 2abd ee2b 023e
00000010: b6d7 663c 3a2a 0b3e 1e48 193e 2f0d 013e
00000020: f721 e83c e577 c73d e25f 083e 9384 c23d
00000030: 783a 853d dce3 1dbc 1015 223e 491d 3b3d
00000040: b53b 073e 3e64 ddbd f236 f03c ad06 f23d
00000050: 4df7 33bd 7f8c 2c3c 7180 a0bc ddd0 09bd
00000060: 5344 4e3d b083 703d 36ba 083e 4d0a cfbd
00000070: fd77 02bd 11af bc3c 0848 763c 5d53 85bc
00000080: 544e e2bc 9516 2abd e28e 143e 65a5 b23d
00000090: b9c4 61bd 972c 483a 3ccd 08be 3750 c43d
000000a0: 4c26 f03c e950 9d3d a465 163e 1863 75bd
000000b0: e55d eabd dfb7 be3c 27f4 acbd 4861 91bd
000000c0: 6296 00bd 216a 68bd ca28 a5bd b3e4 b53d
000000d0: cd8b 673c aa75 22bd 6b8f 7bbc 381a 093e
000000e0: 4d6c 0cbd f61a 48bd 1094 f53c 2a74 c9bd
000000f0: 751f 9d3b 1558 7e3d 7f0f f33d 77d7 6abd
00000100: 7dad 443d 5c04 7f3d 2336 433d 052f 503d
00000110: a31b d9bd 0352 85bc 632a 243d ee32 a23d
00000120: 403f 1ebc 83c2 c3bc 7b0b 953d ac3d 463d
00000130: c514 103d b3bc 26bd 076f aa3d fe53 eabc
00000140: 81c3 873c 7b84 8fbd 8dc5 bd3b 8f91 943d
00000150: f3b0 4fbc 42c8 e33d 31b7 123b ea7e d93d
00000160: adb4 a8bd 32e6 6a3a 2017 013c 83c3 cd3d
00000170: ee96 d43d 1bea dcbd d52d 8ebc a7c4 9e3d
00000180: 3f89 c93c 622a f1bd 2276 4bbc 68bf be3d
00000190: 4da0 68bc 1b0b bbbd 39f3 8c3d ff19 8a3d
000001a0: 7ab0 08be 1050 f33b e1a3 643b bceb b6bc
000001b0: 3d09 6a3d 43f0 bfbd 341b 80bc 6f96 b5bc
000001c0: 81e5 24bd 0889 d83c 9984 f63d f3f5 98bd
000001d0: d441 8abd 3e1a 8a3d 1ea0 bfbd f49a cfbd
000001e0: 0909 f23d f630 df3d e231 94bd 533e 553d
000001f0: b092 e93d 7c7f a0bd 19a0 72bd e45c f9bc
00000200: 990c f7bc 5797 8d3c 1de4 bc3d ef8d 80bd
00000210: 0153 283d 1902 9bbd cb55 2f3d 3f39 fb3d
00000220: ccc4 ee3d 2f18 d73d 2227 573d b500 843d
00000230: 786d 00bd 909b 0cbe 8b8c e83d 2477 20bd
00000240: 424d b33c 17b6 98bc cb73 5eba b71b 923d
00000250: 3e38 3ebd 5524 103d bb7d df3d 6810 f13b
00000260: ad2a 1c3e d025 21bd 4788 b73d be30 9b3b
00000270: 37c6 a9bd e4b9 e03c e7fd 1a3d cab6 313d
00000280: dfe3 5bbd 68d5 f93d b174 5ebc 1730 9cbd
00000290: 1e4f 873d 1e09 9b3d 5b69 d73d e093 313d
000002a0: 9df5 e03d 05fb ad3d 5096 afbb 7967 9ebd
000002b0: 71a0 843d c890 97bd 3329 2c3c 377e 8e3d
000002c0: f794 d73d e965 463c 3494 97bd f03c 32bc
000002d0: b55a 5bbd e991 f8bd c307 d8bc f42c dabd
000002e0: fc0b ddbd fa95 95bc 4ccb 403d a3b8 d3bd
000002f0: 4fbf ecbd c54a 16ba 87f8 4bbd a2b5 a9bd
00000300: 1369 083d d344 b03c 158f 803c 21cc 09bd
00000310: a78f 94bd 59ea a0bd d0c0 993d 086e c13d
00000320: 1489 cd3d 7fcb 9a3c c56b f33c d88f bdbd
00000330: f55c d3bd 3770 0abd b5d8 ac3d 3388 07bd
00000340: daaa 1c3d 6cf2 87bd c7a9 463d 177c 153d
00000350: b2f7 873b b817 f7bc 97ae 513c cee7 0c3c
00000360: 1f3d 90b9 9731 c33d 4177 923d bcbc d1bd
00000370: dff6 ec3d 231c 913d 9402 e23b 0ba8 aa3d
00000380: 0ae8 8bbd 8499 26bd ac47 153e 8a75 a33d
00000390: 6022 8c3d 2735 163c 0576 0d3d 62d7 a0bd
000003a0: 7683 1e3d 6c71 30bd 3005 003d da34 db3c
000003b0: 2d85 f3bd 37e1 c7bc 69ef c5bd 12f0 3a3d
000003c0: 7b50 f2bd 2960 bb3d a076 d03d 6075 de3c
000003d0: 60ab 053e 1053 fb3d a66d df3d 29ac db3d
000003e0: a1f5 cfbd d9e9 773d ce07 0f3e 51bb d7bd
000003f0: ede4 03bd 28e2 42bd 8407 d03d 1002 72bd
-0.07489364 0.03608061 -0.041573387 0.1271207 0.014089515 0.13590327 0.14968917 0.12602685
0.028336508 0.09739665 0.13317826 0.09497943 0.06505293 -0.009636845 0.15828347 0.045682225
0.1320637 -0.10810135 0.029323075 0.118176796 -0.043937016 0.010531544 -0.019592496 -0.033646453
0.050358128 0.058719337 0.13352284 -0.101093866 -0.03185271 0.023032697 0.015031822 -0.016275102
-0.02762524 -0.041525442 0.1450763 0.08722953 -0.05511925 0.0007636039 -0.1335954 0.09585612
0.029315136 0.07681448 0.1468721 -0.059908956 -0.1144369 0.023281036 -0.08445006 -0.07098633
-0.031393416 -0.056741837 -0.080644205 0.088815115 0.014132452 -0.039662994 -0.015354018 0.13388908
-0.03428297 -0.048853837 0.029977828 -0.0983661 0.0047950097 0.06209572 0.1186819 -0.05733439
0.048017014 0.062260017 0.04765905 0.05082609 -0.106009744 -0.016274458 0.040079486 0.0791987
-0.009658635 -0.023896461 0.0727758 0.04839866 0.035176057 -0.0407073 0.08321958 -0.028604504
0.016572716 -0.070076905 0.005791372 0.072543256 -0.012676465 0.111221805 0.0022387023 0.1061991
-0.08237586 0.00089606934 0.007879049 0.100470565 0.1038035 -0.107868396 -0.017355839 0.07752352
0.024601577 -0.11775662 -0.012418302 0.093138516 -0.014198375 -0.091329776 0.068823285 0.067432396
-0.1334857 0.0074253157 0.0034887719 -0.022329204 0.057137717 -0.09371998 -0.015637971 -0.022166459
-0.040257934 0.02643253 0.1203701 -0.07468786 -0.06750837 0.067432866 -0.09356712 -0.10136977
0.118181296 0.108980104 -0.07236077 0.05206139 0.114049315 -0.07836816 -0.059234712 -0.030439802
-0.030157374 0.017284079 0.09223197 -0.06277072 0.041094784 -0.075687595 0.042806428 0.12266778
0.1165863 0.105026595 0.052527554 0.06445447 -0.031354398 -0.13731217 0.113549314 -0.03917612
0.021887425 -0.018641515 -0.00084858824 0.071341924 -0.046440355 0.0351909 0.10912653 0.007356692
0.15250655 -0.0393427 0.0896154 0.004736035 -0.082897596 0.02743239 0.037839796 0.04338721
-0.05368411 0.12198907 -0.013577626 -0.0762636 0.06606887 0.07570098 0.10518142 0.043353915
0.10984347 0.08495144 -0.005358495 -0.077345796 0.06475914 -0.07400662 0.0105078695 0.06957667
0.1052646 0.012109258 -0.074013144 -0.010878786 -0.0535533 -0.12137205 -0.026370889 -0.106531054
-0.107933015 -0.018259991 0.04706888 -0.10337951 -0.11559927 -0.00057331874 -0.04979756 -0.08286597
0.03330333 0.021517193 0.015693227 -0.033641938 -0.07253962 -0.07857198 0.07507479 0.09444815
0.10035911 0.018895863 0.029714474 -0.09255952 -0.103204645 -0.033798423 0.08439771 -0.033088874
0.038248874 -0.06638035 0.048501756 0.036495294 0.0041494006 -0.030162677 0.012797973 0.008600188
-0.0002751136 0.09530943 0.07151652 -0.10241076 0.115705244 0.07085445 0.00689728 0.08332833
-0.06831367 -0.040673748 0.14578122 0.07981403 0.06842494 0.009167946 0.03453638 -0.07853581
0.03869959 -0.043076918 0.031254947 0.0267586 -0.11890636 -0.024399383 -0.096648045 0.045639105
-0.11831757 0.091492005 0.10178876 0.027155578 0.13053656 0.12271702 0.10909586 0.10726196
-0.10154272 0.06052575 0.13967821 -0.10533775 -0.032200743 -0.04757896 0.101576835 -0.059084

AFeatRNN.weight_ih_l1 f4 [256, 64]
00000000: 647c 2dbd 886e 16bd e211 02be 0ce2 a0bc
00000010: 51e1 e83d e3e0 153d 6eb7 a83a 2e9d af3d
00000020: 841f c2bc a7a3 5b3d a7c8 f43d 9069 c03d
00000030: d239 493d c343 18bd cf88 913d 3376 82bd
00000040: dee6 a33d b8ed 2fbd 5a23 a43c 2616 40bd
00000050: f596 573c 645d 01be b86a a83d 9aea 173d
00000060: 74de ebbd fd6a 9e3d 711c 8cbb 4f09 dcbc
00000070: 0b86 0e3e e2a1 a83d a864 8bbc f4bb 233d
00000080: 7b38 be3d dc4f 8e3c 9b1c 083e 11f3 e83d
00000090: c1f9 813d eaa8 20be fb01 17be 9172 bb3d
000000a0: 9c5e 3f3d a1dc bf3d 42d1 58bd feab 60bd
000000b0: eb42 7cbc 6520 4f3d ff6b a1bb 81b7 16bd
000000c0: 6b9d c73d 56cd 87bc e90c 2b3e 3592 f4bd
000000d0: d26e 553e a5f5 a0bd 59cc cd3d eced 003e
000000e0: 9ba3 d23c ce13 0f3e 9b17 ef3d b86e 3ebe
000000f0: 965a acbd d54a 93bd 2d9e 693d 1ba1 17be
00000100: 9c0e 00bc 7763 913d 6f48 31be 6f7f a33d
00000110: 8c49 993d dfd1 053d 8b31 683b 4531 f63d
00000120: 3d30 59bd f821 883d 500e 4c3d 830b 42bd
00000130: e70b 933d 62df a5bd f498 c53d 812c 953d
00000140: 013c cc3d 39ce c2bd 4e25 7bbc 3926 d83d
00000150: ec1b 1ebd 2ae4 bc3d 5d41 853d 577b 2fbd
00000160: b4c9 17be 4d54 de3d eecb 7b3d 3cb1 8fbd
00000170: 11ed a23d 8d32 df3d 4d7a 303d 20fb d3bd
00000180: 2381 be3d e81a 24be a137 ec3c ced3 d9bd
00000190: 7c8a cc3d 43d8 bc3d 9b70 b7bd a373 a23d
000001a0: 3022 c9bd f1fc 88bd bfc7 12be 260e 8bbd
000001b0: 3566 2a3e 5de9 d53b 6051 da3d 325d aa3d
000001c0: cfeb 223b aa3e c3bd 332a 923d 278c 213e
000001d0: b997 62bc 912b e93c 0bf4 0ebe 06d0 c1bc
000001e0: 1f27 d23c 1655 1b3b 4b43 cfbd b579 af3d
000001f0: 62d7 d7bc 982c 973d 8db5 733d 15b7 f03c
00000200: 2eb4 223d 6763 013d e351 af3c 76e1 a7bd
00000210: 9a86 9e3d 9fb3 b83d e753 263e 6895 283d
00000220: 95a2 1a3e 7afb eabc 0260 103e aba9 0fbe
00000230: 70a1 853d a275 57bd a466 f6bd 4ee7 81bd
00000240: f732 e73d d60c c5bd 46f2 cd3d f988 4bbd
00000250: 43cf e6bd 2910 243c 7905 11bc 299d 6c3d
00000260: 946b 78bd b355 47bc 5f70 debc e3e8 993b
00000270: d916 0abd a31b f7bc c9cb aa3a 3464 a23d
00000280: 07a3 c1bd 6dc3 013d 738a 5c3d 72bc 2f3d
00000290: 831a cc3a 69ad 7f3c bcd1 483c eac3 b43c
000002a0: 7638 163e cb8b cbbd c173 3e3d ed39 d43d
000002b0: 5033 a1bd 3ccd a33d 1b36 98bb d5c2 1b3d
000002c0: 75aa 1f3c 21c9 283e 2b66 af3d 913f a53d
000002d0: bb1b f2bc 57a6 cfbd 720f 0fbe 9738 45bc
000002e0: 4522 8ebd ce3b dc3d 2896 c33d 300c c0bd
000002f0: a354 16be 93cd 16bd 59cd 95bd 9616 00be
00000300: fdf2 873b 3e92 993d c595 0f3b 01cf 7fbd
00000310: 1be4 ef3c 8c8a 58bd 389e 04be 85f9 893d
00000320: ccf5 913d 66b1 1d3d d0d9 b03c cf9b 9b3c
00000330: b731 373c 94f8 8f3d 4bc7 c6bd 8f38 f0bd
00000340: d693 93bd 8a02 c83c 1be0 493d c7a7 78bd
00000350: e364 a23d 087a 41bc 0041 78bd a6dc 863d
00000360: d9fa f73d ebca f03c c955 1d3e 1403 2f3d
00000370: 51a9 d0bd a3c5 4dbd 793a 85bd cd4f 703d
00000380: 6b59 ee3c ede5 c63d 4329 923c 9d1f 143e
00000390: 5df8 9b3d 2756 b6bd c738 f9bd bc98 9ebd
000003a0: db0f ca3c c948 753c 9dd2 683c d61e fe3d
000003b0: 45ce c4bd 63d9 33bd e788 e93c 85b8 95bd
000003c0: 1163 9ebd d705 993c b0c4 d9bd 3019 8f3d
000003d0: f803 a73d 01a4 babd 77be ba3c 0619 dfbd
000003e0: e6c2 7fbd ef9a febd 776d 47bd 6597 b7bd
000003f0: f1d9 413d 1615 e8bc 916d a7bc 216c c2bc
-0.042354956 -0.036726505 -0.12702134 -0.019639038 0.11371101 0.03659142 0.0012872049 0.085749015
-0.023696668 0.053622868 0.11952334 0.093951344 0.049127407 -0.037173998 0.07106172 -0.06370201
0.08003019 -0.042951316 0.020036388 -0.046896122 0.01315855 -0.12633282 0.0822348 0.037088968
-0.11517039 0.0773525 -0.0042758514 -0.026859907 0.13918321 0.08234002 -0.01701577 0.039974168
0.092881165 0.017372064 0.13292162 0.11374486 0.06346465 -0.15689436 -0.14746849 0.09152711
0.046721086 0.093682535 -0.05293394 -0.054851525 -0.015396814 0.050568003 -0.004926204 -0.036796097
0.09746822 -0.016577404 0.16704144 -0.11941949 0.20843056 -0.07859353 0.10048742 0.1259076
0.025712779 0.13972399 0.11674424 -0.18596923 -0.084157154 -0.071920075 0.057035614 -0.1480755
-0.007815983 0.070990495 -0.17312787 0.079832904 0.07484731 0.03267085 0.003542992 0.12021116
-0.05302452 0.06647104 0.049818337 -0.04737426 0.071800046 -0.080992475 0.09648314 0.07283879
0.09972382 -0.0951199 -0.015328718 0.105541654 -0.038600847 0.09223206 0.06506608 -0.042842235
-0.14823037 0.10855923 0.06147378 -0.07016227 0.07955373 0.10898314 0.043085385 -0.10350633
0.093019746 -0.16025889 0.02883512 -0.10636102 0.09987351 0.09220936 -0.08957025 0.07932212
-0.09820974 -0.0668887 -0.1433401 -0.06789808 0.16640551 0.006528063 0.10660052 0.08318557
0.002485979 -0.095334366 0.07136955 0.1577612 -0.013830119 0.028463157 -0.13960283 -0.023658764
0.02565342 0.0023701838 -0.10120257 0.08568136 -0.02634782 0.073815525 0.059499312 0.029384175
0.039722614 0.031588938 0.021401351 -0.081973 0.07740517 0.09018635 0.16242944 0.04115811
0.15101083 -0.028684366 0.14099124 -0.14029567 0.065249324 -0.052602418 -0.12031296 -0.06342946
0.11289018 -0.09621589 0.100559756 -0.049691174 -0.11270001 0.0100136185 -0.008851402 0.057767067
-0.06064947 -0.012166428 -0.027153192 0.0046969517 -0.033713195 -0.030164545 0.0013030703 0.079292685
-0.09454923 0.031680513 0.053842973 0.042904325 0.0015571866 0.015605309 0.012257036 0.022066075
0.14669976 -0.09938773 0.04649711 0.10362611 -0.07871115 0.0799813 -0.0046451217 0.038027603
0.00974523 0.16482975 0.08564409 0.08068765 -0.029554239 -0.10139149 -0.13970736 -0.012037418
-0.0694013 0.10753594 0.095501244 -0.093773246 -0.14680724 -0.036817145 -0.073145576 -0.12508616
0.0041488395 0.074985966 0.0021909338 -0.062453274 0.029283574 -0.052866504 -0.1295098 0.06737045
0.0712696 0.03849926 0.021588236 0.018995194 0.011181287 0.070298344 -0.09705981 -0.11729538
-0.07205932 0.024415273 0.04928599 -0.06070688 0.07929399 -0.01180888 -0.060608864 0.06585054
0.12108392 0.029393634 0.15364756 0.042727545 -0.101885445 -0.05023731 -0.065052934 0.058669854
0.029095372 0.097118236 0.01784194 0.14465185 0.07615731 -0.08903151 -0.121690325 -0.077439755
0.024665764 0.014970967 0.01421037 0.12408225 -0.09609655 -0.043908488 0.028507663 -0.07310585
-0.07733739 0.018679542 -0.10633218 0.06987226 0.08155054 -0.091133125 0.022795899 -0.10893445
-0.06244173 -0.12431895 -0.04868838 -0.08964423 0.047326986 -0.028330367 -0.020437988 -0.0237332

AFeatRNN.weight_hh_l1 f4 [256, 64]
00000000: 879b 00bd 3ada e33c 7b9a c0bc 42c3 a13c
00000010: 812f c63d 987e 503d aabc f1bc 9156 423d
00000020: 8424 783d d473 9ebd d6fa d83d 1e12 72bd
00000030: d2bd a0bd 2344 59bb 881f d9bc c94c 623c
00000040: 42db 22bd b403 0b3c df52 ad3c a8e3 1b3e
00000050: e443 36bc b835 883d bf24 9d3c 2baf afbc
00000060: 175f 2c3d e208 7b3c 6aac 3b3d 30cd a1bc
00000070: 28dc 113d 6bfa 963d 7bf4 06bc 9baa da3c
00000080: cdb6 c7bc e5a0 d6bc 3c0a e1bd aed0 cfbd
00000090: 068e 53bd 3c6b b53b 9be8 a8bd 7837 13bd
000000a0: 608b 90bd 5352 e7bd f429 563d 0de5 363d
000000b0: 907e 0fbe 2a55 50bd 7ff0 45bd 2974 a43d
000000c0: 222d 933d c3a3 b53d dfbe f9bd 50c7 f9bb
000000d0: 0e95 80bd 7842 54bd 588c c43d 9ebb ebbd
000000e0: d7af a6bc 6c2a 313d 12c4 8abd f848 053d
000000f0: a9d7 6c3a 04cc dcbd 1d39 d8bc 665d 953d
00000100: cef8 cfbd 9094 a7bd 58d1 923d 9e0d 29be
00000110: 3c14 5abd 8ec9 183d da3a ae3c a4db 973d
00000120: 59ae 543c 0b39 aabb d617 773d e434 73bd
00000130: 5e19 2c3a 0c77 e33d 5419 c33d baea 1fbd
00000140: a335 ed3d e55d 083e 721b bcbd 5898 b53d
00000150: f16f 863d 00e3 cd3d be8f f3bc d662 883d
00000160: 23ee b6bd f306 16bd 4414 bb3d b190 0ebe
00000170: d136 c63d 381b fb3c ef23 13be d41f e6bd
00000180: d10c a13d c0cc 2dbd 56de a8bc a145 3c3d
00000190: a462 03be 309b 103c d074 8d3d 20c5 743c
000001a0: 5b74 7fbb f514 c7bd 12c4 dcbb 5e45 b23d
000001b0: d03c 633c dbb4 4ebd 1afe 02bd b3a7 0b3d
000001c0: 8170 95bd d768 8c3d 8e3d 1dbe cb5d fbbd
000001d0: b6f5 0dbe acdc c83d f521 52bd d372 c0bd
000001e0: 9d2f ba3c 1c13 9ebd b905 c13d 4941 e3bd
000001f0: d261 8a3d bcfa 01be ad50 203c d5f0 0c3d
00000200: ab5e c4bd 400f b5bd 8a84 a3bd 56ec 6d3c
00000210: ccd9 503d 83bd 423c 17ba 06bd b33e 63bd
00000220: fe57 333d aec4 d3bc 3c98 dd3d 6cc2 c2bd
00000230: 1c55 34bd 4b7c a93d 6d5c d9bd a72a 6f3d
00000240: d502 f8bc 2a30 99bc db1d c7bc 3f96 813d
00000250: 741b f33b 4eda 9ebc a59f a7bd 62f5 2e3d
00000260: 4cc8 f5bd bec5 05bc 9ac7 963d 4f80 75bd
00000270: 29e6 e6bc ec12 a43d e118 843d 442a e3bd
00000280: 09af 9f3a 6891 06be 8b70 753c 9a10 a03d
00000290: f3c3 dd3d 6ba2 e33c a047 c03b ccee d93d
000002a0: 0b1d f6bc 2daf 99bd 4269 acbc b87f 2fbd
000002b0: 92bf 103c 347f aabd 06c4 c7bd 6fe8 263c
000002c0: 6280 023d 5390 693d d630 293d ceda bf3d
000002d0: 8609 39bd 2a2d a7bd 6fa6 d13d 3196 803d
000002e0: 82f4 afbd 667e 1a3d c82f 80bd b999 4bbd
000002f0: e3c7 e9bd f74e d83d 4053 cf3d 87eb 733d
00000300: 763f 763d c069 cd3d 3c04 8d3d ec67 69bd
00000310: c47b 60bd 67ed 85bd 997b bd3d ccce d5bd
00000320: 36e1 2dbd 7295 dabd e602 bd3c baf8 3abc
00000330: 2fc4 2f3d 829e 963d 6943 013e 0baa a2bd
00000340: f244 a33d c4c1 bc3d 83cd 90bd 54bd e73c
00000350: 33d4 ecbd 7d48 b9bc 6f0b cabb cf2a 5cbd
00000360: e42d 9f3d 4a10 ddbd 7b86 643d 74c8 a63d
00000370: c445 fb3c 9054 a23c d6d0 2bbd 8702 dabd
00000380: f96d 9abd 9258 a43c 946e 3cbd 6c54 033e
00000390: 79db da3d 80a7 fabd 39e1 bdbc 9d35 023e
000003a0: 43c6 3a3d 07ff b4bd 8583 a3bd 4bcf 01be
000003b0: 11b0 7fbb 81d9 39bd 0c36 81bd 236f 8cbd
000003c0: ad0c 03be 5643 a4bd 798d 493d ca40 81bc
000003d0: 1dc9 febc 9601 3b3d 0dda b5bd 79fd bc3d
000003e0: 7398 b5bd d6fe b2bd 247c dd3d 21d7 efbc
000003f0: 76bb 273d 0ee1 a0bd 250f cebd 8c31 83bd
-0.031398322 0.02781402 -0.023511162 0.019746426 0.096770294 0.05090198 -0.029508907 0.047445837
0.0605817 -0.07736936 0.10594718 -0.05909931 -0.07848705 -0.0033152185 -0.026504293 0.013812252
-0.03975988 0.00848477 0.02115768 0.15223563 -0.011124585 0.06650871 0.019182561 -0.021445831
0.042082872 0.015321942 0.045818724 -0.019751161 0.035610348 0.07371982 -0.008237 0.02669268
-0.024379158 -0.026199767 -0.1098828 -0.10147224 -0.051649116 0.005536465 -0.08247491 -0.03594157
-0.07057834 -0.11294999 0.052286103 0.044652034 -0.14013124 -0.05086247 -0.048325058 0.08029968
0.07186343 0.08869126 -0.12194609 -0.007622637 -0.0627843 -0.051821202 0.09597081 -0.115103945
-0.020347519 0.043253347 -0.06775679 0.03254029 0.00090348214 -0.107811004 -0.026394421 0.07293205
-0.101548776 -0.08182633 0.071688354 -0.16509101 -0.053241953 0.037301593 0.021268297 0.0741494
0.012981021 -0.0051947883 0.060325466 -0.059376612 0.00065650593 0.11106691 0.09526315 -0.039042212
0.11582496 0.13317068 -0.09184922 0.08866948 0.0656432 0.100530624 -0.029731628 0.066594765
-0.0893214 -0.03662772 0.09134725 -0.13922383 0.09678424 0.030652627 -0.14369176 -0.112365395
0.07863773 -0.042431593 -0.02061383 0.04596484 -0.12830597 0.008826062 0.06907046 0.014939576
-0.0038979265 -0.09720794 -0.0067372406 0.08704637 0.013869479 -0.050465446 -0.03198061 0.034095477
-0.07296849 0.06855934 -0.15355512 -0.12273749 -0.13863263 0.09807715 -0.051301915 -0.09396901
0.022727782 -0.077184886 0.0942492 -0.110964365 0.06756939 -0.12693304 0.00978486 0.034409363
-0.09588369 -0.08840799 -0.07984264 0.014521679 0.050988957 0.011886003 -0.032892313 -0.055479717
0.043785088 -0.02585062 0.10820052 -0.09509739 -0.04402648 0.0827566 -0.10613332 0.058390286
-0.030274788 -0.018699724 -0.024306228 0.06327485 0.007419044 -0.019391205 -0.08184747 0.042714484
-0.12001094 -0.008164821 0.0736229 -0.059936818 -0.02818592 0.080114216 0.06450058 -0.11092046
0.0012182902 -0.13141406 0.014980446 0.078156665 0.1082839 0.027787408 0.0058679134 0.1064125
-0.030043146 -0.07504115 -0.021046285 -0.04284641 0.008834736 -0.08325043 -0.097541854 0.010187252
0.031860717 0.057022404 0.04130634 0.093679056 -0.045175098 -0.08162911 0.10236823 0.06278647
-0.08591558 0.0377182 -0.062591136 -0.04970715 -0.114150785 0.10561936 0.101233006 0.05955079
0.060119115 0.10029936 0.06885573 -0.056983873 -0.054805532 -0.065394215 0.0925209 -0.10439834
-0.042451106 -0.10673036 0.023072671 -0.01141184 0.042911705 0.07354452 0.12623371 -0.07942589
0.07972135 0.09216645 -0.07070448 0.02828852 -0.11563911 -0.022617573 -0.006165914 -0.053751763
0.07772425 -0.107941225 0.055792313 0.08143702 0.030672915 0.019815713 -0.04194721 -0.10645013
-0.07540507 0.020061765 -0.046003893 0.12825173 0.10686392 -0.12238979 -0.023178684 0.12715764
0.045599233 -0.08837705 -0.0798407 -0.12676732 -0.0039014856 -0.045373444 -0.06309137 -0.06857135
-0.12797804 -0.08020656 0.049207184 -0.015777964 -0.031101758 0.04565581 -0.088794805 0.092280336
-0.08866968 -0.08740012 0.108146936 -0.029277386 0.04095026 -0.07855426 -0.10061482 -0.06405935

AFeatRNN.bias_ih_l1 f4 [256]
00000000: 790b b63c e9f1 813d 0a58 11bc f076 d13c
00000010: 0fef 333d c280 153e 0863 15bd b749 3cbc
00000020: c2bc 453d 43f5 babc e593 6d3d f988 3c3b
00000030: 8994 a03c 6910 d43d 5535 08bd 2aed bdbd
00000040: d620 743d 87ce 65bd ef45 40bd c2f4 9c3d
00000050: 32a5 aa3d 2a1f 083d 27de b63d 5160 953c
00000060: 5e79 c8bd 23b1 9a3d 514c debd 0603 983d
00000070: a072 e43d bff9 82bd a108 fd3d cb4c 793c
00000080: 7867 423c 54bb d23d d0d4 c93d d2af 163e
00000090: 9b04 bcbc 62f5 db3d ed65 c43d 0fb8 51bc
000000a0: cbe7 ca3c 71fc 1bbd a7c8 303e 6574 e7b9
000000b0: f05e e63c d495 c33c c448 743d d9fe 9abd
000000c0: 5b8c 043d c4c9 ef3d 3fe4 23bd df4d 3f3d
000000d0: e213 eb3b 9421 f2bd 35f1 d1bd 1965 d73c
000000e0: 4ee2 93bd bc9c 213e 229e 853d 94af 1f3e
000000f0: dd67 c13d c46e e83d b4fe 313e 9b47 bcbb
00000100: d3aa fdbd 9745 9fbb 7759 d93d 9c58 1a3d
00000110: 289c 19bd 210e 94bc 5f9e 363d 3159 bb3d
00000120: 28fc 5a3d 18e2 00be 8d70 6fbb 0151 fa3b
00000130: 4119 9abc 70ff 7bbd 77e9 b03d eb0d 913c
00000140: 63d5 e3bd eed3 713d 728a 89bd 5b50 51bd
00000150: 6c0e c8bd 9892 35bd 7362 cd3d 8b39 493d
00000160: 042c 76bd 1274 933c 4102 b63c 188e ba3c
00000170: d9e8 01be d5c2 63bd 706c b13d d136 e13d
00000180: a57c 79bd d0ff afbd 64a8 acbd 8892 fd3d
00000190: e059 213d 5564 dbbd f300 04bd fbfe a43d
000001a0: 37d8 e0bd 84ad 5dbc 0e82 8ebd af21 953c
000001b0: e403 5dbd 77bd 283e 2c5e 953d b6f5 64bc
000001c0: 0aa2 b13c 59e8 703d 6991 d83b 2278 be3d
000001d0: 4e4e 6fbd 96e0 ba3d 3ea3 c13d 031f 873d
000001e0: be8d f53d 017c cbbd e5c0 94bc 8977 75bd
000001f0: 3193 813d 70cd b43d 8e42 873d 35fb 47bd
00000200: d728 a1bc ca12 473d d805 303c 5607 b83d
00000210: 362f 42bd 8512 a3bd 0ab4 10be 30b4 cdbc
00000220: 53ce 3b3d ec51 44bd 1ec9 953d dbc9 e43d
00000230: d578 4e3b adff 64bd aeae bebc 0dee 53bd
00000240: 4f78 2cbb 128a 363d c3d7 47bd 46e0 debd
00000250: 1c2f 8fbd 0789 84bd 3e54 cbbd c396 afbd
00000260: 554d 95bd 55cb dd3d c48e 153d 595e 2b3d
00000270: fd73 563d 632a 18bb 82bf cfbd 49aa 89bd
00000280: 4c29 923d 17fc cabd 34a9 003e 8a67 a23d
00000290: 326d a83d 802b a53b edfa a53d 019c cdbc
000002a0: 7785 7fbc 2c3d e3bd f9e0 873d c95b 253d
000002b0: 6a6e f33c 0104 043d 8ab1 b23d 5f0c ae3d
000002c0: 2ed5 1e3d a145 e83d a81f 7c3d 9f79 12bd
000002d0: a91b b43d afa1 293c 86bc c0bd fab2 29bd
000002e0: 4076 ea3d 7c25 423d 0e99 ef3c 1494 48bd
000002f0: 0ce2 24bd 2ea6 103d b72c 94bd b091 9ebd
00000300: d9b5 0a3e 1904 913d e075 243c c489 82bd
00000310: 3f06 9d3d 6b54 2c3d fc7a 8d3d c808 043e
00000320: a7da 75bd f695 d13c 228a 993c 4a0b 97bd
00000330: b7b7 003e 1ea7 c13d af2e 9c3d 3e4e 293d
00000340: cfd2 373d 4a5a a6bd 54bf e03d 528e f53d
00000350: 5031 b6bb ccd0 153e 74d6 e73c 9fe0 1abc
00000360: 73c9 81bd b3ca 813b e168 093e 5db7 153d
00000370: 0f02 703d 9bed 14bb 9f2d 143e d449 da3d
00000380: 9042 4c3b d550 7f3d b6c6 be3d a60a aa3d
00000390: d11d 3b3d 1e9e 183e 22c2 1ebc 7815 1a3d
000003a0: 6516 c53d 8ca2 043e cd3a 963d 9610 84bd
000003b0: 6c5d d2bd fac9 083e 4094 3c3c 7e33 6a3d
000003c0: 4981 a3bd 4b8e d5bd 2073 113d d813 483d
000003d0: 193b 1f3e 48ca ebbd b1c5 8b3d 07d3 fd3d
000003e0: 155b d03d e38e 4cbb 529e debc ad29 1b3e
000003f0: b7a2 033d 08b2 ba3c d68b 91bc 2bf8 2c3b
0.022222267 0.06344969 -0.008871088 0.02556941 0.043929156 0.14599898 -0.036471397 -0.011492184
0.048275717 -0.022822028 0.05800237 0.0028768166 0.019602077 0.103546925 -0.033253986 -0.09273751
0.059601627 -0.056105163 -0.046941694 0.07663871 0.0833229 0.033232845 0.08929091 0.018234404
-0.09788774 0.075533174 -0.108544 0.07422452 0.111546755 -0.063952915 0.123551615 0.015216063
0.011865489 0.10289636 0.09855044 0.14715508 -0.022951415 0.107401624 0.09589753 -0.012800231
0.02476873 -0.038082544 0.17264043 -0.00044146474 0.028121442 0.023875155 0.059639707 -0.075681396
0.032360416 0.117084056 -0.040012594 0.046705123 0.007174001 -0.11822811 -0.10251085 0.026293324
-0.072208986 0.15782446 0.06524302 0.15594321 0.094436385 0.11349252 0.17382318 -0.0057458407
-0.12386098 -0.0048605907 0.10612767 0.03768216 -0.037502438 -0.018073143 0.04458463 0.09147871
0.05346313 -0.12586248 -0.0036535591 0.007639051 -0.01881087 -0.0615229 0.0863828 0.017706832
-0.11124685 0.059040003 -0.067158595 -0.051102024 -0.09768376 -0.044329256 0.10028543 0.049127143
-0.06010057 0.017999683 0.022217872 0.022772834 -0.1268648 -0.05560573 0.08663261 0.109967835
-0.060909886 -0.08593714 -0.084305555 0.12381464 0.039392352 -0.10712496 -0.032227468 0.08056446
-0.1097874 -0.013530139 -0.069584 0.018204538 -0.05395879 0.16478525 0.072933525 -0.013974598
0.021683712 0.058815334 0.006609131 0.09300257 -0.058424287 0.091248676 0.09454964 0.06597712
0.11989926 -0.09935761 -0.018158386 -0.05992845 0.06326903 0.088282466 0.06604491 -0.048823554
-0.019672794 0.048601903 0.010743581 0.08985774 -0.047408305 -0.07962517 -0.1413118 -0.025110334
0.045851063 -0.04792969 0.07313751 0.111713134 0.0031505127 -0.055907894 -0.023276653 -0.051740695
-0.0026316827 0.044565268 -0.04878975 -0.108826205 -0.06991407 -0.064714484 -0.09928177 -0.085736774
-0.072901405 0.10829798 0.036513105 0.041838024 0.05235671 -0.0023218624 -0.10143949 -0.067219324
0.07136783 -0.099113636 0.12564546 0.07929905 0.08223952 0.005040586 0.08104501 -0.025098803
-0.015595785 -0.11095652 0.06634707 0.040370736 0.029715735 0.03223038 0.08725269 0.08498453
0.038777523 0.11341406 0.061553627 -0.03576052 0.08794338 0.01035349 -0.09410958 -0.04143045
0.11448336 0.04739903 0.029247787 -0.048969343 -0.040254638 0.03531473 -0.07235091 -0.077426314
0.13545932 0.0708086 0.010037869 -0.06373933 0.07667207 0.042072695 0.06908223 0.12893975
-0.060022976 0.025584202 0.018742625 -0.073752 0.12570082 0.09455703 0.07626092 0.041334383
0.044878777 -0.0812269 0.10973993 0.11990036 -0.0055600777 0.14630431 0.028300501 -0.009452968
-0.063372515 0.003960931 0.13418914 0.036551822 0.058595713 -0.0022724632 0.14470528 0.10658613
0.0031167604 0.062332947 0.09315245 0.08302812 0.045682732 0.14904067 -0.00968984 0.03761813
0.09623412 0.12952632 0.07335434 -0.06448476 -0.10271725 0.13358298 0.011509955 0.057178013
-0.079836436 -0.10427531 0.035510182 0.04884705 0.15549888 -0.115131915 0.06824816 0.12393766
0.101736225 -0.0031213097 -0.027175102 0.15152617 0.0321376 0.02278997 -0.017766874 0.0026393037
