STD/checkpoints/Res/VA_METRIC_state_epoch20.pth (torch, 719026 bytes, 28 tensors)

AFeatRNN.weight_ih_l0 f4 [256, 128]
00000000: d0ce 89bb c852 133d d86f 3c3e 42eb 703d
00000010: 005f 7dbd 22ea b9bd ee34 83bd 3191 e63d
00000020: 9976 923d 7be7 0fbd e837 09be 8154 9abd
00000030: 8578 f53d 3099 fabd ca4e f9bc 1413 c2bd
00000040: 92d2 ba3d 1a31 b6bd 5bd2 32bc fdd0 00be
00000050: 1fc3 3cbc 51cc a13d d347 0cbd 2f6c dd3b
00000060: 498c 6c3d 1d77 003d c7c3 79bd c416 a3bd
00000070: 255c e63d f24e 9bbd f0cf a33d 2b13 a6bc
00000080: 97d1 b2bd b245 c9bc 62e9 26bd c86d 863d
00000090: 5793 8b3d 8d3a 03bd 6be0 eb3d c0c6 023c
000000a0: 5929 a9bd 27e8 dc3d af2d 653d 6195 bbbd
000000b0: fa82 9cbd b1ee 16bd 4073 903d 4e21 633d
000000c0: 6187 91bd 38ad 513d 378c 503d 4772 76bd
000000d0: 5c4a c0bd 46fa 5cbd 811b 3bbd 5983 d43d
000000e0: 6234 59bc 61e9 ac3d 9cf6 21bc 9b49 6f3d
000000f0: 6429 3fbd 872a 6a3d 750e 34be 63ff 0bbd
00000100: 4a40 943d eb88 313e 3ac0 a43c 711c a8bd
00000110: ad4c 0bbd abb9 8f3d 4eb8 cebd 9356 b8bd
00000120: 8214 533d 3362 0abd 8733 9fbb a6ec 923c
00000130: f590 09bd 3eee 8fbd 0a5c b63d 0dc9 083d
00000140: 58ab 26bc e6d2 0dbd a097 d73c b9d9 01bd
00000150: f677 aa3d 0832 2e3e fdd3 44bd cf58 c4bd
00000160: b017 a2bc 57ae 2abd 1e78 bfbc 593b 3dbd
00000170: 20bf 093d edd6 873d 9c21 ec3c 599c b13d
00000180: 9dd2 983a b9dc d13d c006 313d a9be 713c
00000190: 1de3 ff3c 49e0 e73b 0827 123e 3307 cf3d
000001a0: e282 9c3d aba1 01be 160d a43a d14c a8bb
000001b0: b6d2 943d 7982 1c3d bedf d7bc 8c52 093e
000001c0: 9136 67bd 3edc 6abd cff4 773d ab65 773d
000001d0: 4e1f 15be aaa1 e3bd b011 08be f413 cb3d
000001e0: 311e 1ebe a3d1 aebd bcae 5cbd f201 eb3d
000001f0: 0732 df3d fadb 65bd 11ed 92bd 6dec ce3d
00000200: 0095 453d d00c b13d 13f1 8abd 4d79 8cbd
00000210: b45e c3bd 87d8 393d 3eb4 ba3d a454 abbd
00000220: 356e 83bc 5c3f 7c3d 3277 4f3d c2f4 ff3c
00000230: 3718 2d3d 4e39 ea3c 31bf 8d3d a807 e53d
00000240: a23f 8dbd 32a2 893d 88dd 713c b60f 193c
00000250: 3527 e8bc 2231 80bd 48da 0e3d 4c01 f63d
00000260: 3b6b 5fbc 0277 4a3d 3d57 0e3d 8259 af3d
00000270: 8a05 013e f2ff 1f3e c3a5 dc3d 4371 023d
00000280: ed26 a8bd a271 02be d2ee f13d 86e3 e4bd
00000290: aefe 97bc 5cc3 93bd b9cc 14bb 2940 0d3e
000002a0: 529c d13d 6fa2 b03c 1624 3b3d f278 863d
000002b0: f8b6 92bd d2d4 99bd 5819 ad3d 17c8 793d
000002c0: 3fa6 dfbd 1558 493d be91 d13d 8ba1 9d3d
000002d0: a4d5 043e d7c7 423c 0de4 153e 403d 643d
000002e0: 1f9b 02be ff0c bebd b33e 253d aad5 babd
000002f0: 6571 39bd 33b6 fbbb 4e58 acbb 40ce 543c
00000300: 1267 a53d 9956 f43d 72d5 bdbb b92f 233d
00000310: 70a2 31bd 5cfd e43c b1de aabd c1e4 69bd
00000320: 2bcc d1bd 2951 1b3e 1a94 cd3d 00ba f53d
00000330: 53a8 13be 0c6f 8fbc 0d1d d5bd d0ea 73bd
00000340: 2af9 2cbd 36cf be3d c15e bebc 50f6 a13d
00000350: 9c8e c83d ec17 173d 01c6 8f3b 6ff9 8abc
00000360: 4579 c2bd 04a1 5dbd 7070 353e 344b 093e
00000370: a114 a83d 3ced a53d c16b 233e 4620 9dbd
00000380: d951 b1bd 0623 b63d 2703 b2bd 04cb fbbc
00000390: 7e8c dcbc b0bd bcbc 9152 a0bd d904 8c3d
000003a0: 80d6 0a3c c506 22bc 89fd 0b3e 038d 3abd
000003b0: 434e 2d3d d456 d23d 5277 f33b b3ca 0a3d
000003c0: ff12 c2bd 6791 93bd 35f4 d1bd 7d39 e83d
000003d0: 3420 e5bd d22c 183d c5c2 9a3d 1e85 de3b
000003e0: da68 d83c 1bb7 26bb dce0 13bc c0d9 52bd
000003f0: d128 7abd 2cd5 163e 6d5e 263e aec2 9cbd
-0.004205562 0.03596762 0.1840204 0.05881811 -0.061858177 -0.090778604 -0.0640658 0.11258162
0.07151527 -0.035132866 -0.13400233 -0.07535649 0.11985878 -0.122362494 -0.030433077 -0.09476295
0.09122194 -0.08896084 -0.01091441 -0.12579723 -0.01152113 0.079002984 -0.034248184 0.0067572813
0.057750974 0.031363595 -0.060977723 -0.079633266 0.11248044 -0.07583417 0.07998645 -0.020272812
-0.08731382 -0.024569366 -0.040749915 0.06563908 0.06815212 -0.03203826 0.11517414 0.007981956
-0.082598396 0.10786467 0.05595177 -0.09159351 -0.07642169 -0.036848728 0.07053232 0.055451684
-0.071058996 0.051190585 0.05091497 -0.060167577 -0.09389183 -0.053949617 -0.045680527 0.10376615
-0.013257118 0.08442951 -0.009885456 0.058419805 -0.046670333 0.057169463 -0.1758364 -0.034179103
0.07238825 0.17337386 0.020111192 -0.0820855 -0.03400867 0.07017835 -0.10093747 -0.09000888
0.05153323 -0.033785056 -0.0048584375 0.017935108 -0.033585507 -0.07027863 0.08904274 0.033394862
-0.0101726875 -0.034624957 0.026317418 -0.031701777 0.08323662 0.17011273 -0.04805373 -0.095872514
-0.019786686 -0.04167017 -0.023372706 -0.046199176 0.033629537 0.06632791 0.02882462 0.08672399
0.0011659447 0.10247178 0.043219328 0.01475493 0.031236226 0.0070762974 0.14272702 0.10108795
0.076421514 -0.12659328 0.0012516107 -0.0051361104 0.072667524 0.038210366 -0.026351806 0.13410395
-0.056448523 -0.057338946 0.060536202 0.060399693 -0.14562723 -0.11114819 -0.13287997 0.09915915
-0.15441205 -0.08536079 -0.053877577 0.114749804 0.10898214 -0.05611799 -0.07174123 0.101036884
0.0482378 0.08645022 -0.067842625 -0.06859074 -0.095395476 0.045372512 0.0911641 -0.08365753
-0.016043762 0.06158386 0.050650783 0.03124464 0.04225942 0.028591778 0.069212325 0.11183101
-0.068969026 0.067203894 0.01476229 0.009342125 -0.028339008 -0.06259371 0.034876138 0.12011966
-0.013636406 0.0494299 0.034751166 0.08561994 0.12599769 0.15624979 0.10773804 0.031846296
-0.082105495 -0.1273866 0.118131295 -0.11176209 -0.018554058 -0.07214996 -0.0022705032 0.13794006
0.10234894 0.02156183 0.04568871 0.06566037 -0.07163805 -0.075112954 0.084520996 0.060981836
-0.10920381 0.049156267 0.10232876 0.076968275 0.12972122 0.011888466 0.14637776 0.055722475
-0.12754487 -0.092798226 0.040342998 -0.091227844 -0.045274157 -0.007681632 -0.00525955 0.012988627
0.080763 0.1193058 -0.005793267 0.039840434 -0.043367803 0.027952842 -0.08343256 -0.057102922
-0.1024402 0.15167679 0.10038014 0.11998367 -0.1441968 -0.017509006 -0.104059316 -0.059550107
-0.04222981 0.09316866 -0.023238542 0.079083085 0.097928256 0.036888048 0.0043876176 -0.016964642
-0.094957866 -0.054108635 0.17718673 0.13407594 0.0820706 0.081018895 0.15959074 -0.07672171
-0.08658189 0.08893399 -0.086920075 -0.030736454 -0.02692246 -0.023039669 -0.07828248 0.06836862
0.008473992 -0.009889309 0.13670935 -0.045544636 0.042310964 0.102704674 0.0074299956 0.033884715
-0.094762795 -0.07205468 -0.10251657 0.1133909 -0.11187783 0.03715212 0.075566806 0.006790771
0.026417185 -0.002543873 -0.009025779 -0.051477194 -0.06107408 0.14729756 0.16246958 -0.0765432

AFeatRNN.weight_hh_l0 f4 [256, 64]
00000000: c975 0fbe 99dd cd3d 4221 9f3d 3f60 b3bd
00000010: 4617 a13d 3fcc 68bb e3d2 a83d 0d9c 0a3d
00000020: abfb 0bbe 1102 923b 6874 b33c eef5 9a3d
00000030: c298 dc3d 9edb 2e3d a321 173d 8568 03bd
00000040: 9433 3dbd 259c 77bd 6ff5 04bd 88a0 3b3d
00000050: 43ab 193d 3d63 b93d 2366 793c a6c7 233d
00000060: e6d0 a7bd 6eeb b4bc 9536 f63d ceb5 a83d
00000070: eaef 973d f54e fcb9 b3f2 aebd 0603 d8bd
00000080: 906c 07bd a9f6 e13b c860 a7bd ca02 ac3d
00000090: bf66 c7bd 7e26 b9bd e053 693d e382 423c
000000a0: e238 c23c f78b b13d 45aa e7bd 0cef 20bc
000000b0: 63aa 3c3d d2a6 7fba 004d 2abb 681f 813c
000000c0: 93a0 a73d 6e49 c03b 3de8 1ebe 82f4 3fbe
000000d0: 6a1d 11bd cded 5bbc 5ebf 3e3d 43bd adbd
000000e0: 091f d23d fd61 75bd e1e9 aabc 0795 cbbc
000000f0: 4744 c7bd 929f 4f3d d45b 023c a034 39bd
00000100: d1c7 f4bd a5cb 2dbd 43d6 9a3d e77b 8ebd
00000110: 7791 8dbc abbf a9bd 79ca 92bc 3dbf 1dbe
00000120: 7f62 67bd 8b55 233d 36aa 38bd 4d19 ad3a
00000130: f3b3 0f3e 119f 80bc c719 413d 8a05 aabd
00000140: ebb4 0d3e 0cde bb3d eb70 18be 74ca 0fbe
00000150: 46b0 d53d d7dd ddbd 2180 03be b299 163c
00000160: 4199 85bd 90d8 c6bd 256c 75bc 5018 7e3d
00000170: c294 13be 45b2 66bd d9a4 d5bd 11be 2fbe
00000180: 544e 1dbd 520e 91bd a48f 833d f22e c1bd
00000190: 444e 02bd 11ae 26bd bed9 38be 0821 3c3e
000001a0: cf7a f43d 4456 21be 6e6d 7fbb 49ba 97bd
000001b0: 7724 1bbe 3f47 80bc f98d 583d 1dd1 85bd
000001c0: fe56 d63c 4e8a dfbc 5477 a2bd cd10 90bd
000001d0: e5ea 6bbd c069 65be 9b44 a03d 10c4 3dbd
000001e0: 1819 e83b c5f9 3abe 39ac a2bd 431b 00be
000001f0: fc99 853d aa74 c1ba 4469 763e 183e 9a3c
00000200: 76d4 833d ae5b d93c 1430 0a3d d92c 033d
00000210: 56f9 db3b 985c e2bc 6f11 3f3e c697 363d
00000220: a643 01bd 8e96 d33d af99 fbbc 7f5d 423d
00000230: 38e3 09be 67f8 74bd 69e6 953d 8e03 be3d
00000240: d14e d139 a1c8 833d 947b bfbd 9343 debd
00000250: 14b9 9f3d ccaa 9c3d 5b75 933d ccc9 723b
00000260: 95df 9ebc e9a6 fcbd d52b 20be bd90 2d3d
00000270: 47d4 20bd 8268 ea3c 910a a43d 5c70 2c3e
00000280: 8048 003e 3205 083e 78b0 093e cc83 8cbd
00000290: a43e d9bd a076 03be 1b23 ea3d c2de dd3d
000002a0: cd87 56bd 0867 af3d f09f 86bc d781 023e
000002b0: 2cf4 843d ce6b 8d3d 5ff3 f43d e2c4 84bc
000002c0: cf92 8f3d 1c4a 2c3d 430f 69bc 8fb4 22bd
000002d0: 8d4f 533c 0d28 2d3e f381 f3bc 270a e8bd
000002e0: 94ef 9c3d 42be 723e 170b 95bc 176a c33d
000002f0: ceac 293d b545 1dbc 4f8b 35be 85e0 c8bd
00000300: 1968 29be 301e 2abd c844 21be 1566 9d3d
00000310: 6e2d c9bd 0453 a63d ed24 2bbd 9cf5 c5bd
00000320: 959e 9cbd f15c b3bc bb0a 323d c6b6 83bc
00000330: e332 173c dc8d 363d 2e35 a33d 0a07 703d
00000340: 2a0e 023e c0a6 e13d c5e1 12be 4e18 b03d
00000350: 230b 4abd f2df aebd 838e 27bc 9450 a1bd
00000360: c7f8 11bd 573f 6c3c 61cc 293d b148 f0bc
00000370: 30fe 71bc 6839 f8bd 4406 713c bed0 1dbd
00000380: e987 4a3d bd44 493c fbc8 023d 2c7a 7cbd
00000390: 8fe4 b0bd 0be0 ffbd bf8f a93d 6eb4 db3c
000003a0: 4037 123d 94c5 f0bb a873 73bd bfbb f4bd
000003b0: 42cd 2c3c be94 2bbe 1b6e 3a3b da91 27be
000003c0: a09e 083e ef41 42bd b131 e53d 6b37 b83d
000003d0: e324 b13d 78fa e2bc b945 7d3c 8ae4 893d
000003e0: 2004 683d 9fb3 cd3d e84f c4bd 3d13 7c3d
000003f0: 9284 723c f9f7 a63d bee6 8fbd a00b 9f3d
-0.14009775 0.10052032 0.07770015 -0.08758592 0.07865767 -0.003552213 0.082433484 0.033840228
-0.13670222 0.0044558127 0.021906093 0.075664386 0.10771324 0.042689912 0.036897313 -0.0320821
-0.046191767 -0.060451645 -0.032460626 0.04580739 0.037516844 0.09052131 0.015222105 0.03998532
-0.08194141 -0.022084918 0.120221294 0.082378015 0.07418807 -0.00048124013 -0.08542385 -0.10547452
-0.033062518 0.0068958593 -0.081727564 0.083989695 -0.09736394 -0.09040545 0.056964755 0.011872026
0.023708764 0.08669274 -0.11311773 -0.009822618 0.04606093 -0.0009752336 -0.0025985837 0.015762046
0.08184924 0.0058681285 -0.1551828 -0.18745616 -0.035428442 -0.013423395 0.04656922 -0.084833644
0.10259826 -0.059907902 -0.020863475 -0.024851335 -0.0972982 0.050689287 0.007956464 -0.045216203
-0.119521745 -0.04243054 0.075603984 -0.06957226 -0.017281277 -0.08288511 -0.017918812 -0.15404983
-0.056490418 0.039876502 -0.0450842 0.0013206393 0.14033489 -0.015700849 0.047143724 -0.08301838
0.13838546 0.091732115 -0.14886825 -0.14042073 0.10434012 -0.10833328 -0.12841846 0.009191917
-0.065233715 -0.09709275 -0.014979397 0.062034905 -0.14412215 -0.056322355 -0.10431833 -0.17162348
-0.038404778 -0.070828095 0.06423882 -0.09432782 -0.03181292 -0.040693346 -0.18051812 0.18371975
0.119374864 -0.15755564 -0.0038975137 -0.07408578 -0.15150629 -0.015658973 0.05286977 -0.06534026
0.026164528 -0.027287629 -0.07932916 -0.070344545 -0.05759706 -0.22403622 0.078255855 -0.046329558
0.0070830695 -0.18259342 -0.07943005 -0.125104 0.06523511 -0.00147595 0.24063593 0.018828437
0.06437008 0.026532974 0.033737257 0.032025192 0.006713073 -0.027632043 0.18658994 0.044578336
-0.031558655 0.103314504 -0.03071293 0.047452446 -0.13465583 -0.059807207 0.07319338 0.09278022
0.0003992231 0.06434751 -0.093497425 -0.108527325 0.07798973 0.076497644 0.07200118 0.003704655
-0.019393722 -0.12336523 -0.1564172 0.04237436 -0.039264943 0.028614286 0.08009828 0.16839737
0.12527657 0.13283232 0.13446224 -0.06861076 -0.10607651 -0.1283822 0.11432477 0.10833503
-0.052375603 0.085645735 -0.016433686 0.12744842 0.064918846 0.06905328 0.11960482 -0.016207162
0.070104234 0.042062864 -0.01422483 -0.039722975 0.012897384 0.1690981 -0.02972505 -0.113300614
0.076628834 0.2370539 -0.018193765 0.095417194 0.041424565 -0.009599139 -0.17728923 -0.09808449
-0.16543616 -0.041532695 -0.15748894 0.07685486 -0.09823118 0.08121303 -0.041783262 -0.09665987
-0.076474346 -0.021894904 0.043467265 -0.016078364 0.009228441 0.04456888 0.079691276 0.058600463
0.12700716 0.11018133 -0.14343937 0.08598386 -0.049327027 -0.08538808 -0.010226849 -0.07876697
-0.035637643 0.014419398 0.041454677 -0.029331537 -0.014770076 -0.121203244 0.0147109665 -0.03852915
0.04944602 0.012284455 0.03192995 -0.06163995 -0.08637344 -0.12493905 0.082793705 0.026819434
0.03569722 -0.007347772 -0.05943647 -0.11949872 0.010546984 -0.1675596 0.0028446976 -0.16364232
0.1334176 -0.04742616 0.111911185 0.08994945 0.08649614 -0.027707323 0.015458518 0.067330435
0.05664456 0.10044026 -0.095855534 0.061541785 0.014802115 0.08152766 -0.070264325 0.07765889

AFeatRNN.bias_ih_l0 f4 [256]
00000000: 5b21 a53d 84e4 cb3c 9b7c aebd b31c c93d
00000010: d11a 923c 52d9 c33d 9575 8d3d 92bb c53c
00000020: 0afb e53d f24a 203d 2848 983d b3a6 f4bd
00000030: 0d28 d1bd cc9f 933d 5423 ca3d 4aa8 533d
00000040: 2ef5 86bd 9bb0 11bd 2547 50bd 3fb7 b53d
00000050: 77f2 30bd 9d1a 99bd 0c59 c03d 55cb bd3c
00000060: 85e4 b8bb 7dd7 0d3e 24e2 113e ea9c e3bd
00000070: 5577 ec3d 3f1c a7bb 36f0 ef3b 5dee e73d
00000080: 5f29 3f3d 40d4 133d 8c0f f7bb 9409 f53c
00000090: 8016 223d e906 3a3c cbaa c03d b7a0 69bd
000000a0: 5b97 fe3c cced 02bc 9acb fa3c b314 553d
000000b0: 0fab 3e3d 6fb4 aebb 781a f43d bf8f bc3d
000000c0: d991 a0bd 51c4 933d e758 d4b8 f8f9 88bc
000000d0: 17e6 cd3d 5405 07bd 2ce8 dd3d 2bd8 6fbb
000000e0: a291 5bbb 22d0 af3d 633b 903d 2cdc cbbd
000000f0: 6324 d43d b31f 8abb 9198 063e fed3 c63d
00000100: 4ffc ab3d 8b52 933c 9890 7b3d 898d c2bd
00000110: c287 ba3b f718 1dbd 17dd b83d e3bc 8ebc
00000120: 4d68 e03c 7d1c d4bd 4841 37bd 1350 b53d
00000130: ac85 26bd 2f19 583d e0ab e8bd 5745 84bd
00000140: b9bf 7d3d ba89 4bbc 0cf6 4bbc f30e 07bd
00000150: 3b04 ed3c 6a80 b13d da20 6d3d da11 823c
00000160: e1c2 1c3c 67f0 5dbc 906b 843c 5f6a a7bd
00000170: 2856 c43d 1832 16bd 3502 d6bd 3e37 f63d
00000180: ec2f 9bbc a16c 6d3d 1c49 943d 360d e43c
00000190: cc47 f7bd 1018 9dbc 5b2a 583d db3d e4bd
000001a0: 7e41 a8bd 6036 05bd a88d 883d dc21 c1bc
000001b0: bdfc 9e3d 2a1d 933d b19f e83d 5055 bf3d
000001c0: 7c10 f93d 3dcb 993d 9a34 913d ff09 1cbb
000001d0: a59c e5bc ae87 c8bd 023f a7bd 3c28 893d
000001e0: 1544 bbbd ad42 e5bd f161 d93c 2283 ad3d
000001f0: af56 423d fbd7 08be e7ff 6cbd 3203 a3bc
00000200: 92a8 cdbd 923c afbd bf74 aabd bfeb f23c
00000210: 2800 0abd 70e8 8a3d 1eb6 11bd 7984 cbbd
00000220: 069c f8ba a223 a7bd a611 813d 8ce9 c03d
00000230: c227 e1bd 2cc4 5a3d 04d1 1f3d 1d16 943d
00000240: 08d5 66bb ceb1 813c 8068 18bd bd5a 873c
00000250: 7cb5 273d 1b30 8cbd b922 98bd b181 843d
00000260: d967 0d3e 0094 ab3d 91e2 f9bd 334b b83d
00000270: 2425 bc3d ac1c 0bbe 69f1 0b3b 3bce 9a3d
00000280: c36a 543d 867b 99bd 899f c7bd 6238 a33d
00000290: 8a6b b93b 32ba 143d e94f 9d3d 4065 b3bd
000002a0: f9a3 d83c d3a6 243d 8baf b8bd b8f4 97bd
000002b0: c87b e43b f7c7 bf3b a576 b73d 0077 e6ba
000002c0: 854c 01bc dfdd dabb 9e23 843d 3605 f23d
000002d0: d38d ac3d e7c9 58bd 6944 b4bd 8e86 e93d
000002e0: e790 a53d f676 f0bd ff86 d7bd dc0a d43c
000002f0: 7101 95bc cd81 c03d 3f43 8b3d 92ae 8e3d
00000300: 60c3 c1bd f6ea bdbd 6027 b6bd 8fd3 e0bd
00000310: 94fd 9dbd d854 af3d e911 45bc e3d1 83bd
00000320: 41e8 f0b9 3f40 083d 8a0d 2e3d 1b03 e03c
00000330: c2ee d8bd dfe9 b03d 7ce0 9a3c 2cf7 d2bb
00000340: b122 143e 3bbf c0bd 6d82 92bc 17ba 923d
00000350: 13f6 66bd edb8 d9bd e807 ce3c 425f 0b3d
00000360: 83a9 96bd 2820 343e e780 833d a2ac f33c
00000370: fb4a 64bd 5461 a23c 4d19 67bd 590e 99ba
00000380: 09d7 05bd 7ad5 463d f427 2b3e 44c1 04be
00000390: 4a4d d3bd 75d4 a33d 88d6 2a3d 6466 a33d
000003a0: 1f2c ed3d 3a1e a93b 69b7 c0bc 3324 803d
000003b0: 979e 043d b1bb 13bd 4793 bc3d 7ba2 ff3c
000003c0: af1e 51bd 9ea9 3c3e 8a6d 043d 1519 94bd
000003d0: 6b0f 9ebd 6f81 52bd 23df babd ac18 2f3b
000003e0: 8336 063e 543a 093e ffed abbc 6cba 123e
000003f0: 4b83 223d 10ea 57bd f55d 98bc 2e4a b83d
0.08063003 0.024889238 -0.0851986 0.09819927 0.017835053 0.09562935 0.069071926 0.024137292
0.112295225 0.039133973 0.07435638 -0.11945858 -0.10212717 0.07208213 0.098700196 0.051674165
-0.06589733 -0.035568815 -0.0508491 0.08872842 -0.043199982 -0.07475779 0.09391984 0.023168245
-0.005642476 0.13851734 0.14246422 -0.11113913 0.11546198 -0.0050998027 0.0073223365 0.11324761
0.046670314 0.03609109 -0.007539695 0.029911794 0.03957224 0.011354187 0.09407576 -0.057038035
0.031078031 -0.0079912655 0.030614663 0.052021693 0.046549853 -0.005331568 0.11919111 0.09207105
-0.07840318 0.07215179 -0.00010125507 -0.016720757 0.10053652 -0.032964066 0.10835299 -0.0036597352
-0.0033503552 0.0858462 0.07042577 -0.09954104 0.10358503 -0.0042152046 0.13144137 0.09708403
0.083977334 0.017983695 0.061417192 -0.09499652 0.005692453 -0.038353886 0.090265445 -0.017424053
0.027393484 -0.10356996 -0.04473999 0.088531636 -0.040654823 0.052758392 -0.113609076 -0.06458538
0.06195042 -0.012422973 -0.012448799 -0.03297324 0.028932681 0.08667071 0.057892658 0.015877653
0.009567947 -0.013546086 0.016164571 -0.081745856 0.095867455 -0.036668867 -0.1044964 0.12022255
-0.01894375 0.057964925 0.07240507 0.02783833 -0.12074241 -0.019176513 0.05277477 -0.111446105
-0.08215617 -0.03252256 0.06667644 -0.023575716 0.0776305 0.07183297 0.11358584 0.09342444
0.12161347 0.07509468 0.07090111 -0.002380967 -0.028028795 -0.09791504 -0.08166315 0.06697127
-0.09143845 -0.11194358 0.02653596 0.08472277 0.04744595 -0.1336364 -0.057861235 -0.019898985
-0.10041918 -0.08556475 -0.08323049 0.029653428 -0.033691555 0.06782615 -0.03557407 -0.099373765
-0.0018967397 -0.08161093 0.06302194 0.094195455 -0.10993911 0.05340974 0.039017692 0.0723078
-0.0035222191 0.015831854 -0.037209034 0.01652276 0.04094456 -0.06845113 -0.07428498 0.06470049
0.13809146 0.08377838 -0.12201417 0.08998718 0.091867715 -0.13585156 0.0021353608 0.075588666
0.05185963 -0.07494263 -0.09747226 0.079697385 0.0056585716 0.036310382 0.07681257 -0.08759546
0.026445376 0.04019816 -0.09017857 -0.07419723 0.0069727637 0.005852695 0.089581765 -0.0017583072
-0.007891779 -0.006679281 0.06452106 0.118174 0.08425488 -0.052926924 -0.08802111 0.114026174
0.080842786 -0.1174144 -0.10523795 0.025884084 -0.018189164 0.093997575 0.067999355 0.069668904
-0.09461093 -0.09273331 -0.08894229 -0.109778516 -0.07714382 0.085611045 -0.012028196 -0.06436517
-0.0004594941 0.033264395 0.04249338 0.02734523 -0.105924144 0.08638357 0.01890587 -0.0064381566
0.14466359 -0.09411474 -0.017884457 0.071644 -0.05638702 -0.10630975 0.025150254 0.03402639
-0.073565505 0.17590392 0.064210705 0.029745404 -0.05573557 0.0198218 -0.056420613 -0.001167725
-0.032675777 0.04854343 0.1671446 -0.1296435 -0.10317476 0.07999507 0.0417085 0.07978514
0.11580681 0.005161074 -0.023524957 0.062569045 0.032377806 -0.03606767 0.092077784 0.031205406
-0.051054653 0.18424079 0.032331027 -0.072313465 -0.077177845 -0.05139297 -0.09124591 0.0026717586
0.13106732 0.13401157 -0.020987509 0.14328927 0.039675992 -0.052713454 -0.01859949 0.08998524

AFeatRNN.bias_hh_l0 f4 [256]
00000000: 310a 95bd b320 363d 2c3c 48bd c3f2 f93d
00000010: b261 8d3c e094 053e 4fbf 263e 29eb fd3d
00000020: 8d55 f83c db5a cb3d cfbe 023e e765 b53d
00000030: 2636 7e3d 195f a6bb 55ed 223e df57 103d
00000040: 0f94 073e 5821 e6bd dc3c 303d 937c 003e
00000050: d330 25bd e605 123c 6044 70bc 551a 12bd
00000060: 72ae 473d 4665 883d f885 0b3e b8a0 c8bd
00000070: d26d 0ebd 165b 8e3c 41fe 813c 2f1a 7bbc
00000080: 4fa6 a1bc 40a8 41bd 8840 0d3e 27bc b43d
00000090: 6735 79bd 2e5e f53b 95ab 00be e662 c23d
000000a0: 67aa e23c d1eb 963d 28ed 213e a27b 88bd
000000b0: f570 f5bd a4ad 003d ae6e a9bd 8951 47bd
000000c0: 0f80 babc 68ee 41bd dcdb a1bd a86f cf3d
000000d0: a072 303c 7a08 0cbd 8af2 dcbb a697 083e
000000e0: a601 37bd 5681 0ebd fc0f 123d 9692 babd
000000f0: bb4f cd3b c527 963d d2ed ee3d 2f87 44bd
00000100: 19af 403d 0439 6a3d fd0d 2a3d c0f5 253d
00000110: ed25 d9bd a9cb 6cbc 8620 833d 7740 983d
00000120: 43de 20bc 3acd dabc 251c 8d3d 4283 523d
00000130: 6984 f43c 7ea5 2fbd d608 a43d be6b 0ebd
00000140: 905c 0f3c ba58 84bd 9bb4 19bc 9c67 a53d
00000150: 39c2 57bc e483 e83d 4301 a439 82d2 cf3d
00000160: 8ca8 a8bd 682f 2b3b 5f37 6a3c 4db5 d43d
00000170: 4a40 ca3d 7c13 debd fd44 bfbc d45e a33d
00000180: 462e 9b3c 7a52 f6bd a93e aebc 8895 cc3d
00000190: 2314 8dbc 0afc bbbd 9e0c 893d 4fb6 863d
000001a0: bd8c 07be 7706 e23b 80bb b4bb 52d3 dabc
000001b0: 1b5e 423d e413 bfbd d396 02bc 9402 85bc
000001c0: bba6 12bd c0aa c23c 84d1 083e e4a6 5ebd
000001d0: f08f 97bd 28ab 8d3d 82ec b6bd f2c0 dcbd
000001e0: c9e8 013e 6f83 de3d 9822 aabd 7da4 773d
000001f0: f4e5 ed3d 30de 9fbd 938d 82bd 86dc cfbc
00000200: 4ffe ddbc a017 a63c e586 be3d 6c31 83bd
00000210: 137b 2a3d 836f 9bbd 4668 3f3d 7f7e fd3d
00000220: 9d83 ed3d 5a14 cf3d 3ddc 513d 7500 863d
00000230: 9992 0bbd 07e7 0bbe b53f eb3d f62b 28bd
00000240: 92bb c23c b89f 51bc dd99 803b 26ba 903d
00000250: 444c 40bd f7e6 1f3d 010e d93d 5012 b43b
00000260: bdad 1e3e c81a 21bd 8df5 b73d 8fa2 b33b
00000270: 5436 aabd 0edb 113d 200f 223d 4a7c 263d
00000280: 5914 59bd 4628 f33d 89d5 26bc e0b5 8dbd
00000290: d694 863d 71ba 9b3d ffe1 d63d 9901 2e3d
000002a0: 1257 e13d 1a49 b73d ab7d 58bb cbe1 9dbd
000002b0: 631e 893d ba45 9abd 9657 143c 7534 983d
000002c0: 9de7 d93d b128 5c3c a932 99bd ca60 40bc
000002d0: 7850 5dbd 48e0 f3bd c0f2 c7bc 3e83 d6bd
000002e0: 8979 d5bd 50f6 84bc 6f53 343d ea3f ddbd
000002f0: 3dd8 e9bd 2efb 39b8 5c32 49bd d4ad a7bd
00000300: f280 0e3d 818d ba3c 07c3 303c 3904 13bd
00000310: 6bce 89bd 24c3 9cbd e37a ad3d f2f2 b23d
00000320: 67fe d33d 128f a23c d913 cc3c eedb babd
00000330: 0617 dbbd 4343 14bd 4440 a23d c2ee 19bd
00000340: 6b13 133d 572d 9bbd 939c 773d 898f 193d
00000350: cb98 0b3b 4e63 05bd 7959 9d3c abe9 8c3b
00000360: f832 f3ba e16c d43d be71 8c3d 8301 cbbd
00000370: a65a dd3d 3863 893d 9303 703c d78a ab3d
00000380: 3827 8cbd ce8f 32bd 4748 193e 4838 a23d
00000390: 91d0 6d3d e9f8 453c 6a9b 263d 55eb a5bd
000003a0: 8430 1a3d 031b 41bd 15d5 e63c 3182 ba3c
000003b0: 7506 00be 6eb2 89bc d005 b2bd 2d9b 603d
000003c0: 1593 e4bd 4a24 d73d 4b68 d53d 64fb 193d
000003d0: 5e88 013e 85a6 073e 9be1 e33d eeaa d83d
000003e0: 5f1e e6bd 12a4 893d fd04 183e 546c bfbd
000003f0: 2b8c f1bc 59bc 19bd 4dc6 c23d 76ff 52bd
-0.072773345 0.04446478 -0.04888551 0.12204506 0.017258499 0.13045073 0.16283916 0.12398369
0.030314231 0.09929439 0.127681 0.08857327 0.06206336 -0.0050772545 0.15910847 0.03524005
0.13240074 -0.112368286 0.04302679 0.12547521 -0.040329766 0.008912539 -0.014664739 -0.035669643
0.04875035 0.066599414 0.13625324 -0.0979628 -0.0347727 0.017377418 0.015868308 -0.015326067
-0.019732622 -0.047279596 0.13794148 0.0882495 -0.060841944 0.0074880337 -0.12565453 0.0949152
0.027669145 0.07369197 0.15813124 -0.06664206 -0.119844355 0.031415597 -0.082730636 -0.048661742
-0.022766141 -0.047346503 -0.07903263 0.101287186 0.010769516 -0.03418777 -0.00674278 0.133391
-0.044679306 -0.034791313 0.035659775 -0.0910999 0.006265608 0.07331804 0.116664544 -0.047980484
0.047041986 0.05718328 0.041517247 0.04051757 -0.10602937 -0.014452853 0.06402688 0.07434171
-0.009818616 -0.026709188 0.06890134 0.05139471 0.029848294 -0.042882435 0.08009498 -0.03477072
0.008750096 -0.06462236 -0.009381439 0.080764025 -0.013168865 0.11353281 0.00031281458 0.10147573
-0.08235273 0.0026120786 0.014295428 0.10386143 0.098755434 -0.1084356 -0.023348326 0.079770714
0.018942963 -0.1202745 -0.021270113 0.09989458 -0.017221516 -0.09178932 0.0669186 0.06577741
-0.13237281 0.0068977433 -0.005515516 -0.026712094 0.047453027 -0.09329966 -0.00797053 -0.01623658
-0.035803538 0.02376306 0.13361174 -0.054358378 -0.07400501 0.06917411 -0.08931829 -0.10778989
0.12686457 0.10864913 -0.083073795 0.060459603 0.11616126 -0.07806051 -0.063746594 -0.025373708
-0.027098803 0.020274937 0.09303073 -0.06405911 0.04162128 -0.075896285 0.046730302 0.12377643
0.11597369 0.10111304 0.051235426 0.06543056 -0.034075353 -0.13662349 0.114867605 -0.04105755
0.023771081 -0.012794428 0.003924592 0.07066755 -0.046947733 0.039038625 0.10598374 0.005495347
0.15495963 -0.03933218 0.08982382 0.005482025 -0.083111435 0.035609297 0.039565206 0.040645875
-0.05299792 0.11872916 -0.010182747 -0.069194555 0.06571357 0.0760392 0.10492324 0.042481992
0.110029355 0.0894949 -0.0033033888 -0.07709082 0.06695249 -0.075328305 0.009054085 0.074318804
0.1063988 0.013437436 -0.07480366 -0.011741826 -0.05403182 -0.11908013 -0.024407744 -0.10474251
-0.104235716 -0.016230732 0.04402488 -0.10803206 -0.11418197 -4.4341366e-05 -0.049120292 -0.08187452
0.03479094 0.022772552 0.010788686 -0.0358927 -0.06728824 -0.076544076 0.084707044 0.087377444
0.10351258 0.019843612 0.024911808 -0.091239795 -0.10697751 -0.03619696 0.07922414 -0.037581213
0.03590719 -0.07577007 0.060452055 0.0374904 0.0021300789 -0.032565407 0.019207703 0.0043003163
-0.0018554619 0.103723295 0.06857632 -0.09912398 0.108083054 0.067083776 0.01464929 0.08376091
-0.06843418 -0.043594174 0.14968978 0.07920891 0.058060233 0.012083271 0.04067556 -0.08101527
0.037643924 -0.0471449 0.028177777 0.022767158 -0.12502463 -0.016808715 -0.08692515 0.054835487
-0.11160866 0.105049685 0.10420283 0.03759326 0.12649676 0.13247116 0.11127015 0.10579477
-0.112362616 0.06720747 0.14845653 -0.09346834 -0.029485783 -0.037533138 0.09510479 -0.051513158

AFeatRNN.weight_ih_l1 f4 [256, 64]
00000000: 3ef5 64bd 0544 15bd 0401 fdbd 51da cabc
00000010: a43b ff3d 2b59 153d d733 9dba 9a73 b53d
00000020: a296 a2bc 3ed9 5f3d 69ee f63d acce ca3d
00000030: b61d 443d 6f23 32bd ca06 b03d 1999 25bd
00000040: 13ac aa3d f10d 22bd 9a69 b53c 953d 57bd
00000050: 2f63 073d 19ca 06be 87af 743d 7f48 103d
00000060: 7384 e6bd dfaa a03d e8f3 e23b 975e 51bd
00000070: a2cf 0d3e 9585 9a3d 0deb 3dbc e5bb 503d
00000080: 0132 f23d aea5 803c 630d 1c3e 0770 e53d
00000090: 7553 813d 9f3f 1fbe 3f48 2fbe 0ebc ba3d
000000a0: a0f2 dc3c d62c ca3d 6ff9 8cbd cb16 6bbd
000000b0: e392 a6bc cad5 7c3d 1354 85bc 3c66 edbc
000000c0: fe76 c43d e92c 83bc 362b 343e 6eb8 edbd
000000d0: 1727 663e 9d44 a6bd 3788 f73d d193 143e
000000e0: d8a7 273d 1d8a 2a3e 3023 023e 5cca 63be
000000f0: dde0 cfbd ca0b 4bbd 3004 763d 8bd9 1dbe
00000100: f23b 2dbc e500 963d 6675 4dbe 10d4 813d
00000110: 51bf 673d cb17 123d 0833 583d c6ea 2f3e
00000120: e347 22bd a1f9 763d 5625 7d3d 6a7a 87bd
00000130: 7f3d 983d d7f5 c0bd 8843 003e 9509 c33d
00000140: 4e1e c33d 8f1b b4bd 2691 8c3c c6cb b33d
00000150: ea40 89bd a56a 963d bddd 923d 4953 1fbd
00000160: e48f 0cbe 2a96 b73d 0647 fc3c 81ef 6ebd
00000170: ee05 9d3d 6e84 d33d c4bf 9e3d 9d50 c5bd
00000180: 83fb 113e e073 14be ba17 a03c c2e8 cfbd
00000190: b95e d63d 80ee ea3d ab00 cdbd 1d9b b83d
000001a0: f597 e4bd 4c2c a3bd 7233 debd 0e1c 93bd
000001b0: e017 2e3e 6d24 123d ed23 d23d 9521 cf3d
000001c0: 5493 513d 037c 34bd e668 083e e956 333e
000001d0: 91c4 02bd 914a 453d 14bb 1abe 6b50 a7bc
000001e0: 26ec 4abc 5886 8a3c ef1e f9bd bad1 d13d
000001f0: 4280 f6bc c157 cc3d abe8 953c 4ece 213b
00000200: d46b 053d bdcb e63c 225f db3b 24cd b5bd
00000210: ad1e 943d 5be1 f43d 01d4 363e 4ce6 9e3c
00000220: b315 1d3e 4f7c d2bc 887a 173e 498a 23be
00000230: 6808 8c3d 572e 70bd 3e7a fabd 9ec6 9bbd
00000240: 12c1 ea3d 9ada bcbd ac84 be3d 59c0 83bd
00000250: 32c6 efbd 1160 f63b 7d1d 79bc 824b 783d
00000260: cfa6 66bd 5b9a 0fbc d61a 09bd e5cb 863a
00000270: 7d57 23bd 8353 21bd aac2 8f3c 7d8b d73d
00000280: 7485 b7bd 60bd 313d eb85 743d 78a0 413d
00000290: 77e0 813a 1ee1 d4bc b5a0 a53c 6463 ee3c
000002a0: 36e8 1e3e 1050 cfbd 3817 403c 4941 b73d
000002b0: c9fb a6bd 211a 803d 0ddf cdbc bf0d 343d
000002c0: eb6d 6a3b 33c1 2d3e c114 f53d cef9 cf3d
000002d0: 16a8 fabc a89f c7bd 304f edbd 8401 2cbc
000002e0: 3774 88bd 8741 053e 1e2a d83d 91ae 91bd
000002f0: 5ef2 18be c082 c2bc 7784 b8bd 7628 0ebe
00000300: a245 05bc 3b45 d13d 8eb3 80bc 6bd7 81bd
00000310: 238d f13c 72be 11bd c8af fdbd 42b0 4c3d
00000320: 03e6 893d 40a5 143d f43f d83c 81b9 d63b
00000330: c3db c73b 7cc5 953d 2c5c c5bd ca0e c6bd
00000340: 85ba 89bd 6d7d bd3c baab 413d 741a 8abd
00000350: 3630 b93d eb3f f7bb 745c 6bbd 036f 783d
00000360: a5b9 f63d 49f4 ce3b 2a7d 1e3e df89 243d
00000370: fb70 d4bd a651 6cbd ac0e 70bd 1c6d 773d
00000380: a143 2d3d c5bd e03d c591 cc3c c91c 193e
00000390: ca35 9f3d 76ff 09be 4a4e fbbd e399 80bd
000003a0: e02b 6b3d 6c6f 793c a086 233c 773e ee3d
000003b0: 1e08 afbd f6b2 9abd 9905 2e3c 4a70 44bd
000003c0: f8dc 54bd 39cb 443d 6788 aabd 7aa0 973d
000003d0: 3eb6 a83d 1b42 d1bd a155 d93c b3a0 d7bd
000003e0: 945f 43bd 77c3 0dbe f86d 90bd 73a6 b4bd
000003f0: 7a90 543d 89a2 9cbc cd1d e7bc 4b0a 91bd
-0.055897944 -0.03644182 -0.12353709 -0.024762304 0.124625474 0.03646199 -0.0011993599 0.0885994
-0.019847218 0.054650538 0.12057192 0.09902701 0.047879897 -0.043490823 0.08595045 -0.04042921
0.08333602 -0.039564077 0.022145081 -0.052548964 0.033053573 -0.13163032 0.05973771 0.035225388
-0.112557314 0.07845091 0.0069260485 -0.0511156 0.13848737 0.0754501 -0.011591685 0.05096044
0.11825944 0.015704002 0.15239482 0.11203008 0.06314746 -0.15551613 -0.17117403 0.091179
0.026971161 0.09871833 -0.06883513 -0.057394784 -0.020333713 0.061727323 -0.016275441 -0.028979413
0.095930085 -0.016012626 0.17594609 -0.11607443 0.22475849 -0.08118556 0.12086528 0.14509512
0.040931553 0.16654249 0.12708735 -0.22245163 -0.10150311 -0.04957179 0.060062587 -0.15415017
-0.010573374 0.07324389 -0.20064315 0.06339276 0.056578938 0.035667222 0.052783042 0.17179403
-0.039619338 0.06029666 0.061803184 -0.066151455 0.074336044 -0.0942189 0.12525761 0.09523312
0.095272645 -0.08794319 0.017159056 0.08779101 -0.067018345 0.073445596 0.071711995 -0.038897786
-0.13726765 0.089641884 0.030795585 -0.058333877 0.076671466 0.10327993 0.0775142 -0.096345164
0.142561 -0.14497328 0.019542564 -0.10151817 0.10467286 0.114712715 -0.10009893 0.090139605
-0.11161796 -0.07967433 -0.10849656 -0.071830854 0.17001295 0.03567927 0.102607585 0.10113827
0.051165894 -0.04406358 0.13321266 0.17513622 -0.03192574 0.048166815 -0.15110427 -0.020424088
-0.012385404 0.016909763 -0.12164103 0.1024508 -0.030090455 0.09977675 0.018299421 0.0024689618
0.032573536 0.028173322 0.0066946903 -0.08877018 0.072324134 0.11957046 0.1785431 0.019396923
0.15340309 -0.02569404 0.14792836 -0.1597072 0.06837541 -0.058637943 -0.12230347 -0.076062426
0.114626065 -0.092213824 0.09302649 -0.06433172 -0.11707725 0.007518776 -0.015204784 0.060618885
-0.056311425 -0.008764829 -0.03347286 0.0010284154 -0.039878357 -0.039386284 0.017548878 0.10524652
-0.08961001 0.043393493 0.059698027 0.047272176 0.0009908815 -0.02598625 0.020218233 0.029100128
0.15518269 -0.101226926 0.011724286 0.08947999 -0.08153493 0.06254984 -0.025130773 0.04395842
0.0035771083 0.16968231 0.11966849 0.10155068 -0.030597728 -0.09747249 -0.115873694 -0.010498408
-0.06662791 0.13013278 0.10554908 -0.07113374 -0.14936206 -0.023743987 -0.09009641 -0.13882622
-0.008134278 0.10218283 -0.015710618 -0.06339916 0.029486245 -0.035582013 -0.12387043 0.04997278
0.067333244 0.036290407 0.026397683 0.0065528755 0.0060991957 0.07313058 -0.09636721 -0.096707895
-0.06725029 0.023131097 0.04728291 -0.06743327 0.09042399 -0.0075454614 -0.057461217 0.060652744
0.12047128 0.006315742 0.15477434 0.040170547 -0.10373112 -0.057695054 -0.058607742 0.06040679
0.042300824 0.10973696 0.024971852 0.14952387 0.07773931 -0.13476357 -0.12270792 -0.062793516
0.05741489 0.015224319 0.009980828 0.11633008 -0.0854647 -0.07553665 0.010621452 -0.04795865
-0.051968545 0.04804537 -0.08326798 0.07403655 0.08237885 -0.10217687 0.026530089 -0.10528698
-0.047698572 -0.13844095 -0.07052225 -0.0882081 0.051895596 -0.019120472 -0.028212452 -0.07082041

AFeatRNN.weight_hh_l1 f4 [256, 64]
00000000: a707 07bd af86 ff3c 9697 b6bc 4c1a c73c
00000010: db2f c73d 8b65 5a3d b5b7 edbc 2630 133d
00000020: dd0a 933d 76e9 9cbd 11fa d63d e4e6 6fbd
00000030: 6b5a a3bd ec48 3cbb 300e 03bd 564d c03c
00000040: 0492 39bd 63e4 0a3b 3b9c 993c cc7c 183e
00000050: a9f6 4cbc fb51 833d 9ff5 a33c 8662 a8bc
00000060: 6d05 213d cf6c 58bb 29d3 543d 35d5 89bc
00000070: f6c4 f83c 9362 a43d 81e3 c0bb 1cfb cc3c
00000080: 396e 17bd 29c5 f0bc 559b d9bd 498e bbbd
00000090: c44e 4ebd 486e c6ba 459b a6bd 97cf 26bd
000000a0: ef2f 79bd 9e40 e9bd e457 6f3d a0b0 0a3d
000000b0: e4a2 0ebe b897 4dbd dbae 29bd cf1a ab3d
000000c0: 35ad 913d 4327 b43d c585 edbd c51b 31bc
000000d0: e90f 88bd 51b0 42bd e4f1 ca3d f9bb f3bd
000000e0: 7d25 5bbb d475 343d d896 95bd 4858 2f3d
000000f0: 83fd b0ba 333f efbd f30d ebbc 4631 8a3d
00000100: e9aa d6bd 88be 5ebd ff3a ad3d 174f 20be
00000110: e0c0 9bbd 60a8 a33d bf57 983c e00b 573d
00000120: c7f4 c83c 5039 9dbc f890 183d ddb9 41bd
00000130: 1896 73bc e295 bc3d 83e2 0a3e fc83 2ebd
00000140: 61f8 e83d c2b7 123e 1763 9abd 4cb3 823d
00000150: 0412 ce3d 1a21 bd3d 51a0 65bd 1d5a 3a3d
00000160: 9331 aebd 5c43 54bd 2c71 9d3d 6077 dfbd
00000170: 3332 be3d e98f 1c3d f851 25be 7bdb b5bd
00000180: b632 423d f531 81bc 24e9 5abd ebac 813d
00000190: 594d f4bd 4eb4 7dbc 46ed b73d 4121 2a3d
000001a0: 0e84 6fba 8bba f1bd 46a5 f13b f8b2 283d
000001b0: a624 c13c f81f 33bd c0af 89bd 20e0 763d
000001c0: 0c0b a9bd 81af bd3d cde0 fbbd 6306 d5bd
000001d0: 66a8 12be 3d55 a13d 5c32 51bd 3391 92bd
000001e0: b76a c3bb bc3b 4cbd 0062 c83d 5e88 11be
000001f0: 77ba 9f3d f233 d8bd 38ee 2d3d 0e70 983c
00000200: 96f4 c4bd 3b9d e4bd a812 99bd 1dc1 823c
00000210: f45d 563d 714d ee3b 605d 04bd b8ec 67bd
00000220: fba3 263d ebb4 d1bc 5dcf de3d a4fc b3bd
00000230: 0651 47bd b5b5 a83d 1d89 d6bd 111f 643d
00000240: 4ec3 f0bc 95ae eebc cb53 a8bc b70e a03d
00000250: 2ab9 853c 71ba 1cbc a4d6 a0bd 74d5 133d
00000260: eb4d 07be c839 d8b9 cb51 993d dd74 51bd
00000270: 8972 6abc 4868 8e3d 27b0 883d 0d51 efbd
00000280: 04d9 13ba 0dc0 0bbe 400f 8d3c 7203 a43d
00000290: 2a23 e43d 6422 f23c 77f6 023c a611 d43d
000002a0: 2c28 a5bc 7470 a1bd c151 c8bc bfae 38bd
000002b0: 3f1b 373c ea6a a4bd 0c22 ccbd a147 3e3c
000002c0: 11c3 d33c e31f 863d 5a2a 153d 2d46 a03d
000002d0: 44a8 0fbd bd83 adbd be30 d13d c210 8b3d
000002e0: 26ab a5bd 6719 2a3d e4ff 91bd 4b38 3dbd
000002f0: 3c90 f2bd 4818 f53d cfb0 c83d 5f37 6f3d
00000300: be82 733d fda3 c33d 2ace 8a3d cfd9 74bd
00000310: 0a5e 3fbd 93da aebd 0ff5 b13d f464 e0bd
00000320: cc9d 42bd f3b3 f7bd b23f b33c 8120 cebb
00000330: 712a 343d dad0 a83d 879d 0a3e e3e7 bebd
00000340: 9a24 bb3d f826 ae3d d12c 81bd 22cf 0e3d
00000350: 0065 e9bd 349d 31bb 3288 40bc 3489 8dbd
00000360: 9409 a83d 3a68 c6bd e302 733d 2115 b53d
00000370: 7582 fc3c 8180 273c b822 52bd 067b e4bd
00000380: 0b12 91bd 284a bc3c 959e 60bd c0bb f93d
00000390: f393 da3d bd8b d9bd 8e55 a2bc 50fc 0e3e
000003a0: 5008 1f3d 0868 c9bd 4dc1 bebd 22a4 fdbd
000003b0: fb67 1ebc a9a9 42bd 2a54 c3bd e45f 8fbd
000003c0: 8309 03be bb28 a0bd 5215 323d 8cf1 33bc
000003d0: c2d9 9abc 14be ed3c bc07 cbbd 52aa 8d3d
000003e0: f627 ccbd 960d b9bd 6331 ea3d 4000 1fbd
000003f0: d387 6b3d 2219 a8bd 991d aebd 9893 78bd
-0.032966282 0.031192152 -0.022289079 0.024304532 0.097259246 0.053319495 -0.029018262 0.03593459
0.071798064 -0.07661717 0.10496915 -0.058569804 -0.0797623 -0.0028729988 -0.031995952 0.023474377
-0.045305267 0.0021193258 0.018751254 0.14891356 -0.01250998 0.06412121 0.020014582 -0.020554792
0.039311815 -0.003302384 0.05195919 -0.016825298 0.030367356 0.08026614 -0.0058864956 0.025022082
-0.03697035 -0.029390888 -0.1062533 -0.09157998 -0.050368086 -0.0015139068 -0.08135084 -0.040725317
-0.06083673 -0.11389278 0.05843343 0.03385985 -0.13929325 -0.05019352 -0.04142652 0.08354723
0.07113115 0.08796551 -0.1159778 -0.010809843 -0.066436596 -0.04753143 0.09909418 -0.11901087
-0.0033439093 0.044057682 -0.07304162 0.0428088 -0.0013503287 -0.11681976 -0.028693175 0.067476794
-0.10481817 -0.054380924 0.08458518 -0.1565517 -0.07605147 0.07991099 0.018596528 0.05250156
0.024530781 -0.019192368 0.037247628 -0.047296394 -0.014867328 0.092082754 0.1356297 -0.04260634
0.113754995 0.1432791 -0.07538431 0.063818544 0.1006203 0.09234829 -0.056061093 0.045496095
-0.08505549 -0.05182205 0.076876014 -0.10911441 0.092869185 0.03822318 -0.1614455 -0.08879753
0.047411643 -0.015770892 -0.053444996 0.063318096 -0.119288154 -0.0154848825 0.08980803 0.04153562
-0.0009136804 -0.118031584 0.0073744385 0.041186303 0.023577046 -0.04373166 -0.06722975 0.060272336
-0.0825406 0.0926199 -0.12298737 -0.10401609 -0.14322051 0.07877586 -0.051073417 -0.07156601
-0.005963649 -0.049861655 0.09784317 -0.14212176 0.07799237 -0.10556783 0.04246351 0.01860812
-0.096169636 -0.11162802 -0.074742615 0.015961224 0.052335694 0.0072724153 -0.03231561 -0.056622237
0.040683728 -0.025598964 0.10879395 -0.08788422 -0.048661254 0.08237783 -0.10475371 0.05569369
-0.029390004 -0.029135982 -0.020547768 0.07815307 0.016323645 -0.0095659355 -0.078534395 0.036092237
-0.13213317 -0.0004124178 0.07486304 -0.05113684 -0.014309534 0.06953484 0.066742234 -0.11685381
-0.0005639943 -0.1364748 0.017219186 0.0800847 0.111395195 0.029557414 0.007993332 0.10354929
-0.020160757 -0.07882777 -0.024453046 -0.045088526 0.01117593 -0.08028205 -0.099674314 0.011613757
0.02584985 0.06549051 0.036417343 0.07825885 -0.03507258 -0.08472393 0.10214375 0.06790306
-0.080892846 0.04152813 -0.071288854 -0.046196263 -0.11843917 0.11967522 0.097993486 0.058402415
0.059450857 0.09552763 0.06777604 -0.05977803 -0.046720542 -0.085377835 0.08689319 -0.10956755
-0.047513768 -0.120948695 0.021880958 -0.006290496 0.043985788 0.0824296 0.13536654 -0.09321573
0.091378406 0.085035264 -0.06307376 0.034865506 -0.11396217 -0.0027101757 -0.0117512215 -0.06910935
0.08204952 -0.096878484 0.059328925 0.08841921 0.030823926 0.010223509 -0.05130264 -0.11156277
-0.070835195 0.02298458 -0.054838736 0.121940136 0.1067275 -0.10622356 -0.019816186 0.13963437
0.038826287 -0.098342955 -0.09314213 -0.123848215 -0.009668346 -0.04752508 -0.095375374 -0.070007116
-0.12796597 -0.07820269 0.043477364 -0.010982882 -0.018902663 0.0290213 -0.099135846 0.06917252
-0.099685594 -0.090357944 0.11435201 -0.038818598 0.05750258 -0.08207919 -0.08501739 -0.06068763

AFeatRNN.bias_ih_l1 f4 [256]
00000000: 4e25 ea3c 2368 983d 5649 463a a16d f83c
00000010: 4880 2a3d 60cb 1a3e e17a eebc b36b 2abc
00000020: 1ce4 6f3d 6a77 a0bc 7a98 a43d 5b20 4e3c
00000030: 5b72 c03c fac4 cc3d 4712 30bc e7af bdbd
00000040: 7626 ae3d 416a 4bbd eb3a 23bd 1fe6 d03d
00000050: a0d1 ae3d a6eb a33d fd53 c13d 7c99 153d
00000060: d1bc cebd 6d52 a53d cb11 dfbd cbc2 b13d
00000070: eb41 ee3d aad4 34bd ec97 073e 5e49 a93c
00000080: f179 8b3c 7a4f de3d 9fc1 ff3d b859 1d3e
00000090: 50a7 aabc ed29 e43d ceaf cc3d 4a2c 603b
000000a0: c23c 1a3d f0bd cebc b4fe 3d3e cc69 e13a
000000b0: 3eab 0a3d dae3 0e3d d3d9 9f3d 2186 95bd
000000c0: 09f8 643d 9c49 033e 132a 2bbd 6177 4b3d
000000d0: e9e4 183d 65af ddbd 1b76 c7bd 84da cf3c
000000e0: 9519 88bd de06 273e ad78 8b3d 54e1 233e
000000f0: 91cd d53d 386b 003e cbc0 423e 9bcd 96bb
00000100: 032b 03be ef40 aebc 5aee e13d bb87 243d
00000110: d276 46bd 1d42 b6bc b892 1a3d 19dd b53d
00000120: abc7 373d 307b 07be ffcd 35bc 8b4c 4b3c
00000130: bcdb c0bc 1041 a1bd 3c2b a23d 813f 333c
00000140: 3b5b eabd efb2 683d 1619 9abd 51eb 19bd
00000150: 7f6f c5bd bd19 20bd b8bd ce3d f6fd 633d
00000160: b9ac 83bd adfa 483c 2c5e 753c e417 763c
00000170: 0f32 06be d35d 70bd 6667 ad3d 0630 da3d
00000180: 1a0a 86bd 8386 bdbd 55f3 a7bd b0fd 003e
00000190: e01d 053d 2d8c eabd ac50 37bd 70a5 9a3d
000001a0: 179f e8bd e2c9 c2bc 2b73 a0bd 1c67 813c
000001b0: bf89 53bd 0ae8 2f3e b4bd 923d 0e7f e1bb
000001c0: e839 cc3c a641 853d 3abf df3a d8c8 a83d
000001d0: f869 83bd 8715 b13d 4ae4 ab3d 636c 5e3d
000001e0: 7971 f33d 4c85 d5bd c2eb d7bc 01ff 82bd
000001f0: 5176 623d ce35 b93d fd9f 7d3d 189a 4cbd
00000200: 17cb 80bc c121 0a3d f5c0 b93c 4d7f c33d
00000210: a878 41bd 9069 acbd da0c 13be f592 c3bc
00000220: f238 3a3d 4151 4bbd 1553 a13d 5db6 fd3d
00000230: 23f4 bdba e832 78bd 2507 acbc 35a0 48bd
00000240: f7f8 333a c6c4 333d 0234 49bd 5dd8 cdbd
00000250: ac4e 96bd 5c85 5fbd 7a90 d0bd a0ed bbbd
00000260: 731e 90bd eeb1 e33d 011d 263d 0803 283d
00000270: e5b3 653d 9bb0 0cbc cb05 cdbd 6d76 89bd
00000280: fb02 923d 1846 c9bd de26 003e 533c ac3d
00000290: c0cd c03d b615 b63b 44a1 a23d 78dd cbbc
000002a0: fbff 41bc 26c5 dfbd 5929 833d 0f79 273d
000002b0: 1c76 e73c 8e3d 3d3d 115d b13d a37a bc3d
000002c0: 6932 003d 9a94 ea3d 1386 803d 9f5a 0fbd
000002d0: 1866 cb3d b2a3 af3b bd01 cabd 93fa 2ebd
000002e0: fe61 e83d 1740 4e3d 8113 163d c453 37bd
000002f0: d558 1ebd 2259 183d ac1e 9abd 419d a0bd
00000300: d60d 133e f8e1 a53d eb87 0b3c 385c 89bd
00000310: b2f0 9c3d 6c57 423d d197 9f3d ea7e 063e
00000320: eb67 51bd 89f8 043d 7264 0e3d f4d7 94bd
00000330: 6fee fc3d 9002 b83d 7a3f c13d da59 2b3d
00000340: e81b 7c3d c2b1 99bd 2d71 f33d e598 153e
00000350: a7df e9ba 9e27 423e 4f55 fc3c 1946 203c
00000360: c992 89bd 3481 023c db11 0b3e 18a0 403d
00000370: e206 783d 3a9c 093c 871a 1c3e db99 e83d
00000380: fc12 ee3a a83a 8a3d 2265 eb3d 40ef a73d
00000390: 0038 2f3d a18b 1b3e 7d01 f3ba faa4 4d3d
000003a0: de0c e43d 3691 123e 7a8c ab3d 5e27 87bd
000003b0: 675a d3bd 390e 083e 8029 eb3c 2142 543d
000003c0: 161a 7cbd 88ed d0bd 00ab 073d b70e 513d
000003d0: d93c 4a3e 3b91 e7bd 475c 953d ff07 063e
000003e0: 4341 d43d b1ed df3a 8eb9 efbc b6e8 1c3e
000003f0: 0dcb 273d b41a 0b3d 091a 09bc 4dfb 803b
0.028582241 0.074417375 0.00075640285 0.030325713 0.041626245 0.15116644 -0.029111328 -0.010401654
0.05856715 -0.019588191 0.08036895 0.012580956 0.023492029 0.09998508 -0.010746545 -0.09262066
0.085034296 -0.04966188 -0.03985111 0.10200142 0.085360765 0.08003931 0.094398476 0.036523327
-0.100946076 0.08072362 -0.108920656 0.08679732 0.116336666 -0.044148125 0.13241547 0.020664867
0.01702592 0.10855003 0.12488102 0.15366256 -0.020831734 0.11140809 0.099944696 0.0034206086
0.0376556 -0.025237054 0.18554193 0.0017197668 0.033854716 0.034885265 0.078052185 -0.07300974
0.055900607 0.12821048 -0.041788172 0.049674395 0.03732768 -0.108244695 -0.09739324 0.025372751
-0.066455044 0.16311213 0.068101265 0.16003925 0.10439599 0.125409 0.19018857 -0.004602147
-0.12809376 -0.021271197 0.1103179 0.040168505 -0.04845316 -0.022248322 0.03773758 0.08880062
0.044868153 -0.13230586 -0.011096477 0.012408386 -0.023542278 -0.07873738 0.079184026 0.0109404335
-0.11443182 0.05681127 -0.07524316 -0.03757793 -0.09640407 -0.039087046 0.1009478 0.055662118
-0.064294286 0.012266797 0.014976066 0.015020344 -0.13105033 -0.058683228 0.08466987 0.10653691
-0.065448955 -0.09254172 -0.08200709 0.12596774 0.032499194 -0.11452518 -0.04475467 0.07551086
-0.11358469 -0.023777906 -0.078344665 0.015796237 -0.051645037 0.1717836 0.07165089 -0.006881601
0.024929956 0.06506662 0.001707054 0.08241433 -0.06416696 0.08646684 0.08393152 0.054302584
0.118868776 -0.10425815 -0.026357535 -0.063962944 0.055288617 0.090434656 0.061920155 -0.049951643
-0.01572184 0.033723596 0.022675017 0.09545765 -0.047234207 -0.08418572 -0.14360371 -0.023873786
0.045464464 -0.049638037 0.07877175 0.12388299 -0.0014492314 -0.060595423 -0.0209995 -0.04898091
0.0006865407 0.04388883 -0.049121864 -0.10051034 -0.07339224 -0.05457054 -0.10183807 -0.09176183
-0.07037058 0.11117922 0.040555004 0.041018516 0.056079764 -0.008587028 -0.100108705 -0.06712041
0.07129475 -0.098278224 0.12514827 0.084099434 0.09414244 0.0055567874 0.07940915 -0.024885878
-0.011840816 -0.10926275 0.06404371 0.040886935 0.028254561 0.04620128 0.08660329 0.092030786
0.031298075 0.11454125 0.06275573 -0.034998532 0.09931582 0.00536009 -0.09863613 -0.042719435
0.113468155 0.05035409 0.036639694 -0.04475762 -0.038658936 0.03719438 -0.075253814 -0.07842494
0.14360747 0.08099741 0.008516292 -0.067070425 0.076630965 0.047446653 0.077926286 0.13134351
-0.051124495 0.032463584 0.03476376 -0.07267752 0.12350165 0.08984864 0.09435935 0.041833736
0.06155005 -0.07504608 0.11886821 0.14609106 -0.0017843143 0.18960425 0.030802397 0.009782338
-0.0671745 0.007965375 0.1358103 0.047027677 0.06055344 0.008399064 0.15244494 0.113574706
0.0018163617 0.06749469 0.11493899 0.0819993 0.042778015 0.15189983 -0.0018539872 0.050206162
0.11135267 0.14313206 0.08376403 -0.065993056 -0.10319977 0.13286676 0.028706312 0.051820878
-0.061548315 -0.102015555 0.033122063 0.051039424 0.19749774 -0.113069974 0.07292991 0.13088988
0.1036401 0.0017084387 -0.029263284 0.15323147 0.04096513 0.033961013 -0.008368024 0.0039362074
