STD/checkpoints/Res/VA_METRIC_state_epoch30.pth (torch, 719026 bytes, 28 tensors)

AFeatRNN.weight_ih_l0 f4 [256, 128]
000000 37 a7 88 bb 86 88 0d 3d 1b 0a 3e 3e 95 7d 75 3d
       -0.004170324 0.034554027 0.18558542 0.059934217
000010 83 b9 87 bd 86 1c ca bd 4d 7c 87 bd ad c7 e7 3d
       -0.066271804 -0.09868722 -0.06615505 0.11317382
000020 31 13 8e 3d 8f 93 14 bd d0 79 08 be 2d 38 ab bd
       0.06937254 -0.036273535 -0.13327718 -0.08360324
000030 96 65 02 3e b5 6a 03 be f8 ec 08 bd ba 02 d5 bd
       0.12734064 -0.12833674 -0.033429116 -0.10400911
000040 cb c6 b6 3d f0 ea b6 bd e3 f8 92 bc 93 af 01 be
       0.089246355 -0.089315295 -0.017940944 -0.12664632
000050 1f c9 3a bc 58 5a 9f 3d 23 4d e7 bc fd 82 d4 3b
       -0.01140049 0.077809036 -0.028235024 0.0064853416
000060 49 31 81 3d bb 14 d4 3c 4c ae 6c bd 7c 76 a5 bd
       0.063082285 0.025888791 -0.05778341 -0.0807924
000070 18 79 ef 3d bb e2 99 bd 51 45 9a 3d 66 0d ef bc
       0.11693019 -0.075139485 0.07532752 -0.029181194
000080 88 e0 ae bd 48 fe 27 bd b2 72 25 bd e0 b1 6d 3d
       -0.0853892 -0.041013986 -0.040392585 0.058030963
000090 bc 89 83 3d 7a 93 1e bd 42 ce fe 3d d9 3e c8 3b
       0.06422755 -0.038714863 0.12441684 0.0061110076
0000a0 bb 41 b6 bd 83 66 e1 3d de 69 5d 3d bf 58 c5 bd
       -0.08899256 0.11005881 0.05405604 -0.096360676
0000b0 02 02 a0 bd fc b7 1b bd 6a 78 88 3d dd 69 54 3d
       -0.07812883 -0.038017258 0.06663592 0.05185877
0000c0 04 ca a7 bd be 29 40 3d 2c 72 45 3d 7d 15 8c bd
       -0.08192828 0.04691481 0.048204586 -0.06840036
0000d0 df 6c c3 bd 91 65 55 bd 9b 8e 37 bd 48 46 c0 3d
       -0.0954225 -0.052098814 -0.044813734 0.09388405
0000e0 e1 7f c2 bc 27 dd b4 3d 82 df 1f bc 20 2e 68 3d
       -0.023742618 0.08831244 -0.009757878 0.056684613
0000f0 24 f7 2c bd d0 a2 1f 3d 7e b3 3e be 81 c5 2a bd
       -0.04222788 0.03897363 -0.18623158 -0.04169226
000100 9a ed 8b 3d ca eb 2c 3e fa bc 90 3c 42 6c a3 bd
       0.06832428 0.16886821 0.017668236 -0.07979633
000110 35 d7 0b bd 2d c9 9b 3d 4d c6 dd bd 2e ef b9 bd
       -0.034140784 0.076067306 -0.108288385 -0.09078823
000120 53 03 52 3d 6d e8 f0 bc 5d d0 8b bb b8 75 b6 3c
       0.0512727 -0.029407704 -0.004266782 0.02227293
000130 6d 48 26 bd 8f 8f 91 bd ab 19 ad 3d a3 06 fe 3c
       -0.040596414 -0.0710746 0.084521614 0.031009024
000140 34 85 bb ba 16 e2 1c bd 79 b8 aa 3c 44 16 ba bc
       -0.0014306665 -0.03830155 0.020839917 -0.022715695
000150 9e 3b b1 3d 96 c0 3b 3e 98 5c 3f bd 98 f1 c2 bd
       0.08653949 0.18335184 -0.046719164 -0.095187366
000160 f3 0c b5 bc 04 a8 3a bd 23 0d f5 bc d0 a1 50 bd
       -0.022100901 -0.04557039 -0.02991349 -0.050935566
000170 f3 f9 c8 3c 81 bc 8f 3d 96 4e 9f 3c 7d 4e a8 3d
       0.024533248 0.07018376 0.019446652 0.082180955
000180 9c 81 0b 3c 63 cf df 3d 3b 46 3a 3d bf aa c7 3b
       0.008514788 0.10928228 0.045477133 0.0060933526
000190 4e ec e1 3c af 6a 3c 3b eb a5 0c 3e 7a f0 e1 3d
       0.0275785 0.0028750112 0.13735168 0.110321954
0001a0 37 2f a9 3d e9 3a 02 be a7 04 c9 3b 96 8b 4e bc
       0.08260959 -0.12717785 0.006134588 -0.012606522
0001b0 ed 5b 90 3d de c6 2d 3d 9f fe 18 bd 5c 23 04 3e
       0.070487835 0.042425983 -0.0373522 0.12904114
0001c0 94 d3 60 bd ab c4 67 bd 49 6e 4a 3d fb 45 83 3d
       -0.054889277 -0.05658404 0.049421582 0.06409832
0001d0 28 31 19 be 90 f5 f1 bd 9c b8 08 be e8 b1 c7 3d
       -0.14960158 -0.118144155 -0.13351673 0.0975073
0001e0 98 f0 22 be 8e e6 ac bd bc e7 4d bd 35 e6 d5 3d
       -0.15912092 -0.08442412 -0.050269827 0.10444299
0001f0 49 28 db 3d 56 95 46 bd 42 82 64 bd 3c af cc 3d
       0.10701043 -0.04848226 -0.055788286 0.09994361
000200 ca 8c 2d 3d 79 48 9e 3d cc 79 93 bd a9 6e af bd
       0.042370595 0.07728667 -0.07200965 -0.085660286
000210 4c 4d d7 bd 5d 48 a4 3c 38 ad b6 3d 39 e3 b7 bd
       -0.1051279 0.020054037 0.089197576 -0.08978886
000220 d8 12 b2 bc f1 f3 5a 3d 49 d6 16 3d 96 55 10 3c
       -0.021737501 0.053455297 0.036825452 0.008809468
000230 89 38 27 3d 12 b8 08 3c 95 27 7b 3d 2f d0 c1 3d
       0.0408254 0.008344667 0.061317045 0.09463536
000240 9d 37 9d bd 4e 11 6e 3d 28 19 a3 bb 12 9e 83 bc
       -0.07676623 0.05812197 -0.004977364 -0.016066585
000250 c3 26 a3 bc 2f ae 84 bd 11 3d 4e 3d 33 7d b5 3d
       -0.019915944 -0.064785354 0.050351206 0.088617705
000260 40 7c 10 bc 65 69 40 3d 58 31 c1 3c 17 bf ad 3d
       -0.008818686 0.046975512 0.0235831 0.08483713
000270 a2 aa 05 3e 2c 66 18 3e 60 e3 d3 3d 48 77 f0 3c
       0.13053373 0.14882725 0.10346103 0.029353753
000280 40 dd bd bd a8 43 10 be c2 09 c3 3d 37 eb e5 bd
       -0.09270716 -0.14088309 0.095233455 -0.11226504
000290 6c d8 1f bd b1 c9 91 bd d3 db af bb 27 9d 1b 3e
       -0.039024755 -0.07118548 -0.0053667813 0.15196668
0002a0 39 0b f1 3d 30 bf 81 3c 5d 23 19 3d cd 10 33 3d
       0.11769719 0.015838236 0.03738724 0.043717194
0002b0 9b 01 91 bd 35 cf 9b bd 98 e8 8a 3d 30 30 4b 3d
       -0.07080384 -0.07607881 0.06782645 0.049606502
0002c0 ca e5 06 be ce 1d 0a 3d d9 81 cf 3d bc ca 8d 3d
       -0.13173595 0.03371983 0.10132188 0.06923434
0002d0 e3 fc 0b 3e f1 d2 21 bb 08 01 0b 3e 0f 7a 70 3d
       0.13670687 -0.0024692381 0.13574612 0.058710154
0002e0 ee 9b 1f be 01 c1 ab bd 4e c6 1a 3d 9e 60 c6 bd
       -0.15586826 -0.08386422 0.037786774 -0.09686397
0002f0 74 df 63 bd 9d 80 07 bc d5 41 26 3c 04 5c 86 3b
       -0.055633023 -0.00827041 0.0101475315 0.0041003246
000300 68 bf 9e 3d 14 d8 d8 3d 4b de 58 bc 8b 86 ae 3c
       0.077513516 0.10588089 -0.0132365925 0.02130439
000310 41 0d 2b bd 96 98 38 3d 36 17 f3 bd a6 5f 5b bd
       -0.041760687 0.045067392 -0.118696615 -0.053558014
000320 2a 79 df bd 18 db 19 3e fb 21 f3 3d ee f6 dd 3d
       -0.10911782 0.15024984 0.11871716 0.10838114
000330 34 ea 30 be 53 6b b8 bc c7 47 df bd bf a2 8f bd
       -0.17276841 -0.022512114 -0.10902362 -0.07013463
000340 7d d8 3b bd 9c 14 b7 3d ad ec de bc ea 8e a9 3d
       -0.045860756 0.08939478 -0.027212465 0.08279212
000350 24 44 aa 3d c6 bd 0c 3d a0 d3 5a 3b e5 0f a6 bc
       0.08313778 0.03436067 0.0033390298 -0.020271251
000360 da 38 d8 bd 0f e5 40 bd 03 0d 2c 3e 53 c3 0a 3e
       -0.105577186 -0.047093447 0.16801839 0.13551073
000370 93 7e 93 3d 37 45 94 3d 0c 96 29 3e 1f 1f b5 bd
       0.072018765 0.07239764 0.16561145 -0.088438265
000380 5d fc a7 bd c1 49 e2 3d 93 28 a9 bd e5 ba da bc
       -0.08202431 0.11049224 -0.08259692 -0.026700446
000390 04 3e f4 bc 51 87 b0 bc ac 42 d2 bd cf 93 a9 3d
       -0.029814728 -0.021548899 -0.10266623 0.082801454
0003a0 d4 09 3e bb ea 5f 00 bd 7d 04 ed 3d 44 5d 8a bd
       -0.0028997557 -0.03134147 0.11573122 -0.0675607
0003b0 57 8b 18 3d d4 28 cd 3d 60 67 8e ba 82 f4 db 3c
       0.03724226 0.10017553 -0.0010864548 0.026849989
0003c0 41 84 ea bd c9 0a e2 bd 5b b4 f5 bd 0d 3e de 3d
       -0.11451007 -0.11037213 -0.11997291 0.10851679
0003d0 55 ce 07 be 08 fb 05 3d e6 6e cd 3d 14 90 19 bc
       -0.13262303 0.032710105 0.10030918 -0.00937273
0003e0 97 75 e4 3c ed 92 36 bc 26 d7 b1 bb e7 95 9c bd
       0.027888102 -0.011143428 -0.005427259 -0.07645779
0003f0 32 c0 71 bd 0d 4f 36 3e a4 88 1f 3e 2b 1b a8 bd
       -0.059021182 0.17803593 0.15579468 -0.08208307

AFeatRNN.weight_hh_l0 f4 [256, 64]
000000 f9 4d 08 be e0 9b 9f 3d b9 72 a4 3d 36 9c b7 bd
       -0.13310994 0.07793403 0.08029694 -0.08965342
000010 78 1b 7a 3d 35 fc 55 3c a7 d7 b0 3d a7 1c 0e 3d
       0.061061352 0.013060619 0.086348824 0.034695294
000020 59 19 e4 bd 59 b7 8b 3b aa 94 d5 3c 70 ae 8c 3d
       -0.11137647 0.0042638 0.026071865 0.06869209
000030 f0 c0 de 3d f3 4c 1b 3d 25 66 58 3c 80 08 28 bd
       0.10876644 0.03791518 0.013207947 -0.04102373
000040 c4 83 86 bd b0 b1 62 bd 23 45 fa bb 71 b6 20 3d
       -0.06568101 -0.055345237 -0.0076376363 0.03923649
000050 4d 4b a4 3c b3 98 bb 3d 19 37 ba 3c 44 85 34 3d
       0.020055437 0.091599844 0.02273135 0.044072405
000060 5e fa 90 bd 44 a6 40 ba ff f2 f3 3d e2 35 c5 3d
       -0.07079004 -0.0007348994 0.11911582 0.09629418
000070 41 9d 8e 3d 84 b3 f2 ba e4 e9 95 bd f6 01 f2 bd
       0.069635876 -0.0018516635 -0.07320002 -0.1181678
000080 35 53 5c bd 7d 0e 6f 3c 28 00 cb bd 44 75 c0 3d
       -0.05379029 0.014590857 -0.09912139 0.09397367
000090 64 0b c3 bd 87 b1 ba bd 0b b7 ba 3d 2f a1 47 3c
       -0.09523657 -0.09115892 0.09116944 0.012184425
0000a0 fb ec cf 3c b1 2d 9e 3d 84 02 c7 bd c6 55 4c bc
       0.025381556 0.07723559 -0.09717277 -0.012471622
0000b0 c1 fe 19 3d 8e 40 84 3c 7c 49 a5 3b 98 07 84 3c
       0.037596468 0.016144063 0.0050441604 0.016116902
0000c0 86 68 c5 3d c3 a3 09 3c 3b 38 1c be 8f 70 22 be
       0.09639077 0.00840086 -0.15255825 -0.1586325
0000d0 6a a4 25 bd 33 25 84 bc c3 d7 41 3d 70 c7 c4 bd
       -0.04044 -0.01613102 0.047324907 -0.09608352
0000e0 72 92 9f 3d 44 26 94 bd 37 c6 be bc 30 e4 ce bc
       0.07791604 -0.07233861 -0.023287876 -0.025255293
0000f0 de 8d c7 bd 7c 7b 96 3d 6e a5 d2 3b 9a 04 05 bd
       -0.09743856 0.073477715 0.006428412 -0.03247509
000100 de a6 fd bd 6e 8a 86 bd f1 36 8b 3d dc 6a 96 bd
       -0.12385343 -0.06569372 0.067975886 -0.073446006
000110 d0 fc be bc c1 9e 8e bd 5a 60 bf bc 87 6f 14 be
       -0.02331391 -0.06963874 -0.023361374 -0.1449567
000120 70 01 56 bd 29 68 12 3d aa 93 39 bd c9 86 06 3c
       -0.052247465 0.035743866 -0.04530684 0.008210846
000130 33 70 0e 3e 48 cf c6 bc 38 a8 40 3d e5 32 04 be
       0.13909988 -0.024268761 0.047035426 -0.1291004
000140 c1 f7 00 3e 7a b4 c0 3d c8 4b 26 be ad 5a 1d be
       0.1259451 0.09409423 -0.16239846 -0.15366621
000150 3b e6 d9 3d 66 0a ef bd e2 43 1b be 9a 61 cc 3a
       0.10639616 -0.11671905 -0.15162614 0.0015593052
000160 3a d8 95 bd 8d df d0 bd 9d cc ea bc 30 17 7b 3d
       -0.073166326 -0.10198889 -0.02866202 0.06130141
000170 35 18 10 be 15 cd 66 bd eb db a0 bd e4 eb 1d be
       -0.14071734 -0.056347925 -0.07854446 -0.15422016
000180 9a 4a 3b bc e5 7a a1 bd ba 14 8b 3d e9 b9 c1 bd
       -0.011431361 -0.078847684 0.06791063 -0.09459288
000190 57 ba 08 bd 52 24 5e bd b6 48 3a be 93 61 41 3e
       -0.033380833 -0.054233856 -0.181918 0.18884878
0001a0 f4 49 cc 3d da 7f 12 be d8 bc 7a 3c 99 a6 8d bd
       0.09975043 -0.14306584 0.015303813 -0.069165416
0001b0 7d 7f 1f be 08 0f 98 3a 51 50 39 3d 91 15 94 bd
       -0.15575977 0.0011601159 0.04524261 -0.07230676
0001c0 5f 2d 91 3c 26 9d 03 bd 90 cf b4 bd 16 94 aa bd
       0.01772183 -0.03213229 -0.08828652 -0.083290264
0001d0 4c db 49 bd f5 4e 43 be 36 fb 83 3d fb 05 b1 bc
       -0.049281403 -0.19073088 0.06444399 -0.021609297
0001e0 cf 02 f7 bb d5 4d 20 be 9e d3 82 bd 14 09 06 be
       -0.0075381766 -0.1565469 -0.06388019 -0.130894
0001f0 e3 57 55 3d 61 dc 18 3d 92 52 6f 3e 7b 05 12 3d
       0.05208577 0.037319545 0.23371342 0.035649758
000200 86 a1 75 3d ed 47 37 3d 2a 28 25 3c fe 8e 05 3d
       0.059968494 0.04474633 0.010080377 0.03260707
000210 fc ae 85 3c cd da 1d bd 67 3d 40 3e aa 07 37 3d
       0.01631879 -0.038538743 0.18773423 0.044685043
000220 91 ad 62 bd 76 b6 e7 3d 4c b7 14 bd 37 ab 0a 3d
       -0.055341307 0.113140985 -0.036307618 0.03385469
000230 00 7e 13 be 70 84 55 bd 53 0a bc 3d 8e b6 de 3d
       -0.14403534 -0.052128255 0.09181657 0.10874663
000240 b0 14 83 3c 34 d6 5d 3d f1 1e c6 bd 80 ff cc bd
       0.016001076 0.05415936 -0.0967387 -0.1000967
000250 f6 04 dc 3d 1c b5 91 3d 11 51 0c 3d b4 b6 0a bc
       0.10743134 0.07114622 0.034257 -0.008466411
000260 ef 40 df bc 51 b6 e1 bd 15 18 19 be 33 2b 67 3c
       -0.027252642 -0.11021102 -0.14950593 0.014109421
000270 f0 f6 f9 bc 5a 62 f6 3c 7b b3 c8 3d 55 b8 38 3e
       -0.030513257 0.030076195 0.09799858 0.18039067
000280 f7 30 14 3e fe af 07 3e 4d 39 34 3e 80 2d 9d bd
       0.14471804 0.1325073 0.17599984 -0.07674694
000290 4f 7c ec bd 8e 9a 2a be 49 b0 ae 3d c0 30 ea 3d
       -0.115471475 -0.1666052 0.085297175 0.114350796
0002a0 ed 67 22 bd 3c 46 cb 3d ca cf 4d bd 47 af 0c 3e
       -0.039649893 0.099255055 -0.05024699 0.13738738
0002b0 f5 bb 96 3d 64 bf 7f 3d bf ad 10 3e b4 ed c9 bb
       0.07360069 0.062438384 0.14128779 -0.0061623696
0002c0 62 91 d0 3d 1a 9d 8a 3d b3 94 b8 3c 01 01 02 bd
       0.101839796 0.06768246 0.022531843 -0.03173924
0002d0 82 b3 48 3d 07 dc 1a 3e a7 b2 00 bc 14 d7 f5 bd
       0.048999317 0.15122996 -0.007855094 -0.120039135
0002e0 4e 67 b1 3d 46 b3 84 3e 0c d3 f6 bc 6c ef 92 3d
       0.08662282 0.25918025 -0.030129932 0.07174572
0002f0 4a e3 1c 3d d4 7b 65 3b ea 7d 2d be 7d d3 f4 bd
       0.038302697 0.0035016434 -0.16942564 -0.11954401
000300 d6 9a 3c be d7 6d 28 bd 5d 92 31 be 08 b3 96 3d
       -0.1841844 -0.041120376 -0.1734099 0.07358366
000310 c4 52 f0 bd e5 ac ba 3d c1 75 15 bd e3 7e d1 bd
       -0.11734536 0.09115008 -0.036489252 -0.1022928
000320 cd 39 88 bd 15 2f 2e 3c 02 49 35 3d d8 cc a9 bc
       -0.066516496 0.010631342 0.04425908 -0.02072756
000330 47 de 67 3c 78 72 50 3d ed 9d bf 3d 74 1f 2e 3d
       0.014152116 0.050890416 0.09356294 0.042510465
000340 54 86 0b 3e 66 6c d8 3d e4 b6 11 be a5 9a a6 3d
       0.13625461 0.1056755 -0.14229923 0.08134965
000350 f7 15 4f bd 03 4f c0 bd c8 44 26 bd 03 89 a9 bd
       -0.050558057 -0.0939007 -0.04059294 -0.08278086
000360 0a db 17 bd 90 c2 80 3c f6 7b ae 3c 5d 2f a4 bc
       -0.037074126 0.015717775 0.021299344 -0.020042116
000370 9c c9 07 bc 77 6d fe bd 74 de 24 3d b4 7a ec bc
       -0.0082878135 -0.124232225 0.04025121 -0.028867103
000380 55 e7 a4 3d 2b 0b 02 3c ae 40 27 3d 09 38 89 bd
       0.080519356 0.007937233 0.040833168 -0.06700141
000390 59 fc d2 bd 46 49 03 be 89 dc a1 3d dc 17 ec 3c
       -0.10302038 -0.1282092 0.07903392 0.02881997
0003a0 25 4b f2 3c 6c 7f 32 bc fa 63 20 bd f4 b7 0c be
       0.029576847 -0.010894638 -0.039157845 -0.13742048
0003b0 df 38 b3 bb 01 a9 35 be b1 5c 8a 3c cd b3 21 be
       -0.005469426 -0.17740251 0.016889902 -0.15791245
0003c0 e9 56 20 3e a8 74 84 bd 0b dc 05 3e 99 cc a8 3d
       0.15658154 -0.06467563 0.13072221 0.08242149
0003d0 2b 41 c7 3d 6c 2d ba bc d5 1b d8 3b 22 aa 59 3d
       0.09729227 -0.022726737 0.0065951147 0.053140767
0003e0 c3 98 84 3d 98 20 04 3e f7 45 bd bd 93 87 93 3d
       0.064744495 0.12903059 -0.0924186 0.07203593
0003f0 b6 3f 3f 3c 41 10 89 3d 8a bf 83 bd 78 11 83 3d
       0.011672905 0.06692553 -0.064330176 0.06399816

AFeatRNN.bias_ih_l0 f4 [256]
000000 83 c4 a2 3d 64 d3 9c 3c f5 c1 b9 bd 25 6e bf 3d
       0.07947638 0.019143768 -0.090701975 0.0934718
000010 66 8e 55 3c ad 74 ca 3d a0 51 89 3d 67 2a ad 3c
       0.013034439 0.098855354 0.06705022 0.021138383
000020 de 26 e2 3d ad 58 34 3d 8f 90 94 3d 4f 6c 00 be
       0.110425696 0.04402988 0.07254135 -0.12541316
000030 49 f5 d1 bd f1 ec 98 3d 0f a9 b7 3d ad 40 4f 3d
       -0.102518626 0.07467068 0.08967792 0.05059879
000040 b2 d6 8d bd 04 1e 14 bd 0e 86 0a bd 5e 90 b6 3d
       -0.069257155 -0.036161438 -0.03381925 0.089142546
000050 c4 73 31 bd 62 1e 9c bd 05 4b b7 3d ba bf ad 3c
       -0.043323293 -0.076229826 0.08949856 0.021209586
000060 6d 35 b3 bb 29 2d 09 3e 39 14 11 3e 44 ed e3 bd
       -0.0054690153 0.13396133 0.1416787 -0.11129239
000070 23 ec e6 3d 87 0f 45 bb f3 a7 18 3c 5f d5 e7 3d
       0.11275508 -0.003006907 0.009317386 0.11319994
000080 c5 0f 35 3d 55 cd 06 3d 46 36 51 bc 55 6f fa 3c
       0.044204492 0.032910664 -0.012769287 0.030570665
000090 d7 6f 17 3d 28 fb 35 3c 72 15 b1 3d 96 85 6a bd
       0.036971893 0.011107244 0.086466685 -0.057256304
0000a0 f5 43 f0 3c 41 99 6b bc d0 ad 28 3d 8a 46 63 3d
       0.02932928 -0.0143798 0.041181386 0.055487193
0000b0 a8 0b 2c 3d 7a b7 85 bb f4 ae e5 3d 5b 37 bd 3d
       0.042003304 -0.00408071 0.1121501 0.09239074
0000c0 aa b9 a0 bd e7 5c 9c 3d 02 b2 37 bb 76 6f 80 bc
       -0.078479126 0.07634907 -0.0028029685 -0.015678149
0000d0 33 1b ce 3d 7c 04 01 bd 29 a4 e0 3d 7e 44 b6 bb
       0.100637816 -0.031498417 0.10968811 -0.005562364
0000e0 9c b4 0b bb 5a 21 b6 3d 54 06 95 3d 7e 6b bf bd
       -0.0021317368 0.0889308 0.072765976 -0.093466744
0000f0 08 ba cf 3d 5a ef d9 bb 7a 6d 08 3e c3 45 cd 3d
       0.101429045 -0.0066508474 0.13323012 0.100230716
000100 b9 b8 9d 3d 13 f0 53 3c 1b 01 6a 3d d1 16 c9 bd
       0.07701249 0.012935656 0.05712996 -0.09818805
000110 c5 ce e3 ba 57 82 1d bd 5b 12 b4 3d 8c f5 ad bc
       -0.0017380348 -0.03845438 0.087925635 -0.02123525
000120 bf 9f ba 3c e2 6f da bd d1 d5 3b bd 17 96 af 3d
       0.022781251 -0.10665871 -0.045858208 0.08573549
000130 41 a5 28 bd 45 e2 7f 3d f8 1b f0 bd c4 9e 87 bd
       -0.041173223 0.062471647 -0.117240846 -0.06622079
000140 09 71 6f 3d ab c5 07 bc 99 14 49 bb e8 03 07 bd
       0.058457408 -0.008286874 -0.0030682443 -0.03296271
000150 e5 c2 f1 3c 33 a5 b1 3d 39 7b 2b 3d 2b 7c 90 3c
       0.029511878 0.086740874 0.04186556 0.017637333
000160 de 53 04 3c 4d f0 91 bc 39 de 78 3c 30 56 a0 bd
       0.008076636 -0.01781478 0.015189701 -0.07828939
000170 3f 3c c3 3d ae 04 0e bd 1a 7e d5 bd 2e 05 f3 3d
       0.095329754 -0.03467243 -0.104244426 0.11866222
000180 a6 47 cf bc 87 09 66 3d 37 11 99 3d cb 2f d1 3c
       -0.02530272 0.05616143 0.074739866 0.025535485
000190 9a dd f7 bd 72 04 b1 bc 1f 2f 40 3d 96 93 e6 bd
       -0.12102814 -0.021608565 0.04691994 -0.112586185
0001a0 0a 41 af bd 8a 17 15 bd c6 81 89 3d b5 72 ca bc
       -0.08557327 -0.0363994 0.067142054 -0.0247129
0001b0 d8 86 9d 3d 91 ea 90 3d de a7 ca 3d 53 cf be 3d
       0.07691735 0.0707599 0.098952994 0.09316888
0001c0 f7 1c ec 3d c7 22 9d 3d a8 e1 86 3d 33 44 f2 3b
       0.11528962 0.07672649 0.06586009 0.007393384
0001d0 ba 3c e6 bc 5a 9f bc bd f7 23 9f bd a0 da 96 3d
       -0.028105129 -0.092100814 -0.077705316 0.07365918
0001e0 bb e3 a3 bd d1 58 e6 bd 03 f6 ca 3c 52 d1 b0 3d
       -0.080024205 -0.11247409 0.02477551 0.08633675
0001f0 bd 26 3f 3d 23 9a 18 be b6 03 5d bd cc cc 1f bc
       0.046667803 -0.14902548 -0.053958617 -0.009753417
000200 65 81 cb bd 49 4d ac bd 08 6d ae bd 23 04 e6 3c
       -0.099367894 -0.084131785 -0.0851689 0.028078144
000210 b0 41 df bc fa 24 8e 3d 2c 24 14 bd fc e5 c9 bd
       -0.027253002 0.069406465 -0.03616731 -0.09858319
000220 65 4f 29 ba f5 26 97 bd 1b d4 85 3d 99 5b bd 3d
       -0.0006458669 -0.07380477 0.065345965 0.092459865
000230 4b d6 e8 bd 17 0b 64 3d d3 db 1f 3d 30 ff 99 3d
       -0.11368998 0.05567464 0.039028 0.07519376
000240 12 b5 9f bb b2 04 8f 3c 99 71 16 bd 78 74 91 3c
       -0.00487388 0.017458294 -0.03672943 0.017755732
000250 22 5d 32 3d 6f 6a 93 bd 54 7c 9d bd cf e6 82 3d
       0.04354585 -0.07198035 -0.07689729 0.063916795
000260 53 5b 0f 3e fa 4b ae 3d e7 1a fa bd 7c c7 bb 3d
       0.13999681 0.08510585 -0.122121625 0.09168908
000270 a7 de bc 3d 11 98 07 be 6c 79 73 3b 7b 8d 9f 3d
       0.09222155 -0.13241602 0.003715123 0.07790657
000280 09 80 59 3d e5 c6 9e bd f9 01 c5 bd 69 5f ab 3d
       0.05310062 -0.0775278 -0.09619517 0.083678074
000290 14 cf 4e ba 2d 23 fb 3c be bb 9c 3d d4 13 b7 bd
       -0.00078891334 0.030656422 0.076529965 -0.08939329
0002a0 1f 8f c5 3c 97 ea 30 3d 9d 87 b9 bd ea e2 99 bd
       0.024116097 0.043192472 -0.09059069 -0.075139835
0002b0 4d b2 03 3c 09 1b af 3b 49 57 b8 3d 60 7f f4 ba
       0.008038116 0.005343799 0.09001023 -0.0018653683
0002c0 17 9d ce bb 32 32 e7 bb d3 8d 8c 3d 95 56 f4 3d
       -0.0063053477 -0.0070555443 0.06862988 0.11930577
0002d0 93 7d b1 3d 66 31 59 bd 09 6a b3 bd b4 79 ec 3d
       0.086665295 -0.053025626 -0.08760459 0.115466505
0002e0 47 0c a5 3d e4 96 f3 bd c0 94 db bd b4 e3 c3 3c
       0.08058982 -0.118940145 -0.10721731 0.023912288
0002f0 72 b2 ae bc ad 4c c4 3d 3b 68 84 3d 01 ea 8a 3d
       -0.021325324 0.09584937 0.06465193 0.06782914
000300 2b c4 c7 bd 6c 98 c7 bd 25 1f ba bd 7c 87 e5 bd
       -0.09754213 -0.09745869 -0.090879716 -0.11207482
000310 08 65 aa bd be 5e ac 3d 40 9a 80 bb d8 44 8f bd
       -0.083200514 0.08416508 -0.003924638 -0.06995553
000320 da 32 d6 bb dd e1 1e 3d 56 bc 1e 3d 2c 71 c5 3c
       -0.0065368237 0.03878962 0.03875383 0.024101816
000330 46 46 db bd f2 ae ac 3d 54 68 09 3c 90 5c ab bb
       -0.10706763 0.08431806 0.00838669 -0.00522954
000340 16 2c 10 3e 6b 41 c6 bd 58 f1 23 bb 68 5b 92 3d
       0.14079317 -0.09680446 -0.0025015678 0.071463406
000350 0d 37 66 bd b2 44 e5 bd e8 e2 a7 3c cf 94 f1 3c
       -0.056204844 -0.11194743 0.02049394 0.029489903
000360 c5 3e 9a bd 68 44 37 3e 80 c8 71 3d 3a 91 06 3d
       -0.075315036 0.17897189 0.059029102 0.032853343
000370 27 04 7e bd a4 a9 ca 3c 81 b4 54 bd 9d 76 a9 b9
       -0.06201568 0.024739094 -0.051929954 -0.00032322566
000380 53 7d 32 bd 6e 2c 3f 3d 84 70 2a 3e cb a4 06 be
       -0.04357655 0.04667323 0.16644484 -0.13148801
000390 30 bc d8 bd bf dc ac 3d 79 a4 13 3d 2a 72 a1 3d
       -0.10582769 0.084405415 0.036045525 0.07883103
0003a0 ce 5b e8 3d a9 cc 9e 3a 49 b6 a4 bc 6d b6 84 3d
       0.11345635 0.0012115437 -0.020106452 0.064801075
0003b0 5d 2b e9 3c a6 09 05 bd 54 28 b6 3d 9b dd cb 3c
       0.02846306 -0.032479905 0.08894411 0.024885943
0003c0 47 1f 34 bd ea ae 3e 3e 99 4f cb 3c b2 b8 93 bd
       -0.04397514 0.18621412 0.024818229 -0.07212962
0003d0 28 c7 a2 bd f0 c4 56 bd 77 57 b4 bd 53 52 94 ba
       -0.07948142 -0.052433908 -0.08805745 -0.0011316038
0003e0 d1 59 08 3e 98 a1 06 3e ef 86 9e bc bf d7 1c 3e
       0.13315512 0.1314758 -0.01935145 0.15316676
0003f0 1b 29 1f 3d cb 74 6c bd 5f a1 9c bc 6d 94 b9 3d
       0.03885756 -0.05772857 -0.019119916 0.09061513

AFeatRNN.bias_hh_l0 f4 [256]
000000 09 67 97 bd 27 98 1e 3d cb c6 5e bd 35 44 f0 3d
       -0.07392699 0.038719323 -0.054388802 0.117317595
000010 28 1c 4c 3c 8a e2 08 3e 5f ad 24 3e df c6 f7 3d
       0.012457885 0.13367668 0.16081761 0.120984785
000020 f0 04 e9 3c b9 61 d5 3d 03 e3 00 3e fc 33 a9 3d
       0.028444737 0.1041903 0.12586598 0.08261868
000030 b9 9b 7c 3d fe 18 23 bb 39 b0 19 3e 42 f0 0b 3d
       0.061671946 -0.0024886723 0.1500863 0.034164675
000040 4d 23 04 3e 0b 58 e7 bd f5 fd 75 3d 1c e9 00 3e
       0.12904091 -0.1129609 0.060056645 0.12588924
000050 20 b2 25 bd 54 cf f3 3b 42 5a 9c bc 2c 20 1a bd
       -0.040453076 0.007440487 -0.019086007 -0.037628338
000060 57 64 48 3d 53 21 7e 3d 0d b8 0a 3e 12 f1 c8 bd
       0.048923817 0.0620435 0.13546772 -0.098116055
000070 48 84 19 bd 36 80 9f 3c 2f 56 92 3c 32 e2 7b bc
       -0.03747967 0.019470315 0.017863361 -0.015373753
000080 a6 d9 b5 bc 2b af 4e bd 9e e5 07 3e 97 15 b6 3d
       -0.02219851 -0.050460022 0.13271186 0.08890837
000090 09 ee 81 bd b8 46 ed 3b 43 76 08 be 7b f0 c1 3d
       -0.0634423 0.0072410963 -0.13326363 0.09469696
0000a0 05 57 d4 3c 69 d6 89 3d 2c bf 2c 3e ab 62 81 bd
       0.0259204 0.067303486 0.16869801 -0.063176475
0000b0 9f c0 fe bd 45 cd 05 3d 32 da b7 bd 4d 02 46 bd
       -0.12439083 0.032666463 -0.08977164 -0.048342038
0000c0 3b 1f bb bc 4a bd 30 bd 4a 64 a7 bd 51 92 d1 3d
       -0.02284204 -0.04314927 -0.081734255 0.10232986
0000d0 2b 1b 32 3c a1 07 06 bd 92 32 b1 bb e0 a4 06 3e
       0.010870735 -0.03272212 -0.00540764 0.13148832
0000e0 d7 03 32 bd ea de 01 bd d0 a5 1b 3d e8 21 ae bd
       -0.043460693 -0.031706728 0.037999928 -0.08502561
0000f0 26 aa 86 3b cf 2a 91 3d 97 97 f2 3d c3 a3 37 bd
       0.0041096387 0.07088243 0.1184532 -0.04483391
000100 d3 27 24 3d ba 8b 55 3d 73 7e 18 3d 1a e3 18 3d
       0.04007704 0.052135207 0.037229966 0.037325956
000110 9f 5d e8 bd 08 71 6e bc 8b ab 7c 3d 4f 72 90 3d
       -0.11345982 -0.014553316 0.061687034 0.07053053
000120 55 6f 6c bc fe 1a f4 bc da d1 8a 3d 49 0f 47 3d
       -0.0144308405 -0.029798027 0.06778307 0.04859856
000130 3e 45 f0 3c 60 dc 07 bd be 98 9c 3d 8c 1e 15 bd
       0.029329892 -0.03316915 0.07646321 -0.036406085
000140 ca 43 ac 3b 5d c0 77 bd 83 15 6c b5 1f 6d a5 3d
       0.0052571045 -0.060486186 -8.7948155e-07 0.08077454
000150 e1 44 4e bc ad a8 e8 3d 4b bb 80 bc 20 6d d3 3d
       -0.012589664 0.11360297 -0.015714308 0.10323548
000160 72 b6 ab bd 30 22 d9 ba 6a 3e 5a 3c 7c c9 db 3d
       -0.08384408 -0.0016565975 0.013320545 0.107317895
000170 61 26 c9 3d d3 fc d9 bd 76 34 bd bc c6 2c a0 3d
       0.09821773 -0.106439255 -0.023096304 0.0782104
000180 1a 2d 4e 3c 16 04 fa bd 3e 1e 9b bc 2d de c7 3d
       0.012583995 -0.122078106 -0.018935319 0.097591735
000190 4f 6b 8f bc 28 f7 c0 bd 05 1e 7a 3d 97 60 84 3d
       -0.017507223 -0.09422141 0.061063785 0.064637356
0001a0 79 0c 0b be d1 fa 45 3b e8 79 a5 bb 2b 24 e4 bc
       -0.13578977 0.0030209313 -0.0050499327 -0.027849277
0001b0 44 72 3f 3d 7d 46 c1 bd a4 2a b9 bc 85 1a 87 bc
       0.04673983 -0.09437273 -0.02260334 -0.016492138
0001c0 c9 8d 2c bd de 08 d0 3c 0c a8 03 3e b1 9d 36 bd
       -0.042127404 0.025394853 0.12857074 -0.04458398
0001d0 f8 b7 97 bd 7c 93 99 3d 77 d1 ae bd 8e 0e cf bd
       -0.07408136 0.074988335 -0.08536046 -0.10110198
0001e0 f6 98 0d 3e 4b 6d dd 3d 97 bd ad bd cd 40 7e 3d
       0.13827881 0.108118616 -0.08483427 0.062073518
0001f0 fc 4d ec 3d 79 62 bf bd ec 1e 75 bd 72 7f 79 bc
       0.11538312 -0.09344954 -0.059843943 -0.015228139
000200 75 61 d5 bc a1 d4 b1 3c 9c 8e ba 3d 4b 6b 86 bd
       -0.026047448 0.021707835 0.09109232 -0.06563433
000210 65 da 44 3d f9 32 98 bd 38 fa 3c 3d fd 1c ff 3d
       0.04805984 -0.07431597 0.046137065 0.12456701
000220 78 13 f0 3d 07 11 df 3d 14 61 5b 3d 82 72 82 3d
       0.11722463 0.108919196 0.053559378 0.06369497
000230 c0 ef 1a bd 4f 95 09 be 19 45 eb 3d c2 59 1c bd
       -0.0378263 -0.13435863 0.11487789 -0.038171537
000240 f3 a8 b7 3c ec f9 36 bc ca 50 90 3b 93 40 93 3d
       0.022419428 -0.011167984 0.004404162 0.07190051
000250 9e a4 35 bd 50 72 11 3d 66 b4 d3 3d 2e 64 9a 3b
       -0.044346444 0.035509408 0.10337143 0.0047116494
000260 37 a1 20 3e c5 aa 1b bd 37 bd b7 3d 9f 67 eb 3b
       0.15686499 -0.038004655 0.08971637 0.0071839835
000270 d1 7c a9 bd 7a ed 1f 3d 9d 87 28 3d dc fa 2f 3d
       -0.0827576 0.039044835 0.041144956 0.042963848
000280 13 ff 53 bd e7 dc ed 3d 2b e9 11 bc d9 8e 85 bd
       -0.05175693 0.116143994 -0.008905689 -0.06521387
000290 03 c1 72 3d 17 26 90 3d d4 4d d6 3d 7b a4 26 3d
       0.0592661 0.07038515 0.10464063 0.040684205
0002a0 da 91 dc 3d 00 6b bd 3d 3a 7f 73 bb fd cf 9f bd
       0.107700065 0.09248924 -0.003715469 -0.078033425
0002b0 f0 4c 8b 3d 83 50 9b bd eb 5c 1b 3c 57 fc 97 3d
       0.06801784 -0.07583716 0.009482603 0.07421177
0002c0 59 27 dd 3d 81 fe 55 3c 74 c8 90 bd b9 d5 2d bc
       0.107985206 0.013061167 -0.070694834 -0.0106100375
0002d0 df 70 53 bd 10 14 f4 bd 4e 89 c4 bc 18 90 d3 bd
       -0.051621314 -0.11917889 -0.023991253 -0.10330218
0002e0 29 fe d5 bd 34 76 91 bc 02 38 2c 3d ba 49 e1 bd
       -0.10448868 -0.017756559 0.0420456 -0.1100039
0002f0 81 44 f0 bd 97 e7 ec 3a 5e e8 56 bd 65 72 ab bd
       -0.11731816 0.001807439 -0.052467696 -0.083714284
000300 69 7f 02 3d 9f d7 93 3c 42 05 11 3c 25 6c 1c bd
       0.03185979 0.018047152 0.008851351 -0.038189072
000310 df 35 96 bd 3e b9 9f bd 71 13 be 3d f8 7f a7 3d
       -0.07334494 -0.07799004 0.09281052 0.08178705
000320 23 8c c7 3d 4c d2 cf 3c 6c 71 ad 3c 69 80 c1 bd
       0.09743526 0.025368832 0.021172248 -0.094483204
000330 8a 6e dd bd 39 b9 1c bd 38 b5 8c 3d 71 fb 14 bd
       -0.10812099 -0.03826258 0.06870502 -0.036372606
000340 01 39 03 3d 87 af a0 bd 67 4f 9b 3d 2c d2 18 3d
       0.032036785 -0.07845979 0.07583504 0.03730981
000350 70 89 17 3b db 7a 1c bd fb 68 6e 3c f1 a2 77 b9
       0.002312269 -0.0382031 0.0145513965 -0.00023616456
000360 65 42 6c bb 60 b5 da 3d 18 d5 81 3d 0d a4 c4 bd
       -0.0036050316 0.10679126 0.063394725 -0.09601603
000370 11 7e d0 3d 49 75 93 3d 57 cb 9c 3c a3 45 ad 3d
       0.10180295 0.07200105 0.019139929 0.08460548
000380 5d 7a a2 bd da 38 3a bd d7 90 18 3e 37 71 9e 3d
       -0.07933495 -0.045464374 0.14899002 0.07736438
000390 be f2 62 3d 8d 1d 87 3c 5b 69 0f 3d 8f df a7 bd
       0.05540728 0.016493583 0.035012584 -0.08196937
0003a0 04 90 10 3d 56 48 51 bd 17 6b 01 3d 1a cb cc 3c
       0.035293594 -0.051094376 0.03159627 0.02499919
0003b0 b1 08 04 be 9b 9c 58 bc c3 70 b8 bd c3 b8 46 3d
       -0.1289394 -0.013220931 -0.090058826 0.048516046
0003c0 50 13 d6 bd e7 2e db 3d 69 05 c6 3d 29 bc 1a 3d
       -0.10452902 0.10702305 0.09669001 0.0377771
0003d0 05 59 fe 3d af 95 06 3e 47 69 ea 3d d3 e0 d0 3d
       0.12419323 0.13143037 0.11445861 0.10199132
0003e0 cc d7 e1 bd 9a 72 84 3d dd b1 19 3e b9 31 ab bd
       -0.11027488 0.06467171 0.15009256 -0.08359093
0003f0 7b 40 f8 bc 14 47 2e bd 77 b5 c1 3d f8 6a 50 bd
       -0.030304184 -0.042548254 0.0945844 -0.050883263

AFeatRNN.weight_ih_l1 f4 [256, 64]
000000 0c ae 98 bd 58 7f e4 bc eb 72 f1 bd ad f9 f0 bc
       -0.07455072 -0.027892753 -0.11789497 -0.02941593
000010 ed 2e 00 3e a1 8c 02 3d 5c 66 f0 bb 1e c9 a4 3d
       0.12517901 0.031872395 -0.007336421 0.080461726
000020 be 3b 94 bc 5d d6 5f 3d 5f e1 f7 3d a6 d0 e7 3d
       -0.018094894 0.054647792 0.12103533 0.113190934
000030 73 4e 4a 3d d2 ba 31 bd ea 2a b3 3d 22 c2 5c bc
       0.04939122 -0.043391056 0.087484196 -0.013474019
000040 60 7b b9 3d 95 63 24 bd b5 8c 8f 3c a5 e0 5d bd
       0.09056735 -0.04013403 0.017523149 -0.054169316
000050 e1 1e 48 3d 14 5c 06 be 6b a1 1b 3d 80 f9 13 3d
       0.048857573 -0.13121063 0.037995737 0.036126614
000060 75 4a ea bd 24 77 9c 3d 97 c1 36 3c 77 41 4b bd
       -0.11439983 0.07639912 0.011154554 -0.04962298
000070 4b ef 0e 3e aa ed 97 3d 87 65 57 bc 95 48 4f 3d
       0.1395847 0.07418378 -0.013146765 0.05060633
000080 80 cc f3 3d 23 07 40 3c ca d1 1f 3e 4c c3 e0 3d
       0.1190424 0.0117204515 0.15607372 0.1097475
000090 33 76 7c 3d bb 25 1e be 04 12 34 be a0 f8 bc 3d
       0.06163616 -0.1544408 -0.17584997 0.09227109
0000a0 8d 25 9a 3c c6 bb c9 3d b5 80 88 bd d0 e4 7e bd
       0.018816734 0.09850268 -0.06665174 -0.06222993
0000b0 e4 11 f1 bc 24 bd 98 3d 63 1c 6f bc d8 e6 aa bc
       -0.029427476 0.07457951 -0.01459417 -0.020862028
0000c0 a3 8d bf 3d 95 e2 a7 bc 5c c9 2a 3e 83 93 db bd
       0.09353187 -0.020493785 0.16678375 -0.10721495
0000d0 38 60 6e 3e cd f7 a7 bd 29 76 08 3e bc 6c 1a 3e
       0.23278892 -0.08201561 0.13326325 0.15080541
0000e0 e9 3a 28 3d 88 ab 35 3e e4 84 0d 3e f7 bd 79 be
       0.041071806 0.17741215 0.13820225 -0.24388872
0000f0 dc 10 de bd a4 8f 18 bd 68 9f 84 3d 39 61 1c be
       -0.108430594 -0.03724636 0.06475717 -0.15271463
000100 3f 04 fa bc 0e 38 5c 3c 10 77 6f be d1 4c f7 3c
       -0.030519603 0.013441099 -0.23385262 0.030187996
000110 89 80 1d 3d e5 f6 31 3d 72 e9 f8 3d 23 86 66 3e
       0.03845266 0.043448348 0.12153901 0.22512107
000120 a0 34 3a bd 24 3a 3a 3d d4 40 c1 3d 82 40 e2 bd
       -0.045460343 0.045465603 0.09436193 -0.1104746
000130 6e f8 e5 3d 6d bc 02 be 9a 81 0b 3e ac 5f c3 3d
       0.11229025 -0.12767191 0.13623658 0.09539732
000140 75 9d a5 3d e1 04 66 bd e8 32 ff 3c 35 59 84 3d
       0.08086673 -0.056156997 0.031152204 0.064623274
000150 eb 03 0d be 29 5f 3f 3d a5 49 b0 3d 93 d3 96 3b
       -0.13771026 0.04672161 0.086077966 0.0046028583
000160 7f a2 e9 bd 01 29 96 3d a3 ad 5f 3d 69 69 6c bd
       -0.11407947 0.073320396 0.054608952 -0.057717714
000170 5c 54 81 3d 10 c5 b6 3d e8 5b 05 3e a3 40 cc bd
       0.063149184 0.089243054 0.1302334 -0.09973266
000180 96 86 14 3e 2d 7e cb bd ec 27 ea bc bd ff ba bd
       0.14504465 -0.099361755 -0.02858349 -0.091308095
000190 9f 22 04 3e ea 0d e6 3d 45 6f 9d bd bd 3e e4 3d
       0.12903832 0.11233123 -0.076872386 0.11144779
0001a0 f8 54 c8 bd 3f 0b c1 bd f4 a2 3e bd e0 d6 a3 bd
       -0.097818315 -0.09425973 -0.046542123 -0.079999685
0001b0 4c 1e 2e 3e c2 57 90 3d d5 e1 ec 3d 80 27 e7 3d
       0.17003745 0.070479885 0.115665115 0.11286831
0001c0 9d 0f 88 3d 63 e7 16 bc 86 84 2a 3e 20 a4 50 3e
       0.06643603 -0.00921044 0.16652116 0.20375109
0001d0 47 0a 9d bd 43 dd 82 3d 64 fa 64 be a4 09 f8 3c
       -0.07667976 0.063898586 -0.22361141 0.030278035
0001e0 bd 58 ae bc 12 71 36 3d c6 04 ff bd 02 8b 5a 3e
       -0.021282548 0.044541426 -0.12452082 0.2134209
0001f0 4d 61 3b bc 17 ae e9 3d 51 a7 3f bd 10 bf 97 ba
       -0.0114367725 0.11410158 -0.046790425 -0.0011577327
000200 bc 23 08 3c 43 bb c5 3c d5 d6 26 3c 42 3c ce bd
       0.008309301 0.024137145 0.010183056 -0.10070087
000210 ad 22 9e 3d 01 8c de 3d 66 98 3b 3e 01 98 a5 3a
       0.07721458 0.108665474 0.18319854 0.0012633802
000220 7d a4 dd 3d 4b c3 e4 bb 56 22 22 3e 21 fc 30 be
       0.10822389 -0.0069812885 0.1583341 -0.1728368
000230 ec e9 9e 3d b0 a7 9d bd ae 71 f3 bd 53 1b 83 bd
       0.07759461 -0.076979995 -0.11886917 -0.06401696
000240 e6 1e ef 3d 75 f1 a3 bd 19 2a be 3d 70 58 8c bd
       0.11675815 -0.08005039 0.09285373 -0.068528056
000250 93 86 fa bd 4e 7f cc bb 4e 96 6f bc b6 1f 89 3d
       -0.12232699 -0.006240762 -0.014623238 0.066955015
000260 19 78 4a bd e2 43 9b bb 8b 7c fc bc 30 f3 da bc
       -0.04943094 -0.004738317 -0.030821105 -0.026727289
000270 58 98 51 bd 12 c3 47 bd f3 2e 7d 3c de 5f cf 3d
       -0.051170677 -0.048770018 0.015453088 0.10125707
000280 89 34 b4 bd 2c 9c 4a 3d 7e 19 66 3d 15 06 61 3d
       -0.08799083 0.049465343 0.056176655 0.05493744
000290 35 35 0a 3c 26 31 16 bd 3e 1a 6d 3c 0d 74 0e 3d
       0.008435537 -0.036667965 0.014471589 0.034778643
0002a0 c7 81 19 3e 80 81 d7 bd 9e cb 7d 3c ad 18 b5 3d
       0.14990912 -0.10522747 0.015490441 0.08842597
0002b0 e3 a7 a2 bd bb 8d 89 3d 1e 4b 28 bd 92 92 92 3d
       -0.07942178 0.06716486 -0.041087262 0.07156862
0002c0 91 4b 20 bd 16 ce 1f 3e b4 a0 09 3e dd 99 bd 3d
       -0.039134566 0.1560596 0.1344021 0.09257863
0002d0 6a 7a 31 bd 60 fb c5 bd 71 6b a5 bd 85 ec 77 3b
       -0.043329634 -0.096670866 -0.080771334 0.0037830186
0002e0 19 56 86 bd 49 d9 20 3e 85 32 fb 3d 0c 64 84 bd
       -0.065593906 0.15707888 0.12265495 -0.06464395
0002f0 02 95 1b be c1 21 76 bd ee 40 c9 bd a5 95 19 be
       -0.1519356 -0.060090784 -0.098268375 -0.14998491
000300 8d 77 86 bc f9 29 f7 3d 14 96 e5 bc 8d df 7a bd
       -0.016414428 0.120685525 -0.028025664 -0.06124835
000310 70 5a 46 3d 30 ea 44 bd 0a e9 00 be 75 84 56 3d
       0.04842609 -0.0480749 -0.12588897 0.052372415
000320 4a 2d 5e 3d 6d 3e 2e 3d 84 15 cb 3c 33 dd 7c 3c
       0.05424241 0.042540003 0.024790533 0.015433597
000330 33 3d 06 bb ff 97 a2 3d 94 f8 b5 bd 07 a0 81 bd
       -0.0020483255 0.07939147 -0.08885303 -0.06329351
000340 b8 15 74 bd fd 2c 94 3c b0 5c 59 3d a9 79 82 bd
       -0.059591025 0.018087858 0.05306691 -0.06370861
000350 d7 13 e2 3d e5 7d db ba 14 7f 81 bd 91 df 3e 3d
       0.110389404 -0.0016745894 -0.06323066 0.04659993
000360 85 ac ee 3d d9 47 64 3c 4c fd 21 3e fc 0a 15 3d
       0.11653999 0.013933145 0.15819281 0.03638743
000370 85 59 c8 bd 54 ee 5e bd df 4f 40 bd df da 2c 3d
       -0.097826995 -0.054426506 -0.04695117 0.04220092
000380 6d 7a 79 3d 6a 6e e4 3d 9c cd fc 3c 89 79 1e 3e
       0.06090777 0.11153872 0.030859761 0.1547605
000390 42 7a 98 3d b3 ae 1d be 46 20 f8 bd 48 50 6a bd
       0.07445194 -0.15398674 -0.12115531 -0.05720547
0003a0 f0 06 a6 3d 16 aa 7f 3c dc 20 ee 3b de f3 f1 3d
       0.08106792 0.0156045165 0.0072671007 0.11814092
0003b0 39 70 87 bd 8e 3d be bd 6c a6 a8 bc 60 a7 8e bc
       -0.06613202 -0.092890844 -0.020587169 -0.017413795
0003c0 b7 c8 33 bd 11 69 92 3d a2 f0 a4 bd bb 54 8e 3d
       -0.04389259 0.07148946 -0.080537096 0.06949755
0003d0 6b 74 bc 3d 2d 4f ec bd 3f 85 b4 3c f2 e2 cd bd
       0.092018925 -0.11538539 0.022036193 -0.10053052
0003e0 58 e4 fc bc 4f 76 23 be d4 5f c3 bd d7 b4 bf bd
       -0.030870602 -0.159631 -0.09539762 -0.09360664
0003f0 0f b7 74 3d 69 67 32 bc fb 10 ed bc ef 6d b7 bd
       0.05974489 -0.010888913 -0.028938761 -0.08956515

AFeatRNN.weight_hh_l1 f4 [256, 64]
000000 e0 2b 20 bd 88 d6 39 3d e5 a8 d7 bc 67 14 e8 3c
       -0.039104342 0.04537061 -0.026325652 0.028330041
000010 74 5a cd 3d db 45 6a 3d 2a b1 b3 bc ad a5 98 3c
       0.10027018 0.057195526 -0.021935064 0.018633688
000020 10 2c b7 3d e5 21 8f bd ae 33 ca 3d 44 af 7d bd
       0.08943951 -0.06988887 0.09873138 -0.061934724
000030 b5 13 9d bd 7f 88 ff 3a 61 ce 10 bd 1c cc 08 3d
       -0.076697744 0.0019495635 -0.03535307 0.03339778
000040 61 cc 67 bd 11 b9 6c bc ad 93 1d 3c 45 c5 11 3e
       -0.056591395 -0.01444842 0.009617728 0.14235409
000050 89 36 4b bc fe e1 47 3d 27 85 c3 3c 0f 57 8f bc
       -0.012403139 0.048799507 0.023867203 -0.017497567
000060 5e 54 04 3d 58 a2 c3 bc c9 50 5f 3d 83 bf 88 bc
       0.03230702 -0.023881122 0.054520402 -0.016692882
000070 e8 5d 9f 3c f4 b6 bf 3d cf ff 35 bb 2f ea c0 3c
       0.019453958 0.093610674 -0.0027770882 0.023549167
000080 d7 b2 47 bd b2 0f e9 bc 38 e5 d6 bd 4f 12 ac bd
       -0.04875454 -0.028449867 -0.10492939 -0.084019296
000090 df 00 5f bd cb 8b bc bc 0e da a5 bd a6 43 40 bd
       -0.05444419 -0.023015877 -0.08098231 -0.046939515
0000a0 cb 71 6a bd 77 92 e4 bd 5f b5 8c 3d 56 8d 9f 3c
       -0.057237428 -0.111607485 0.06870531 0.019476574
0000b0 79 93 0e be 08 82 61 bd 4d 28 06 bd 06 7b a9 3d
       -0.13923444 -0.055055648 -0.032753278 0.08275418
0000c0 18 a4 96 3d 3d d0 b1 3d 2f 3a d8 bd fb 21 93 bc
       0.07355517 0.086822964 -0.10557973 -0.01796054
0000d0 e6 ac 99 bd 0f 3c 1f bd a1 12 e0 3d 02 58 f0 bd
       -0.07503681 -0.038875636 0.10941053 -0.11735536
0000e0 dc 41 cd 3b 77 36 34 3d 59 2e a7 bd 5c b2 55 3d
       0.0062639546 0.043997254 -0.08163137 0.05217205
0000f0 a4 c8 4c bc d3 04 0c be a3 f9 01 bd ff 7d 84 3d
       -0.012499008 -0.13673715 -0.031732213 0.06469344
000100 dd fe f2 bd e4 b0 06 bd e0 29 ec 3d e4 25 0f be
       -0.118650176 -0.03288354 0.115314245 -0.13979298
000110 3e e4 d6 bd d1 af fd 3d 33 b4 a0 3c f3 38 9a 3c
       -0.104927525 0.1238705 0.019617176 0.018825984
000120 00 7d c1 3c c2 af 80 bc e5 4c 23 3d e0 4a 02 bd
       0.023619175 -0.015708808 0.039868254 -0.031809688
000130 63 77 e3 bc 58 9f 70 3d 02 b7 32 3e eb 5f 36 bd
       -0.027766889 0.058745712 0.17452624 -0.04452507
000140 b7 fe ca 3d 14 b9 11 3e 14 f3 18 bd 86 46 e7 3c
       0.09911864 0.14230758 -0.037341192 0.02823187
000150 72 6a 08 3e d1 55 bc 3d 75 a2 80 bd 10 1f db 3b
       0.13321856 0.09196056 -0.06280986 0.0066870525
000160 f2 4b 08 be 3b a4 69 bd 6b 3d 97 3d ba e3 a2 bd
       -0.13310221 -0.057041388 0.073847614 -0.07953592
000170 2f 0d b8 3d e7 1b 10 3d b4 8b 21 be 99 56 95 bd
       0.089868896 0.03518286 -0.15775949 -0.07291908
000180 c4 9b ad 3c 68 9c 83 bc 77 99 76 bd d5 df ba 3d
       0.021192439 -0.016065791 -0.06020495 0.09124724
000190 ee 55 d7 bd 75 91 5e bc 3d 6d b0 3d 19 b0 1c 3d
       -0.10514437 -0.013584484 0.086145855 0.038253877
0001a0 3b f8 1e 3d ef 87 eb bd a5 38 0f 3d 05 a0 61 3c
       0.03881095 -0.11500537 0.03496613 0.013771062
0001b0 87 a6 88 3d 69 5d ea bc 9b 8d 70 bd 34 fb b8 3d
       0.066723876 -0.028608995 -0.058728795 0.09032288
0001c0 35 7f a7 bd 19 22 01 3e 82 30 98 bd d8 ad c1 bd
       -0.0817856 0.12610663 -0.07431127 -0.09456986
0001d0 5c bc 0b be 81 17 9a 3d a5 65 59 bd f0 f9 48 bd
       -0.13646072 0.07524014 -0.05307545 -0.049066484
0001e0 79 3f cb bb 58 e0 db bc 5a ae d5 3d 1e e5 0a be
       -0.006202635 -0.026840374 0.104336455 -0.13563964
0001f0 9c e1 91 3d 53 4c f5 bc b3 6b 1c 3d 31 cb 6d bb
       0.0712311 -0.02994362 0.038188647 -0.0036284442
000200 d6 a1 c9 bd 62 76 ee bd 0e 1f 86 bd 26 2d 9b 3c
       -0.09845321 -0.116436735 -0.06548892 0.018942427
000210 d7 29 4d 3d ba ae 80 3a a5 05 23 bd cc 14 78 bd
       0.05008873 0.0009817698 -0.039800305 -0.06056671
000220 27 d6 29 3d c4 ba 8b bc 6f 53 01 3e 88 37 99 bd
       0.041463997 -0.01705683 0.12629484 -0.07481295
000230 d4 cc 65 bd b3 1f 98 3d 10 dd d0 bd fc a6 80 3d
       -0.056103542 0.07427921 -0.10198414 0.0628185
000240 49 85 15 bc ac 1d 1c bd d5 c9 ac bc a7 5f b1 3d
       -0.009126016 -0.038114235 -0.021092335 0.08660822
000250 5c c5 4d 3c 16 f0 25 bc 4f 63 9e bd e0 32 db 3c
       0.012559261 -0.010128042 -0.07733785 0.026757658
000260 5c a3 28 be 91 cf 13 bc 4f fa c1 3d e6 0b 1f bd
       -0.16468567 -0.009021656 0.09471571 -0.038829707
000270 db 3f 39 bc 24 aa 5b 3d de ed 8a 3d fa 27 f3 bd
       -0.011306728 0.053629056 0.06783651 -0.11872859
000280 c9 20 dc 3a 0d b8 14 be e0 e4 dc 3c 69 18 b6 3d
       0.0016794439 -0.14523335 0.026964605 0.088913746
000290 a9 6f fd 3d 7f 6b 14 3d d4 d3 59 b9 ac 89 c5 3d
       0.12374813 0.03623533 -0.00020773645 0.096453995
0002a0 f7 36 1e bc a6 6e a2 bd ee 69 e4 bc f2 73 47 bd
       -0.009656659 -0.07931261 -0.027882542 -0.04869456
0002b0 2d 92 64 3c 2e 4c 91 bd be 03 a1 bd b0 52 86 3c
       0.013950867 -0.07094608 -0.07862042 0.01639685
0002c0 c6 5d 64 3c 7d fc 8f 3d 5b 67 2e 3d 74 7b c5 3d
       0.013938373 0.0703058 0.042579036 0.096426874
0002d0 82 b8 a8 39 7b 99 95 bd 95 18 d2 3d 7d 84 5c 3d
       0.00032180926 -0.07304665 0.10258595 0.05383729
0002e0 d0 0c 93 bd 57 a2 19 3d f6 1c 6d bd c1 53 06 bd
       -0.07180178 0.037508335 -0.057888947 -0.032794718
0002f0 3c 12 fe bd a0 fd 08 3e f9 27 ad 3d a5 40 6f 3d
       -0.12405822 0.13378 0.0845489 0.05841126
000300 e3 4e 74 3d 03 90 04 3e ea 7b 84 3d cc f0 8d bd
       0.059645545 0.12945561 0.06468947 -0.06930694
000310 cf d2 14 bd d2 0c d5 bd 32 23 b3 3d 57 da d7 bd
       -0.036333855 -0.10402836 0.08746947 -0.10539692
000320 07 08 43 bd 03 d8 06 be 4c 52 b1 3c 78 a9 01 bc
       -0.047615077 -0.1316834 0.021645688 -0.00791394
000330 49 7d 4c 3d 6f 63 b1 3d fd 5b 15 3e d8 27 d4 bd
       0.04992417 0.086615436 0.14585872 -0.10359162
000340 df 33 e9 3d 3a 11 b6 3d 34 d4 84 bd d2 5c 2a 3d
       0.11386847 0.088900045 -0.06485787 0.041592427
000350 64 96 ef bd c1 53 b2 bb 35 5b 86 bc fa 90 a5 bd
       -0.116986066 -0.005442113 -0.016400913 -0.08084293
000360 6f 44 ab 3d 93 72 ad bd c0 7b 78 3d 31 21 c9 3d
       0.08362662 -0.08469119 0.060664892 0.09820784
000370 e6 af c2 3c b5 87 4d 3c d9 88 8b bd dc e6 f6 bd
       0.023765516 0.012544562 -0.06813211 -0.12055752
000380 ea 56 71 bd 77 62 0d 3d 20 6c 83 bd d1 59 e0 3d
       -0.05892078 0.03451773 -0.064171076 0.10954631
000390 39 68 d1 3d f9 78 cd bd 5c 88 76 bc 4e 51 22 3e
       0.10224957 -0.10032839 -0.015047159 0.15851328
0003a0 08 2f aa 3c 6e e2 de bd ae a5 de bd 34 7a ec bd
       0.02077438 -0.10883032 -0.10871445 -0.11546746
0003b0 c8 da ca bc 78 48 69 bd c9 11 ec bd d5 7a 9d bd
       -0.024762526 -0.056953877 -0.1152683 -0.07689444
0003c0 1b 12 0d be 01 ef a4 bd 83 01 22 3d 1d c9 61 bb
       -0.13776438 -0.08053399 0.039552223 -0.0034452148
0003d0 c8 74 b5 bc c1 b8 f3 3b 54 88 e8 bd ab ae 5c 3d
       -0.022150412 0.007437796 -0.113541275 0.053877514
0003e0 70 37 ea bd 46 6e c3 bd df f9 f9 3d 45 b1 46 bd
       -0.11436355 -0.09542517 0.12205862 -0.0485089
0003f0 23 ef 8a 3d 81 51 c5 bd 4e a2 90 bd 6b d5 46 bd
       0.06783893 -0.09634686 -0.07062207 -0.048543375

AFeatRNN.bias_ih_l1 f4 [256]
000000 ca 04 e9 3c 37 c1 e9 3d d7 f8 9b 3c 03 a3 dc 3c
       0.028444666 0.11413806 0.019039555 0.026933199
000010 0f 13 2a 3d ba 4c 14 3e d8 b2 bd bc 02 f8 2a bc
       0.041522082 0.14482394 -0.023156568 -0.010435106
000020 fe 0e 91 3d f7 f4 a7 bc 56 15 c9 3d d8 e7 b9 3c
       0.07082938 -0.02050255 0.09818523 0.02269356
000030 0c a1 e5 3c 5d 97 c4 3d 4f 93 3e 35 27 e3 c5 bd
       0.028030895 0.09599183 7.099488e-07 -0.096624665
000040 86 7d bf 3d 77 cf 67 bd 49 41 07 bd 8e d4 e3 3d
       0.093501136 -0.05659434 -0.033021245 0.11124526
000050 a9 ff ba 3d da f9 e3 3d db b0 c5 3d e2 30 31 3d
       0.091307946 0.1113164 0.09652873 0.04325951
000060 c1 03 da bd 22 df a5 3d 6d 13 e9 bd 04 08 c8 3d
       -0.10645247 0.080992 -0.11380658 0.09767154
000070 15 d7 e8 3d 57 ce 0f bd a5 77 0a 3e a6 33 d4 3c
       0.11369149 -0.03510889 0.13522203 0.025903534
000080 95 99 75 3c a5 c6 df 3d 01 99 0b 3e ee 75 22 3e
       0.01499023 0.1092656 0.13632585 0.15865299
000090 56 11 77 bc f5 bc eb 3d 31 16 c8 3d 7a f4 14 3c
       -0.015079817 0.1151065 0.09769858 0.009091491
0000a0 06 46 16 3d 9f f5 95 bc 7d 66 41 3e 5b 05 85 3c
       0.036687873 -0.018305598 0.18886752 0.016237905
0000b0 69 e8 22 3d 63 1d 35 3d 08 e0 a7 3d 51 fa 7b bd
       0.039772425 0.04421748 0.081970274 -0.061518017
0000c0 a8 dd 81 3d 99 e6 09 3e b4 fc 3b bd 2f 74 68 3d
       0.06341106 0.13466872 -0.045895293 0.056751426
0000d0 7c 8b 67 3d 9a 0b d8 bd 10 14 d7 bd 31 26 27 3c
       0.056529507 -0.10549088 -0.105018735 0.010201977
0000e0 2c ec 86 bd fc 8b 23 3e dd 1c 90 3d 21 cf 22 3e
       -0.06588015 0.15971369 0.07036755 0.15899326
0000f0 a6 32 d8 3d 32 13 07 3e 13 20 47 3e 1b c2 9a bb
       0.105565354 0.13190916 0.19445829 -0.004722846
000100 91 9d 08 be 63 f7 b5 bc 9b 8b ff 3d 39 7b 12 3d
       -0.13341357 -0.02221269 0.124777995 0.035762046
000110 53 0c 54 bd bc d9 bf bc d8 af f6 3c 47 2c ae 3d
       -0.051769566 -0.023419254 0.030113146 0.08504539
000120 8c e1 29 3d 34 b8 0b be 65 43 3e bc b7 60 a8 3c
       0.041474864 -0.13644487 -0.011612748 0.02055393
000130 b5 21 97 bc 52 e3 af bd 02 10 9c 3d 48 9d a8 3b
       -0.01844869 -0.0858828 0.07620241 0.0051457025
000140 8a 70 fa bd 38 ab 3b 3d 4b a8 a3 bd 0e d1 1a bd
       -0.122284964 0.045817584 -0.07991084 -0.037797026
000150 45 e6 b3 bd ac a2 05 bd ad 55 c6 3d b9 ce 81 3d
       -0.08784155 -0.03262584 0.0968431 0.06338257
000160 2a a1 9b bd e7 fd 3e 3b 1e 07 df 3b 9b 7e 74 3c
       -0.07599099 0.0029143037 0.0068062684 0.014922763
000170 26 7e 0c be 4f be 83 bd 62 71 aa 3d 36 71 db 3d
       -0.13719997 -0.06432783 0.08322407 0.10714953
000180 ab 09 8d bd b7 63 cb bd aa 74 a8 bd 51 e3 01 3e
       -0.0688661 -0.099311285 -0.08225377 0.1268437
000190 1a 21 f8 3c 90 5b f2 bd ac 36 78 bd 03 c9 8e 3d
       0.030289222 -0.118338704 -0.060599014 0.06971934
0001a0 01 2e 02 be 09 58 ef bc 36 d7 b3 bd f3 a9 af 3c
       -0.12712862 -0.029216783 -0.087812826 0.021443343
0001b0 50 60 4b bd 10 46 36 3e 06 e2 86 3d 55 0c 01 3c
       -0.049652398 0.17800164 0.06586079 0.007876475
0001c0 15 51 b9 3c 20 b1 92 3d 16 48 4d bb d1 9e a5 3d
       0.02262167 0.0716269 -0.0031323484 0.080869325
0001d0 10 ae 78 bd df 02 b0 3d 75 d9 91 3d f8 5e 35 3d
       -0.060712874 0.085942976 0.07121555 0.044280022
0001e0 60 fb f3 3d f5 4c e7 bd db f1 04 bd 12 07 8d bd
       0.1191318 -0.11293975 -0.032457214 -0.06886114
0001f0 b1 b2 50 3d f7 bd cd 3d b4 14 6e 3d eb 96 5b bd
       0.050951663 0.100459985 0.058125213 -0.053610723
000200 19 04 2c bc 13 58 f0 3c 3e 76 1b 3d e7 f8 cb 3d
       -0.010499024 0.029338872 0.03795456 0.09959584
000210 1d 7c 48 bd fb db ab bd 35 4a 13 be 1e 12 d7 bc
       -0.04894649 -0.08391567 -0.14383776 -0.026253756
000220 a7 a5 34 3d 62 69 55 bd aa 68 a7 3d 2f 32 0b 3e
       0.04410329 -0.052102454 0.0817426 0.13593362
000230 4c 31 38 bc 1f 43 88 bd d0 3d 3e bc a7 15 3d bd
       -0.011242222 -0.06653427 -0.011611417 -0.046163227
000240 4f d4 48 3b eb b6 3a 3d 1c 40 4b bd 6b 5d bd bd
       0.0030644124 0.0455846 -0.049621686 -0.09246334
000250 99 6a 94 bd 5c d2 36 bd f6 e0 cc bd a4 c4 cb bd
       -0.072468944 -0.044634208 -0.100038454 -0.099496156
000260 b8 11 8d bd 6a 2b f0 3d 7c cf 26 3d 7d f9 35 3d
       -0.06888145 0.117270306 0.040725216 0.044427384
000270 a9 44 7c 3d a2 ec 41 bc a5 1a c9 bd 0b f9 86 bd
       0.061588917 -0.011836203 -0.09819535 -0.0659047
000280 86 54 90 3d 09 24 d2 bd 5e 04 fe 3d 59 5a b3 3d
       0.070473716 -0.102607794 0.12403177 0.08757467
000290 bf 16 d5 3d 0a ef ae 3b 1d fb a3 3d 3f d9 c5 bc
       0.10404729 0.0053385543 0.080068804 -0.024151443
0002a0 0c 11 1b bc 19 22 df bd b7 be 7a 3d d7 3a 21 3d
       -0.0094645135 -0.108951755 0.061217036 0.039362755
0002b0 75 bb fa 3c c8 c9 5f 3d e5 aa ae 3d 64 c0 d1 3d
       0.030606965 0.054635793 0.08528689 0.10241774
0002c0 87 9f c3 3c 01 45 f8 3d 60 08 80 3d 42 3a 07 bd
       0.02387978 0.121225365 0.062515974 -0.033014543
0002d0 48 31 e1 3d 8c 7d a1 3a dc 33 d5 bd 87 c8 27 bd
       0.10995728 0.0012320741 -0.10410282 -0.040962722
0002e0 fd 6e ea 3d 11 c7 67 3d 68 05 37 3d 7b 7e 31 bd
       0.114469506 0.05658633 0.04468289 -0.04333351
0002f0 77 30 13 bd e5 c4 21 3d bf e0 9f bd fc c2 a5 bd
       -0.03593489 0.039494414 -0.07806539 -0.08093831
000300 5d 4a 14 3e 9e d0 e9 3d 06 ff 3f 3c d2 fe 91 bd
       0.14481492 0.11416744 0.011718517 -0.07128681
000310 08 d3 9d 3d a6 83 23 3d 7b 4d b2 3d e3 96 07 3e
       0.07706267 0.03992047 0.087061845 0.13241152
000320 6e e5 28 bd 1f 68 09 3d c6 8a 45 3d ff 45 8e bd
       -0.041234426 0.033546563 0.048228048 -0.069469444
000330 fa ac ff 3d 9e ff b1 3d f2 71 ce 3d e7 8a 19 3d
       0.124841645 0.08691333 0.10080327 0.037485983
000340 2d f9 86 3d ec 34 ad bd 42 1d 02 3e ca 32 22 3e
       0.06590495 -0.0845736 0.12706473 0.15839687
000350 6c 48 b0 3a 0c 64 5b 3e cd 55 07 3d 43 c6 5f 3c
       0.0013449318 0.21424884 0.03304081 0.013658109
000360 59 38 98 bd e7 99 0c 3c 18 af 07 3e 40 2f 6d 3d
       -0.074326225 0.008581615 0.13250387 0.05790639
000370 53 57 65 3d 50 d1 46 3c d7 51 20 3e 8e cf f4 3d
       0.055991482 0.012134865 0.1565622 0.119536504
000380 6c 2f 12 bb 59 f7 85 3d 37 6a 01 3e af 93 a6 3d
       -0.0022306098 0.065413184 0.12638174 0.08133637
000390 50 01 36 3d 12 ae 1f 3e 78 0f d2 bb d9 7d 5b 3d
       0.044434845 0.15593746 -0.0064105354 0.053586815
0003a0 bd 99 e6 3d aa ed 19 3e b5 bf ac 3d ba 13 54 bd
       0.11259792 0.15032068 0.08435003 -0.051776625
0003b0 41 95 d2 bd cf 70 08 3e 3c b6 03 3d 90 da 61 3d
       -0.10282374 0.13324283 0.032156214 0.055140078
0003c0 07 b4 6f bd ed c5 cf bd c6 60 f7 3c a1 f4 67 3d
       -0.058521297 -0.10145173 0.030197512 0.05662978
0003d0 05 d3 6e 3e eb ec ed bd bd 3d 88 3d c7 6f f2 3d
       0.23322685 -0.11617454 0.06652401 0.11837726
0003e0 8b 4e d0 3d d6 60 f7 b9 bb d6 04 bd c4 61 1b 3e
       0.10171231 -0.0004718366 -0.032431345 0.15174013
0003f0 61 4b 27 3d d3 d6 2d 3d 2a 42 84 bb 23 c6 34 3b
       0.04084337 0.0424412 -0.0040362077 0.002758392
