STD/checkpoints/Res/VA_METRIC_state_epoch40.pth (torch, 719026 bytes, 28 tensors)

AFeatRNN.weight_ih_l0 f4 [256, 128]
00000000: 3b01 7abb 064c 193d d9b7 3f3e ce44 8b3d
00000010: 47b6 8bbd fb73 d1bd 6ef3 92bd 4b3c ea3d
00000020: fae6 8f3d c2ee 18bd 50cf 07be 69d6 d2bd
00000030: 7650 153e 34fa 0abe 22bc 2dbd 2e1c febd
00000040: d7e2 ae3d f8b7 bfbd b5ff 96bc d735 04be
00000050: 0213 7abc fcf7 9e3d 1907 dfbc 3687 8d3b
00000060: 134b 933d 9794 a73c 9ff2 59bd 9e8b a8bd
00000070: c4df fd3d 609f 9ebd 3cd0 863d 2d3e 1cbd
00000080: 3f1f b8bd 81c0 56bd ca4d dabc 8df2 513d
00000090: 8f20 793d e43b 13bd 10c9 f53d b00a 4c3c
000000a0: 0ff5 bbbd 3c7c e13d 9ebe 2b3d fe14 c7bd
000000b0: cab2 b2bd 7113 18bd c49b 663d 63bb 2f3d
000000c0: 1b65 babd ba46 323d 653c 443d ed65 a5bd
000000d0: 80a8 b9bd 77e7 6cbd 768d 51bd 10a8 dd3d
000000e0: 694a d0bc 7ca6 a13d 7377 70bc facb 6b3d
000000f0: 6315 34bd 1f8e d33c 2369 51be 4cbd 4abd
00000100: cf2c 903d aa1f 2f3e 4739 c83c 5b50 99bd
00000110: f6f0 01bd 04ef ab3d 6907 f1bd 0562 b4bd
00000120: 1715 653d 74f4 babc 8e43 32bc ff81 c63c
00000130: 015a 39bd 2d93 a6bd e8f2 7f3d f24f 203d
00000140: 7dc5 16bc c7f3 13bd 1ace a03c 9ec6 8cbc
00000150: bf23 d73d db04 483e 98a7 3ebd 12d9 bdbd
00000160: f717 9cbc d3f1 64bd 2c1b f8bc 102b 56bd
00000170: 8438 bb3c d5e8 853d 18f3 ca3c 4303 983d
00000180: 4f73 5e3c 5762 cc3d 581b 3d3d 8eab 0ebb
00000190: 89d7 b63c 0eaa d23b 1959 113e 1459 ee3d
000001a0: c3c0 c73d 9321 fbbd cbd6 093c fbf4 2bbc
000001b0: df12 9d3d c645 243d 02fe 1dbd 3ae6 f33d
000001c0: c273 91bd 3530 42bd 4475 283d 91c1 b23d
000001d0: c7b5 17be b576 f8bd 170b eabd f37e cb3d
000001e0: 4705 32be de3a 96bd cd87 fcbc 6f9a c63d
000001f0: d857 e53d 37b1 42bc c7f6 0abd aa05 cc3d
00000200: 4070 2d3d 630f 9a3d a9b3 99bd 4214 b9bd
00000210: f8b0 e2bd 5b9f b33b 6144 a83d aa5a babd
00000220: b286 ccbc 59ae 603d 049e 0b3d fce9 9cbb
00000230: 1686 323d 165f 8cba aa52 773d cec6 9a3d
00000240: 3bb7 bbbd 5615 3d3d d753 96bc 31fc adbc
00000250: d777 6cbb 5e0f 85bd dfb3 553d ac27 5d3d
00000260: 4da4 c2bb 5491 363d d9c9 933c b4f8 c43d
00000270: 3841 0c3e 7c9b 153e fe4b c53d 271f ec3c
00000280: 855a cebd 900d 17be 67bf bd3d aa71 debd
00000290: a857 21bd 74e0 9dbd 2db5 14bc e199 223e
000002a0: ea1b 033e b3e9 c13b 9685 fc3c 8941 0d3d
000002b0: f831 92bd e2b4 89bd f3d2 4d3d c677 383d
000002c0: edab 11be 4d91 f63c 61af cd3d 3d5b 5a3d
000002d0: c579 233e 9f8d 7cbc ad4a 0e3e f1bf 303d
000002e0: 26c0 2fbe 0921 8fbd 9cb0 f03c 6a06 c3bd
000002f0: d715 78bd 0e29 08bc cac9 4e3c 6366 aaba
00000300: 231f 9f3d b9d2 e33d 2a84 3ebc 7238 163b
00000310: 0faf 4cbd 47f5 5a3d fef2 02be fde9 40bd
00000320: 78e4 dcbd 0856 1a3e 3332 f73d 4e73 f13d
00000330: 95ad 3cbe 31c2 d4bc 64ce f0bd e942 96bd
00000340: 07a3 1fbd 104e ca3d f99e f6bc c9ca 983d
00000350: cf5e 8b3d 8cef 133d 5db0 f73b 0640 acbc
00000360: 8e9a f2bd 760f 39bd 6b17 303e 2adf 1c3e
00000370: c8c4 833d ec4d 983d 543d 3a3e 72e2 bfbd
00000380: c3e5 9cbd 4612 043e b8cb b2bd cb26 d6bc
00000390: e1ba debc 8fa2 8fbc 8518 f1bd 3588 c23d
000003a0: a644 c7bc dac4 1bbd 4985 e53d fbf6 98bd
000003b0: 3db9 0b3d ff2e d23d 770e 6dbb d32a bc3c
000003c0: caff 09be c717 e7bd a62d 05be 78cc bf3d
000003d0: e0b2 05be f14b d03c 0242 003e 220d 62bc
000003e0: 2edd b03c 0f3c 3bbc 8bd2 183c 3fc0 cebd
000003f0: b50c 3cbd 4972 4f3e f228 1a3e 3d2a a9bd
-0.0038147706 0.037426017 0.18722476 0.06800233 -0.06821876 -0.102272 -0.07175337 0.11437281
0.07026477 -0.037337072 -0.13262677 -0.10294802 0.14581475 -0.13572007 -0.042415746 -0.124077186
0.0853936 -0.09361261 -0.018432477 -0.12911163 -0.015263321 0.07762143 -0.027225064 0.004319097
0.07192054 0.020456595 -0.053209897 -0.08229755 0.123961955 -0.07745242 0.06582686 -0.038145233
-0.08990335 -0.05242968 -0.02664842 0.051256705 0.060822066 -0.035945788 0.1200124 0.01245372
-0.091776006 0.11010024 0.041929834 -0.09720801 -0.087255076 -0.037127916 0.056300893 0.042903315
-0.091013156 0.04352448 0.04790916 -0.080760814 -0.09065342 -0.05783793 -0.0511603 0.10823071
-0.025426107 0.078930825 -0.014676916 0.057567574 -0.04396571 0.025824605 -0.20450263 -0.049496934
0.070397966 0.17101923 0.024441374 -0.0748603 -0.03172394 0.08395198 -0.117689915 -0.08807758
0.055928316 -0.022821642 -0.010880364 0.024231909 -0.04525185 -0.0813354 0.062487513 0.03913874
-0.009202358 -0.036121156 0.019629527 -0.017184552 0.10504865 0.19533102 -0.04654655 -0.092699185
-0.019054396 -0.055894684 -0.030286394 -0.05228716 0.022854097 0.0653855 0.02477412 0.07422497
0.013577296 0.09979694 0.046168655 -0.0021769735 0.022319572 0.0064289635 0.14194144 0.11638084
0.09753563 -0.12262263 0.008413027 -0.01049542 0.07669615 0.040105604 -0.03857232 0.119091466
-0.07102157 -0.047409255 0.04112746 0.08728326 -0.14815436 -0.121320166 -0.114278965 0.09936323
-0.17384826 -0.07335447 -0.030826474 0.096974246 0.111983955 -0.011883072 -0.03392675 0.09962018
0.042343378 0.07522466 -0.075049706 -0.09037067 -0.1106891 0.005481643 0.08216167 -0.09099324
-0.024966571 0.05485377 0.034086242 -0.0047886353 0.043584906 -0.001070949 0.06038157 0.0755745
-0.09165808 0.046162926 -0.018350525 -0.021238418 -0.0036082172 -0.06497072 0.05217349 0.053992912
-0.0059399963 0.04457219 0.018040584 0.09617749 0.13696754 0.14610094 0.09633635 0.028823448
-0.10075859 -0.14751267 0.09265023 -0.108615234 -0.039390236 -0.07708827 -0.009076399 0.15879013
0.12803617 0.0059177517 0.030825417 0.034486327 -0.07138437 -0.06723954 0.050250005 0.0450361
-0.1422574 0.030098582 0.100432165 0.053309668 0.1596442 -0.0154146245 0.13895674 0.0431518
-0.17163143 -0.06988723 0.029381089 -0.09522708 -0.060567703 -0.008310569 0.012621352 -0.0013000484
0.07769611 0.111241765 -0.01162819 0.0022921828 -0.049971636 0.05345657 -0.12788007 -0.04709815
-0.107857645 0.15071881 0.120701216 0.11789571 -0.18425591 -0.025971504 -0.11758116 -0.07336981
-0.038973834 0.098781705 -0.030105101 0.07460553 0.06805193 0.03611712 0.007558866 -0.021026623
-0.11845885 -0.04518076 0.17196433 0.15319505 0.064340174 0.074367374 0.18187457 -0.09369363
-0.07661011 0.12897596 -0.087302625 -0.026141545 -0.02718872 -0.017533569 -0.11772255 0.09498636
-0.024324726 -0.03802953 0.11207063 -0.07468983 0.034112204 0.1026287 -0.0036171952 0.022969639
-0.13476482 -0.11283832 -0.13005695 0.09365171 -0.13056517 0.025426837 0.1252518 -0.013797076
0.021589842 -0.011427893 0.009327541 -0.10095262 -0.045910556 0.2025844 0.15054682 -0.082600094

AFeatRNN.weight_hh_l0 f4 [256, 64]
00000000: 6636 0bbe a322 c23d 4775 ad3d 44b1 b9bd
00000010: 30fa 823d 8880 233c f694 b83d 313e 173d
00000020: 7167 d2bd e6df 9b3b 0a31 e23c 2c6f 8c3d
00000030: 6760 e13d 5584 1e3d c44e 173c 36f3 34bd
00000040: 539c 90bd 132c 63bd 96cb 693c 6966 233d
00000050: 5171 493c 2230 c13d 073c 793c f975 333d
00000060: b71d 8cbd bbb0 8e3b 2d98 f53d b665 d43d
00000070: 4878 8e3d 71de 3aba 5cdb 61bd 33f6 02be
00000080: 3ee8 54bd 3384 263c eb52 cabd 0b7f c23d
00000090: 26fc cbbd 69de a2bd 4e2b cb3d 28c0 2a3c
000000a0: 0142 bc3c c424 a53d 9050 c4bd d174 afbc
000000b0: a42e d43c b8e7 5c3c 9094 ab3b 2f4b 193d
000000c0: 0fec b63d d918 303c 42e6 07be 45dd 1fbe
000000d0: f5d6 1abd 1cdc 6fbc 8000 683d eee0 c5bd
000000e0: e311 a83d 3c3c 95bd f424 30bc b589 36bd
000000f0: 51e5 c6bd c212 653d 7e53 a13b 2966 e3bc
00000100: 34fd 0fbe 401c 8ebd d194 5d3d fef9 a8bd
00000110: 40dc c6bc 2137 97bd e6ca e1bc 5ebe 15be
00000120: a38a 7dbd a6cd 173d 798e 29bd 2e88 0e3d
00000130: d5b0 0c3e f0e2 c3bc 4e14 503d 9d72 2abe
00000140: eee8 123e 9cd5 c93d 549c 50be b3d9 1cbe
00000150: 6ce8 e23d a8b9 fbbd cbb4 4dbe ceb3 8cb8
00000160: 68f5 9bbd e0d7 d9bd 8f5f f6bc d227 6f3d
00000170: ec5d 12be 5ba6 98bd fd5b 7fbd 6119 20be
00000180: 2278 143c a7ec a2bd c116 8e3d 5384 babd
00000190: e373 02bd a802 54bd d607 46be 93de 4e3e
000001a0: b32c d23d 11ac 0ebe af0d 9c3c 47fa a1bd
000001b0: f07a 24be c659 84ba f869 873d 5902 97bd
000001c0: a19c 4d3c 331d 37bd 2792 b0bd 1ee7 c6bd
000001d0: 73c7 27bd a42e 65be e7c4 913d 1586 99bc
000001e0: 1a24 b5bc 512f fcbd b0e7 5bbd b3bd 17be
000001f0: b3f6 143d 83ed 673d a621 623e 99b7 933c
00000200: b561 183d f672 553d 1b30 c0bb f146 e33c
00000210: f23c 823c 03b4 0dbd e4fd 463e 2efb 1a3d
00000220: 9158 73bd fdb8 fa3d 7edd 10bd bc22 693c
00000230: c944 16be 81d6 63bd 1f26 ba3d 19bd 163e
00000240: 7c89 f73b fa7d 5d3d f5da cdbd 6a0b d6bd
00000250: 24c9 cc3d d9f8 773d ef02 ca3c fa87 31bc
00000260: df70 e9bc 086d ddbd fa0a 0dbe 5a93 31bc
00000270: 2e6c 0abd 1b24 cc3c 4a35 e43d 1db9 463e
00000280: 8613 283e 7f5e 093e 45db 4e3e cdc4 99bd
00000290: 586d f3bd 7a78 47be f47d ac3d c83a e53d
000002a0: ee4c 0abd c5da c53d def0 50bd 49dc 0f3e
000002b0: 7ee2 883d 3e43 883d b887 163e 8b41 7abc
000002c0: 20ea e73d 9a7d 9a3d a76c 3f3d 7046 f6bc
000002d0: 6ce4 5b3d 8287 183e bb63 a23c 3dd3 f8bd
000002e0: c048 c43d d307 8c3e 7e74 a7bc e608 3c3d
000002f0: 6953 133d f8c3 f23b 7e7d 2fbe 88b3 eabd
00000300: ca84 40be 07a6 00bd 45a5 3abe cf5a 8d3d
00000310: cb7c e4bd f5a8 bc3d 9c0a 2dbd 5557 c6bd
00000320: e572 82bd 6660 f33c f0e1 213d bcaf fcbc
00000330: 5539 7d3c cbd8 563d 8838 ed3d 4e53 193d
00000340: 6dd9 093e 6eb7 d73d 3177 1abe aed9 b63d
00000350: 9989 2cbd 28f8 d1bd 953d 8bbd d238 b5bd
00000360: 4f91 23bd 8faa 4b3c c6cc 593c f30a fcbc
00000370: 8eb8 c4bb d2ec efbd b71e 5b3d 2b03 95bc
00000380: b9f6 bc3d c9e0 4f3b 9d94 3e3d 52d2 8fbd
00000390: 63f3 ebbd 3ef0 05be cd63 ae3d 20a9 133d
000003a0: bd4c 513c eb0e 68ba 6236 68bd f53f 1dbe
000003b0: 278d 72bc 1cfb 31be 095c 923c 3ea7 09be
000003c0: 0520 153e 9c73 8cbd a99e 1c3e 0939 9f3d
000003d0: 028a f13d 790c 0abd cf05 233d 969f 833d
000003e0: 8ddb b23d c874 183e 355c abbd 6bb8 a03d
000003f0: 2906 283c f80f 993d 09f3 62bd c1d5 6b3d
-0.1359497 0.09479263 0.084696345 -0.09067014 0.06395376 0.009979375 0.09012787 0.036924545
-0.10273636 0.0047569154 0.027611274 0.06857142 0.110047154 0.03870042 0.009235088 -0.044177257
-0.070610665 -0.055461954 0.01426973 0.039892588 0.012295083 0.09433009 0.015212066 0.04381368
-0.06841605 0.004354564 0.11991916 0.10370962 0.069565356 -0.0007128483 -0.055140838 -0.1278923
-0.051979296 0.010163355 -0.098790966 0.09496888 -0.09960203 -0.079525776 0.09920369 0.01042179
0.022980692 0.08063653 -0.095856786 -0.021418007 0.025901146 0.01348298 0.005236216 0.037425216
0.08931743 0.010748112 -0.1327143 -0.15611751 -0.037802655 -0.0146398805 0.0566411 -0.096620426
0.082065366 -0.072868794 -0.010750998 -0.04456492 -0.097117074 0.055926092 0.004923283 -0.027758675
-0.14061433 -0.06938982 0.054097 -0.08250807 -0.024274945 -0.07383562 -0.02756257 -0.146234
-0.061899792 0.037061356 -0.04139564 0.03479784 0.13739331 -0.023911923 0.050800614 -0.16645284
0.14346668 0.09855196 -0.20372134 -0.1531742 0.11079487 -0.122912705 -0.20088498 -6.7092114e-05
-0.07615167 -0.10636878 -0.030074863 0.058387585 -0.14293641 -0.07453605 -0.062343586 -0.15634681
0.009061845 -0.07955294 0.06937934 -0.0910727 -0.0318488 -0.051760346 -0.19338927 0.20202093
0.10262432 -0.13932826 0.019049494 -0.07909065 -0.16062522 -0.0010097555 0.06612009 -0.07373495
0.01254955 -0.04470558 -0.08621626 -0.09712051 -0.040961694 -0.22381073 0.07117634 -0.018740693
-0.022111941 -0.123137124 -0.05368775 -0.14818458 0.036368083 0.056622993 0.22083148 0.018031882
0.037202556 0.05211159 -0.0058651096 0.027743788 0.015898202 -0.0345955 0.19432789 0.0378372
-0.059410635 0.12242315 -0.03536748 0.014229473 -0.14674677 -0.05562449 0.09089302 0.14720573
0.007554231 0.05407522 -0.10051528 -0.10451396 0.09999302 0.060540054 0.024659602 -0.010835642
-0.028496204 -0.10811812 -0.13773718 -0.010838354 -0.033794574 0.02491956 0.111429766 0.19406553
0.16413698 0.13414954 0.20200832 -0.0750824 -0.1188609 -0.19479552 0.08422461 0.11192852
-0.033764772 0.096608676 -0.05101096 0.14048876 0.06683825 0.066534504 0.1470021 -0.015274416
0.11323953 0.07543488 0.04673448 -0.030062884 0.053684637 0.14895442 0.019822946 -0.121496655
0.095841885 0.2734972 -0.02044129 0.045906924 0.035968218 0.007408615 -0.17137715 -0.11460024
-0.18800655 -0.031408336 -0.18227108 0.06902086 -0.11156615 0.092119135 -0.042246446 -0.09684626
-0.06369571 0.029709052 0.03952211 -0.030845515 0.015455564 0.052452844 0.11583048 0.03743296
0.13461848 0.10533033 -0.1508453 0.08928238 -0.04212341 -0.1025241 -0.06798855 -0.08848728
-0.0399335 0.012430801 0.013293451 -0.03076694 -0.006003446 -0.11715092 0.05349609 -0.018189987
0.09226746 0.0031719676 0.046528447 -0.07022537 -0.11521032 -0.13079926 0.08515129 0.036049962
0.0127746435 -0.00088523206 -0.05669249 -0.15356429 -0.014804161 -0.17380947 0.017866151 -0.13442704
0.14562996 -0.06857988 0.15294899 0.077745505 0.11793901 -0.0337033 0.03980046 0.06426923
0.08733282 0.14888299 -0.083671965 0.07847675 0.010255375 0.07473749 -0.055407558 0.0575769

AFeatRNN.bias_ih_l0 f4 [256]
00000000: b229 a23d c4f9 963c 8426 b7bd 2ab4 bb3d
00000010: d694 6f3c 228e bb3d 8e04 643d 1070 ff3c
00000020: f4cd d13d 95da cf3c 19f1 943d dcbf fabd
00000030: a6b3 d9bd aa4c a13d ac63 ce3d 89d9 563d
00000040: f286 8fbd a09c 1dbd 454e b8bc 9cf6 b53d
00000050: fd19 3ebd ddd8 96bd 4a01 c73d 27ad 8e3c
00000060: e090 ccbb a7f9 033e e182 0d3e 8069 fbbd
00000070: cc30 e03d bd85 90b9 f6a1 f93b 6513 ea3d
00000080: e598 643d 8870 fa3c 43c0 87bc 252c dd3c
00000090: b882 163d 5db2 683c aeb2 ae3d 8a6d 71bd
000000a0: 5ede 003d 8206 86bc 8377 223d 6eb0 453d
000000b0: c661 1e3d ba69 31bb 1114 ed3d 51bf bd3d
000000c0: 3f64 94bd 5724 a93d e10c 09ba d17d f1bc
000000d0: b9ef ca3d 81d3 20bd 2810 f53d 90d9 b0bb
000000e0: 145d 2dbb 9942 bd3d a529 9b3d c0e9 babd
000000f0: 378d d03d 3777 0cbb 98e9 053e d1e6 c03d
00000100: 22e0 963d a136 183c 1526 543d f8ed c8bd
00000110: cdbd 9abb 5fbb 0abd 1e74 a23d 79b7 16bc
00000120: 0cc6 903c ec58 01be 346a 3ebd 2ff6 af3d
00000130: a9ca 34bd 1b11 953d 7631 eabd d1b2 8abd
00000140: 5697 6b3d 6e32 0dbc 40f7 43bb cb85 09bd
00000150: 2981 d33c da67 bf3d 5ee4 353d 07b5 873c
00000160: 98a6 c43b ef4a 7ebc 62ea fb3b cb15 a3bd
00000170: f944 bb3d c816 22bd 5664 cabd 0027 f13d
00000180: 642e a7bc a7d0 623d 15d5 953d e5db c83c
00000190: 84c4 f4bd 89f3 cfbc 148f 403d f810 eabd
000001a0: a89c afbd d8a1 1dbd 9193 693d fd06 f5bc
000001b0: 263d 933d 31ff 813d e3f1 ca3d dbac cb3d
000001c0: 5a13 e73d 1a2f 9e3d 88d4 763d 0009 0c3c
000001d0: 27ba e1bc c247 c4bd 9a01 9cbd a260 983d
000001e0: 6f42 91bd 6d71 edbd 8f5a 5d3c ead7 a23d
000001f0: de95 453d 5602 0ebe b31f 62bd 9da6 40bc
00000200: aabf c6bd 68a9 a8bd aa0a b4bd 5463 ad3c
00000210: 4783 d4bc c789 8f3d 28bd 10bd ab1a c9bd
00000220: b8b1 5f3a cec1 a9bd 53eb 863d bbc3 bb3d
00000230: 243a e9bd d4fd 603d ab22 253d 6a5d 9e3d
00000240: 7a0a a8bb 48fb 9e3c ba76 0cbd dbcd 6c3c
00000250: 23c8 373d 00dc 93bd 2227 9dbd 9bb1 803d
00000260: 0a9f 123e c7b1 b03d f727 01be 710e bd3d
00000270: e72d be3d 7df7 09be 2fe1 053c a2a0 9f3d
00000280: d726 663d 3d76 9abd bf09 c7bd 970c ad3d
00000290: 9ee2 0b3b 1dbb f43c 6c91 a03d 7452 bfbd
000002a0: 8352 cc3c 51a6 3f3d 27a6 b8bd 13e3 9abd
000002b0: e9a6 483c da47 2a3b 60a1 b63d 452d db3a
000002c0: 4229 c0bb 88a4 b8bb 6531 8c3d 8ae5 f23d
000002d0: 3016 b63d 6191 5dbd 8719 b7bd 8ba7 ef3d
000002e0: b991 aa3d 901e fabd 8bc8 dcbd 422b c13c
000002f0: 7b42 cbbc b731 c63d 0956 863d 6989 873d
00000300: 0d48 cabd c81d b8bd c562 b3bd 230a eabd
00000310: 5847 a7bd b008 ab3d c8d1 9ebb 9f40 71bd
00000320: 5cd5 6dbc 96ac a43c 1086 123d c59f d23c
00000330: ea7a e3bd c1d6 ac3d a9d4 883c 7ca9 d8ba
00000340: 13f6 113e bc5a d3bd df46 3a3c 91b3 873d
00000350: 0194 69bd 5c20 e2bd af13 ee3c 15a8 c93c
00000360: bcbe 9fbd b9eb 393e 490a 643d c530 c93c
00000370: 52b8 88bd 99d2 d23c 355e 61bd 0c16 8c3b
00000380: 8cae 08bd e0fd 3e3d d6ae 233e e899 0cbe
00000390: f124 ddbd 6e84 a83d c4e0 1b3d c710 9f3d
000003a0: 3fca e63d 87c3 c23a 6ab4 d3bc 6cd3 743d
000003b0: 65a9 c93c 05a2 06bd 3d9c c03d 3917 f63c
000003c0: 2a25 2bbd 4fc0 443e 162f 1f3d 4381 98bd
000003d0: 1dc4 9ebd 43d3 53bd 1334 abbd 411d 31bb
000003e0: b25d 0d3e 3c1c 0f3e 8961 98bc daf0 203e
000003f0: b3c0 2b3d e158 68bd 6a8a c6bc 8f2a b03d
0.07918109 0.018429644 -0.08942893 0.09165223 0.014622888 0.09157969 0.055668406 0.031181365
0.102443606 0.025372783 0.07272548 -0.122436255 -0.10629968 0.07875951 0.10077605 0.05245355
-0.07008161 -0.038479447 -0.02249826 0.08884928 -0.046411503 -0.07365582 0.09717043 0.01741655
-0.0062428564 0.12888204 0.13819458 -0.12275982 0.10946807 -0.00027565463 0.007618184 0.114294805
0.055809874 0.030571237 -0.01657117 0.026998589 0.036745757 0.014202681 0.08530174 -0.058942355
0.031462066 -0.016360525 0.039664757 0.04826396 0.038667463 -0.0027071075 0.11576093 0.09265006
-0.07245683 0.082588844 -0.00052280544 -0.02947894 0.09909005 -0.039264206 0.11965972 -0.005397029
-0.0026453184 0.09241218 0.075763024 -0.091266155 0.101831846 -0.0021433362 0.1307739 0.09419025
0.07366969 0.009290368 0.05179413 -0.09811014 -0.004722333 -0.033870097 0.07932304 -0.009199017
0.017672561 -0.12631577 -0.046488002 0.08591878 -0.044138584 0.07278653 -0.11435215 -0.06772388
0.057517372 -0.00861798 -0.002990201 -0.03357486 0.025818424 0.0934598 0.04440724 0.016565813
0.006001305 -0.015520795 0.0076878527 -0.07963141 0.09144015 -0.039572507 -0.09882419 0.11775017
-0.020407863 0.055374768 0.07316033 0.024518916 -0.11951545 -0.025384681 0.04701145 -0.11429018
-0.08574802 -0.038484424 0.057025496 -0.029910559 0.071893975 0.06347502 0.099094175 0.09945079
0.11282988 0.07723828 0.06026128 0.008547068 -0.027554585 -0.09583999 -0.07617493 0.07440306
-0.07092749 -0.115939 0.01351036 0.079513386 0.048238628 -0.13868079 -0.055206012 -0.011758474
-0.09704526 -0.08235437 -0.087910965 0.021165527 -0.025941504 0.07008701 -0.035336643 -0.0981954
0.0008533257 -0.082889184 0.06587853 0.09168192 -0.113880426 0.05492957 0.040316265 0.07732661
-0.005128202 0.01940693 -0.034292914 0.014453377 0.0448686 -0.07219696 -0.076734796 0.062838756
0.14318481 0.08627658 -0.12612902 0.0923127 0.09286099 -0.13473316 0.008171364 0.0779431
0.056189384 -0.075420834 -0.09718656 0.08449667 0.0021344791 0.029874379 0.07840237 -0.093418986
0.024941688 0.04678947 -0.09016066 -0.07562842 0.012246826 0.0025982768 0.089174986 0.0016721865
-0.0058642933 -0.005634848 0.06845359 0.11860187 0.08890951 -0.054093722 -0.08940416 0.11701878
0.08328576 -0.122128606 -0.10780438 0.023580197 -0.024811974 0.09677451 0.06559379 0.06618006
-0.09877024 -0.08990055 -0.08759073 -0.11427715 -0.081679046 0.083512664 -0.004846785 -0.058899518
-0.014516201 0.020101827 0.035772383 0.02571095 -0.11107428 0.084393986 0.016702967 -0.0016530002
0.14254026 -0.103200406 0.011369436 0.066260464 -0.057025913 -0.11041328 0.02906212 0.02461628
-0.078000516 0.18156327 0.05567387 0.024559388 -0.06675781 0.025735186 -0.055021483 0.004275089
-0.033369586 0.046628833 0.15984663 -0.13730586 -0.10798062 0.08228384 0.03805615 0.07766872
0.11269044 0.0014859297 -0.025842864 0.05977194 0.024616906 -0.032869358 0.094048 0.03004037
-0.04178349 0.19213985 0.038863264 -0.0744653 -0.077522494 -0.051715147 -0.08359542 -0.0027025493
0.13805273 0.13975614 -0.018601196 0.15716878 0.04193182 -0.056725387 -0.024235923 0.086018674

AFeatRNN.bias_hh_l0 f4 [256]
00000000: da01 98bd 50ab 1b3d f18f 59bd 3a8a ec3d
00000010: 9822 663c 386f 013e c105 193e 222c 063e
00000020: 4aa1 a73c 092c af3d 4a13 013e bd4c af3d
00000030: f41e 6d3d a6bd d13a 800d 253e 1e89 133d
00000040: 264b 033e 5917 ecbd 702e 923d 3c9c 003e
00000050: 5958 32bd af13 243c 4602 3bbc 7da9 29bd
00000060: eb38 453d 3e53 693d b526 073e 4d6d e0bd
00000070: f8fa 26bd 10e0 b53c b46a 843c d4f1 69bc
00000080: d08e 2dbc 3d44 58bd fb00 043e c9c4 ae3d
00000090: 9b64 82bd 9d5a 293c a8a7 09be 8f7c be3d
000000a0: cfcf e53c eec7 853d 9d31 2b3e be2d 90bd
000000b0: d2ca 02be a16d 0b3d 1575 b0bd 6cf2 44bd
000000c0: 8ac9 89bc 672e 17bd d1b8 a2bd c74e b53d
000000d0: 73bf 183c a6d6 25bd 7c8d 953b 37d0 063e
000000e0: 5a1e 34bd d138 e7bc 78ec 273d 2aa0 a9bd
000000f0: 21dd 933b 0266 9a3d cb8f ed3d 9d61 50bd
00000100: aa76 163d 5f9d 463d 6da3 023d cf34 193d
00000110: 487a eebd 2355 23bc 026f 593d bd18 a93d
00000120: 5911 a0bc 8891 4abd a687 893d 8bcf 473d
00000130: 82fa d73c c938 bbbc 4083 a23d 9546 1bbd
00000140: 1f76 8d3b 8b1b 79bd 22d5 a138 2e2c a43d
00000150: 2f64 85bc 546b f63d 0ed2 57bc 553b d13d
00000160: 87f6 afbd 0916 273a ccaa be3b e109 d93d
00000170: 1b2f c13d de05 e4bd 74cd 90bc 984e 9e3d
00000180: d12f 8f3c 82a0 fbbd c10e a8bc 29c9 c53d
00000190: 1b07 83bc f8b2 c8bd f97d 7a3d 32e3 803d
000001a0: 523a 0bbe 0658 753a de7c 78bc 3d5c 07bd
000001b0: efde 2a3d e131 d0bd 7702 b8bc f948 27bc
000001c0: e9a0 36bd 0d3a d43c b1d8 fb3d f0e3 31bd
000001d0: 5097 96bd 14eb 913d 1aaf abbd 8c88 cdbd
000001e0: 99e9 163e af54 d63d c4cf c4bd fd4d 623d
000001f0: 8a85 ef3d da32 aabd e33a 7abd a42c 8dbc
00000200: b25a c2bc 4864 c03c faf0 b43d 8993 94bd
00000210: 9539 4a3d 2cce 96bd 3c61 403d 46e8 ff3d
00000220: 7e25 f33d 2e76 cc3d 7f8f 5d3d a3da 803d
00000230: 79b7 1bbd 9858 0abe 88e8 ed3d 5e9d 13bd
00000240: 9c93 b53c c00c 17bc 1328 e03b 2f7d 8c3d
00000250: 9d39 30bd 348f 103d 9809 d43d 5723 6e3b
00000260: eee4 233e 46df 16bd 2988 af3d 61d7 ff3b
00000270: 912d a8bd d66f 163d 52c8 3a3d 3121 303d
00000280: 4558 47bd 8f2d f23d f726 22bc a9e1 83bd
00000290: 61ba 7e3d 1d8c 8e3d 8223 da3d 4527 163d
000002a0: c042 de3d ddc8 c43d bd50 57bb 26d0 a0bd
000002b0: 84eb 933d f6ef a0bd a0ad 0d3c 063b 9f3d
000002c0: 8c0e de3d 5945 6d3c e224 91bd 0e5e 39bc
000002d0: ad3f 4abd 0444 f6bd 3f47 d3bc 4162 d0bd
000002e0: b778 d0bd e194 abbc 5cd0 293d e5f7 e1bd
000002f0: 8868 f7bd ce14 333b c80c 53bd fdd2 aebd
00000300: 7cef fa3c 40c2 d13c 3ce8 463c 5771 25bd
00000310: 2f18 93bd 4c0f a1bd fc2f bc3d 8224 be3d
00000320: a334 b73d a3ec da3b e504 953c be34 bebd
00000330: 2ea3 e5bd 9a69 1cbd 5bbd 9d3d 2f55 06bd
00000340: ed60 0a3d d8c8 adbd d0b7 b73d 7d82 033d
00000350: 4b75 c33a 1132 16bd 4765 bd3c 1270 a7bb
00000360: e020 cebb 0104 e03d fceb 753d 74a0 d5bd
00000370: d1c7 c63d 847f 953d e977 833c 7cb0 b63d
00000380: fb92 8dbd 6867 3abd 29cf 113e de86 923d
00000390: 2721 5a3d c178 6b3c a6a5 173d f240 aabd
000003a0: f16c 0d3d 9e28 50bd 11d8 d33c 2698 a33c
000003b0: f9f8 07be fffd 5ebc dafc adbd 94d5 5b3d
000003c0: 3896 d1bd b451 e73d 0bc9 e23d 112b 113d
000003d0: 072e 013e 2252 073e ab8c f33d 35a9 cd3d
000003e0: fdcf d7bd ee67 953d 8476 1a3e 8cff a2bd
000003f0: 4e11 dfbc 2a2b 2abd 3a3b b73d bb3e 63bd
-0.07422228 0.038005173 -0.05311579 0.11549802 0.014046334 0.12640083 0.14943601 0.13102773
0.02046265 0.08553321 0.12605014 0.085595585 0.057890847 0.0016001954 0.16118431 0.036019437
0.12821636 -0.11527891 0.071377635 0.12559599 -0.043541286 0.010014459 -0.011414116 -0.041421402
0.048149984 0.05696415 0.1319836 -0.109583475 -0.040766686 0.022201568 0.016164161 -0.014278848
-0.010593131 -0.052799452 0.12890999 0.085336275 -0.06366845 0.010336545 -0.13442862 0.093011014
0.028053192 0.06532274 0.16718145 -0.07039975 -0.12772682 0.034040097 -0.086160816 -0.048082754
-0.016819734 -0.036909487 -0.07945407 0.08852916 0.009322989 -0.040487908 0.0045639854 0.13165365
-0.043974258 -0.028225334 0.040997 -0.08282502 0.0045124446 0.07538988 0.11599692 -0.05087434
0.03673426 0.048489925 0.031894136 0.037403878 -0.11644417 -0.009969029 0.05308438 0.082566716
-0.019539522 -0.049455196 0.06715326 0.048781913 0.026364569 -0.022854226 0.0793519 -0.03790911
0.0043170596 -0.060817283 7.716777e-05 0.08016239 -0.016283123 0.1203219 -0.0131726395 0.10216395
-0.08591943 0.0006373828 0.0058187004 0.105975874 0.09432813 -0.111339316 -0.017676093 0.07729834
0.017478855 -0.12286474 -0.020514848 0.09657509 -0.0159946 -0.097997606 0.061155293 0.06293334
-0.13596466 0.0009359125 -0.015166489 -0.03304695 0.041716512 -0.10165764 -0.022462113 -0.010210269
-0.04458705 0.025906587 0.1229719 -0.04343027 -0.07353079 0.07124916 -0.08383007 -0.1003581
0.14737548 0.10465371 -0.09609941 0.055250157 0.116953924 -0.083104804 -0.061091315 -0.0172332
-0.023724888 0.023485318 0.08835025 -0.072547026 0.04937132 -0.07363543 0.04696773 0.124954745
0.118723854 0.099834785 0.054091927 0.06291702 -0.03801677 -0.13510358 0.116166174 -0.03603875
0.022165112 -0.009219348 0.0068407147 0.068598144 -0.043023694 0.03529282 0.10353392 0.0036336982
0.16005298 -0.036834024 0.08570892 0.0078076576 -0.08211816 0.03672775 0.045601197 0.043000404
-0.048668165 0.11825096 -0.009896985 -0.06439526 0.062189464 0.06960318 0.10651304 0.036658544
0.10852575 0.09608624 -0.003285452 -0.07852201 0.072226554 -0.07858269 0.008647352 0.0777493
0.10842618 0.014481866 -0.07087113 -0.011313928 -0.049377132 -0.12024692 -0.025790809 -0.101749904
-0.101792745 -0.020945014 0.041458473 -0.1103361 -0.12080485 0.0027325633 -0.05152586 -0.085363366
0.030631773 0.02560532 0.01214033 -0.040391292 -0.07182347 -0.07864246 0.0918884 0.09284307
0.089455865 0.0066810413 0.01819081 -0.092874035 -0.11212765 -0.038186647 0.07702132 -0.03279608
0.033783842 -0.084855735 0.08970606 0.032106865 0.0014912275 -0.03666884 0.023119582 -0.0051097954
-0.00629054 0.10938264 0.060039505 -0.10430995 0.09706081 0.07299712 0.016048389 0.089203805
-0.069128 -0.045508772 0.14239182 0.0715463 0.053254273 0.014372052 0.03702321 -0.083131686
0.034527723 -0.050819986 0.025859864 0.019970011 -0.1327857 -0.013610362 -0.08495493 0.05367048
-0.1023373 0.112948805 0.11073502 0.035441462 0.12615214 0.13214925 0.11892065 0.10042039
-0.105377175 0.07295214 0.15084273 -0.07958898 -0.027229931 -0.04154507 0.089468434 -0.055479746

AFeatRNN.weight_ih_l1 f4 [256, 64]
00000000: a48e 9abd 2989 00bd dca6 f3bd 0650 fabc
00000010: 0c0d 023e 0adc e83c 7916 b4bc f734 963d
00000020: 0263 adbc 7e99 563d 22d6 f73d 3b48 fd3d
00000030: d0cc 4a3d b48a 31bd 26d8 b13d 2177 523c
00000040: 0cbc bd3d 5b8a 2abd 5f16 833c 06ed 43bd
00000050: 4dde 673d d555 05be 2fd1 a93c 7a38 1e3d
00000060: 4629 ecbd bd6e 933d 6ac9 a13c 1263 4fbd
00000070: 4fa0 0e3e d8f8 9e3d d765 6ebc a7ac 3f3d
00000080: 1633 fc3d bbd9 e63b 4312 243e e573 dc3d
00000090: 22fa 823d de54 1fbe 0f21 35be 9f2e c93d
000000a0: 3fe5 5c3c 94f9 c73d 0d2a 99bd 8a57 6ebd
000000b0: bf0d 12bd 3fe7 a53d 5af8 8cbc e88d 5cbc
000000c0: ff79 d63d 7de6 dbbc ca95 1e3e dc1d 01be
000000d0: c623 753e a40e a9bd 9216 0e3e 0ce9 273e
000000e0: 61fa 193d fd04 423e dd12 123e 98db 7dbe
000000f0: 9500 e5bd 1b36 abbc d87b 983d 73df 14be
00000100: 2936 68bd 8670 9bbc b9d0 52be d524 d1bb
00000110: 9818 153c 8713 473d 43d7 313e baaf 6c3e
00000120: eb71 21bd 084e 603c d508 143e 50a4 e7bd
00000130: f292 173e 89e8 1ebe c27f 003e 6229 f93d
00000140: 3c6a c73d 3de6 b9bc 6072 8b3d 8bdf 0f3d
00000150: ddee 4abe c9d0 183d 7d74 ed3d 67e0 533d
00000160: 7acb a0bd df9a 8d3d 9796 bb3d 8b76 4dbd
00000170: c4c8 c33c a917 473d d3ac 163e e563 02be
00000180: a3a4 003e 77ae 66bd 5a0b b9bd d9fa 9abd
00000190: f479 283e 27b0 043e d8cc 82bd f9e7 0c3e
000001a0: 046e 5fbd d688 06be ab59 1cbc 5750 abbd
000001b0: 8882 0c3e 2633 bc3d 6e34 c53d 0a21 d53d
000001c0: c047 af3d 3c57 edbc 8b22 6f3e 0f58 553e
000001d0: 15a8 15be 4613 893d f0bf 63be ed50 303d
000001e0: 5910 ffbc 933c ff3c 61e7 00be 4309 8a3e
000001f0: 34ac 8a3b f1b6 c13d e533 8ebd 7949 7138
00000200: 7235 b33b 4f63 003d 4dcb a43c db75 dcbd
00000210: ba31 b03d 7f32 b73d 10dc 443e 9a37 f43c
00000220: 4242 d73d 7501 7c3b 5f77 233e e2aa 4ebe
00000230: 8ff7 a83d cc14 babd 1443 debd a966 66bd
00000240: a9a3 053e 9846 a2bd 9f02 b93d 5304 94bd
00000250: 14d1 fbbd d96f 6bbc 17a1 62bc d71a 773d
00000260: 8015 5fbd cebf ec3a 36fb acbc 55ed 31bd
00000270: 25aa 52bd a0b5 3ebd 701c 353b ec83 ed3d
00000280: dcf2 93bd 7e5d 343d 2f34 5a3d 6ff6 463d
00000290: 9f91 e33b b776 4dbd d322 693d a696 b73c
000002a0: 1001 0c3e 35eb c3bd d4ec 1cbc 8425 b63d
000002b0: 15b4 98bd 24b9 853d 0fc4 45bd 8980 813d
000002c0: b77e 8abd bb1c 163e cf7d 233e 8803 ea3d
000002d0: ced8 48bd 6411 dabd a71f 76bd a157 41bc
000002e0: 56e0 42bd 02c9 193e 9f22 133e 38d2 44bd
000002f0: 61f4 0fbe 8020 bdbd ff64 b5bd c6f4 34be
00000300: 7350 bbbc 31bd 1f3e bdf1 11bd 0163 69bd
00000310: bcb0 623d 4b90 42bd bd70 f4bd 3d10 793d
00000320: 9828 883d 32bb 833d 69a0 dc3c 8b58 a13b
00000330: df37 8ebb 3162 ac3d 7a9f c2bd 3999 cfbc
00000340: 3471 66bd d5f0 803c 4b1d 253d 76b8 7fbd
00000350: f7ca 073e 277b 203b c2fb 6fbd 1c57 193d
00000360: e27f e73d fe84 8e3c d3ae 253e c53d 003d
00000370: 8ce0 c6bd 879d 41bd 00cf 23bd 2c6c 1b3d
00000380: 5c99 a53d 5059 e63d 5d15 323d fbd6 1f3e
00000390: 1272 8b3d 0190 17be 4e23 f8bd a9a8 58bd
000003a0: af32 ad3d 15f6 9e3c e174 bc3a c8fc eb3d
000003b0: 23f0 76bd e0fa c7bd 31fd fdbc 9b23 c53b
000003c0: 13c0 85bc 4cdf a43d baea 88bd 017b a43d
000003d0: 43ce c53d a786 eabd e7bc 553d 9845 e1bd
000003e0: 5dbe 64bc 2414 25be e2fb bbbd 08dd d0bd
000003f0: 2989 843d 508c 57bc 386c c1bc 3a71 d6bd
-0.07546738 -0.031380806 -0.1189706 -0.030555736 0.1270029 0.028425235 -0.021983372 0.07334321
-0.021165375 0.052392475 0.121013895 0.123672925 0.04951173 -0.04334517 0.08683805 0.012845785
0.09264383 -0.041635852 0.016001878 -0.047833465 0.056608487 -0.13021024 0.02072963 0.03862808
-0.1153131 0.07198856 0.019749362 -0.05063159 0.1392834 0.07762307 -0.014550648 0.046795513
0.12314431 0.0070449985 0.16022591 0.10764293 0.06395365 -0.15559718 -0.17688392 0.098233454
0.013482391 0.097644 -0.07478724 -0.058188953 -0.03565764 0.08100747 -0.017208267 -0.013461567
0.10472488 -0.026843304 0.15486827 -0.12609047 0.23939428 -0.082547456 0.13875797 0.16397494
0.037592296 0.18947215 0.14265008 -0.247908 -0.11181752 -0.020899823 0.07445496 -0.14538364
-0.056692276 -0.018974554 -0.20587434 -0.0063825645 0.009100102 0.048602607 0.17367272 0.2311391
-0.03941528 0.013690479 0.14456494 -0.11310637 0.14802149 -0.15518393 0.12548736 0.12166096
0.097370595 -0.022692794 0.06808925 0.035125297 -0.19817682 0.037308488 0.11594484 0.05172768
-0.0785131 0.06914305 0.09159582 -0.05016188 0.023899443 0.04860655 0.14714365 -0.12733419
0.12562804 -0.056318726 -0.09035368 -0.07567377 0.16452771 0.12957822 -0.06386727 0.13760366
-0.05454828 -0.13138136 -0.009542863 -0.08364933 0.13721669 0.09189443 0.09629141 0.10406692
0.08558607 -0.02897226 0.23353021 0.20834373 -0.146149 0.06693129 -0.22241187 0.043045927
-0.031135725 0.031156814 -0.12588264 0.2696019 0.004231954 0.094587214 -0.06943492 5.7527304e-05
0.0054690177 0.031344708 0.020116473 -0.10764667 0.086032346 0.08945178 0.19224572 0.02981167
0.105106845 0.0038453017 0.15963505 -0.20182374 0.08250343 -0.09085998 -0.10852638 -0.056250248
0.13050713 -0.07923621 0.09033703 -0.07227387 -0.12295738 -0.014369928 -0.013832352 0.06032833
-0.054463863 0.0018062533 -0.02111588 -0.043439228 -0.051431794 -0.04655993 0.0027635358 0.11597428
-0.07224056 0.044034474 0.053272422 0.04857486 0.0069448496 -0.050162043 0.056917977 0.022410702
0.1367228 -0.095663466 -0.009577949 0.08893874 -0.07456223 0.065294534 -0.04828268 0.06323344
-0.0676245 0.14659397 0.15965961 0.11426455 -0.049034886 -0.10647848 -0.06008878 -0.0118006775
-0.047577225 0.15018085 0.14368676 -0.048052043 -0.14058067 -0.092347145 -0.08857154 -0.17671499
-0.02286551 0.15599515 -0.03563093 -0.056979183 0.05534433 -0.04750089 -0.119355656 0.0608065
0.06648368 0.06432189 0.026931958 0.004923885 -0.0043401564 0.08417166 -0.09503074 -0.025341617
-0.056260303 0.015739838 0.04031114 -0.062431775 0.13261019 0.0024487467 -0.058589704 0.03743659
0.113036886 0.0173974 0.16179971 0.031308908 -0.09710798 -0.04726937 -0.039992332 0.037944958
0.080858916 0.11247504 0.043477405 0.15609352 0.068088666 -0.14801027 -0.12116109 -0.05289522
0.08456933 0.01940445 0.0014378094 0.115228236 -0.060287606 -0.097646475 -0.03100452 0.0060162074
-0.01632694 0.08050403 -0.066853955 0.08031274 0.09658482 -0.11451464 0.052182104 -0.10999602
-0.013961402 -0.16120964 -0.09178902 -0.10198408 0.06471474 -0.013156012 -0.023611173 -0.10470815

AFeatRNN.weight_hh_l1 f4 [256, 64]
00000000: 8be5 30bd 79f7 793d 5bcd 0abd f541 ad3c
00000010: 4b04 e33d 41ef 493d ee4a b5bc 7e64 4f3c
00000020: 9ecb cf3d a1ab 85bd f12a c73d e434 89bd
00000030: 7c70 90bd 13ac c93b 1486 31bd 59ac 1f3d
00000040: 9921 78bd e2f5 7bbc 63e0 8dba 0b9c 0d3e
00000050: 5180 a9bc 9fbb 273d 567a ff3c 3044 45bc
00000060: 6a7e bd3c daa1 09bd 82cf 713d f5f9 e6bc
00000070: 8afd 533c c110 cb3d aa6e 7c3b caac 933c
00000080: 817d 61bd c9df b8bc 9d75 d0bd 3abf b3bd
00000090: 9c5d 73bd fb1d fdbc ff7b aebd 419d 57bd
000000a0: 2886 7ebd 8f3a dabd 757b 9e3d c8c9 d23c
000000b0: bd5f 12be d369 7dbd a8ab cebc 24ce a03d
000000c0: 3f47 9c3d 7710 a43d 2a83 d3bd 582b bdbc
000000d0: 7b23 adbd ab62 d2bc 8ac2 e73d 67ba ffbd
000000e0: f95a 423c e2fe 203d cb7b b4bd bbe3 723d
000000f0: f2ce 9bbc 9efd 11be 894b 17bd dae2 863d
00000100: 347e 1abe 00b3 f9bc 141f 153e 5b6b c5bd
00000110: 51d6 0fbe 2105 383e 5007 173d 6246 ddbc
00000120: 83ad 8f3d 9045 103c f229 323d 488e cdbc
00000130: 29e9 18bd ecf8 713d a7c8 433e 4cb6 213c
00000140: 739f 863d fb8d fa3d 43e2 17bd 1a0d 54bc
00000150: d5c5 2d3e 80dc 9b3d 38ca 83bd 27b2 a03c
00000160: c919 25be c0e8 c8bd 9680 ee3d 4319 88bd
00000170: b49b 9a3d d036 533d 2572 dbbd 903f 78bd
00000180: d08e b5bc 6fa3 0dbd a670 3dbd 9211 143e
00000190: ceb5 c5bd 3249 60bd 3a33 993d c070 dc3b
000001a0: 2902 923d 9523 b2bd 8419 ad3d 2971 2fbd
000001b0: af3c 0e3e b806 a4bb 206e 82bc f671 fd3d
000001c0: 966e 46bd edf3 203e 24be 98bc d82a c3bd
000001d0: b931 17be 45e3 983d ad01 a7bc 2d31 9cbc
000001e0: c02a 753d b75d 8ebb f738 bc3d 159d cabd
000001f0: 4d30 d93c 0903 c83c 8420 0c3b 5ca2 53bd
00000200: 1817 cdbd 4386 19be 5ae3 68bd 7d0e ce3c
00000210: 1ec4 043d ce77 493b 518c 07bd 8ee4 72bd
00000220: 0951 0e3d 40d7 1cbc b3dc 0b3e 60d0 8ebd
00000230: fff8 89bd 7330 8d3d 82e2 e0bd f644 843d
00000240: 2cf4 24bc 0e33 1abd 27f1 44bb 358b ba3d
00000250: 0edd de3b 9372 89bc 4a15 8ebd d1bb bd3c
00000260: 974d 2abe c650 7ebc 3f2a cc3d 5592 abbc
00000270: 3777 0bbc bb2a 1f3d 6cc5 873d 451a fabd
00000280: fffc 0e3b a1a6 1ebe d454 1d3d 6433 c13d
00000290: 270e 063e 6ed1 3f3d 8697 0fbc 9b28 b13d
000002a0: 0492 623c c8ef 9ebd 5497 e0bc d814 51bd
000002b0: b3ac 5c3c d6b0 7ebd 22c2 8abd 0e64 8d3c
000002c0: c0e6 b63c 14ba 953d 2997 3a3d 4c0c e83d
000002d0: b825 203c 3901 91bd 302f c13d faad 933d
000002e0: 4879 79bd 3696 103d 62f8 60bd 05fb d1bc
000002f0: 1e11 fbbd d1dd 173e 1c9e 9d3d c93e 683d
00000300: c3ce 803d 5bd5 c63d 80a1 7d3d 26c8 a1bd
00000310: 268f 1bbd ab53 d4bd e5b7 b63d c3a2 c8bd
00000320: fbc9 6fbd 04df 0fbe 8654 7d3c fe2b 0dbc
00000330: 8e92 533d 29f2 af3d 3ea1 163e f81d ddbd
00000340: 00a4 f43d c7ef c13d d504 6ebd 746a 2f3d
00000350: d6a5 f0bd 2d4e a33a 8fe0 8fbc e485 b7bd
00000360: 965a c23d caeb adbd 7e80 6d3d c7af e73d
00000370: 27a3 9d3c 2e7c 5b3c 98d7 9abd e15d f3bd
00000380: d21d 5dbd 71e2 163d 42b1 8bbd f143 d23d
00000390: f0ca c73d af1d c8bd aec2 8cbc 776a 2a3e
000003a0: 7d31 d83c 065a ebbd 8285 eabd 6886 edbd
000003b0: 7ea9 0abd b322 86bd 7c65 02be 67ae 9ebd
000003c0: 73fc 06be eb4b 9dbd 6ba3 eb3c d3b9 92bb
000003d0: c896 67bc 0b3f 3abc 372c ffbd c9b8 5a3d
000003e0: f877 fdbd 6eb4 bebd 5adc ff3d 098b 52bd
000003f0: 940e 9a3d bab6 edbd 3f27 85bd 93c6 27bd
-0.04318766 0.061027024 -0.03388725 0.021149615 0.11084803 0.049300436 -0.022130456 0.012658237
0.10146259 -0.06526876 0.09724987 -0.06699541 -0.07052705 0.006154546 -0.043340757 0.038982723
-0.060578916 -0.015378447 -0.0010824319 0.13829057 -0.020691069 0.040950414 0.031186264 -0.012040183
0.023131568 -0.03360162 0.059035785 -0.02819536 0.012938866 0.09915305 0.003851811 0.018026728
-0.05505133 -0.022567647 -0.10178683 -0.08776708 -0.059415445 -0.030898085 -0.08519744 -0.052640203
-0.06213966 -0.106557004 0.07738391 0.025730982 -0.14294334 -0.0618685 -0.025228336 0.07851818
0.076307766 0.08010953 -0.10327752 -0.023091957 -0.08454033 -0.025681814 0.11316402 -0.12486725
0.01186251 0.039305575 -0.08812674 0.059299212 -0.019019578 -0.14256904 -0.03693727 0.06586237
-0.15087205 -0.030480862 0.14562637 -0.09639617 -0.14046599 0.17970707 0.036872208 -0.0270111
0.070155166 0.0088056475 0.043497033 -0.025092259 -0.037331734 0.05907528 0.19119512 0.009870123
0.06573381 0.12234112 -0.037081014 -0.012942577 0.16969998 0.076104164 -0.064350545 0.0196162
-0.16123118 -0.098100185 0.116456196 -0.06645443 0.07549229 0.051565945 -0.10715131 -0.060607493
-0.022162825 -0.03457969 -0.046250008 0.14459828 -0.09653817 -0.054757304 0.07480474 0.006727308
0.07129318 -0.08698193 0.08452132 -0.042832527 0.13890336 -0.0050056837 -0.015921652 0.12375252
-0.048445307 0.1571805 -0.018645354 -0.09529656 -0.14765061 0.07465223 -0.020386541 -0.019066418
0.059855223 -0.004344668 0.09190553 -0.09893242 0.02651229 0.02441551 0.0021381686 -0.05166851
-0.100141704 -0.14992623 -0.056857444 0.025153393 0.032413594 0.0030741575 -0.0330928 -0.059299998
0.03474525 -0.009572804 0.13658409 -0.06973338 -0.06736945 0.068940066 -0.10980703 0.06458466
-0.010067981 -0.037646346 -0.0030050965 0.09108583 0.006801254 -0.016778266 -0.06937654 0.023160847
-0.1663116 -0.015522188 0.09968995 -0.0209438 -0.00851231 0.03885911 0.06629452 -0.12212042
0.0021818278 -0.15493251 0.038410977 0.0943363 0.13091336 0.046830587 -0.008764153 0.08650323
0.013828758 -0.077605784 -0.027415909 -0.05104527 0.013468909 -0.062180363 -0.06775309 0.017259624
0.022326827 0.07310882 0.045554314 0.113304704 0.009774618 -0.07080311 0.094328284 0.07210918
-0.06090668 0.035299502 -0.054924376 -0.02563239 -0.12259124 0.1483071 0.076961726 0.0567005
0.06289437 0.09708663 0.061921597 -0.078995034 -0.037978314 -0.10367521 0.08921794 -0.09796669
-0.058542233 -0.14049917 0.0154620465 -0.008616446 0.051653437 0.0859111 0.14709947 -0.10796732
0.11945343 0.09469562 -0.058110077 0.04282613 -0.11750381 0.0012459211 -0.017563133 -0.089610845
0.09489934 -0.08492239 0.057983868 0.11312824 0.019242836 0.013396306 -0.075606525 -0.1188314
-0.053983517 0.036837045 -0.068209186 0.10266865 0.09755504 -0.09771287 -0.017182674 0.16642176
0.026390785 -0.1149178 -0.11451246 -0.115979016 -0.033853047 -0.06549587 -0.12734026 -0.07748108
-0.13182239 -0.07680496 0.028764447 -0.0044777184 -0.01413507 -0.01136757 -0.12459605 0.05339888
-0.12376398 -0.09311758 0.124932006 -0.051402126 0.07522312 -0.11607118 -0.06501626 -0.04096086

AFeatRNN.bias_ih_l1 f4 [256]
00000000: 7f54 eb3c 26f9 1e3e 1382 be3c 7f6c c73c
00000010: 8a50 353d 3f93 1e3e 34bc c5bc 5430 71bc
00000020: 35b5 9a3d aa6f 30bc d6d9 d13d dfe0 cf3c
00000030: cc9d 063d d640 9f3d c3f0 783c 64dc c5bd
00000040: 6568 e03d 2f03 87bd bcac 0abd 0fd3 f93d
00000050: ed65 c93d fca4 063e 7031 c33d fd29 5d3d
00000060: 885a e1bd 58d1 a23d bcd2 dcbd f3b6 e33d
00000070: 3674 e13d db47 acbc 52a0 0c3e be04 db3c
00000080: 86ce 723c dec4 de3d 30ee 193e 436e 253e
00000090: 209d 9fbc 5af5 f13d 9982 ce3d 4420 9a3c
000000a0: 2d71 2f3d 1a66 64bc 7f00 493e be04 b73c
000000b0: 5d5f 1c3d ae1c 413d f1db b43d 196a 87bd
000000c0: 9fed 913d 4224 0d3e 3a31 52bd 3d86 6a3d
000000d0: 9f2a 863d d1c2 c0bd d4f5 cabd 8b78 1f3c
000000e0: a710 84bd 1136 283e 8d9b 973d 5182 253e
000000f0: 2e14 db3d 38a2 023e b63a 513e a39d eebb
00000100: 398b 0abe 75a9 8fbc 5078 063e 0f17 183d
00000110: d1a6 5bbd 114b 51bc 0f99 ca3c 1a9c a63d
00000120: 3d71 1b3d 830b 08be 6319 8abc 930f bf3c
00000130: ff9d 49bc ae4a ddbd 7d17 a93d c052 7d3b
00000140: faf7 edbd 3f6c 163d 2c01 b6bd c6a0 0fbd
00000150: f547 97bd 0749 0abd 3f89 b63d 1d3c 903d
00000160: 3fd3 bcbd 8ea5 10bb c859 023c 9048 383c
00000170: c313 10be 7929 8dbd 4237 9d3d 655c d13d
00000180: 05cc 8dbd 6c5e d8bd c513 a3bd 2517 033e
00000190: 6375 c03c 1979 febd b8d1 82bd a683 903d
000001a0: a46a 05be 5307 f9bc 8973 babd ed36 dc3c
000001b0: bb50 59bd 2dc7 3d3e 43bc 823d 2b6e 7c3b
000001c0: e676 c83c d15c 983d e8ca 36bc 0a27 8e3d
000001d0: a3a5 81bd f9f2 bf3d 2f91 953d 7e85 223d
000001e0: 9393 f63d 9c98 ebbd 5409 0abd f0b3 91bd
000001f0: b483 433d e20c b83d 977c 753d 6ade 6abd
00000200: 4e5c 21bc f9bf 053d 6fd5 173d 2be4 cd3d
00000210: 7e8d 47bd 6cbd b1bd 9555 16be cd93 c0bc
00000220: e0aa 2e3d 7a39 58bd ede2 ac3d 9645 0c3e
00000230: 82cd 74bc 4262 82bd 59a1 51bc b310 37bd
00000240: 9ac0 523b 43ef 303d 4310 48bd cafe babd
00000250: 0c91 8ebd 558a 3bbd 9f94 ccbd ff98 cfbd
00000260: 0fff 89bd 8427 f53d aa96 303d 6be3 313d
00000270: 18fe 803d df35 34bc 5ed3 c5bd 59cd 82bd
00000280: 0714 873d 6d82 cfbd 7312 fc3d 5ddb ad3d
00000290: 6ef2 d83d d80f b43b 41a9 a43d 490d cfbc
000002a0: 4908 03bc 1b11 e0bd d990 763d 4dce 203d
000002b0: 987e fc3c 0910 783d 8eb4 ad3d 1a9e c03d
000002c0: 68a3 cd3c 1039 013e a220 7b3d 3563 08bd
000002d0: b3e0 e23d 2004 38bb fb4c d7bd 3c33 27bd
000002e0: 42e1 eb3d f0c3 6f3d a7a1 433d 5a4f 28bd
000002f0: 6c1d 0dbd 5457 293d f95b a1bd 67c8 a4bd
00000300: 6865 173e ed51 163e b5a7 133c 0c7d 9cbd
00000310: 370c a33d 9d38 3e3d 70b0 b43d e872 043e
00000320: 8288 16bd d7b6 303d 5d5d 5e3d 4e14 93bd
00000330: e48f 003e 3925 983d 2239 e83d e219 163d
00000340: 5be3 9a3d ed9f c2bd 0cae 013e b79a 2d3e
00000350: 8422 b23b 2e2b 713e 95f9 e53c 1f33 b33c
00000360: fbb3 a5bd fa74 e23b c8ce 0b3e 061f 9a3d
00000370: 3ce2 513d dee2 aa3c 9c66 243e c3d7 f53d
00000380: e846 c4bb 5d62 7f3d d911 0c3e bca0 a53d
00000390: 91d8 193d 14b3 243e 5311 3cbb d618 733d
000003a0: 10fe f63d e563 1e3e da1b b73d c5cf 45bd
000003b0: 7778 dbbd a38a 063e d748 1b3d 56b7 4a3d
000003c0: 73c2 5fbd 3f66 d8bd 1c14 cc3c 0c5a 643d
000003d0: 5ab8 823e 0b35 d9bd 410c 943d e42e fa3d
000003e0: 8f5f cd3d 0443 c43a 830d f9bc f6cc 1d3e
000003f0: 6e1f 2c3d ef18 273d 18af 8b3a 89b9 d139
0.028726814 0.1552473 0.023255384 0.024343727 0.04426626 0.15485857 -0.024137594 -0.014720995
0.07554094 -0.01076881 0.10246627 0.025375782 0.03286533 0.07776038 0.015194121 -0.09661177
0.10957412 -0.06592404 -0.03385614 0.12198459 0.09833894 0.13148874 0.09530914 0.05399512
-0.110035956 0.079500854 -0.10782382 0.11118879 0.110084936 -0.021030357 0.13733032 0.02673566
0.014819747 0.10877393 0.15032268 0.16155343 -0.019484103 0.11814375 0.10083503 0.018814214
0.042832542 -0.013940359 0.19629095 0.022341128 0.038176883 0.04714649 0.08831013 -0.066120334
0.07125401 0.13783363 -0.051316477 0.057256926 0.06551098 -0.09412158 -0.09910169 0.0097333295
-0.06448489 0.16426875 0.07402716 0.16162993 0.10697208 0.12757194 0.20432553 -0.0072819754
-0.13529672 -0.017536858 0.13131833 0.037131365 -0.053625885 -0.012774245 0.024731187 0.08135243
0.03794979 -0.13285641 -0.016857808 0.023322856 -0.012305736 -0.1080526 0.08256433 0.003865406
-0.116195634 0.036724325 -0.08886942 -0.035065435 -0.073867716 -0.03376105 0.08912896 0.07042716
-0.092199795 -0.0022071335 0.007955976 0.011247769 -0.14070038 -0.06892676 0.07676555 0.10222701
-0.06923679 -0.105648845 -0.07962755 0.12801798 0.023493474 -0.12425441 -0.06387657 0.0705636
-0.13028961 -0.030399 -0.09104068 0.02688166 -0.053055506 0.18533011 0.06383564 0.0038517814
0.024470758 0.07439578 -0.011156775 0.0694104 -0.06330421 0.09372515 0.07303082 0.03967809
0.12039866 -0.11503717 -0.033700302 -0.071143985 0.047733024 0.08986832 0.05993327 -0.057341017
-0.009848667 0.032653783 0.03706878 0.10053285 -0.04871892 -0.086787075 -0.14681084 -0.023507977
0.042643428 -0.05278919 0.0844172 0.1369842 -0.014941575 -0.063663974 -0.012794816 -0.04469366
0.0032158257 0.043196928 -0.048843633 -0.091306284 -0.06961259 -0.04578622 -0.09989285 -0.101366036
-0.06738102 0.11970428 0.043112434 0.043429773 0.062984645 -0.010999172 -0.09659456 -0.06386823
0.06595617 -0.101322986 0.123082064 0.08489106 0.10593115 0.005495053 0.08040095 -0.02527489
-0.007997581 -0.109407626 0.06019673 0.039259244 0.030822083 0.060562167 0.08481704 0.094051555
0.025102332 0.12619424 0.061310418 -0.033297736 0.11078014 -0.002807863 -0.1051273 -0.040820345
0.11517574 0.05853647 0.047761586 -0.0410913 -0.034451887 0.04134305 -0.078788705 -0.08046036
0.14784777 0.1467969 0.009012152 -0.07641038 0.07961314 0.04644071 0.08822715 0.12934458
-0.036751278 0.04314312 0.054288257 -0.07181607 0.1255489 0.07428975 0.11339022 0.036645778
0.07562896 -0.0950316 0.1266405 0.1695355 0.0054362435 0.23551628 0.028073112 0.021874962
-0.08090969 0.0069109173 0.136531 0.075254485 0.051241145 0.020860132 0.16054767 0.12004044
-0.005989898 0.062349666 0.13678683 0.08087298 0.03756005 0.16083938 -0.002869685 0.059349857
0.12060177 0.15467794 0.08940859 -0.048293848 -0.10716336 0.13138823 0.037911262 0.04949125
-0.0546288 -0.10566377 0.024911933 0.055749938 0.25531274 -0.1060582 0.072289 0.12215975
0.10027992 0.0014973585 -0.03040195 0.15410218 0.04202216 0.040795263 0.001065704 0.0004000182

AFeatRNN.bias_hh_l1 f4 [256]
00000000: a2ed f43d 3a25 583c ae6a 5ebc 5e8d 203d
00000010: 7960 ae3d a2cb 023d b4f1 143c 3c7b 0b3e
00000020: 49ef 403e 803f b23d e132 1c3e 7574 673d
00000030: 3139 743d 79b1 c83d 91e2 cf3d a4b6 b8bc
00000040: 5c54 d83b f464 a2bc 0281 5d3d 2de2 2a3e
00000050: 2702 3d3b 1ac0 093e e76e 5ebd 1023 9b3d
00000060: ba9e a6bc 2d72 a73d f6aa bdbc 036b fbbc
00000070: de39 ba3d 485c e3bc 3fbf 1b3e 2a6e 563e
00000080: 515a 423d a6b1 bd3d 7d8f 0a3e 3520 c13d
00000090: 8233 9a3c 3668 203e d459 133d a2a8 fb3c
000000a0: afd0 173d 95d0 04bc fb94 5bbb 69cd 333e
000000b0: e280 073e 039d 01bc e98e 1a3d 2bde 2dbd
000000c0: d2cc d03d 0744 c13c c73d 97bc e879 12bd
000000d0: 4ada 493e 967b 123e 426d aebd e515 ddbc
000000e0: c1de debc fd6c a43d ce30 063e e452 20bc
000000f0: 6e5a 2a3e fce6 5ebd e46d 493e bb9c 87bd
00000100: 9862 21bd d282 d73b c870 963d f252 a5bc
00000110: f6c6 663d b784 6f3d 2695 bfbd 8db9 5d3d
00000120: 3ec3 8dbc 6b41 52bd c294 cbbd 007b 2d3d
00000130: b06d ab3c e17d afbd d34d fe3b 89a4 4a3d
00000140: b2af b3bd 7743 473d 3aec eabb 0d16 043e
00000150: dbf4 f33b 72b4 f6bd 8577 d93d e6e9 193e
00000160: 38b4 1dbd 3f86 00be 7ec2 783b 9adb 1a3d
00000170: 6222 12be c9ab 17bd 9c1b 873d e2f1 433d
00000180: 1e71 033e 3639 b73d b77b 0c3e 11bd 5bbd
00000190: d9e8 84bc c1a6 ed3d 882a 58bd f85d f8bd
000001a0: 931e 0c3c f94e 06bd f234 9dbd 5a34 f7bc
000001b0: 3e9a 79bd c1f5 c83c e7af 82bc 7aa9 a43c
000001c0: bf24 ae3d ccf1 653d 5a9c 9a3d 2f27 c0bc
000001d0: 8d86 7c3d fd35 bebd e4ab b83c 77d5 f83b
000001e0: 0e2f 5cbd 193f ed3c b16b 593c 2d39 94bd
000001f0: d69a 843d 09ab 873d 0756 de3d 5238 bdbd
00000200: 4b17 e7bc 00c3 673c d850 4b3e 604e ab3d
00000210: 4aca 803c 1cef 06be 01ce 6f3d d807 6abd
00000220: adcd 0ebd 7d95 ab3c 3ee7 0c3e 8e05 233d
00000230: af06 b13c 2e49 a8bd 755a f73d 48f3 b3bd
00000240: 4255 ac3d 3b36 a0bd bc21 8d3d 96c7 173e
00000250: a463 99bd d8fa 2a3e 433e 683d b65f 10bd
00000260: 1666 223c 4c3e 6fbd fc99 cf3d 5020 ea3d
00000270: a756 05bb 6db2 e6bd fe2a 023e 2aa6 5ebc
00000280: 99fa b7bd 355a 07be cbbb e7bd 1848 003e
00000290: 22c1 263e 26a4 d83d 181a 013d 349c 8abc
000002a0: 1fcc 883b 63a6 b6bc 4149 0abe 7e5c f5bc
000002b0: bbae ab3d 039f b93c 1db6 f7bb 4838 d43d
000002c0: 5b00 c2bd e641 ad3d ff94 aabd 17f6 443d
000002d0: a04a 6c3d 8651 a93d 46e3 9e3b 74e4 2cbd
000002e0: e6ed e63d 5e28 6fbc c328 c73c f531 d63d
000002f0: fbf6 38bc 4ce6 56bd 7163 ce3d 4717 8d3d
00000300: eb46 a4bd 8708 8e3c 81ac 763d 574d cc3c
00000310: 4644 b83d fa5d 873d 4bac 24bd ee54 033d
00000320: deea 303e 0d27 843d 449d 193e 1e44 0b3e
00000330: 23dc 8bbd e60d 48bd ad6e e4bc 7d2a 233c
00000340: 0b42 bc3d 0303 bfbd b897 4e3e ee5b 153d
00000350: 0d77 07bd 418e cb3d ce7d 913d a273 02bc
00000360: dcb5 66bd e12f ca3d 8bf2 3a3d fdb3 243e
00000370: e561 e2bd a6a3 b73d bab0 50ba 1c97 063e
00000380: 7061 bb3d 763f ab3b 73c8 5d3c f415 fa3d
00000390: 290b d4bd e7c4 d83d 4b23 e63d 029b c53d
000003a0: bdff 053e 330b 1b3e 5a12 523d aea1 a5bb
000003b0: 8366 8e3d e93b d03d 8e87 4dbd 0015 96bd
000003c0: 31fe b0bd 923f 0bbc bb1e 013e 5a47 b43d
000003d0: 793e 803e 0a55 79bc e9c2 71bd 330b dbbd
000003e0: 0b4f b2bd 97f7 623d 5721 933d 5b60 823d
000003f0: 4db9 2f3c 97c4 333d d2e6 4e3e 7a6a 0a3e
0.11959387 0.013192469 -0.013575239 0.03919732 0.085144944 0.03193248 0.00909083 0.13621229
0.1884128 0.08703518 0.15253784 0.056507546 0.059624854 0.09799475 0.10150636 -0.022548027
0.0066018533 -0.019823529 0.05407811 0.16687842 0.0028840394 0.13452187 -0.054304983 0.07575047
-0.020339359 0.08176074 -0.02315281 -0.030690676 0.090930685 -0.027753964 0.15209673 0.20940462
0.047449414 0.092623994 0.13531299 0.09429971 0.018823389 0.15664753 0.03597434 0.030720059
0.03706425 -0.00810637 -0.0033505547 0.17558827 0.13232759 -0.00791097 0.037733946 -0.042448204
0.101953164 0.023592008 -0.018462075 -0.03576079 0.19712177 0.14304957 -0.08516933 -0.02698798
-0.027205827 0.080286 0.13104555 -0.009785388 0.16636059 -0.054419503 0.19670826 -0.06621691
-0.039400667 0.0065768743 0.0734573 -0.020181153 0.056342088 0.058476176 -0.0935462 0.054132033
-0.017305013 -0.05133192 -0.09940483 0.04235363 0.020926327 -0.08568931 0.007760742 0.04947332
-0.087737456 0.048648324 -0.0071692737 0.12899037 0.0074449605 -0.12046136 0.106185 0.15030631
-0.038501948 -0.12551211 0.0037957723 0.037807085 -0.14270929 -0.03702906 0.06597063 0.0478381
0.1283612 0.08946459 0.13719068 -0.053647105 -0.016224312 0.116040714 -0.052774936 -0.12127298
0.008552211 -0.032790158 -0.07676114 -0.03017633 -0.060938112 0.024531247 -0.015953017 0.020100344
0.085031025 0.0561388 0.07549353 -0.023456184 0.061651755 -0.09287641 0.022542901 0.0075938064
-0.053755812 0.028960751 0.013270305 -0.07237468 0.06474845 0.06624419 0.10856252 -0.09239258
-0.02820935 0.014145613 0.19855058 0.08364558 0.015721459 -0.1317715 0.05854607 -0.057136387
-0.034864116 0.020945305 0.13760087 0.03980022 0.021609632 -0.08217083 0.120778 -0.087866366
0.08414699 -0.07822844 0.068912 0.1482223 -0.07489708 0.16697252 0.056700002 -0.035247527
0.0099120345 -0.05840902 0.10136792 0.11431944 -0.0020345838 -0.11264501 0.12711713 -0.013589421
-0.089833446 -0.13218005 -0.113151155 0.12527502 0.16284612 0.10578184 0.031519026 -0.016920187
0.0041747238 -0.022296136 -0.13504507 -0.02995133 0.083829366 0.02265883 -0.0075595514 0.10362297
-0.09472724 0.08459835 -0.083292 0.048086252 0.057688355 0.082675025 0.0048488704 -0.042210057
0.11275844 -0.014597027 0.024311429 0.10458747 -0.0112893535 -0.052465722 0.10077561 0.068892054
-0.08021339 0.01733805 0.060223106 0.024939222 0.08997397 0.066097215 -0.040203374 0.032063417
0.17277095 0.06452761 0.15001398 0.13600203 -0.06829097 -0.04884138 -0.027884806 0.00995886
0.09192284 -0.09326746 0.20175064 0.036464624 -0.03307252 0.09939242 0.071040735 -0.007962139
-0.05632578 0.098724134 0.045641463 0.16084285 -0.11053828 0.0896676 -0.00079609046 0.13143581
0.09149444 0.005226071 0.01353656 0.122112185 -0.10353691 0.10584431 0.112372 0.09648706
0.13085838 0.15140991 0.051287033 -0.005054674 0.06953146 0.10167677 -0.050178103 -0.07328224
-0.08642233 -0.008499043 0.12609379 0.08802672 0.25047663 -0.015218029 -0.05902377 -0.106954955
-0.087064825 0.0554119 0.071840934 0.063660346 0.0107253315 0.043888655 0.20205238 0.1351718
