STD/checkpoints/Res/VA_METRIC_state_epoch80.pth (torch, 719026 bytes, 28 tensors)

AFeatRNN.weight_ih_l0 f4 [256, 128]
00000000: e4b1 0d3a 254e 893c 56ae 493e 1188 a83d
00000010: 6a0f 9abd 2077 f3bd d720 88bd b084 f73d
00000020: 365f b43d 1729 5ebd 5425 1cbe f03b 08be
00000030: 7ce8 383e d522 0dbe 710b a7bd fbcb 20be
00000040: 64c5 9b3d 2a5a c1bd 82f0 babc 8351 0fbe
00000050: 1ae0 ecbc effc ab3d af41 6c3a 67e9 33bc
00000060: 7a3b b83d a242 e93c 941a f5bc eb9e b8bd
00000070: 7b0c 093e d678 8dbd 33b1 f33c 8a29 4ebd
00000080: b6a8 a8bd cc68 b3bd 7ead 043b db3a 9c3c
00000090: befe 453d bc38 0cbd e561 e93d 182a db3c
000000a0: cc73 ccbd 9f2c ef3d de0e af3c 93fa b6bd
000000b0: 7ae4 9abd db7c 1ebd fd3a eb3c 2afb 533d
000000c0: 94d3 d5bd d214 3f3d 4b9d 113d 46e8 ecbd
000000d0: a64a b5bd a9a3 5dbd 8a35 7abd 3e53 fc3d
000000e0: d06a 12bd 2d5d e23d 2799 37bd 0ab8 763d
000000f0: f277 31bd c02d adbc c1a1 81be bc52 49bd
00000100: 7d5a b03d 5170 233e acdf 7c3c 728e 84bd
00000110: a3ff c6bc f6d0 f03d ab12 0bbe d428 c5bd
00000120: 17af 903d 7a9e 83bc f56c fabc 38f5 48bb
00000130: aeb4 15bd fc7e b3bd 5433 963d b155 203d
00000140: 9afc 04bd 4ad9 c2bb 32c9 ed3c 9e89 393c
00000150: 1341 163e 9e0f 773e 75a9 4bbd 7cab 9dbd
00000160: c18c 21bd 8571 c6bd f9e6 15bd 1653 61bd
00000170: 655d ed3c 5afc 5f3d 3a86 ef3c 11be 813d
00000180: fbd2 8a3d ab48 e03d ab7f 8d3d 0f3c a5bc
00000190: 4550 1a3d 5cfc 1c3d 11f7 203e 91cf 073e
000001a0: b3f1 e73d 63e9 e2bd a8e5 9f3b dc82 94bc
000001b0: f462 893d 94fa 0d3d 63a5 1bbd 9015 be3d
000001c0: 24f7 bbbd 0e59 41bd 37b8 113d 2958 fa3d
000001d0: 9aa0 15be 0f22 ebbd bbc6 e9bd 5ab6 d43d
000001e0: d2e4 32be 66c1 ecbc 2256 e2bb 3c08 d53d
000001f0: 205d 003e 81ff 953d d5c7 133c 18aa d23d
00000200: 35a2 4c3d e812 903d d498 9abd e499 d9bd
00000210: 1aba e2bd d9fa 1cbd be5d ce3d 29b1 7cbd
00000220: 565b 7cbc 56ee 8f3d 2277 033d 8442 c5bc
00000230: a4b8 813d c30d 673b b0a3 5b3d ea1e 2a3d
00000240: 6f75 c6bd fa3d 003d e384 11bd eec7 68bd
00000250: f4d3 163d deca 2ebd 2cb1 c73d 107f 60bc
00000260: 4499 9a3c d79f 983d 3b2b 813c 3c04 073e
00000270: ce8e 173e bbea 1e3e abbb f43d 98bb 043d
00000280: 0bc8 bebd be6e 19be 4693 623d 6535 d7bd
00000290: b9f5 64bd 5931 6cbd 141b ebbc 4ec9 403e
000002a0: 99a1 123e c6a4 83bc fd94 0ebc e971 9b3c
000002b0: cea3 c8bc c816 22bd 6ff4 eb3b ff2f a13d
000002c0: 34cb 4ebe 018d a23c e65b dd3d 0390 183d
000002d0: 86a3 523e 2c1c dbbb 8744 133e 5796 9a3b
000002e0: f096 51be 0e73 85bd 4480 233d 5174 aabd
000002f0: 7f35 96bd 73a7 263d 56a3 923d 23f8 92bc
00000300: 9d90 933d f0a3 af3d 3922 c0bc 2ad4 18bd
00000310: cdbd 5dbd 79e0 f63d dfb1 1dbe 3806 50bd
00000320: 34e9 e0bd b741 063e b694 c33d 1556 153e
00000330: e55f 58be e1ff e0bc dbd6 ebbd c813 a9bd
00000340: e120 24bd 9df5 f83d d750 a7bc b9df 6b3d
00000350: 30f0 4a3d eba5 5b3d be16 a23c ce7a 01bd
00000360: 2585 27be 8675 20bd 7061 413e 1d93 343e
00000370: bd8f 943d 3eae ae3d 30e0 843e 7e17 c9bd
00000380: 1526 d2bd 25b3 453e 5463 8dbd b729 afbc
00000390: 0f93 aebc 7786 513c 1d57 16be f8e8 e13d
000003a0: f720 31bd 25fb 55bd 05e6 af3d 1df5 e4bd
000003b0: 02ce 4c3d 7c09 f03d 5afb 2e3d 01b2 c63c
000003c0: a869 18be aaa7 14be 6e47 09be b355 b73d
000003d0: 6385 d5bd f2a7 4e3d 39e1 eb3d d721 c8bc
000003e0: fc42 1b3d 3878 1cbc 134d 5f3d efd5 0abe
000003f0: 04eb 36bc 65f5 543e 0996 063e 918c 99bd
0.0005405231 0.016760895 0.1969541 0.082290776 -0.07522471 -0.11887956 -0.06646889 0.12085855
0.088072225 -0.054238405 -0.15248615 -0.13304114 0.18057436 -0.13782819 -0.08156479 -0.15702812
0.07606009 -0.094410256 -0.022819761 -0.13995938 -0.028915454 0.08397853 0.0009012473 -0.01098094
0.08995719 0.028474156 -0.0299199 -0.09014686 0.13383667 -0.06907813 0.029747581 -0.050332583
-0.08235304 -0.08760223 0.002024501 0.019071033 0.048338644 -0.034233794 0.11395625 0.02675347
-0.09983024 0.11678433 0.021369394 -0.08934512 -0.0756311 -0.03869329 0.028714651 0.0517532
-0.10440746 0.046650715 0.035550397 -0.1156774 -0.08852129 -0.054111157 -0.061086215 0.12320565
-0.035746396 0.11052928 -0.04482379 0.060234107 -0.04332728 -0.02113998 -0.2531872 -0.049151167
0.08611009 0.15960814 0.015434187 -0.06472482 -0.024291819 0.11758606 -0.1358134 -0.09626928
0.07064646 -0.016066778 -0.030569533 -0.003066374 -0.036549263 -0.08764455 0.07334009 0.03914422
-0.032467462 -0.005946313 0.029026601 0.011324314 0.14673261 0.24127051 -0.049722154 -0.07698724
-0.039440874 -0.09689621 -0.036597226 -0.055010878 0.028975198 0.05468402 0.029238809 0.063350804
0.067785226 0.1095136 0.06909116 -0.02017024 0.037674207 0.038326606 0.15719248 0.13262774
0.11325397 -0.11079671 0.004879672 -0.018128805 0.06708327 0.034662798 -0.037999522 0.092814565
-0.09177998 -0.04720407 0.03557607 0.122238465 -0.14612046 -0.114811055 -0.11414858 0.10386343
-0.174701 -0.028900813 -0.0069072405 0.10401961 0.12535524 0.07324124 0.009019812 0.10286349
0.04995938 0.07034856 -0.07548681 -0.106250554 -0.11070652 -0.038325164 0.10076474 -0.06169239
-0.015402636 0.07027881 0.032096036 -0.024079569 0.063340455 0.0035256005 0.0536229 0.04153339
-0.096903674 0.031309105 -0.03552712 -0.056831293 0.036823228 -0.042673938 0.0975059 -0.013702169
0.01887191 0.07452362 0.015767684 0.13185209 0.1480057 0.1551923 0.11949857 0.032405466
-0.09315499 -0.14983651 0.055316232 -0.10508231 -0.055898402 -0.05766425 -0.028699435 0.18826792
0.14319457 -0.016069781 -0.008702514 0.018975215 -0.02449217 -0.039572507 0.0072007696 0.07870483
-0.20194703 0.019842627 0.10808544 0.037246715 0.20570192 -0.006686708 0.1438161 0.004717629
-0.20467734 -0.065160856 0.039917246 -0.08322967 -0.07334422 0.040687036 0.0716006 -0.017940586
0.07205317 0.085761905 -0.023453819 -0.03731171 -0.054136086 0.120545335 -0.15399884 -0.05078718
-0.1098198 0.13111006 0.09549849 0.14583619 -0.21130331 -0.027465763 -0.1151559 -0.08255726
-0.04007042 0.12156222 -0.02042429 0.057586405 0.049545467 0.05362503 0.019786235 -0.031611256
-0.16359384 -0.03917458 0.18884826 0.17634244 0.072539784 0.08529328 0.2595229 -0.09818934
-0.1026117 0.1930662 -0.06903711 -0.021382196 -0.021310357 0.012788407 -0.14681669 0.110307634
-0.04324433 -0.052241463 0.085887946 -0.11179564 0.05000115 0.11720559 0.042720176 0.0242548
-0.14884055 -0.14517084 -0.13406155 0.08951893 -0.10425832 0.050453134 0.11517567 -0.024430199
0.03790568 -0.009550147 0.054516863 -0.13558172 -0.0111644305 0.20796736 0.13143171 -0.07497514

AFeatRNN.weight_hh_l0 f4 [256, 64]
00000000: 71c7 27be c94d 8e3d f3f7 bd3d 71c9 9dbd
00000010: 70ca 393a 3af8 c23c 9345 bd3d 7947 a13c
00000020: 9adf c4bd 8cd8 e33c 8981 2b3d 7f43 c23d
00000030: ecf6 d33d ff96 5b3d c6ec c0bc c2bb 23be
00000040: 4d1c a8bd 3a17 56bd 2792 f13c 56e9 2d3d
00000050: 4495 4fbd 1d01 db3d de66 6c3d a621 753d
00000060: 0a61 7dbd c9b1 d7bc 32a5 1a3e ccd0 093e
00000070: d199 7a3d 56dc 06bc 708f 27bd 938b 35be
00000080: ffb5 d1bd addc 303c 277d f1bd 03f0 b23d
00000090: df08 c3bd 92a5 3bbd c3bc a53d 36c2 073d
000000a0: 3960 103d 7067 883d dbc0 a3bd ae57 09bd
000000b0: 5853 24bd 599b a43c 3eb0 133d 7dd2 593c
000000c0: a0c0 c13d 2cdb 04bd 0164 c6bd 7524 0fbe
000000d0: 46aa 70bd 063e 0dbd 8d6d 613d 0f17 25be
000000e0: 027e 743d 8489 d1bd 1924 2ebd 5356 c2bd
000000f0: 5bc2 8dbd f572 903c 512e 3c3d 7ba6 5ebc
00000100: 5d28 18be 7b7e e1bd f616 ecbc 8247 f8bd
00000110: c8b6 fd3b cd19 f7bc 909a 58bc 8c19 01be
00000120: 42a5 a0bd 9014 343c 5bb7 13bd a917 1e3d
00000130: b34a 113e bff4 2dbd 4784 d33d 6104 72be
00000140: 21ed eb3d 4211 ee3d 49ca 81be ff8d 48be
00000150: 5904 f53d c322 10be f2a8 66be 0d91 b7bb
00000160: 8569 8bbd 4673 68bd 767c 23bd cfa7 113d
00000170: 4f32 23be 57c5 b7bd 077c c6bc 8a6b a4bd
00000180: b066 4d3d a7e7 81bd fe05 a23d 2a87 8fbd
00000190: 729d 21bc be4a b4bd a3be 48be 2d5f 853e
000001a0: 69f9 873d 357f 05be 3c0b 073d 028f c2bd
000001b0: 3cb5 35be 9a0a d63c 3d52 b93d 058a 9dbd
000001c0: c34d 03bc 9c3c 0fbd b444 87bd 0eca 17be
000001d0: 0f44 eabc ef31 7bbe 167f 823c 5105 383b
000001e0: 6d15 56bd 016b 8fbd 0637 89bc cc86 1fbe
000001f0: dffa dbbc 0915 cb3d 3a26 173e d3eb 2fbc
00000200: 7bc5 303c 75db a03d 9871 46bd bd09 6e3c
00000210: 2c5c 5fbc dbc4 7bbc f178 583e 4bd4 ac3d
00000220: e8da 87bd 8ed7 0b3e c10a 2abd 8e32 3cbd
00000230: 906c 12be 4703 5cbd 9c82 fe3d 1aca 6a3e
00000240: 9a13 14bc d21c 313d 1e30 d7bd f033 e9bd
00000250: 31f0 c83d 491e f73c f996 4f3d 4846 07bd
00000260: 3de6 c7bc f7db 04be eaa4 03be d768 ebbc
00000270: da60 1fbd 587f 2c3d 2d1d 0a3e 362b 693e
00000280: 3124 563e e980 0a3e 9794 8f3e 8386 b0bd
00000290: c0f7 08be 151e 94be 5acb 093e 02a6 a33c
000002a0: b454 e53b 34c9 063e 6968 68bd 8d8e 1a3e
000002b0: 64d9 f83d 8dfc 453d 5dd5 503e 9e6e 9ebd
000002c0: 45d0 2a3e 2ae2 f23d f769 173e 17a4 183b
000002d0: 815e b13d 2965 343e 2f03 4fbc 911c e0bd
000002e0: f759 013e 4ac1 9f3e 3196 87bc 0f6d 9f3d
000002f0: 41f7 943d d10f a1bc 1cb3 73be 2002 0ebe
00000300: 5941 58be 5af2 85bc f029 5fbe 5df7 703d
00000310: 0fc8 debd cb85 bb3d e1f5 58bd dca3 f5bd
00000320: bf8a 44bd e95c a53c 1e43 383d 4675 0dbd
00000330: f0a2 983b 5746 853d 0cf8 ff3d 9171 6f3d
00000340: 1115 0a3e f376 df3d ba37 3abe 7bd3 d03d
00000350: 8519 d2bc 1a0d c8bd d015 87bd dee1 afbd
00000360: c008 32bd cbc5 e03c 1d7f 3e3c 0e33 f4bc
00000370: 0381 06bc bc86 16be b949 b23d 8e5a acbc
00000380: 1bc7 0a3e 92c9 7fba 8a52 603d 449f 8ebd
00000390: c42b e8bd 956d 04be 5895 de3c 68ac aa3d
000003a0: 1aa3 20bc 52e6 12bd 1182 8fbd 1ae0 33be
000003b0: e35a 33bd 6866 39be 2005 a33c f245 c1bd
000003c0: 362d 603e f271 9bbd b918 113e 3b03 5f3d
000003d0: 16f1 183e a4c2 02bd 4264 b63c 36c0 bb3d
000003e0: 2b6c a53d 4dba 363e c286 dfbd 1bb7 9f3d
000003f0: 6a79 34bc 8e12 f33d ec03 d3bc 39f9 023d
-0.16384675 0.0694843 0.09275808 -0.077044375 0.00070873555 0.023800004 0.09241786 0.019687401
-0.09612961 0.027813219 0.04187158 0.0948553 0.10349831 0.053610798 -0.023550402 -0.15989593
-0.08208523 -0.052268244 0.029488636 0.042458855 -0.05067946 0.10693572 0.05771529 0.059846543
-0.06186012 -0.026329892 0.1510208 0.13458556 0.061181847 -0.008231243 -0.040908277 -0.17729025
-0.10239791 0.010794801 -0.11791449 0.08737185 -0.095231764 -0.045812197 0.08092644 0.0331442
0.035248015 0.06660354 -0.07995769 -0.033530883 -0.040118545 0.020093607 0.03605675 0.013294813
0.094605684 -0.03243558 -0.09687043 -0.13978751 -0.058756135 -0.03448298 0.055036116 -0.16122077
0.059690483 -0.10231307 -0.042514894 -0.09489121 -0.06921836 0.01763294 0.04594261 -0.013589497
-0.14859147 -0.11010452 -0.028819542 -0.12123014 0.0077427365 -0.03016367 -0.013220444 -0.12607402
-0.078440204 0.010991231 -0.036063533 0.038596783 0.14188652 -0.042469736 0.10327964 -0.23634483
0.11519838 0.116243854 -0.25349644 -0.19585417 0.1196372 -0.1407576 -0.22525385 -0.005602008
-0.06807236 -0.05675056 -0.039913617 0.035560425 -0.1593716 -0.089731865 -0.024229063 -0.08028324
0.05014676 -0.06343012 0.07911299 -0.070082024 -0.009864198 -0.088033184 -0.19603972 0.26049176
0.06639368 -0.13036807 0.0329697 -0.09499933 -0.17744917 0.026128102 0.09048889 -0.07692341
-0.008014145 -0.03496991 -0.06604901 -0.14823171 -0.028596906 -0.24530767 0.01592974 0.002807934
-0.052266527 -0.07002831 -0.01674987 -0.15578765 -0.026853023 0.099161215 0.14760676 -0.010737377
0.0107892705 0.07854358 -0.048448175 0.014528689 -0.013632815 -0.015366758 0.21139885 0.08438929
-0.0663355 0.13656446 -0.041514162 -0.04594665 -0.14299226 -0.053714063 0.124272555 0.22928658
-0.0090378765 0.043240376 -0.105072245 -0.113868594 0.09811438 0.030165808 0.050681088 -0.03302601
-0.024401778 -0.12974535 -0.12855878 -0.028736515 -0.038910724 0.042113632 0.13487692 0.2277039
0.20912243 0.13525738 0.28043053 -0.08619406 -0.13375759 -0.289292 0.13456479 0.01997662
0.006998623 0.1316269 -0.0567402 0.15093441 0.12150839 0.048336554 0.20393892 -0.07735942
0.16681011 0.118595436 0.14786516 0.0023291165 0.08660603 0.17616715 -0.012635036 -0.109429486
0.12631975 0.31202155 -0.016551109 0.07784473 0.072737224 -0.019660862 -0.23798794 -0.13867998
-0.21118678 -0.016350914 -0.21793342 0.058829654 -0.10878002 0.09156378 -0.052968863 -0.11994144
-0.04798388 0.020185905 0.044985883 -0.03453567 0.0046580955 0.06507557 0.12498483 0.058457915
0.13484599 0.1091136 -0.1818532 0.10196587 -0.025646934 -0.09768124 -0.06595957 -0.085880026
-0.043465376 0.027438065 0.011626986 -0.029809501 -0.00820947 -0.14699835 0.08705468 -0.021039274
0.13552515 -0.00097575143 0.054766215 -0.06963971 -0.11336473 -0.12932427 0.027170822 0.08333665
-0.009804511 -0.03586418 -0.0700723 -0.17565957 -0.04378785 -0.18105471 0.019899905 -0.09437169
0.21892247 -0.07590093 0.14169587 0.05444644 0.14935717 -0.031923905 0.022264604 0.09167521
0.08077272 0.17844506 -0.10914375 0.077985965 -0.0110152755 0.118687734 -0.025758706 0.03197596

AFeatRNN.bias_ih_l0 f4 [256]
00000000: 8a73 a83d 6ff9 cf3c 46d9 bcbd 1581 ae3d
00000010: a3a1 b73c 8984 ae3d 4004 153d 9dc2 113c
00000020: 44fa c83d 70b4 ea3c d095 903d 8b1d fabd
00000030: 5154 e2bd e4c5 793d 70f8 b13d 036d 4f3d
00000040: bfe1 abbd 8cb1 4fbd 802c 17bc 08a8 bb3d
00000050: 38c8 4cbd 6c25 9abd e1e4 a83d 330e 7f3c
00000060: 6108 dfbb 9ff5 e53d 7131 183e f19d 01be
00000070: b99b c43d 3bc4 efba 88d2 073b 239c d83d
00000080: ab12 3c3d 9c3c aa3c b7ec 77bc 9197 b13c
00000090: 6404 fd3c 81b6 5e3c 71ad a53d dd7b 86bd
000000a0: 533f f73c b18e 85bc f21f 373d 2c5d 483d
000000b0: c54e 2c3d 7cfa 8e3b 577b da3d 295c a63d
000000c0: 5487 60bd 9cb5 a63d 5988 36bb a5cf 58bd
000000d0: 5f2a ce3d 434c 86bd 7b9b d93d 6d7b 2d3a
000000e0: e6c0 2abc e0e5 cd3d d633 ba3d c305 b5bd
000000f0: 6b1d c13d e0a9 9ebc 609d 083e d071 c93d
00000100: 5106 853d 47fe 503c 7903 573d c813 cabd
00000110: b5ad 90bb c930 27bd 73b3 a23d 18bd fcbb
00000120: 6493 003c cc09 09be 5c3c 3ebd 76e6 a83d
00000130: 8713 3abd 227d 903d 0731 f8bd 5387 94bd
00000140: 26de 823d 5177 4abc 4298 8cbc 6d07 f2bc
00000150: 4263 cb3c 1f72 ca3d a15a 3f3c 8c5b 4e3c
00000160: 5d13 543b 7d86 5dbc 65dc b03b 8444 9ebd
00000170: fb7f aa3d eed9 52bd 78e6 ddbd fab4 e93d
00000180: 4604 dfbc 9e43 2e3d e178 943d 0d35 a73c
00000190: 81d2 05be ae81 d9bc cd7b 5f3d abf6 edbd
000001a0: c75a a2bd b3bd 1fbd 43ba 303d 8f1b 44bd
000001b0: a775 893d 8b7f 423d 5ebb cd3d 2b48 c73d
000001c0: 9391 e43d 2b1d 9f3d 9c6d 8d3d ce77 a63c
000001d0: 64bb debc bee4 d0bd 2bc0 9abd c319 953d
000001e0: 37cf 82bd b6f7 e9bd 226a f03b 900c aa3d
000001f0: c1c4 193d 762a 11be 0e88 8fbd 9025 77bb
00000200: 778c c5bd 4e66 a9bd f02b adbd 8ccd b63c
00000210: b65e f8bc c751 923d 0ad0 fdbc eeb8 c3bd
00000220: 0465 1e3b 5ff1 96bd 9c63 773d ce4b bb3d
00000230: 2797 dfbd 1f4f 593d 957b 1e3d 6a62 9a3d
00000240: ae41 91bb 3227 803c b123 03bd 8315 813c
00000250: 7839 373d f786 91bd 9aaf 95bd 7082 7b3d
00000260: a598 133e 87be b13d 6bac 01be 2eb1 c23d
00000270: c857 bf3d 85c4 05be 339c 1e3c a97f 9d3d
00000280: 6a56 5f3d 5181 9cbd 137c c8bd fcbe b93d
00000290: f7da 33bb 7fed f53c ff2f a53d 79c5 bebd
000002a0: f48e d23c 84bd 413d 7407 b3bd cec0 9fbd
000002b0: 1e06 2b3c 9f94 613b 8e6e b23d fc5c 13bb
000002c0: c5bd d4bb a980 b2bb f6b0 893d 7a95 f83d
000002d0: e714 c03d 18a1 51bd af50 b4bd 2387 ed3d
000002e0: 7367 a43d f274 f5bd 7a08 dabd 0f2a b33c
000002f0: f357 debc d156 c73d 3e2f 853d 3fbb 8f3d
00000300: ad1f bcbd 90cf 97bd 46d9 9dbd 38d6 f7bd
00000310: f012 a9bd e4f5 a43d f4af afbb d886 95bd
00000320: 9d22 d4bc 40c6 ca3c 69cd f23c 4bb2 073d
00000330: d73d ebbd 93ab 963d 9ab7 7b3a ad93 293c
00000340: 6552 033e 3a3f edbd 25a5 c23c 8e0d 7b3d
00000350: 8383 77bd 5f6e fbbd deec 9a3c 3b9e 863c
00000360: d1d0 afbd dcf4 433e 70e4 423d dae9 a93c
00000370: 203c 9dbd f99c 933c 9893 5fbd 9a06 acbb
00000380: 02fc 34bd d05a 2a3d bb27 313e c537 10be
00000390: 1dba ecbd 6aaf ab3d 990e 043d 5736 883d
000003a0: b5e1 e53d b011 703b ea2d e6bc af92 653d
000003b0: fb2d ef3c 73c3 d9bc e341 b33d a606 ef3c
000003c0: 8f40 cbbc 5ce0 443e b332 003d dd0d 63bd
000003d0: 51ac a6bd c621 6abd 3153 b3bd 9f65 e2ba
000003e0: aed3 063e 37b5 133e 0a0f 1cbb 2285 2b3e
000003f0: 2a74 1f3d d55d 77bd e64b c1bc ea9f c33d
0.08225162 0.025387494 -0.09221129 0.08520714 0.022415942 0.08521373 0.036381006 0.008896497
0.098133594 0.028650492 0.070598245 -0.12212666 -0.11051238 0.06097974 0.08689964 0.05064107
-0.08392667 -0.05070643 -0.009226918 0.09162909 -0.04999563 -0.07526669 0.0824678 0.01556735
-0.0068064188 0.11228489 0.1486261 -0.12657906 0.09600014 -0.0018292734 0.0020724852 0.10576656
0.04591624 0.020780854 -0.015132121 0.021678718 0.030885883 0.013593317 0.08089722 -0.06566594
0.030181563 -0.016303392 0.0447082 0.04891698 0.042067308 0.004363356 0.106680565 0.08123047
-0.05481656 0.08140108 -0.0027852266 -0.0529324 0.100666754 -0.065575145 0.10625359 0.0006617818
-0.010421967 0.10053611 0.09091918 -0.088389896 0.09429439 -0.019368112 0.13341284 0.09836161
0.064953454 0.012755937 0.052493546 -0.09867054 -0.0044152387 -0.04081801 0.079443835 -0.0077129714
0.007847641 -0.13382643 -0.046444282 0.08247082 -0.04542878 0.07055117 -0.12118726 -0.072523735
0.06390028 -0.012357549 -0.017162446 -0.029544557 0.024827603 0.09885048 0.011679322 0.012595069
0.0032360174 -0.013520834 0.005397367 -0.07727912 0.083251916 -0.051477365 -0.10834974 0.11411472
-0.027223717 0.042544954 0.07249618 0.020411039 -0.13068582 -0.026551094 0.054561425 -0.11619314
-0.07927471 -0.03899927 0.043146383 -0.047877844 0.067118935 0.047484916 0.10045503 0.09730562
0.111605786 0.07769235 0.06905672 0.0203208 -0.027188964 -0.10199879 -0.075561844 0.07280304
-0.06387179 -0.114242 0.007336871 0.08303177 0.037541155 -0.14176354 -0.07008372 -0.0037711598
-0.09645932 -0.08271466 -0.08455646 0.02231481 -0.0303186 0.07144504 -0.03098299 -0.09556757
0.0024169097 -0.07370257 0.06039773 0.09145318 -0.10917502 0.05305397 0.038692076 0.07538302
-0.0044328785 0.01564369 -0.03201646 0.015757328 0.04473254 -0.071058206 -0.07308884 0.06140369
0.14413698 0.08678918 -0.12663428 0.095064506 0.09342915 -0.13063248 0.0096807955 0.07690365
0.05452577 -0.07641853 -0.0978929 0.090696305 -0.0027443746 0.030020474 0.08065795 -0.09315009
0.025702931 0.047299877 -0.08741656 -0.078004465 0.01043847 0.003442086 0.08712493 -0.0022485843
-0.006492349 -0.0054474664 0.06723206 0.121378854 0.09378987 -0.05117902 -0.08804452 0.11598041
0.08027544 -0.11985196 -0.10646148 0.021870641 -0.027141547 0.09733356 0.06503151 0.07018136
-0.09185729 -0.07412636 -0.07707457 -0.12101406 -0.08255565 0.080547124 -0.0053615514 -0.0730111
-0.025895411 0.024752736 0.029638963 0.033129018 -0.114864044 0.07356944 0.0009602249 0.01035015
0.128244 -0.11584325 0.023760388 0.061292224 -0.060428154 -0.12276911 0.018911775 0.016432872
-0.085847504 0.19136375 0.047581136 0.020741392 -0.076774836 0.018019186 -0.054584116 -0.0052498104
-0.044185646 0.04159051 0.17300312 -0.14083774 -0.11558936 0.08383067 0.032240484 0.066509895
0.11224691 0.0036631636 -0.028098065 0.05604809 0.02919673 -0.026582455 0.08752801 0.029177975
-0.024811057 0.19226211 0.03129835 -0.055433143 -0.081383355 -0.057161115 -0.08756102 -0.0017272717
0.13166687 0.14424597 -0.0023812675 0.16750005 0.038929142 -0.06039222 -0.023595762 0.095519856

AFeatRNN.bias_hh_l0 f4 [256]
00000000: 02b8 91bd 3c2b 383d 87f5 64bd 2557 df3d
00000010: 84e8 b23c e3d4 f53d 8f45 053e 8bb4 de3d
00000020: a852 843c 71e2 b53d 4fcb fd3d 10ef af3d
00000030: 9bdd 5b3d 6c8b 84bc ead7 163e 981c 0c3d
00000040: 733b ea3d e290 02be 6b5c ad3d e674 033e
00000050: 9406 41bd 2faf 093c a6f2 d5bc 883c 31bd
00000060: f3e9 423d cf57 253d 45d5 113e c63f e8bd
00000070: 0225 5ebd e525 a93c f3f8 2d3c ecd5 babc
00000080: f4d3 a7bc 192f 80bd 3b7a 053e 94df a33d
00000090: cd64 8ebd df5e 1f3c 412a 0ebe 82b7 b03d
000000a0: 7f52 db3c e8e5 853d b75b 303e 60d7 8ebd
000000b0: 259f febd a863 283d cf0d c3bd c3b8 73bd
000000c0: 0318 573a 000c 1cbd 085b a7bd 5b46 853d
000000d0: ae94 323c d8cd 88bd d3de 10bc 7004 0d3e
000000e0: b7f8 53bd 85ab a4bc ba00 663d 2dbc a3bd
000000f0: a140 46bb 8e3e 6e3d 93f7 f23d 834b 3fbd
00000100: 3086 e53c 59cf 543d cb80 053d 46e9 163d
00000110: 35d9 edbd 4c95 8abc b7ed 593d e223 ac3d
00000120: b28d f0bc ec54 69bd 8e9e 893d 18b0 393d
00000130: cb68 cd3c fe88 cdbc ac83 943d 89ef 2ebd
00000140: cf4e 2f3c 5d36 84bd 10ef 66bc 3f6d ac3d
00000150: 1682 8dbc ccba 003e 4a02 3cbd 8219 c93d
00000160: 48a0 b5bd 5fd7 2c3b a639 673b 28db dd3d
00000170: 1d6a b03d 7367 fcbd 13d6 debc 92dc 963d
00000180: d9b3 2e3c 7af3 0abe 847f adbc 845f bd3d
00000190: a289 debc 9716 cbbd 5eb5 8c3d fefa 793d
000001a0: 6699 04be 24c9 dc39 edf0 edbc 42f4 50bd
000001b0: bc4f 173d 48f1 f0bd 53dc acbc a26e 4abc
000001c0: 75a4 3bbd 05f2 d73c 08ee 063e 4aaa 01bd
000001d0: 8ad7 95bd 1a4e 853d ab6d aabd 6bcf d0bd
000001e0: 3723 1e3e 66ce d93d 7c74 d1bd 43b7 703d
000001f0: 009d d93d 5283 b0bd 9e95 9bbd 317c 17bc
00000200: f98d bdbc 7970 bd3c b4cf bb3d f138 92bd
00000210: d14b 383d 2c06 94bd 5936 523d 0ea5 023e
00000220: 4759 f63d 9d46 df3d 991c 473d b462 803d
00000230: 6b71 08bd 4644 0cbe ff94 ea3d 3193 1bbd
00000240: b745 bb3c f3b4 54bc cf5f 153c d528 8f3d
00000250: 48c8 30bd 4e39 153d 2081 db3d d315 103b
00000260: 89de 243e e3c5 14bd 467f ae3d 5f01 2d3c
00000270: b003 a7bd c03b 273d 16f7 403d 54df 2b3d
00000280: b228 4ebd 7b22 f03d 15ba 2dbc 795e 6ebd
00000290: 7bbe 6a3d b5d8 8e3d 15c2 de3d 0d41 173d
000002a0: ded1 df3d 66d4 c53d 5ced 0dba e1ad a5bd
000002b0: 5e37 903d 9735 9fbd c12e d83b 8333 973d
000002c0: 3ec5 dc3d 7757 703c 51a5 93bd 17de 0bbc
000002d0: 4142 36bd ea4b f0bd e323 c8bc a982 d2bd
000002e0: fda2 d6bd 95ee 98bc 8750 2f3d 2578 e5bd
000002f0: ec2d fcbd 08b7 573b 615a 55bd 27a1 a6bd
00000300: 63c8 193d 9e7d 293d d099 b93c 8e09 41bd
00000310: c5e3 94bd 1822 a7bd 2122 bb3d f93d a13d
00000320: abe6 9f3d baa9 393c 148c 453c 9303 afbd
00000330: 1b66 edbd 0ec0 48bd 41ff 7a3d d955 aabc
00000340: a1a4 9f3c 56ad c7bd 3a18 d13d 0d52 de3c
00000350: 037a faba d7cd 48bd e67c 543c eacb 59bc
00000360: 0ea1 67bc 1516 f43d 23c6 543d 2772 ddbd
00000370: 0344 b23d 25b2 853d 1d0d 873c a42e a33d
00000380: c9b9 a3bd 780a 4fbd 0e48 1f3e 274b 8b3d
00000390: abf6 3a3d 4868 823c f1a6 ff3c 621b c1bd
000003a0: cf9b 0b3d a23d 47bd 885e c13c b916 853c
000003b0: 7e48 03be 02fa efbb 3457 bbbd 344d 583d
000003c0: c7d3 aebd d591 e73d e84a d33d ab1f 5f3d
000003d0: de73 fa3d 66be 013e 856d eb3d 90a8 cf3d
000003e0: ebe3 e4bd dc99 9e3d 8012 2b3e 15d7 8dbd
000003f0: 43aa f7bc 2330 39bd db8a b83d 0254 3cbd
-0.07115175 0.044963107 -0.055898216 0.109052934 0.021839388 0.120034955 0.13014816 0.108742796
0.016152695 0.08881081 0.12392294 0.085905194 0.053678136 -0.016179763 0.14730802 0.034206957
0.1143712 -0.12750581 0.08464893 0.12837562 -0.047125414 0.008403583 -0.02611668 -0.043270618
0.047586393 0.040366944 0.14241512 -0.11340289 -0.054234512 0.020647952 0.010618436 -0.022807084
-0.02048681 -0.06258983 0.13034908 0.080016285 -0.0695282 0.009727209 -0.13883306 0.08628751
0.026772736 0.06537992 0.17222486 -0.06974673 -0.12432698 0.041110665 -0.09524118 -0.059502374
0.0008205177 -0.03809738 -0.0817166 0.0650756 0.010899706 -0.066798866 -0.008842188 0.13771224
-0.051750865 -0.020101318 0.056153037 -0.07994876 -0.0030250924 0.058165126 0.11863627 -0.046702873
0.028018087 0.051955555 0.03259353 0.03684356 -0.116136946 -0.016916893 0.05320522 0.084052816
-0.02936444 -0.056965753 0.06719695 0.04533395 0.025074383 -0.025089737 0.07251677 -0.042708907
0.010699942 -0.064556815 -0.014095083 0.084192745 -0.017273944 0.12571257 -0.04590062 0.09819318
-0.08868462 0.0026373488 0.0035282164 0.10832816 0.086139895 -0.12324419 -0.027201688 0.07366289
0.010662996 -0.13569441 -0.021178968 0.09246734 -0.027165238 -0.09916418 0.068705305 0.06103038
-0.12949142 0.0004211153 -0.029045546 -0.051014192 0.036941275 -0.11764771 -0.021101153 -0.0123554785
-0.045811135 0.026360521 0.13176739 -0.03165654 -0.073165014 0.06509037 -0.08321699 -0.10195812
0.15443121 0.106350705 -0.10227296 0.058768522 0.106256485 -0.08618797 -0.075968966 -0.009245918
-0.023138987 0.02312492 0.091704756 -0.07139767 0.04499418 -0.0722774 0.05132136 0.12758276
0.12028747 0.1090214 0.048611257 0.06268826 -0.03331129 -0.13697919 0.114542 -0.03798217
0.022860391 -0.012982595 0.009117081 0.0699021 -0.043159753 0.036431603 0.10717988 0.0021985664
0.16100515 -0.036321532 0.08520369 0.010559409 -0.08155 0.040828466 0.04711064 0.04196103
-0.05033178 0.11725327 -0.010603447 -0.058195565 0.057310563 0.06974927 0.10876862 0.03692727
0.10928701 0.096596524 -0.00054140924 -0.080898054 0.070418105 -0.07773893 0.0065973704 0.07382872
0.107798085 0.014669291 -0.07209266 -0.008536837 -0.04449678 -0.117332295 -0.024431175 -0.10278828
-0.10480306 -0.018668452 0.042801406 -0.112045564 -0.123134464 0.0032915492 -0.052088145 -0.08136206
0.03754462 0.041379564 0.022656351 -0.047128253 -0.07270006 -0.081608 0.09137369 0.078731485
0.07807668 0.01133197 0.012057323 -0.085456036 -0.11591741 -0.049011283 0.061278585 -0.020792888
0.01948768 -0.09749858 0.10209699 0.027138734 -0.0019109849 -0.04902443 0.012969231 -0.013293246
-0.0141375195 0.11918274 0.05194677 -0.108127885 0.087043785 0.06528119 0.016485745 0.0796788
-0.0799442 -0.050547093 0.1555483 0.068014435 0.045645397 0.015918866 0.031207534 -0.09429051
0.034084138 -0.048642762 0.023604646 0.016246187 -0.12820622 -0.0073235044 -0.09147492 0.052808
-0.08536487 0.11307112 0.103170216 0.05447356 0.12229131 0.12670287 0.114954986 0.101395726
-0.111762844 0.0774419 0.16706276 -0.06925789 -0.030232554 -0.045211922 0.090108596 -0.045978554

AFeatRNN.weight_ih_l1 f4 [256, 64]
00000000: 0bc3 bdbd ab01 f9bc f945 e0bd 8df9 14bd
00000010: cee9 ea3d 4776 863c fe1d 02bd 82bb 413d
00000020: 1278 a3bb 05d4 233d 6995 e03d 5c61 2b3e
00000030: b63e 293d 7633 1bbd 5c05 a23d 064c 073d
00000040: 9eee df3d b234 41bd ee04 123d b8df 18bd
00000050: 1887 a33d 1953 f7bd 876a 8c3b 6e9e 153d
00000060: 41ee eabd 6150 5f3d 9ed5 3c3d ba93 71bd
00000070: bff8 0d3e 358e de3d b476 41bd e043 103d
00000080: 4eed d73d d39a 8fbb 6f73 513e 2bae e23d
00000090: 561f 8f3d ef59 2dbe 2c95 6dbe 9ea7 c33d
000000a0: 6a1b 923b 380b 983d 29f5 74bd 475e 24bd
000000b0: d502 7bbd f2de f73d 0bb7 38bd 3ad4 8f3c
000000c0: ae24 ca3d 5a90 aabc 1f62 fc3d b76f 09be
000000d0: bbf3 8c3e f461 88bd ee41 0f3e 0d4e 4f3e
000000e0: d728 523d 66d0 5c3e 8268 263e a7fe 84be
000000f0: 9e54 0fbe 8679 9d3c a74d cf3d c303 9abd
00000100: e881 93bc c7dc 033d 58ae 83be 2b39 a5bd
00000110: efdc a73c 984a f63c 0441 863e d4f7 4b3e
00000120: a833 e1bd 2984 b8bd 19b7 5b3e f3bc 2cbe
00000130: aef3 383e db0d 2ebe cdb1 153e dcd3 053e
00000140: 4317 123e 534a ab3c cab7 323e 7cb5 70bc
00000150: 970f 84be 025d 383d a20f 393e 7d08 823d
00000160: 2cc1 72bc 1280 963d aea0 1f3e 367b dbbd
00000170: 6cd2 71bb 8809 b43d b415 553e 7cfd 2abe
00000180: 0438 d13d fb21 6f3d b4f6 febd e562 7ebd
00000190: 7f00 623e 5ad4 c53d ff06 aebc 044e 363e
000001a0: 48a1 f43a acf6 40be 2b3f af3b 953b cdbb
000001b0: fb10 7f3e 1c93 e73c d8ef 053d 4ce0 113e
000001c0: c5e8 0f3e 3924 283d 9cb8 ae3e cf8a 293e
000001d0: 5745 6dbe 1e89 a13d a3e7 94be b6c5 053e
000001e0: 3ea3 013d 6e50 a9bc 5e02 fdbd 750b ad3e
000001f0: e786 4c3d bc1f 883d c8c4 f6bd c593 c3bc
00000200: f763 42bb 72d2 a73b 5894 3d3d 67a2 e6bd
00000210: 6d00 373e fb8d 283d 67e5 243e 9ca6 803c
00000220: daa9 2b3d e70c b23c 6238 353e 2bfc 6abe
00000230: 934b d13d 2942 0dbe f6f6 f6bd d83c 9abc
00000240: ce28 3d3e ca4e 3cbd 343e 1e3b 03ad 4bbd
00000250: cc57 08be 3d82 87bc a6ad afbd 7b40 c03d
00000260: d024 35bd baf2 173d f055 2a3d f07d 22be
00000270: d8fb 84bd 63d4 c2bc 1f3c c8bd b9ac ef3d
00000280: 1fb6 e7bd 74d8 8b3c fbb6 8fbc db5e 3f3d
00000290: 4c6d a53c 128b 1ebb 369f 983d 48a0 9bbc
000002a0: 68f0 8f3d 8772 86bd 9a49 44bd 47f9 c63d
000002b0: 0ecb 90bc 733d 013e a45a c0bb 913c 3f3d
000002c0: 0a25 0abe 3823 e33d 72ea 973d a005 de3d
000002d0: 65c0 bfbd 5536 09be 8371 bc3c 342d 573d
000002e0: 11db ce3a 9f4c 403e 71ef 6a3e 9e92 293c
000002f0: 3a1d eebd 6929 13be ba27 dbbd 76b9 31be
00000300: c3f1 71bd 1a86 3c3e 5f44 79bd 1bbd 44bd
00000310: b846 5f3d 9562 aebc 7ba8 f0bd 1669 8c3c
00000320: c9c1 6c3d 2911 983d da84 283d 94a2 16bc
00000330: 9c3d a33b c899 ae3d 68db eebd 25e3 993b
00000340: 08bf 99bd 04ae 8c3c 7980 9cbc afe4 5fbd
00000350: bbf7 013e c793 203c c54a 93bd b8aa 433d
00000360: 3608 ed3d add0 003b 5d15 263e 7185 253d
00000370: d388 dabd 0270 71bd b856 3f3c 0faf 2f3d
00000380: ce78 893d 480b ee3d 1835 c63c bb2e 273e
00000390: 854e 733d a353 10be 7b6f 08be 8bc8 3ebd
000003a0: cb16 c03d 1181 023c c94f 2fbc e09d b83d
000003b0: 927f b3bd 73c1 c0bd 3f7f 99bc 9bcb 44bc
000003c0: eb4c 973c 0557 643d fce7 92bd cc32 9d3d
000003d0: 456c af3d 0501 e7bd d356 a13d c541 07be
000003e0: 4024 89bc 29bf 15be 9216 b3bd e457 94bd
000003f0: 9260 ce3d 19b7 e3ba 7396 52bd 7c48 13be
-0.09265717 -0.030396303 -0.10950846 -0.036370803 0.11470376 0.01641382 -0.031766884 0.047297962
-0.0049886787 0.03999712 0.10965998 0.16736358 0.04131957 -0.037890874 0.079111785 0.033031486
0.109341845 -0.047169395 0.035649233 -0.03732273 0.079847515 -0.120763965 0.00428516 0.036528043
-0.114712246 0.054520015 0.04610216 -0.058978774 0.1386442 0.108669676 -0.047232345 0.03522098
0.10543309 -0.00438247 0.2045419 0.11068376 0.06988399 -0.16928838 -0.23201436 0.09553455
0.0044588344 0.07424015 -0.059804115 -0.040128972 -0.061281998 0.1210307 -0.04509644 0.017557252
0.09870277 -0.020820785 0.123234026 -0.13421522 0.27529702 -0.06659308 0.13989994 0.20244618
0.05130848 0.21563873 0.16250804 -0.25975534 -0.13997123 0.019222986 0.10122233 -0.07520249
-0.01800628 0.03219297 -0.2571895 -0.080675445 0.020491092 0.030064866 0.26221478 0.19918758
-0.10996181 -0.090095825 0.21456565 -0.16868953 0.18061706 -0.16997473 0.14618607 0.13069099
0.14266686 0.020909464 0.17452922 -0.014691707 -0.25793144 0.045010574 0.1807237 0.06349275
-0.014816564 0.07348646 0.15588638 -0.1071686 -0.0036899103 0.087908804 0.2080906 -0.16698259
0.10215762 0.058382016 -0.12449399 -0.062106032 0.22070502 0.096596435 -0.02124357 0.17803198
0.0018663788 -0.18844098 0.0053481064 -0.0062632062 0.24908821 0.02826839 0.032699436 0.14245719
0.14053638 0.04105017 0.3412522 0.16556858 -0.23170982 0.07887481 -0.29082975 0.13063702
0.03164982 -0.020668235 -0.12353967 0.33797804 0.04993334 0.06646678 -0.12049252 -0.023874173
-0.0029661634 0.0051215226 0.04628405 -0.112614445 0.17871256 0.041151028 0.16103135 0.015704446
0.04191003 0.021734668 0.1769729 -0.22947757 0.10219493 -0.1379477 -0.12058823 -0.01882784
0.18472597 -0.045973577 0.0024145963 -0.049725544 -0.13314742 -0.016541595 -0.08578043 0.09387299
-0.04422456 0.037096716 0.041585863 -0.15868354 -0.06493348 -0.023782915 -0.09777092 0.11702866
-0.11314034 0.017070986 -0.017543307 0.04672132 0.020193718 -0.002419178 0.07452242 -0.018997326
0.07028276 -0.06564813 -0.047921754 0.09715515 -0.017674949 0.12621097 -0.00587018 0.04668862
-0.13490692 0.11090702 0.07417764 0.10840917 -0.09362868 -0.13399632 0.023003345 0.052533343
0.001578184 0.18779229 0.22942902 0.010349898 -0.11626668 -0.14371265 -0.107009366 -0.17355904
-0.059068453 0.1841053 -0.06085622 -0.048031908 0.054510802 -0.021287242 -0.11750885 0.017139953
0.057801995 0.07425148 0.041142322 -0.009194035 0.0049817096 0.08525425 -0.11662942 0.004696267
-0.075071394 0.01717282 -0.01910423 -0.05466145 0.12692158 0.009800858 -0.071919955 0.047770232
0.11573832 0.001965563 0.16219087 0.040410463 -0.106706284 -0.05894471 0.01167839 0.04289156
0.06712495 0.116232455 0.024195239 0.1632642 0.059401054 -0.14094405 -0.13323776 -0.04657797
0.093793474 0.007965342 -0.010700175 0.09014487 -0.087645665 -0.094118975 -0.018737433 -0.012011434
0.018469295 0.05574705 -0.07173154 0.07675704 0.08565573 -0.11279491 0.078778885 -0.13208683
-0.016740918 -0.14623703 -0.08744539 -0.07243326 0.10077013 -0.0017373293 -0.05141301 -0.1438312

AFeatRNN.weight_hh_l1 f4 [256, 64]
00000000: 41d7 1dbd 8431 573d 0ca4 43bd 62c1 bfbb
00000010: a32b 093e 7dd1 123d e819 60bc 3fdc ee3b
00000020: 09eb d03d 3c2d 77bd d0df 813d 98a8 8cbd
00000030: e2e8 80bd b04c aaba 18e9 2bbd 600e 133d
00000040: 805e 89bd 0db9 50bc 38cc 043c 47e9 0d3e
00000050: 3473 d0bc 8ec4 563d 7fe5 0d3d 5b93 8cbc
00000060: 83ea 773c 9618 b8bc 51ae 6d3d 4671 0cbd
00000070: e3a6 ed3b ed82 d43d 13ba 0b38 31ee 6e3c
00000080: f591 3bbd 8a0a 3fbc a520 e3bd a6cb d8bd
00000090: 386d 85bd f225 9dbc 066a aabd cd5f 60bd
000000a0: 906d 97bd 00aa d6bd 3623 ae3d 4a8b 3f3d
000000b0: 6a75 1fbe ab3c aebd 45dc 3bbd 0948 883d
000000c0: 7ea7 953d f45a 903d cd65 ffbd d424 27bd
000000d0: 901a 9cbd 5da0 d3bc 1817 f53d 53e8 24be
000000e0: 7f16 0abc 6f69 0c3d c65e aebd be54 8f3d
000000f0: 079a a9bc ae09 25be 3e67 1dbd 8d07 b93d
00000100: 0e7d 19be d73f 8ebd 29aa 483e 1332 c2bd
00000110: afdf 1bbe 1ede 603e 1fba 463d 2ef3 9fbd
00000120: 604e b93d 375d 473c 77c4 de3d dcad a33a
00000130: 54bb 84bd b727 973c 0cc3 633e 7169 edbb
00000140: 03fa 943d f362 323e 0ac0 a9bc 014d eabc
00000150: ed31 313e 59a3 893d bee4 35bd 9ac3 b2bc
00000160: bba4 33be 9138 aebd 4934 ec3d 25a8 0ebd
00000170: aafb d83d d3b4 ea3c 9a1a ddbd 4ab7 52bd
00000180: 3369 80bc 7706 b5bd 35f6 b3bc ef93 2f3e
00000190: 743b 9fbd 9b8b 38bd 06b9 9c3d a6a2 173b
000001a0: 4e41 f43d 79ca b2bd 7777 8a3d df77 2dbd
000001b0: c52c 223e eec9 003d 748a eebc 8ffa 143e
000001c0: c50c 47bd 6616 433e bf2c 003d dd86 98bd
000001d0: 99b8 14be 3aeb 683d b089 4bbd 6223 25bb
000001e0: 7416 993d a93a f93c c30f ff3d 76e6 dabd
000001f0: 196f 903d 4aed 9e3d abc7 a93b 4a57 96bd
00000200: 1002 0fbe caef 3bbe c00d 69bd b08f 263d
00000210: 37f8 24bd 9c75 603d 5a34 063c f117 abbd
00000220: 3b88 733d 8c02 a33d 4e4a 343e 1c11 8dbd
00000230: 21a9 c1bd 5564 a83d 3223 0ebe f5cc a03d
00000240: cd6b 83bd 159a fcbb be76 6dbc d43f 733d
00000250: f460 a03b af43 83bd 35f8 acbb 61ea ad3d
00000260: 4f0a 4ebe c7d4 f2bd 5c76 a63d 977c 63bd
00000270: 271a 923c bb56 f83c 7284 733d 7d5c ccbd
00000280: a25f 13bd 46b4 39be f0b6 bd3d dcec 113e
00000290: cfaa 1c3e 9084 8b3d 0959 0fbd 7c50 d13c
000002a0: 4ba1 663d 649f 2bbd 2d6b 443c 4df0 abbd
000002b0: 1e7e 203d 99e2 6abc 1343 f93b 3221 263d
000002c0: 3dae a73d 9308 c33d 1c02 5d3d b8ab 003e
000002d0: 8ace f6bb 21b0 263c 8ac0 b83d 0fbb 213e
000002e0: 7c09 42bb 6ecf 6a3d 21c8 cabd 88bf e93b
000002f0: 15aa 01be 0b28 343e be49 ee3c 0131 1d3d
00000300: 3d84 ce3c 4b0b 8b3d 4b1c 843d da4c b3bd
00000310: ebe8 4abd 2847 afbd 462c 023e 20f2 bcbd
00000320: c020 33bd 63a0 d2bd 3476 1f3c 5789 c2bc
00000330: fb42 693d eb8e 973d 4405 1b3e 2d2a eabd
00000340: b4e9 943d 3190 bd3d 9b45 8fbd 8831 bd3c
00000350: fb00 eabd e06c 083c c059 903c f4ba a0bd
00000360: 09e8 3e3d 67ad e9bd 164a 233d 1f05 b23d
00000370: 4699 8e3c 4ee5 d33c b60b 3cbd d7ba e2bd
00000380: d14e a1bd 0820 b33c 6105 89bd f115 d63d
00000390: 5a27 b03d c950 dbbd abbf a9bc 4480 2a3e
000003a0: 76b3 693d aac6 c2bd 30f2 93bd 2188 0abe
000003b0: d391 40bc f3ee 9dbd 1f83 01be a45d a0bd
000003c0: 622a c2bd 9a64 77bd 1980 903c c179 57bd
000003d0: 04fb 6fbc 6e27 18bb 70a8 d9bd e440 9d3d
000003e0: 4b23 03be 2aa8 a6bd 0e33 ac3d 5b37 56bd
000003f0: 6473 3e3d 4736 a2bd 80b9 8abd 3ede 24bd
-0.03853536 0.052537456 -0.04776387 -0.0058519104 0.13395552 0.035844315 -0.0136780515 0.007289439
0.102010794 -0.060345873 0.06341517 -0.06868094 -0.06294419 -0.0012992825 -0.041970342 0.03590238
-0.067074776 -0.012739432 0.00810533 0.1385852 -0.025445558 0.052433543 0.034642693 -0.017160108
0.015131596 -0.022472661 0.05802757 -0.034287713 0.0072525605 0.103765346 3.3313478e-05 0.014583156
-0.045793492 -0.011660228 -0.11090211 -0.10585718 -0.065149724 -0.019183133 -0.083210036 -0.054778863
-0.07393944 -0.10481644 0.0850281 0.046763696 -0.15572134 -0.08507665 -0.045864362 0.066543646
0.07307337 0.07048598 -0.12470589 -0.040806606 -0.07622254 -0.025833303 0.119672954 -0.1610425
-0.008428215 0.034280237 -0.0851417 0.06998585 -0.020703329 -0.16116974 -0.038428538 0.09034643
-0.14989111 -0.0694577 0.19596161 -0.09482207 -0.15222047 0.21959731 0.048517343 -0.07810055
0.09048152 0.01216822 0.108773164 0.0012487727 -0.064810425 0.018451555 0.22242373 -0.0072452356
0.072742485 0.17420559 -0.020721454 -0.028601171 0.17304201 0.06720609 -0.0444076 -0.021821786
-0.17543308 -0.08506883 0.1153341 -0.034828324 0.10594876 0.028650677 -0.107960895 -0.05144433
-0.015675163 -0.08839124 -0.021967987 0.17146276 -0.07775012 -0.045055013 0.07652478 0.0023137718
0.119265184 -0.08730025 0.06761067 -0.042350646 0.1583739 0.031442575 -0.029118754 0.14548706
-0.048596162 0.19051513 0.031292673 -0.07447598 -0.14523543 0.056864955 -0.049691856 -0.0025198092
0.07474986 0.03042348 0.12454178 -0.10688488 0.0705244 0.07760103 0.005181273 -0.07340868
-0.1396563 -0.18353191 -0.05689788 0.040664375 -0.04027578 0.05479966 0.0081911925 -0.08354176
0.05945609 0.0795947 0.1760647 -0.06888029 -0.09456087 0.08222262 -0.13880613 0.078515925
-0.06417046 -0.0077087977 -0.014493642 0.059387043 0.00489437 -0.06409394 -0.005278612 0.0849197
-0.2012112 -0.1185699 0.08128044 -0.05553874 0.017834736 0.030314794 0.05945248 -0.09978578
-0.035979874 -0.18135175 0.09263408 0.14250511 0.15299533 0.06812394 -0.03499702 0.025551073
0.056306165 -0.041900054 0.011988443 -0.08395443 0.039182775 -0.014336252 0.007606873 0.040559
0.0818753 0.0952312 0.05395709 0.12565506 -0.0075319456 0.010173828 0.09021099 0.15794013
-0.0029607704 0.057326727 -0.09901453 0.007133428 -0.12662537 0.175934 0.029087897 0.038376812
0.02520954 0.06789263 0.06450709 -0.08754893 -0.049538534 -0.08558494 0.12712201 -0.09225869
-0.043732405 -0.102844976 0.009732772 -0.02374713 0.056948643 0.07400306 0.15138727 -0.11433826
0.07271138 0.09256018 -0.06995698 0.023094907 -0.11425968 0.008326739 0.017620921 -0.078481585
0.046608005 -0.11410027 0.039865576 0.08692383 0.01740707 0.025866177 -0.045909606 -0.11070793
-0.07876361 0.02186586 -0.06690479 0.10453404 0.08601256 -0.10708768 -0.020721277 0.16650492
0.057055913 -0.095105484 -0.07223928 -0.13528492 -0.011753517 -0.077115916 -0.12647675 -0.078303605
-0.0948074 -0.060398676 0.017639207 -0.052606348 -0.014647249 -0.0023216861 -0.1062783 0.076783925
-0.12806432 -0.081375435 0.084081754 -0.052298885 0.046496764 -0.07920509 -0.067736626 -0.04025101

AFeatRNN.bias_ih_l1 f4 [256]
00000000: 17e7 a73c 089e 673e a33f 833d 3c10 093d
00000010: e5ae 093d cc53 263e c48e 9cbc 092b 26bc
00000020: b2f6 9a3d 081b 943b 3380 eb3d 5d68 f63c
00000030: 95f7 a43c a436 8e3d bb5a 803c 5ea8 dabd
00000040: 6258 f53d 0121 9bbd edd4 35bd 4ae2 f63d
00000050: c6ec e93d e944 4a3e 50e3 bf3d ae98 7c3d
00000060: 27c0 d9bd 3281 8e3d 6505 e6bd caaa 133e
00000070: c005 d03d fc52 6a3b 531e 073e 4ae2 d13c
00000080: 971c 0d3c 1331 e53d ed8c 173e 0259 2a3e
00000090: 5649 78bc 44de 023e 6454 c83d 0b51 4c3c
000000a0: 8a16 753d 7d5e 03bc cc8c 4d3e e714 243d
000000b0: 18c1 073d 8ebf 903d 1b8d 9a3d abe5 aabd
000000c0: fcb9 983d 2acd 053e 2d3c 6cbd 7993 353d
000000d0: d95e 9a3d 25af aebd 3c33 f1bd 7955 a6bc
000000e0: 8a16 6bbd bede 1f3e 46fe b33d 73a3 1e3e
000000f0: 88a2 c03d 820b 093e 3258 4b3e 8cd6 4ebc
00000100: cd67 1cbe 7476 2bbd 6175 223e f6f1 183d
00000110: 1ecf 84bd 29ef ce3c 17d5 9dbb 795f 9e3d
00000120: 2a94 053d 8203 fcbd c36a 1fbd f56b 923c
00000130: 117b 01bd 3495 02be 0278 943d 47a9 d3ba
00000140: c37a 0abe a4a1 173d 7abb cbbd 9b08 8abd
00000150: be34 20bd a5a6 74bc f46a 993d f530 813d
00000160: 320b b4bd 7dcd 3bbc 3043 74b9 1c42 d3bb
00000170: 69fb 1abe be97 a9bd 4bf9 883d 9ec8 bb3d
00000180: 5cd6 9ebd 0abf 05be 59bd b7bd 493c 013e
00000190: 18e9 453c efa1 05be 4388 aebd fc50 603d
000001a0: 82b2 14be 374f 2cbd 5e54 d9bd 882a 023d
000001b0: 6ce3 92bd 6f7c 5c3e 8a1b 363d d0ef 9fbc
000001c0: d708 dd3c a9d8 983d 03ba efbc 2ab1 543d
000001d0: a502 adbd ac84 863d 432b 633d 1cb4 ec3c
000001e0: 44d7 fc3d 4151 ecbd 13ad 4fbd 834e a8bd
000001f0: 00df fe3c 01df 5e3d 3411 413d 3e9f 8abd
00000200: 36a6 00bc f1ef 8a3c bded 703d d9c7 e13d
00000210: 5b68 40bd c009 ccbd a38b 18be a5e2 f0bc
00000220: ca76 303d d89e 5abd ece5 b63d 6708 1d3e
00000230: 7e01 ebbc 313e 72bd fab1 87ba 06cd 2cbd
00000240: a11f 033b 5e6d 153d cb54 3fbd ee96 aebd
00000250: e84a 88bd 2294 08bd 232f d0bd a345 f3bd
00000260: e11c 87bd aadf f53d ff62 393d 197d 1b3d
00000270: 1f39 a13d a317 7cbc 76d2 cdbd d5fe 84bd
00000280: aabc 8b3d c4f3 d9bd c7e8 fa3d ff01 bc3d
00000290: a1cf 023e 3c43 9c3b 921e a83d 8d23 cabc
000002a0: 08b7 52b8 47ac d7bd 30ae 5c3d 2929 d03c
000002b0: 8d29 0e3d 4f47 b43d 4adc ac3d 9a1c d33d
000002c0: 7d26 583c 05c7 0a3e 2533 833d f71f fbbc
000002d0: a023 fa3d bf48 0abc 6c5e e6bd 2b15 09bd
000002e0: 02bd ea3d 62cb 863d 9608 5d3d 67d6 01bd
000002f0: e106 fdbc 48ea 563d 8adc a8bd d759 a7bd
00000300: 8517 0e3e 61d8 513e 304a 413c 4398 b1bd
00000310: 402e 943d c102 343d 1cb7 b43d 9e48 073e
00000320: 4066 11bd dc63 543d 12e0 833d fc27 a8bd
00000330: 2b7c c63d 0ff6 943d 6948 ea3d f165 be3c
00000340: 2ac2 a53d b7fd e3bd 8ee5 f53d ab93 2b3e
00000350: ad13 623c 001a 8d3e a192 c33c 3743 953c
00000360: f907 94bd 7d62 79ba 650b 043e 5916 dd3d
00000370: 51d9 153d 85a2 f23c f14b 213e 3399 ef3d
00000380: bc62 b3bc be1b 883d 35b8 0c3e 6a40 9c3d
00000390: 20af ef3c 563c 333e 4fb8 40bc 3707 4e3d
000003a0: 3e19 0b3e ce35 243e 91d9 b53d 324f 45bd
000003b0: 0f3f e9bd 0c5b 083e 28c4 d13c 89c4 cb3c
000003c0: 9ecf 6fbd f9c6 ecbd 3806 5c3c af1a 333d
000003d0: 6945 973e 8592 d3bd a048 583d 88e4 ca3d
000003e0: 2bd1 c93d 6637 60bc e1b6 dcbc 8700 103e
000003f0: ffd3 fe3c 208b 4e3d 1d70 bbbb 88d2 9fbb
0.020495934 0.22618878 0.06408622 0.033462748 0.033614058 0.16242903 -0.019111045 -0.010142096
0.07566585 0.004519824 0.114990614 0.030079061 0.020137588 0.069440156 0.015668264 -0.10676645
0.11979748 -0.07574654 -0.044392515 0.1205488 0.11422114 0.1975285 0.09369528 0.061669044
-0.10632353 0.06958236 -0.11231498 0.1442062 0.10157347 0.003575503 0.13195162 0.025620598
0.008612773 0.11191001 0.14799853 0.16635516 -0.015154203 0.127801 0.09781721 0.012470494
0.059835948 -0.008018133 0.20073241 0.040058997 0.033143133 0.07067786 0.07546445 -0.08344587
0.07457349 0.13066545 -0.057674576 0.044330094 0.07537622 -0.085295 -0.1177735 -0.020304428
-0.05739454 0.15612313 0.08788733 0.15492038 0.094060004 0.13383296 0.19857863 -0.012624394
-0.15273972 -0.041861013 0.15865089 0.037340127 -0.06484817 0.025260525 -0.004816662 0.07733054
0.032612003 -0.123053566 -0.038920175 0.017873744 -0.031611506 -0.12752229 0.07249452 -0.0016148471
-0.13523392 0.037019387 -0.09947868 -0.067399226 -0.0391128 -0.014932309 0.07491103 0.06308166
-0.08791198 -0.011462566 -0.00023294683 -0.00644709 -0.15134968 -0.08280896 0.06688174 0.09169124
-0.077557296 -0.13061157 -0.08971662 0.12620653 0.0120795 -0.13050054 -0.085220836 0.054764733
-0.1452122 -0.042067733 -0.10611795 0.031778842 -0.071722835 0.21531843 0.044459857 -0.019523531
0.026981754 0.074632 -0.029263502 0.05192677 -0.0844777 0.06568274 0.05546118 0.028894477
0.12345746 -0.115389355 -0.050702166 -0.082181 0.031112194 0.05441189 0.047135547 -0.06768654
-0.007852128 0.016960116 0.058820475 0.11024446 -0.04697452 -0.09962797 -0.14897017 -0.029404948
0.043082036 -0.05337414 0.08930573 0.15335236 -0.028687235 -0.05914134 -0.0010352724 -0.042187713
0.0020007866 0.036481254 -0.046711724 -0.08524881 -0.06654912 -0.033344395 -0.101652406 -0.118785165
-0.06597305 0.12005551 0.045260426 0.0379611 0.07872223 -0.015386495 -0.10049908 -0.06493918
0.06823094 -0.10642198 0.1225143 0.09180068 0.12774517 0.004768757 0.08208956 -0.024675155
-5.0238363e-05 -0.10530906 0.053877056 0.025410252 0.034707595 0.088026635 0.08440454 0.1030819
0.01319277 0.13552482 0.064062394 -0.03065489 0.12213826 -0.008440196 -0.11248478 -0.033467453
0.11461832 0.06581761 0.053963266 -0.03169861 -0.03088707 0.05246952 -0.082451895 -0.081714325
0.1387616 0.20492698 0.011797473 -0.0867162 0.07235384 0.04394794 0.08823988 0.13211295
-0.035497904 0.051853046 0.064392224 -0.082107514 0.09691652 0.072734945 0.114395924 0.023241969
0.080936745 -0.11132377 0.12006675 0.1675555 0.013798636 0.275589 0.023873629 0.018220527
-0.07228083 -0.0009513272 0.12894972 0.10795278 0.036584202 0.029618511 0.15751626 0.11699142
-0.021897666 0.066459164 0.13742144 0.076294735 0.02925831 0.17503485 -0.011762693 0.05029985
0.13583848 0.1603615 0.08879388 -0.04817123 -0.113889806 0.13315982 0.02560623 0.024873989
-0.05854761 -0.115613885 0.013429217 0.04372662 0.29545143 -0.10330681 0.052803636 0.0990687
0.09854349 -0.013685083 -0.026942672 0.14062701 0.031106947 0.05042565 -0.005720152 -0.004877392

AFeatRNN.bias_hh_l1 f4 [256]
00000000: 5612 e43d 734e ac3d 3347 df3c 4ee7 453d
00000010: ab8f 983d 18ce 213d 834c 673c 9f2b 103e
00000020: fa0f 413e 208f d13d 1e06 293e 20b8 7a3d
00000030: 4d17 403d 47a7 b73d 15db d03d 40f3 05bd
00000040: 02d5 893c 1cdc f2bc d158 323d c969 293e
00000050: c0bb 993c 0760 4d3e 2a0b 65bd 76da aa3d
00000060: 4f35 88bc 0722 933d c875 e2bc 437b 183b
00000070: 68cb a83d 9f50 4ebb 403d 163e ce49 553e
00000080: f1ed 283d db1d c43d 3a2e 083e c0f5 ca3d
00000090: e9ab bd3c bc4b 2a3e 5cfd 063d e7b0 c73c
000000a0: 0b76 5d3d b623 0fbb 5df7 8e3a 0bf2 453e
000000b0: 6459 023e eaec 7f3c 5fe2 cb3c 53d5 74bd
000000c0: 2f99 d73d dc8b 863c c053 cbbc ab6c 47bd
000000d0: 7ff4 533e 6c85 1b3e aaaa d4bd ce93 69bd
000000e0: 31c9 a4bc 32be 933d 2762 143e 2b20 87bc
000000f0: 9321 1d3e ac41 45bd 608b 433e a88d 92bd
00000100: c9d4 68bd d062 91bc f36a ce3d 2f9d a3bc
00000110: 77cf 383d 99a7 c53d c718 fcbd 6640 4d3d
00000120: 517d b9bc 851a 2abd cac3 f8bd 2d29 173d
00000130: 4767 d43a 9c5d d7bd e550 17bb 1032 343d
00000140: 47ad dabd d578 483d 71a4 91bc eef3 c53d
00000150: c2d9 2c3d c524 d0bd 3a59 bc3d 5d64 123e
00000160: 2224 0cbd 7900 0abe 5ef4 8fbb 54c2 a43c
00000170: 080a 1dbe 4788 50bd 72bb 653d 66ca 183d
00000180: 01d8 f53d 9819 843d df26 023e b928 63bd
00000190: b069 e2bc ccdb e03d dbcb 97bd 925c 0cbe
000001a0: aabe d0bb 871a 36bd c715 bcbd 4216 cfbc
000001b0: 3108 a3bd e84f 5f3d fbb4 10bd 3ca1 56bb
000001c0: 3b49 b33d 72e9 663d 5b0e 6b3d 8bb0 27bd
000001d0: 93cc 253d 4aa4 f7bd 34f7 a23b 2e0c 51bb
000001e0: b9a7 4fbd 775c ea3c 7a8c 74bb c0d3 aabd
000001f0: 7e21 453d a436 fc3c 5a20 c43d 6168 d2bd
00000200: 30bc d6bc 08e7 caba d696 613e 0e32 bf3d
00000210: 8f14 8f3c 4d15 14be c9f5 663d a117 81bd
00000220: c301 0dbd a2ca a63c bfe8 113e cb10 663d
00000230: d3d7 003c fe05 9fbd e6b7 073e 65d1 aebd
00000240: 32d8 a93d 1df7 adbd 757f 913d 80fb 1d3e
00000250: 801d 93bd 68b8 373e 2009 613d d9b8 57bd
00000260: 7a77 393c f5cd 6dbd 3000 d43d 27ed de3d
00000270: 0f83 603c 98ae efbd d356 fc3d 1c32 70bc
00000280: f651 b3bd e792 0cbe 76e5 e8bd 685b 073e
00000290: a717 3d3e 6227 d73d f304 083d 72b2 85bc
000002a0: ab9b 463c 2b13 95bc e8c1 10be f067 33bd
000002b0: e4a3 b33d 124e 4d3d 2f9d 02bc c8b6 e63d
000002c0: 6164 dabd ec5d c03d 33f2 a4bd 54c9 4f3d
000002d0: 3668 8d3d 93c8 9d3d 6867 24bb 63c6 0ebd
000002e0: a6c9 e53d 55ba efbb 94f6 f93c 726e e93d
000002f0: 7b1d fdbb 5853 29bd e0e2 c63d d785 8a3d
00000300: b8e2 b6bd e38e 9a3d 8e0a 813d 6dc0 6f3c
00000310: 4f66 a93d 1043 823d c09e 24bd 9dab 0e3d
00000320: 6033 323e 90fd 953d d4f5 233e 47ba 003e
00000330: c77f c6bd 126c 4ebd cd31 dcbc b1c4 61bb
00000340: da20 c73d cd60 e0bd 69dc 473e b13f 0d3d
00000350: dd6c cabc cdcf 0e3e 22e4 883d 6d53 3ebc
00000360: f55d 43bd d115 ba3d f2e4 1b3d 922f 463e
00000370: 2c33 00be 9193 c93d b5d3 7abb cd77 033e
00000380: 3ecd 9a3d 1bf4 183c 9e2d 683c a2b5 f03d
00000390: b10b e5bd 59d7 f53d d7ec d33d 2112 b33d
000003a0: f399 153e 1cdd 203e 928d 4f3d 899d a1bb
000003b0: fa9f 803d badc d33d 46ee 7fbd 817f c8bd
000003c0: d704 b9bd cd22 97bc 29b9 ea3d 97a7 9b3d
000003d0: 89cb 943e 5d40 4cbc 5ec9 a0bd c52a 05be
000003e0: 6fdd b5bd adc7 243d f936 9a3d 008f 4d3d
000003f0: 6013 47b9 c236 5b3d ecf3 473e 0003 053e
0.1113631 0.084134005 0.02725563 0.048316292 0.074492775 0.039503187 0.014117363 0.1407914
0.18853751 0.10232377 0.1650624 0.06121075 0.04689722 0.089674525 0.101980366 -0.032702684
0.016825203 -0.029645972 0.043541733 0.1654426 0.018766284 0.20056163 -0.05591885 0.08342449
-0.016626982 0.071842246 -0.027644053 0.002326683 0.08241922 -0.003148116 0.14671803 0.20828936
0.041242544 0.09576007 0.13298884 0.09910154 0.023153262 0.16630453 0.032956466 0.024376346
0.054067653 -0.0021841354 0.001090746 0.19330613 0.12729412 0.01562045 0.024888216 -0.059773754
0.10527264 0.016424112 -0.024820209 -0.04868762 0.20698737 0.15187615 -0.10384114 -0.057025723
-0.020115467 0.07214011 0.14490567 -0.016494831 0.15344839 -0.048158333 0.19096136 -0.07155925
-0.056843553 -0.017747313 0.10078993 -0.019972412 0.04511973 0.09651107 -0.123094134 0.050110243
-0.022642763 -0.041529197 -0.12146719 0.036904503 0.0016205095 -0.105159014 -0.0023088988 0.043993056
-0.10677581 0.04894336 -0.017778607 0.096656665 0.042199858 -0.10163263 0.09196706 0.14296098
-0.034214146 -0.13476743 -0.0043931445 0.020112194 -0.15335858 -0.050911214 0.056086965 0.037302397
0.1200409 0.06450194 0.1271014 -0.055458758 -0.027638286 0.10979423 -0.07411929 -0.13707188
-0.006370385 -0.044458892 -0.09183841 -0.025279168 -0.07960547 0.054519564 -0.035328846 -0.0032749912
0.08754202 0.056374975 0.057386737 -0.04093985 0.0404783 -0.120918825 0.0049733166 -0.0031898129
-0.050697062 0.028608544 -0.0037315176 -0.08341169 0.048127644 0.030787773 0.09576483 -0.10273815
-0.026212782 -0.001548023 0.22030196 0.09335719 0.017465858 -0.1446125 0.056386743 -0.06303335
-0.03442551 0.020360295 0.14248942 0.05616836 0.0078639565 -0.07764815 0.13253745 -0.085360326
0.08293189 -0.08494399 0.071043886 0.15427971 -0.07183361 0.17941439 0.054940343 -0.05266652
0.011319989 -0.058057744 0.10351598 0.10885077 0.013703122 -0.11703223 0.12321248 -0.0146603845
-0.08755867 -0.13727914 -0.11371891 0.13218462 0.18466054 0.105055586 0.033207845 -0.01632044
0.012122075 -0.018197617 -0.1413647 -0.043800294 0.08771494 0.05012328 -0.007972046 0.112653315
-0.10663677 0.09392914 -0.08054008 0.05072911 0.06904642 0.07704272 -0.002508605 -0.034857165
0.11220102 -0.0073159137 0.030513085 0.11398019 -0.0077244616 -0.04133925 0.09711242 0.06763809
-0.08929962 0.07546785 0.06300841 0.01463328 0.08271467 0.063604474 -0.04019046 0.034831632
0.1740241 0.07323754 0.16011745 0.12571059 -0.0969234 -0.050396033 -0.026879216 -0.0034449513
0.09723063 -0.10955963 0.19517674 0.03448457 -0.024710113 0.13946457 0.06684138 -0.01161657
-0.047697026 0.090861924 0.038060136 0.19354084 -0.1251952 0.09842599 -0.003827316 0.12838669
0.07558678 0.009335543 0.014171032 0.11753394 -0.111838706 0.12003965 0.10347908 0.08743692
0.14609508 0.15709347 0.05067212 -0.0049321097 0.06280513 0.103448346 -0.062483095 -0.097899444
-0.09034126 -0.018449211 0.11461098 0.076003246 0.29061535 -0.012466517 -0.07850908 -0.13004597
-0.08880126 0.04022949 0.075300165 0.050185204 -0.00018985337 0.053519018 0.19526643 0.12989426
