STD/checkpoints/LSTM2linear3/VA_METRIC_state_epoch100.pth (torch, 585522 bytes, 24 tensors)

AFeatRNN.weight_ih_l0 f4 [256, 128]
000000 71 cc d1 bb eb 3b a2 3d 1e 5d ef bc 44 88 80 3c
       -0.006402545 0.07921585 -0.029219206 0.015689977
000010 f3 40 82 bd 3f 1f 53 bd 56 5d 31 3d 3d be 10 be
       -0.06360044 -0.05154347 0.043301903 -0.1413507
000020 bd 55 9f bd 09 01 0c 3e 39 11 00 3d 5e 62 05 3d
       -0.07780025 0.1367227 0.031266425 0.032564513
000030 f0 e0 16 be d3 be 42 3e 62 97 9e bb 0c 08 72 3e
       -0.14734244 0.19018106 -0.0048398236 0.23635882
000040 4c 1c 35 bd 00 6b 37 bd a1 df 46 bd fa 81 a3 bd
       -0.04421644 -0.044779778 -0.048553113 -0.079837754
000050 41 21 d1 bd 5d 0a e0 bc 64 92 eb bd a8 f8 da bd
       -0.10211421 -0.027348692 -0.11502531 -0.10691959
000060 2c 41 d7 3c 9b 46 76 3d bf 01 d8 bd 4f c6 16 3e
       0.026276194 0.06012593 -0.10547208 0.14724086
000070 bb d9 a7 3d a9 d9 1f be 7a f0 2f 3e 26 ad 25 bd
       0.08195826 -0.15610375 0.17181578 -0.04044833
000080 a3 8e 61 3d 2a 02 20 be 57 13 49 3e 83 de 15 bd
       0.05506767 -0.15625826 0.19636284 -0.036589157
000090 be 57 d9 bd 06 79 7e bc bf c8 86 3c 9d ef d6 3c
       -0.106124386 -0.015531784 0.016453145 0.026237303
0000a0 bd 25 92 3d 19 77 88 3d 58 0c b2 be a2 51 30 bd
       0.07136104 0.06663341 -0.34775043 -0.0430466
0000b0 8b 08 50 3e d3 61 96 bd d4 b3 20 3d bb 89 44 bc
       0.20315759 -0.07342877 0.039233997 -0.011995728
0000c0 f1 91 da 3d a7 c7 ce 3c 5a 89 38 3b c0 16 5a 3e
       0.10672367 0.025241686 0.002815804 0.21297741
0000d0 55 c6 e2 bd 07 b6 7d 3d 88 4d 4e 3e 23 0e 5d bc
       -0.11072985 0.061941173 0.20146763 -0.01349214
0000e0 d5 b2 cf bc 84 c0 44 bd 14 e6 81 bd 72 71 18 3e
       -0.025353828 -0.04803516 -0.06342712 0.14887026
0000f0 0e 34 98 3d 36 7d f4 3d 0c 5c 34 3e 62 5a e7 bc
       0.07431804 0.119379446 0.17613238 -0.02824134
000100 5e 36 82 bb 92 bb c8 bc 42 51 26 be 09 7d ab 3d
       -0.003973766 -0.024503503 -0.16241935 0.08373458
000110 19 3c 82 3d 96 3e 66 bd 72 8b 02 be 8b e9 45 3d
       0.06359119 -0.05621203 -0.12748507 0.048318427
000120 67 23 71 bd e7 9a 3c 3d a8 ef 3b 3c e3 63 12 bd
       -0.058871653 0.046046164 0.011470713 -0.03573979
000130 f4 cc 68 3e 7e a8 d0 bc 24 c6 16 3b 59 42 5e bd
       0.22734433 -0.025470968 0.0023006285 -0.054262493
000140 c9 a9 5e be 12 35 c8 3d a8 98 83 bd c0 6f 5f 3e
       -0.21744455 0.09775747 -0.06425601 0.21819973
000150 bc d7 0c be 14 36 0e be 1d 7b 3f 3d 55 04 fb bc
       -0.13754171 -0.13887817 0.04674827 -0.030641714
000160 61 47 11 bc b8 21 12 3e 5f 3f f9 3c 26 1d 7e 3d
       -0.008867116 0.14270675 0.030425726 0.062039517
000170 d8 47 b0 3d db 2f c6 3c 14 d3 3e 3e 36 fb c3 3d
       0.08607453 0.024192741 0.18635207 0.09569399
000180 c2 ac fa bc b0 1a 44 3e 8c 48 24 3d 76 00 4a 3d
       -0.030599955 0.19150805 0.04010825 0.049316846
000190 0b cf a5 3c 27 e5 50 3e 13 d1 ed bc fb f6 64 3e
       0.020240327 0.20399915 -0.029030358 0.2235984
0001a0 b5 9c 10 be 81 d7 f3 bd a5 e1 0d 3e b4 f1 1f be
       -0.14122279 -0.119063385 0.13855608 -0.15619546
0001b0 2a 7a 7e bd 75 4c ad 3d bf 38 0c be 7b ef 85 3c
       -0.062128223 0.08461849 -0.13693522 0.016349545
0001c0 11 84 6d be fb cd 16 3e 61 1b 7c 3d 92 50 d2 bd
       -0.2319491 0.14727013 0.061549548 -0.10269274
0001d0 de a7 6f bd ec 1e fd 3c 6e a4 84 bd 32 69 65 3d
       -0.0585097 0.030898534 -0.06476675 0.056008525
0001e0 91 98 23 3e 03 6f d0 bd 7d 7e f2 bd 34 53 3d 3c
       0.15976168 -0.10177424 -0.11840532 0.011555482
0001f0 07 06 2f bd 54 ee 96 bd bb a0 94 3e f6 e1 53 3c
       -0.042730357 -0.07369676 0.29028878 0.012932291
000200 42 0f 88 3d 67 fc 80 bd 37 00 f8 3b f5 55 9b 3d
       0.06643535 -0.06298142 0.007568385 0.075847544
000210 ae 32 2d be 5d 6a 17 be f4 9d 86 bd 70 ac b3 3c
       -0.16913864 -0.14786668 -0.06573096 0.02193281
000220 b4 99 93 bd 6e 71 7e bc 37 50 76 be 88 1c c8 3d
       -0.07207051 -0.015529973 -0.24054037 0.09771067
000230 34 17 4d bc 7f b7 42 be d1 82 f4 bd 06 41 82 be
       -0.012517739 -0.1901531 -0.11939014 -0.25440234
000240 a3 a4 15 bd d1 05 5c bd d6 2c c3 3d fc c3 6d be
       -0.036533963 -0.053716484 0.09530036 -0.23219293
000250 b4 68 89 3e a4 83 02 bd f8 b8 fb bc 95 85 8c be
       0.26837695 -0.031863824 -0.030727848 -0.27445665
000260 66 f0 fb 3d 67 f7 b3 bd 25 13 98 3d b3 23 10 3e
       0.12301712 -0.087874226 0.074255265 0.14076118
000270 d0 b9 58 3d c7 6c 89 bd c8 c9 87 bc 05 9d 17 be
       0.05291158 -0.06710201 -0.016575709 -0.14805992
000280 1e 7d 86 be b5 15 8a bd d8 dd 4c bd 10 23 88 3d
       -0.26267332 -0.067424215 -0.050016254 0.06647313
000290 e3 c6 01 be 25 43 d8 3d e0 7d 06 bd 09 d0 3d 3d
       -0.12673526 0.10559682 -0.032834888 0.046340976
0002a0 df f4 2c 3b b9 bf ac bb 02 34 3c bd 4f bf f6 bd
       0.0026391072 -0.0052718786 -0.045948036 -0.12048208
0002b0 6e 4e 44 bd c0 60 0b 3d b3 17 91 be a5 f3 3a be
       -0.04792636 0.034027815 -0.28338394 -0.18257006
0002c0 eb fe 77 bd 0b 44 08 be 3e 6f e5 bc d5 ac 80 be
       -0.060545843 -0.13307206 -0.028007146 -0.2513186
0002d0 06 8d 04 3e 98 81 df 3d a6 76 34 be 74 22 f0 bd
       0.12944421 0.1091339 -0.17623386 -0.117253214
0002e0 b1 e4 48 bc 54 bc 3c be 8f 67 94 bd ea 3d a9 bd
       -0.0122615555 -0.18431216 -0.07246315 -0.08263762
0002f0 25 8e de bd fb c9 94 bd d2 87 ed bd 41 94 54 bc
       -0.10866956 -0.07265087 -0.11598171 -0.0129748
000300 9a 19 59 bd c6 a1 99 3d 92 df 67 bc ce 9d 76 bd
       -0.05300293 0.07501559 -0.014152424 -0.060209088
000310 bd a0 4d bd 55 dd c4 bd a4 2d 37 3b b4 ef 38 bd
       -0.05020212 -0.09612528 0.0027950788 -0.045150474
000320 9b f2 7f 3d e4 68 dc bc 86 e4 2a 3c 7f 2d e1 bc
       0.062487226 -0.026905484 0.010430461 -0.027487515
000330 95 04 19 be d1 dc 9d bd f8 24 a7 bd 98 b7 8d bd
       -0.14943154 -0.07708133 -0.08161348 -0.06919783
000340 ba 6e 78 3d ad 23 02 3e b9 98 21 3d 07 87 e4 3d
       0.060652472 0.12708922 0.03945229 0.11158567
000350 00 7a e3 bd ab 22 98 3d 28 59 68 3e f4 77 cb bd
       -0.11107254 0.074284874 0.2269026 -0.099349886
000360 a3 99 0e 3d 31 b0 79 3d bc 00 dd 3c fb ba a1 bd
       0.03481449 0.060959045 0.02697789 -0.07896992
000370 ee da f9 b9 60 64 7c bd 37 d4 e2 bd 99 e7 50 be
       -0.00047656096 -0.061619163 -0.11075633 -0.20400847
000380 31 ab 0f 3e 52 e6 ba 3d 87 bd c0 bd 1a 64 ff 3d
       0.14030148 0.09125961 -0.094111495 0.12470265
000390 d2 10 47 be cc 3d 8e bd 64 d4 eb 3d b8 a7 2b be
       -0.1944001 -0.069453806 0.1151512 -0.16763198
0003a0 e7 78 ad bd f3 4f a4 bd 07 c3 cf 3d b9 85 1e 3d
       -0.08470326 -0.080230616 0.101446204 0.038701747
0003b0 86 2b 03 3e 3f 00 c1 bd 69 df 89 bc e8 82 ac bd
       0.12809572 -0.09423875 -0.016830163 -0.08423406
0003c0 09 d8 ae bd df 5b c2 be 82 c5 02 3d ef c0 0b 3c
       -0.08537299 -0.37960717 0.03192664 0.008529886
0003d0 3c 83 d1 bd ef 8f 37 3c 10 41 1e 3d 11 4c 28 be
       -0.10230109 0.01120375 0.038636267 -0.16435267
0003e0 af a3 d0 bd 0d 17 c9 bc d3 ac e5 3d 72 9e d4 3d
       -0.1018747 -0.024547124 0.11214604 0.103817835
0003f0 7e d3 92 3d 92 90 19 be ee 83 c0 3d 4a e1 c7 3a
       0.07169245 -0.14996555 0.094001636 0.0015249636

AFeatRNN.weight_hh_l0 f4 [256, 64]
000000 28 69 ab bd 5b 5f b8 3c 1e b9 08 3d e8 6f ab 3c
       -0.08369666 0.022506407 0.033379667 0.020927384
000010 78 db 4d 3d 37 1a 84 bc 13 38 e4 bd 3a 0e ad 3c
       0.05025813 -0.016125781 -0.11143508 0.021124948
000020 5f 19 ba bd a8 fe ed 3c 9f f9 2b 3d f0 f7 a4 3d
       -0.090868704 0.029052094 0.041986104 0.08055103
000030 bd dd ae 3d 56 bd 04 be 9a 6f 65 3d 93 66 a5 bc
       0.08538387 -0.12962851 0.056014635 -0.020190513
000040 23 1f ee bd 50 43 b9 bd 53 54 b8 3c 30 07 90 bc
       -0.116270326 -0.09046042 0.022501146 -0.017581552
000050 21 40 03 be 8b 60 85 bd eb b6 14 be 45 66 ae 3d
       -0.12817432 -0.06512555 -0.14522903 0.085156
000060 1c 4e 3a bd 95 42 41 3d 8d 87 97 3e 34 92 5e bd
       -0.045484647 0.04718264 0.29595605 -0.05433865
000070 d4 bd 52 3e a8 3d aa bc 7d 65 32 3c a3 5f f5 bd
       0.20580226 -0.020781353 0.0108884545 -0.11981132
000080 9e d5 56 3c a5 64 39 be dc d0 e5 bc c5 37 5a 3c
       0.013112454 -0.18104799 -0.028053693 0.013318961
000090 75 47 8d 3b f4 79 1c be 75 75 d0 3d 30 02 00 bf
       0.004311497 -0.15280896 0.10178653 -0.5000334
0000a0 1d a9 16 3d 69 27 49 3e 5e e9 ab 3d fe 7b 42 be
       0.036782373 0.1964394 0.08394121 -0.18992612
0000b0 b0 d3 1d 3e 49 a4 47 3e 03 5e 99 3b 91 83 ec 3d
       0.15412784 0.19496264 0.0046803965 0.11548532
0000c0 ac 4c 77 3e 36 ef af bd 8a 02 55 3d 0e 83 f8 bd
       0.24150342 -0.08590548 0.052004375 -0.12134372
0000d0 a4 a7 87 3c af 68 04 be a5 6e d9 3c 7c e4 e5 bd
       0.01655943 -0.12930559 0.026542017 -0.112252206
0000e0 9c 00 2f be 65 b3 cd 3d 32 8e da bb 99 e7 83 3d
       -0.17090076 0.100439824 -0.006669783 0.06440658
0000f0 9e 86 35 be 99 9a 7b be 38 0e 91 be 05 37 ba bb
       -0.17727134 -0.24570693 -0.2833116 -0.0056828284
000100 22 7c 16 3e 3e 67 9c 3b 91 59 06 be 79 31 06 3e
       0.1469579 0.0047730496 -0.13120104 0.1310481
000110 ec 9f 91 bd 5e df d1 bd 49 b4 1b 3b 80 da 08 bd
       -0.07110581 -0.10247682 0.0023758581 -0.033411503
000120 1d 06 9f 3d 73 fc a1 3d 56 55 0c be e4 cb e3 bd
       0.07764838 0.07909479 -0.13704428 -0.111228734
000130 75 8e c4 3d 35 1c 8c bc 38 90 f8 3d 66 a3 f0 3d
       0.09597484 -0.017103294 0.121368825 0.11749916
000140 4f ad 40 bd 46 da 16 bd c0 9f fe 3d 72 e0 c8 3d
       -0.04704028 -0.036829256 0.12432814 0.098084345
000150 f5 a1 56 bd f2 59 15 3d 40 f1 86 bd ff 51 1e be
       -0.052400548 0.03646273 -0.065889835 -0.15460967
000160 1e f3 0d 3d 0e bf 05 be 08 ef 08 3e 50 93 11 bd
       0.034655683 -0.13061163 0.13372433 -0.03554088
000170 f7 e5 d3 3c c3 a7 21 bd f2 21 09 3d 19 fc d3 bd
       0.025866492 -0.03946663 0.03347964 -0.10350818
000180 00 25 0d 3c e3 a5 cb bc 03 5c 17 bd cf 44 0d 3e
       0.0086147785 -0.024859374 -0.036952984 0.1379578
000190 6a da f7 3d 4d 22 d5 bb 72 f2 ab 3d 14 46 2b 3d
       0.12102206 -0.006504333 0.08395852 0.04181488
0001a0 16 ad df 3d f9 92 16 bd 72 9f ec 3d 6e 78 58 3e
       0.109216854 -0.036761258 0.11553849 0.2113969
0001b0 4c 24 d2 bc d9 32 b4 bd d0 55 58 3d 5e 4c 10 be
       -0.025652073 -0.08798761 0.052816212 -0.14091632
0001c0 c9 38 12 be 91 7b 8c bd 69 c6 02 3e 61 2b 61 be
       -0.14279474 -0.06859506 0.12771 -0.21989204
0001d0 b3 56 e5 3d 31 e6 3b be e6 48 51 3c aa bf 31 3d
       0.11198177 -0.1834953 0.012773728 0.043395676
0001e0 1a b2 89 bd f6 e8 96 bd 30 bb 8a bd 46 60 99 bd
       -0.06723423 -0.073686525 -0.067739844 -0.07489066
0001f0 19 88 98 3d 54 67 01 bd ba 2e 9a 3d 6a 4a cd bd
       0.074478336 -0.031592682 0.07528444 -0.10023959
000200 25 16 c1 bd c1 f5 07 be 86 07 55 bd cf 11 a6 bc
       -0.09428052 -0.13277341 -0.052009128 -0.020272164
000210 05 fe 1f 3d 21 bb 51 bd 18 b5 46 3c 3f 18 2f 3c
       0.03906061 -0.05120385 0.012128137 0.010686933
000220 a4 c7 b5 bc fb d8 f1 bd 19 eb f0 3d 4f a8 6e 3c
       -0.022189923 -0.11808964 0.11763591 0.014566495
000230 f2 b3 8a bc 8c 97 6a 3c 35 10 08 3c f0 67 b2 bc
       -0.016931508 0.014318358 0.008304645 -0.021778077
000240 35 d7 5e bd 7e ae 0e bd 09 4c d1 bc 19 ba 85 bc
       -0.054404456 -0.034834377 -0.025548952 -0.01632409
000250 95 60 cb 3d 2b e7 0c be f4 89 5c bd a2 ac cc 3b
       0.09930531 -0.13760059 -0.0538425 0.0062461654
000260 63 ba 06 be 9d 0f 6e 3d 34 21 b3 bd 68 a8 a3 bd
       -0.13157038 0.05812036 -0.08746567 -0.07991105
000270 ae da e2 3d 2e 8c ca bd 4a 1b da 3d 77 c9 2c bd
       0.11076866 -0.098900184 0.10649736 -0.04218432
000280 60 bf d8 3d fc 26 2c 3c bd 3d 85 3d 60 a4 e1 3c
       0.10583377 0.0105073415 0.06505916 0.0275442
000290 64 8a 06 3e c5 f9 4b 3e 1a ce d6 bc 6d a2 86 be
       0.1313873 0.19919498 -0.026221324 -0.26295796
0002a0 dc 32 a3 3d a1 b0 04 3e 37 46 c9 bc 75 5c f5 bc
       0.07968685 0.12958004 -0.024569614 -0.029951314
0002b0 70 ea 10 3e 8d 91 92 bd 53 d8 c8 bd 68 80 a8 bd
       0.14151931 -0.07156668 -0.098068856 -0.082276165
0002c0 b6 dd 30 be c0 83 7e bd 90 20 f1 3a 84 b5 34 bd
       -0.17272076 -0.062137365 0.0018396545 -0.04411842
0002d0 ea c2 85 be bc 9d 23 bc d6 b2 d1 3c 4d cd 0b be
       -0.2612527 -0.009986337 0.025597971 -0.13652535
0002e0 71 1c 1a 3e 37 74 19 bd 33 9e d8 bb fb 8b ce 3d
       0.15049912 -0.037464347 -0.0066106557 0.10085293
0002f0 6f 1c 9e bd e2 0a 82 3d ff bf 11 be 37 d5 8d bd
       -0.07720267 0.06349732 -0.14233397 -0.06925433
000300 86 06 c6 3c a6 78 04 3e 70 97 ce 3c 76 30 e4 3d
       0.024173032 0.12936649 0.025218695 0.11142056
000310 77 32 cb bc 40 6f c2 bd da a6 6b bb db 80 c1 3c
       -0.024804337 -0.094938755 -0.0035957606 0.023621013
000320 01 21 2c 3d ad ee 3a 3c c1 34 ac 3b f0 35 0e be
       0.042023662 0.011409444 0.005255312 -0.13887763
000330 1e d6 3e bd 79 93 7a 3d 4e 42 48 3e e9 c5 2a 3d
       -0.046590917 0.061175797 0.19556543 0.041692648
000340 cc 57 8d ba 52 68 4b 3d 31 39 61 3d 44 cf 7e bd
       -0.0010783612 0.049660034 0.054986183 -0.062209383
000350 57 49 d1 3d 85 5a d4 bd 98 7e 10 bd 8d e3 f9 3c
       0.102190666 -0.10368828 -0.03527698 0.030504012
000360 fd 7a 25 bd a5 4b 62 3b 77 f8 21 3c a5 81 05 3d
       -0.040400494 0.003452995 0.009885899 0.03259434
000370 81 c9 24 3d cf 3b a0 bd bc 23 30 3d 8a 20 aa bd
       0.04023123 -0.078239076 0.04300283 -0.083069876
000380 a1 c1 05 be 9e 45 9a bd 19 c7 82 bd 61 d1 fc bc
       -0.13062145 -0.0753281 -0.06385631 -0.030861558
000390 e6 89 de 3c 63 9a 23 bd ce 47 aa 3d e3 ec c5 bd
       0.027165364 -0.039942157 0.08314477 -0.09664323
0003a0 dd 23 5a bc da a3 7e 3e 86 48 9f 3d 1e f5 04 be
       -0.013314215 0.24867192 0.077775046 -0.1298413
0003b0 1f 2a 85 bd f8 a1 3f 3e e4 c6 c9 3d 25 71 e7 bb
       -0.065021746 0.1871413 0.098523885 -0.0070630484
0003c0 56 80 68 3b 31 d3 ee 3c b5 9d 39 3d 2c d1 71 3d
       0.0035476885 0.029153438 0.045316417 0.059037372
0003d0 36 3b 63 bd e6 6e 90 bd 48 53 dc 3d 88 e7 bf 3d
       -0.05547639 -0.07052402 0.10758072 0.09370333
0003e0 85 cf 47 3d fc f4 6e be 28 5d aa 3c fc 57 22 3d
       0.04878189 -0.23335642 0.020796373 0.03963469
0003f0 fd a1 e7 3d 46 9b 00 3c eb de 33 bd 37 91 a5 bd
       0.11310194 0.00784952 -0.043913763 -0.08084338

AFeatRNN.bias_ih_l0 f4 [256]
000000 09 09 06 3e fa 4f 5e 3d bf 3f c4 bd 5f e5 88 bd
       0.13089384 0.05427549 -0.09582471 -0.06684374
000010 60 35 bc 3d 15 a7 54 bd 59 7a d4 3c b6 d2 ca 3a
       0.09189868 -0.051917154 0.025937246 0.0015474174
000020 c4 e4 97 3d e9 10 a2 3d 40 5d 6d 3d 86 93 86 3d
       0.074166805 0.079133816 0.05795026 0.065711066
000030 ee f5 83 bd c8 5f b5 bc a1 8b 7e b9 7b 23 63 3d
       -0.06443392 -0.022140399 -0.00024275343 0.05545376
000040 0f 00 8a 3d 42 15 45 bd 3f 9e ee 3c bf 16 39 3d
       0.067382924 -0.048115976 0.029128192 0.045187708
000050 9d 1a 07 3d 48 71 a1 3d 04 b9 49 bb 00 52 ef 3c
       0.032984365 0.07882935 -0.0030780444 0.029213905
000060 ac 61 92 bd f0 99 89 3d b6 5b 6f 3b 59 5d a4 bc
       -0.07147536 0.067188144 0.003652317 -0.020064043
000070 d1 10 9c 3c 4f 4f 8d 3d a3 58 54 3d ee 43 04 3e
       0.019050987 0.068998925 0.051842343 0.12916538
000080 22 45 f4 3c 6d 72 cb bc d7 99 08 3e 92 f0 f9 bd
       0.029818121 -0.024834836 0.13339935 -0.12204088
000090 9e f9 91 3d 43 28 68 3d 96 f8 b5 bd 8c 7d a3 bd
       0.07127689 0.05667902 -0.08885305 -0.079829305
0000a0 26 7b a7 bd 09 25 27 3d d0 98 67 bd 2e d0 c0 3d
       -0.081777856 0.040806804 -0.056542218 0.09414707
0000b0 e0 67 34 3d 6e 79 b8 bd 18 e5 11 bd 83 37 00 3e
       0.044044375 -0.09007536 -0.03561887 0.12521176
0000c0 97 81 85 3d 92 58 0e be 77 31 b4 3d d5 d5 c7 bd
       0.06518858 -0.13900974 0.08798497 -0.09757582
0000d0 8f 29 07 ba 8b af db 3d 38 68 bd bd 76 66 16 3c
       -0.0005156034 0.107268415 -0.09248394 0.009179702
0000e0 4f e7 9d 3d 0e b4 8a 3d 8a ca a2 3d 11 99 cc 3d
       0.07710134 0.06772624 0.079487875 0.099901326
0000f0 f6 06 5f bd b9 d4 9a 3d 6e 4a c0 bd 3a c1 ca bd
       -0.054449998 0.07560105 -0.09389196 -0.09900136
000100 a9 3e 1c 3c 10 b3 79 3d 8c 21 06 3e 54 84 4f bd
       0.009536424 0.060961783 0.13098735 -0.050663307
000110 99 ba 38 3d 01 0e 10 3d 04 17 12 3d 61 2d fb bd
       0.04509983 0.035169605 0.03566648 -0.12264515
000120 40 eb ab 3d 1e a6 b3 3d 52 93 64 bd 7f f7 00 3d
       0.0839448 0.08771919 -0.055804558 0.03148603
000130 64 b1 73 3d 66 b6 df 3c b9 76 4f bd de c1 5d 3d
       0.059495345 0.027308654 -0.050650332 0.054139964
000140 02 3f 20 bd 03 aa 28 bd 19 1e 95 bd 7a c0 b0 3d
       -0.03912259 -0.04117776 -0.07281131 0.08630462
000150 37 fe 50 3d aa 91 96 bb 46 96 58 bd 61 e4 63 bd
       0.05102369 -0.004595001 -0.052877687 -0.05563772
000160 39 ed 92 3d 16 2d 53 bc 3b 1a 9c bc 44 a4 aa bc
       0.07174153 -0.012889167 -0.019055476 -0.020830281
000170 94 7f 0e be be 22 de bd e9 fb df 3d 27 8c c5 3c
       -0.13915855 -0.1084647 0.1093672 0.024114681
000180 5f 38 8b 3d 80 ec ef 3d 4a 32 1a be 2e b8 01 3c
       0.06797861 0.11715031 -0.15058246 0.007917447
000190 75 8d 04 3e 98 76 61 bd 6c 73 79 3d 8c a4 d3 bd
       0.12944587 -0.05504474 0.06090109 -0.10334119
0001a0 35 4c 14 bd c2 a1 83 bd 7c 14 5a 3c 65 7e 86 bd
       -0.03620549 -0.06427337 0.013310548 -0.065670766
0001b0 c0 b6 0d bd 11 ac 38 bd 06 16 12 3e bf a3 81 bd
       -0.034598112 -0.04508597 0.14266214 -0.0633006
0001c0 5a 34 0e 3d 49 bb e6 3c 7a 67 f8 bd f7 54 0a bd
       0.034717895 0.028165476 -0.121291116 -0.033772435
0001d0 03 5a f5 bd 15 2b 84 bd 1e d5 12 be 67 34 c1 3d
       -0.11980059 -0.0645353 -0.1433911 0.09433823
0001e0 90 d7 d0 3b 92 40 d0 bd 0d a4 5c 3d 66 65 bb 3d
       0.0063733533 -0.10168566 0.05386739 0.091501996
0001f0 15 b3 07 bd b8 30 7e bc 34 ce df bd 6c 6b 75 bc
       -0.03312977 -0.015514545 -0.10928002 -0.014979225
000200 44 b7 9f bd ad f0 af 3d 6d f9 03 3d c2 b3 e8 bd
       -0.07798627 0.08590827 0.032220293 -0.11362411
000210 fc 3c 90 3d 94 0e 06 bd 85 36 23 bc 3d 74 03 3e
       0.07042882 -0.032728747 -0.009961729 0.1283731
000220 1e a9 83 bd 05 c4 c3 bc e8 df 04 3d f4 b9 8f 3d
       -0.06428741 -0.02389718 0.032440096 0.070178896
000230 6d db dc 3d bc 80 7c 3d 1e e6 1e bd 2b 20 37 bd
       0.1078404 0.06164621 -0.038793676 -0.044708412
000240 25 37 55 bd de 99 43 bd 78 dd f5 bd 11 fa e2 3d
       -0.052054543 -0.04775416 -0.120051324 0.11082853
000250 87 5d 7d bd 1e 0a a6 3d 62 1b d8 3d e0 52 81 bc
       -0.061856773 0.081073985 0.10552098 -0.015786588
000260 a6 4e 09 3d 16 1a 09 be 0b e2 1e bd 53 45 ed bc
       0.03352227 -0.13388857 -0.03878979 -0.02896372
000270 bd 50 d1 bd d7 08 19 3b 23 00 f4 bb 5b 5c b2 bd
       -0.10220478 0.0023351216 -0.0074463054 -0.08709022
000280 40 85 8c 3d 5f 98 5e bd 7f ec 7f bc 45 94 e0 3c
       0.06861353 -0.05434453 -0.01562035 0.02741445
000290 d2 8f 05 bd b2 f5 65 3d 9d 5a b0 3d 80 91 99 bb
       -0.03260786 0.056142516 0.08611033 -0.0046865344
0002a0 42 6d 65 bd 33 92 e2 bd a4 71 98 3c 0f b6 31 3d
       -0.0560124 -0.110630415 0.018608876 0.043386515
0002b0 1a 8e f1 3c b6 df d0 bd bf 74 b6 bd 54 50 ec 3d
       0.029486705 -0.101989195 -0.08908986 0.11538759
0002c0 9d 44 64 3d ae 94 a0 3d ba 27 2a 3d 7d 35 87 3d
       0.055729497 0.078408584 0.041541792 0.06601999
0002d0 0d f9 b8 bd 27 95 ac 3c df 49 8a 3d 28 17 c9 bd
       -0.09031878 0.021067215 0.06752371 -0.0981887
0002e0 e2 cd a6 3d 7b 52 d7 bd 4f fd d2 3d 3f 92 65 bb
       0.08144738 -0.10513779 0.10302221 -0.0035029796
0002f0 40 db 84 bc 25 f3 e0 3d d6 a9 01 be 2b fb c4 bc
       -0.016217828 0.10983876 -0.12662444 -0.024045547
000300 02 26 09 3e 02 48 ab bc a1 b4 1a 3c bd 79 53 bc
       0.13393405 -0.02090836 0.009442479 -0.012907443
000310 15 cc 00 3e 97 ea f8 3c d1 57 16 3d 75 5d 48 bc
       0.12577851 0.030385299 0.036704842 -0.012229313
000320 2b 20 91 3d f7 bc 8d bd 23 fb ff 3c f4 d7 0c bd
       0.07086214 -0.06920808 0.031247681 -0.034385636
000330 e8 8a 4d 3d fc 05 8f 3c 02 e2 8d bc c2 4e 6d bd
       0.0501813 0.017458908 -0.017319683 -0.057936437
000340 97 5c a0 3d 5c 1d 76 3d 54 90 b9 bd d2 83 93 3c
       0.0783016 0.060086593 -0.090607315 0.018007193
000350 7a 55 32 bc f4 ad 4a 3d b8 e3 14 3e 77 5a f9 bd
       -0.010884637 0.0494823 0.14539993 -0.12175458
000360 ce d0 1a 3d 71 20 02 be 83 c5 bc bd 49 8e 24 bb
       0.037796788 -0.12707688 -0.0921736 -0.0025109223
000370 a2 5e 10 bb fa 90 9a bd 43 dd a2 bd c5 35 0d 3d
       -0.0022029062 -0.07547183 -0.079523586 0.034475107
000380 52 d4 28 3d b6 c8 1c bd 34 59 95 bd 20 c1 71 bd
       0.04121811 -0.03827735 -0.07292405 -0.05902207
000390 10 72 ab bd fd 42 5d 3c 2b 3a be 3d 49 1f 4e 3d
       -0.08371365 0.013504741 0.092884384 0.050322805
0003a0 13 ae 0c 3e 77 37 1b 3e cd ba b4 3d ff 45 e6 3d
       0.13738279 0.15157877 0.08824692 0.112438194
0003b0 9c 5a a6 bd 7e 3a f5 3d d1 8c c8 bd 27 b3 d6 3d
       -0.08122751 0.11974047 -0.097924836 0.10483389
0003c0 69 9e f0 bc 32 01 81 bd 6c 79 0f 3d 25 56 99 3d
       -0.02937241 -0.06299056 0.035027906 0.07487134
0003d0 99 c6 87 bb 7e e1 af bc 4c ea 4c bd ca e9 73 bd
       -0.0041435477 -0.021469828 -0.05002813 -0.05954913
0003e0 c5 18 12 be 28 de f6 3d d0 87 3e bc c0 ed dd 3d
       -0.14267261 0.12054092 -0.01162906 0.10836363
0003f0 df 2b 1e 3d 78 5f fb bd e1 49 30 bd bf 6e 9b bd
       0.038616057 -0.122740686 -0.043039206 -0.075894825

AFeatRNN.bias_hh_l0 f4 [256]
000000 f9 9f 8e 3d 31 bc 79 3d 34 d2 5b 3d 8f ef e9 3d
       0.06964106 0.06097049 0.053667262 0.11422645
000010 4b 25 4a 3e 32 f7 ba 3d d9 05 0a 3e 8f cc c1 3d
       0.19740789 0.0912918 0.13478793 0.094628446
000020 e0 ac 4a bc a1 3d e3 bd 8b 34 15 3e ad e7 40 3c
       -0.012370318 -0.11095739 0.14570825 0.011773986
000030 72 12 54 bd d2 05 fa bd 17 e0 2a 3d d2 41 bd 3c
       -0.051775403 -0.122081414 0.041717615 0.023102675
000040 c9 33 d7 3c d2 b0 25 be db 46 f9 3d f0 ba 08 3e
       0.02626981 -0.16180733 0.12171718 0.13352561
000050 3a 1f 76 bc b0 66 b3 bd 02 35 79 3d f1 84 bd 3d
       -0.015022093 -0.087598205 0.060841568 0.09253872
000060 6b 53 69 bd 51 f8 ae 3d cb 54 0e bb c8 65 07 3e
       -0.05696432 0.08543456 -0.002171802 0.1322242
000070 28 99 f2 bd 3f a8 90 bd b4 bd c6 3a 04 f2 5f 3d
       -0.118456185 -0.070633404 0.0015162737 0.054674163
000080 3b 1e 97 3d 1f f9 17 bc bc 71 05 bd fe 33 f7 bd
       0.07378813 -0.009275704 -0.03257917 -0.120704636
000090 a8 e0 60 bd 5a 29 85 3d 98 67 69 3b 8c 78 12 3e
       -0.05490175 0.06502028 0.0035614725 0.14303797
0000a0 84 ee ae 3d 15 36 ac bc f5 50 be 3c 6a 5d 15 be
       0.08541587 -0.021021882 0.023231963 -0.14586416
0000b0 fd 2e 19 3c ce 2c 86 bd 62 ef 1a 3d f8 e7 8c 3d
       0.009349582 -0.065515146 0.03782595 0.06880182
0000c0 65 15 a0 3d 71 81 4b bc 7e c4 28 bd 13 c6 bd bd
       0.07816581 -0.012420998 -0.041203015 -0.09266295
0000d0 e8 e1 98 3c 39 80 c6 bd 36 f3 1c bd 50 ea 96 3d
       0.018662408 -0.09692425 -0.03831788 0.0736891
0000e0 eb 03 73 bd ee 0c 5a 3c 56 5b 98 3d 37 b2 7f 3c
       -0.05932991 0.013308747 0.07439296 0.015606455
0000f0 79 61 05 bd ca fb 8b ba e9 b9 fe 3c fa 98 be bd
       -0.03256366 -0.0010679897 0.031094508 -0.09306522
000100 46 e1 36 bd 30 5e c6 bc 97 6a 41 bd 3c d6 8f 3d
       -0.04464843 -0.024214834 -0.047220793 0.07023284
000110 aa 62 90 3c 0a 83 c9 3c 36 80 9e 3d d4 06 4b 3d
       0.017625172 0.024598617 0.07739298 0.04956706
000120 a6 90 18 3e 21 8d 98 3d 98 27 d5 bd 76 61 af bd
       0.14898929 0.07448793 -0.104079425 -0.08563511
000130 1f 19 ca bd fb 1e d5 3d 4e 9d 5f 3d f8 6e b5 bd
       -0.09868073 0.104063 0.054593377 -0.08859056
000140 26 87 a9 3d d3 d2 c4 bd 23 69 70 bd 8c d9 83 bd
       0.08277731 -0.09610524 -0.058694016 -0.06437978
000150 c7 30 b4 3c 03 3e 5b bd 72 17 d3 bd b8 1a 88 bc
       0.021995915 -0.053525936 -0.10307206 -0.016614303
000160 22 a4 1e bd 9f fe 9c 3a a9 af 80 bd 95 21 70 bd
       -0.038730748 0.0011977738 -0.062835045 -0.058625776
000170 da 02 2a bd 8a c2 86 3d 12 d7 a1 3c ec 39 a9 bd
       -0.041506626 0.06580074 0.019755874 -0.08263001
000180 88 f8 5a 3c 30 5b 81 3d d7 b6 0b 3d f9 b8 36 be
       0.0133649185 0.06316221 0.034109917 -0.17843999
000190 26 0c 17 3e 79 48 46 3d 1c 7f 9c 3d d8 c8 02 be
       0.14750728 0.04840896 0.07641432 -0.12771928
0001a0 5e 95 91 bd 4d 1f 5d bd bd bf 29 bc 56 23 8f 3d
       -0.07108568 -0.05398493 -0.010360655 0.06989162
0001b0 e3 cb 3b bd 38 44 14 3c 92 fa 0f 3d df aa ae 3c
       -0.04584874 0.009049468 0.03515107 0.021321712
0001c0 2e 30 71 bd 36 bd 33 bd 25 02 8e 3d ef 4f 4b bb
       -0.05888384 -0.043881617 0.06934003 -0.0031022986
0001d0 ef 91 e2 3d d2 4c 2c bd 85 7a 30 3d 3d 1c 58 bd
       0.11062991 -0.04206545 0.043085594 -0.052761305
0001e0 67 81 66 3d 4f cf 58 bd 9b 62 5a 3a 29 0d 02 3d
       0.05627575 -0.05293208 0.00083307334 0.03175083
0001f0 43 8a 9c 3d 25 b0 87 3d c2 21 56 3d fe a2 e1 bb
       0.07643559 0.06625394 0.052278288 -0.0068858853
000200 c6 2c b5 3d 39 51 b4 3d 07 03 ee 3c 4d 49 44 bd
       0.088464305 0.088045545 0.029054178 -0.047921468
000210 50 37 9f 3d 7e b8 71 3d b4 0c 75 bc 3b 25 8c bd
       0.07774222 0.059013836 -0.014956642 -0.06843039
000220 bf 08 30 3d 9f a5 a0 3c fe 6a f1 3d 94 e5 e5 3c
       0.04297709 0.019610224 0.11787985 0.028063573
000230 cf 74 d5 3d d8 a5 da bd 25 22 af bd 20 c8 08 3d
       0.1042267 -0.106761634 -0.085514344 0.03339398
000240 cd 46 e2 bc 0f a1 21 3c 04 2c a4 3d f9 fb ad 3d
       -0.027621651 0.0098650595 0.08016208 0.084953256
000250 9f 01 b4 bc 38 f9 95 bd 30 05 0e 3c 11 60 3f bd
       -0.02197343 -0.07322925 0.008668229 -0.046722475
000260 15 12 ad 3d 3f e7 07 be 89 55 b9 3c b2 09 64 3d
       0.084507145 -0.13271807 0.022623794 0.05567331
000270 01 af fb bd 40 bc 67 3d 68 12 f8 3d 31 23 97 bd
       -0.12289239 0.056576014 0.12112886 -0.07379759
000280 fc 97 7f 3d cc e7 86 bc 25 e0 ee 3d a8 bd b1 3d
       0.062400803 -0.016467951 0.11663846 0.08678752
000290 57 30 d8 3d 20 e3 e2 bb 31 c1 85 bb 54 63 8f 3c
       0.10556095 -0.006924048 -0.004081868 0.017503418
0002a0 f6 e9 e5 bd 55 b5 d2 3d 0b c9 a2 bc 07 94 7e bc
       -0.11226265 0.102884926 -0.019871255 -0.015538222
0002b0 08 a9 e3 bd dc 48 8f bd 60 73 28 3b ac d1 be bd
       -0.111162245 -0.06996319 0.0025703534 -0.093173355
0002c0 d5 48 08 3d bf cc 96 3d 08 b9 c4 3d 2f 6e 4a 3d
       0.033272583 0.07363271 0.096056044 0.049421486
0002d0 84 9a 22 bd 2b 26 7d bd 12 7c 41 bd 24 4e e4 3d
       -0.03969814 -0.061803978 -0.047237463 0.11147717
0002e0 d5 65 c1 3b 7d c3 43 3d a3 89 b9 3d 90 9f 64 bc
       0.005902032 0.047793854 0.09059455 -0.013954058
0002f0 3d 58 20 bd 07 d9 82 bd 3b ba d8 3d 6f 06 b2 3d
       -0.03914665 -0.06389051 0.10582396 0.08692633
000300 fd 2c 87 3d 2f 8e c9 bd bf 54 d2 3c 64 ab 0c 3e
       0.06600378 -0.098415725 0.025675176 0.13737255
000310 0e 33 80 3c 1b ec 6c 3d 3c 9a b2 bd a2 3c 6d bd
       0.015649345 0.057842355 -0.08720824 -0.057919152
000320 b4 6c 2f bd 91 b3 12 3b bb db 44 3b ca 5e a3 3d
       -0.042828277 0.0022384862 0.0030038196 0.07977064
000330 0d 6c 87 bd 45 0a ff 3c 32 10 07 bc b5 03 b4 3d
       -0.06612406 0.031132827 -0.008243607 0.087897696
000340 a0 f9 be bd 68 d5 91 bd 54 5a a7 3d 37 4c ab bd
       -0.09324956 -0.07120782 0.081715256 -0.08364146
000350 4b 39 06 bc 5a a5 05 3e 6f ef 55 bb d7 ac 57 bd
       -0.008192371 0.13051358 -0.0032643934 -0.052655067
000360 2f 9f b1 bd fe e9 b3 bd 3f 31 cd bd 53 11 9b bd
       -0.0867294 -0.08784865 -0.100191586 -0.07571664
000370 e5 51 c8 bd e0 d5 de 3d 3f 7d d0 3d 75 c2 20 3d
       -0.09781245 0.10880637 0.10180139 0.03924795
000380 58 11 98 bd f6 28 85 bd 08 b2 08 3c 34 08 7d bd
       -0.07425183 -0.06501953 0.008343227 -0.0617754
000390 ee 17 78 bd 7b a1 0b bd a3 ce b1 3d 79 29 3c bd
       -0.060569696 -0.034089547 0.08681991 -0.04593799
0003a0 c5 4c 3e bd eb 1e 36 bd 23 45 bd 3d 85 f4 86 bd
       -0.046459932 -0.04446308 0.092417024 -0.06589607
0003b0 9a b5 10 3e dd a7 30 3d 0e 4f ae bd dd 65 a4 3d
       0.14131775 0.043128837 -0.08511172 0.080272414
0003c0 92 28 aa bd 8d c9 85 bd d7 2b 77 39 9b 47 ee bc
       -0.083085194 -0.065325834 0.00023572087 -0.029086879
0003d0 d7 ed a7 bd 04 25 77 3b df 38 26 3c 12 9e ec 3d
       -0.08199661 0.0037711272 0.010145395 0.11553587
0003e0 5d d4 10 bd e3 71 36 bc fa 4c 9c bc f3 d4 b5 3d
       -0.035358775 -0.011135551 -0.019079674 0.088785075
0003f0 5e b2 03 be 6b 36 68 bd 41 ea 84 bc 12 5d 03 be
       -0.1286101 -0.056692522 -0.016224982 -0.12828472

AFeatRNN.weight_ih_l1 f4 [256, 64]
000000 d7 2a 24 be dc 67 8a 3d 06 9a a7 bd b5 2e 32 3e
       -0.16031967 0.06758091 -0.081836745 0.1740063
000010 ca d2 d5 bd ab c9 c3 bc 5f 5c 73 be b2 31 33 3d
       -0.104405954 -0.023899874 -0.23765706 0.043748565
000020 21 30 79 be 25 8b 0d bd 46 0b 3f 3e 13 87 81 3c
       -0.24334766 -0.034556527 0.18656644 0.015811479
000030 64 be 12 3e ac 82 8b bd 1f 68 84 3c 7f fb f9 bc
       0.14330441 -0.06812033 0.01616293 -0.03051543
000040 97 69 29 3e 0d ea b6 3d b4 fe c5 bc 46 49 2f 3e
       0.16544186 0.089313604 -0.024169303 0.17117795
000050 12 0a 94 3b 21 3e b7 3d fd 16 a1 bc cd f1 81 3e
       0.004517802 0.08947397 -0.019664282 0.25379792
000060 5b 24 17 3a c2 19 a0 bd 7b 4a 93 3c 71 d7 25 be
       0.000576561 -0.07817413 0.017979851 -0.16195466
000070 67 26 19 3b 3b 04 61 3d ee 6b 44 3d 14 fd b6 3d
       0.0023368837 0.054935675 0.047954492 0.089349896
000080 41 40 22 3d eb 41 61 be 8b 68 fd 3d f7 1d 75 3e
       0.03961206 -0.21997802 0.123734556 0.23937212
000090 40 06 7d be 6d c0 0e be c9 18 24 bd c1 d1 d5 bc
       -0.24709415 -0.13940592 -0.0400627 -0.026100995
0000a0 3c 38 81 be 2e ca 98 bd 5f 22 26 3d 6e 22 bc bc
       -0.25238216 -0.07460438 0.040560123 -0.022965636
0000b0 93 c6 98 3e 87 b9 cd 3c ff 25 24 3d dc 99 88 3e
       0.29839 0.02511288 0.0400753 0.26679885
0000c0 9b e6 c6 3d 85 02 3f 3e e4 89 f0 bd 23 04 98 3d
       0.09711953 0.18653305 -0.117450505 0.07422664
0000d0 50 bc 48 3e 55 a4 01 be 72 be 8f 3b b1 92 f3 bd
       0.19603086 -0.12660344 0.0043867165 -0.118932135
0000e0 8b af 00 3d af b1 bd 3d 90 5d 1d 3e 6d b9 65 bd
       0.03141741 0.09262406 0.15367723 -0.05608504
0000f0 fc a6 12 be 7a 6f 79 bd 19 c9 e2 bd d6 ad 92 bd
       -0.14321512 -0.060897328 -0.110735126 -0.07162063
000100 d1 91 21 be 60 93 02 3e 92 fd d3 3d 49 18 97 3d
       -0.15778281 0.12751532 0.10351099 0.07377679
000110 f0 54 cc 3d 8d f7 0d 3e 91 e4 0b be bd ce 98 bc
       0.09977138 0.13863964 -0.1366141 -0.018653268
000120 16 61 84 bd c0 d2 c2 bd e4 f5 a0 bd 57 04 ed 3d
       -0.0646383 -0.095128536 -0.078594 0.115730934
000130 47 c5 98 bc 9e 7e fd 3b 24 84 2f be 59 02 d0 3d
       -0.018648757 0.007736041 -0.17140251 0.10156698
000140 96 08 1a be 6f eb 4d 3d 31 23 39 be 64 e3 77 3e
       -0.15042338 0.050273355 -0.1807983 0.24207836
000150 7b 06 63 bd d1 d0 b3 bc 42 4c 2c 3c 5a 78 a7 3d
       -0.055426102 -0.021950157 0.010516228 0.08177252
000160 dc 5d 06 be 49 d4 13 be fa c4 9e 3d 8e 3b df bd
       -0.13121742 -0.14436449 0.07752414 -0.10900031
000170 74 79 12 bc 49 6e f4 bc 10 71 d2 bd 80 1c 1d be
       -0.0089400895 -0.029837744 -0.10275471 -0.15342903
000180 45 4a 28 be 67 ee f7 bd 46 c7 56 3d da e1 cf 3d
       -0.16434582 -0.121060185 0.052436136 0.101505
000190 80 ae bd bc 50 ca 82 be 97 df ab bd 82 fe 9c bb
       -0.023154497 -0.25544977 -0.08392256 -0.004791082
0001a0 f4 b9 8a bd b3 31 c7 3d ca 34 e1 bd 34 b3 e2 bc
       -0.06773749 0.09726276 -0.10996397 -0.027673341
0001b0 8c c6 df 3d 66 f1 de 3c de 82 86 3d 91 68 01 3e
       0.10926542 0.027214717 0.0656793 0.12637545
0001c0 48 f7 1e 3e f9 9a a2 3c b0 6c ec bd 8f b2 9c bd
       0.15524018 0.019849287 -0.11544168 -0.07651245
0001d0 aa 54 e7 3d 6b be cc 3c 14 63 c7 bb 0d 1a 9b bd
       0.11295445 0.024993142 -0.006084809 -0.07573328
0001e0 a8 41 e4 3d 0d c2 12 3e eb 4b c7 3d 66 08 18 bc
       0.111453354 0.14331837 0.09731277 -0.009279346
0001f0 bf 5f a6 bc d5 cb 0a bc c6 f4 54 bd b5 e1 0c be
       -0.020309327 -0.008471449 -0.051991247 -0.13757975
000200 9e 8a 66 be df f7 82 3c be 4f 00 be 76 9b cd bd
       -0.22513816 0.015987335 -0.12530419 -0.100394174
000210 37 33 6f bd 7b a7 0e 3e 08 65 06 be 67 5a 24 bd
       -0.05839845 0.13931076 -0.13124478 -0.040125277
000220 61 4c de 3c 9b 92 3b 3d 34 6c 13 3e a4 de ec bc
       0.02713603 0.04579411 0.14396745 -0.028914757
000230 63 f8 04 3e c8 35 0d be 90 1b 6b 3c 05 fd f7 bc
       0.12985377 -0.13790047 0.014349833 -0.030272016
000240 28 8c 97 bc 92 66 d5 bd b9 0e 9d 3d 96 25 5c 3e
       -0.018499449 -0.10419954 0.07668824 0.21498713
000250 2b 50 b1 bc 2e 8a 7c 3c 7a 3f a2 bd c9 b1 0c 3e
       -0.021644672 0.015413804 -0.079222634 0.13739695
000260 52 e3 ed bd c2 38 88 bc e7 0a 73 bc b9 04 b2 bc
       -0.116156235 -0.016628627 -0.014834142 -0.021730768
000270 4b c6 11 3d ec 78 87 bd d4 d5 ed 3d 95 a6 b5 3d
       0.035589498 -0.06614861 0.1161305 0.088696636
000280 45 e8 db bd 39 fd 35 be 7d 69 94 3d dc 96 cf 3d
       -0.10737661 -0.17772378 0.07246683 0.10136196
000290 b9 92 80 3d 72 33 94 bd ee a3 6e bd d7 8b e7 bc
       0.06277985 -0.07236375 -0.058261804 -0.028264923
0002a0 dd d7 9f 3c 0c 9d ca bd 50 93 91 3c d4 d7 4d 3d
       0.019512111 -0.098932356 0.01777044 0.050254658
0002b0 1f 93 0a 3e 4e 11 37 3e 8f 06 4d 3d 86 0f 00 3e
       0.13532685 0.17877695 0.050055083 0.12505922
0002c0 b6 b6 8f 3d 66 be 0c 3e a8 28 1f 3d e6 b2 30 3d
       0.07017271 0.13744506 0.038857132 0.04313936
0002d0 68 1a 5c 3d 4c 4d 81 bd 0a aa f5 3c e6 0d 87 3d
       0.05373612 -0.06313571 0.029988308 0.06594448
0002e0 7b 2c 0a 3e fd fa e5 bd 81 c7 98 3d 40 ca a0 bc
       0.1349353 -0.11229513 0.07459927 -0.01962769
0002f0 1e 29 12 3d 57 0b f3 bc 72 b9 14 3d 66 c1 a4 3d
       0.035683744 -0.029668493 0.036309667 0.080447
000300 8d e9 9a be d7 14 04 be 05 24 c8 3d 4e 52 cc bd
       -0.3025631 -0.12898575 0.09772495 -0.09976636
000310 a9 c8 84 3e 7c a7 2f 3e c8 dc f1 3b 78 8c d7 bd
       0.25934342 0.17153734 0.0073810555 -0.10524839
000320 3b f3 b2 bd 3b 1f 15 bd fc 66 5d bd a4 3a 54 3c
       -0.08737799 -0.036406737 -0.05405329 0.012953434
000330 79 59 ab 3d 9a ce c8 3d b5 df a6 bd e6 4c 4e 3d
       0.08366675 0.09805031 -0.081481375 0.050366305
000340 a1 69 41 be 1a 1c 24 be 6b c5 24 be 21 d5 3a 3e
       -0.1888795 -0.16026345 -0.16090934 0.18245365
000350 2b 59 5a bd 22 45 d8 bd cc 75 e3 3d 90 45 5a 3e
       -0.053307693 -0.10560061 0.11106452 0.21315598
000360 58 fc 49 bd 3e 29 6b be bb 19 b1 3e 3b bf ea 3d
       -0.04931292 -0.22964951 0.34589943 0.114622556
000370 aa 61 80 3e 78 3a d2 3d 68 25 3a bd c9 f4 8b 3d
       0.25074512 0.10265058 -0.04544583 0.068337984
000380 9b a9 e8 3c a0 de 3e bd 60 61 0f be 34 f0 9a bc
       0.028401187 -0.04659903 -0.1400199 -0.018913366
000390 95 fc 71 3d e4 29 bc bd fe 59 08 be 41 6b a1 be
       0.05907877 -0.091876775 -0.1331558 -0.3152714
0003a0 09 8b 01 3c 62 b1 07 3e 66 ff 05 b8 8c 59 be 3d
       0.007906684 0.1325126 -3.194753e-05 0.092944235
0003b0 2e 5f 4a 3e d9 8e 06 3f 0e 0d ae bc d0 c7 dc bd
       0.1976287 0.5256172 -0.02124646 -0.10780299
0003c0 40 d9 33 bb 16 19 90 bd 12 9d 67 3e 13 cd 9f 3d
       -0.0027442724 -0.07036035 0.22618511 0.07802787
0003d0 cc ea 0b bd db aa d2 bd c9 07 eb bc 1a 3c f4 bd
       -0.034159467 -0.10286494 -0.028690236 -0.11925526
0003e0 54 3d 41 3e 02 76 c9 bc 6a f6 d3 3c a8 26 48 be
       0.18871051 -0.024592403 0.025874335 -0.19545996
0003f0 e2 07 3e bd 86 50 51 bc 20 a9 02 be d4 99 52 3d
       -0.046394236 -0.012775546 -0.12759829 0.051416233

AFeatRNN.weight_hh_l1 f4 [256, 64]
000000 4d b7 51 3c ea 08 55 3d 95 f8 6f bc 76 5e 04 3d
       0.01280005 0.052010454 -0.014646669 0.032316647
000010 e2 1b 23 be f0 47 db bd a3 4c ec 3d 4c 7c 8f bd
       -0.15928605 -0.1070708 0.11538055 -0.070061296
000020 11 6a 24 be 26 5b eb 3d 0d ac 16 3e fd 94 d2 3d
       -0.16056086 0.114919946 0.1471407 0.102823235
000030 34 f7 e3 3d 4c 8a 1f bd 5d 78 5a bd 4e 27 f2 3d
       0.11131135 -0.03895025 -0.053337444 0.11823903
000040 a5 ba db 3d 18 50 2a 3e 9b 22 48 3d fa c5 08 be
       0.10728959 0.16632116 0.048861127 -0.13356772
000050 e4 41 3b 3e 8b 88 9e 3b a8 8e 9f bd 42 bc 60 3d
       0.18286854 0.0048380545 -0.077908814 0.054867037
000060 26 22 ea bd 02 bb e4 3c 33 da 83 3c 36 59 20 bd
       -0.114322945 0.027921204 0.016095256 -0.03914758
000070 9d b1 fd bd 50 fc 52 3e 26 cd 00 be 3b cd fe 3a
       -0.12387393 0.20604062 -0.12578258 0.0019439826
000080 f4 24 95 3d 8b ea 39 bd b1 de 0a be 6b 1b ef 3c
       0.07282439 -0.045389693 -0.13561513 0.029187879
000090 6e f3 c6 3d 42 bc 77 3d bc 7b f4 3d 41 5a 91 3d
       0.09714399 0.06048227 0.11937663 0.07097293
0000a0 06 2d 28 3a 35 8b 37 bd 92 01 10 3d 3d 89 8e 3d
       0.00064154004 -0.044810493 0.035157748 0.0695977
0000b0 a2 f5 44 bd 8d 88 22 bb c7 a5 a7 bd b4 79 b8 3c
       -0.048085816 -0.002480063 -0.081859164 0.02251897
0000c0 ef 9b 96 bd 7f 12 5e 3d f0 0a 2f bd 3f e3 3c 3e
       -0.07353961 0.054216858 -0.04273504 0.18446063
0000d0 d1 35 94 bd 69 a9 f0 bc 4e a2 d1 3d fa 0e 05 3d
       -0.07236827 -0.029377656 0.10236035 0.032484986
0000e0 6a 2a 2b 3d 4a 7c 82 bc 41 7b 2d bd dd 13 2b be
       0.041788496 -0.015928406 -0.042353872 -0.16706796
0000f0 f2 78 80 bd 08 bc 9b 3d d8 9e 00 be 8e 1d 23 be
       -0.062730685 0.076042235 -0.12560594 -0.15929243
000100 dd 61 96 3d 45 32 ed 3c b2 c5 fa bc 67 18 2f 3e
       0.07342885 0.028954634 -0.030611847 0.17099153
000110 0a 64 f3 bd 6e ce fc bc eb db a9 3d 55 4c 79 bd
       -0.11884315 -0.030860152 0.08293899 -0.06086381
000120 ed c5 25 3d c4 88 fc 3c d9 01 ed bd ce 42 90 3d
       0.04047196 0.030826934 -0.11572618 0.07043992
000130 85 f2 06 3e c2 5d a5 3d 2a 6f e6 3d 7c 91 15 be
       0.13178451 0.080745235 0.112516716 -0.14606279
000140 61 56 e3 bd c5 dd c2 3d 79 2a a4 3c 0e c2 6d 3d
       -0.1110046 0.095149554 0.020039784 0.058046393
000150 22 0c 65 bd 15 e2 5d bc f8 44 b2 bc 79 a1 b0 bd
       -0.055919774 -0.013542672 -0.021761402 -0.086245485
000160 1b a4 01 be 86 9a 0f 3d 34 9a f1 bd 9b 06 fe 3d
       -0.12660258 0.035059474 -0.1179699 0.12403604
000170 44 37 c0 bd 6e a4 63 3d 63 16 e3 3d f1 86 04 be
       -0.09385541 0.055576734 0.11088254 -0.12942101
000180 e5 f5 e7 bb 0d 83 99 bd 7a 3f 7f bd 03 66 6d 3d
       -0.0070788735 -0.07495699 -0.062316395 0.057958614
000190 b2 36 f6 bd 76 bb 79 3d f6 c3 04 3d 1a e9 36 3e
       -0.12022151 0.060969792 0.032413445 0.17862359
0001a0 ca 41 bf 3d 5e 3f 0f be d5 ae 7f 3d 98 cc 46 3e
       0.0933872 -0.13989016 0.062422592 0.19413984
0001b0 40 6c b0 bd 2b 38 51 3d 2a 64 1c bd 77 db 35 3d
       -0.08614397 0.051078957 -0.03818146 0.04439875
0001c0 71 27 ea 3d cc ce 0b bd 23 7e ee 3c 15 e6 9b bd
       0.11433304 -0.034132764 0.029112881 -0.07612244
0001d0 54 dc fa bd a5 f6 bf 3d b7 69 b1 3d e4 8a 0d bd
       -0.122490555 0.093732156 0.08662742 -0.034556285
0001e0 21 df 3e bd 7b 96 00 be 63 47 c0 bd c2 bd ab 3c
       -0.04659951 -0.12557404 -0.09388616 0.020964507
0001f0 6b 22 9f bc 07 79 1d 3d 2c a5 ad bd 27 2b ac 3d
       -0.019425591 0.0384455 -0.0847877 0.08406668
000200 1a db 6b bd cf 54 ba bb 91 88 01 3d 41 01 34 bc
       -0.057582 -0.0056863795 0.03162438 -0.010986627
000210 26 d1 21 3d e7 7a 22 bd ac e8 7a 3d be 6d 92 3d
       0.0395061 -0.03966799 0.06125705 0.07149838
000220 32 b9 14 bd 38 a5 c1 3d 79 d8 c7 3d 31 04 b7 3d
       -0.03630943 0.09455341 0.09758086 0.08936346
000230 3a 08 f3 3d a2 23 64 3d 69 e6 d5 3d 2b 61 8e 3d
       0.118668035 0.055698045 0.10444338 0.06952127
000240 65 77 81 bd ef b4 bd bd 5c 4c 1e 3d f3 ae 74 3c
       -0.06321601 -0.09263026 0.03864704 0.014934289
000250 ac 03 d2 bb f3 d3 05 3e e9 69 48 bd 57 8a 69 bd
       -0.006409129 0.13069133 -0.04892913 -0.057016697
000260 f1 55 08 bd 44 85 cb 3b 05 3b 95 bd cd 26 f5 3d
       -0.033285085 0.006210955 -0.07286648 0.11970291
000270 e6 83 f3 bd c3 6e 42 3c 83 a1 ce bd b8 49 06 be
       -0.11890392 0.011867228 -0.100894 -0.13114059
000280 f1 65 04 bc d3 8e 7e 3d 36 32 9b bd ae 0d 99 3d
       -0.008080945 0.062147927 -0.07577936 0.07473312
000290 da 58 6e bd ab fa 45 bd e5 3d 57 bb d2 96 82 bd
       -0.058190204 -0.04833476 -0.0032843288 -0.06376423
0002a0 68 f0 a4 bd a9 a3 88 bd 33 9f eb 3a f7 f2 f1 3d
       -0.08053666 -0.06671841 0.0017976522 0.1181392
0002b0 29 0a 9c 3d b2 67 a3 3b 22 30 7f bd d3 15 7b bd
       0.076191254 0.0049867267 -0.062301762 -0.06130011
0002c0 03 09 31 3d e6 64 04 3e ce 7e ae bd 22 dd 55 3d
       0.043221485 0.12929115 -0.0852028 0.05221284
0002d0 b6 8b d9 bd df 68 96 bd 6b c9 e6 3d db f1 03 bd
       -0.10622351 -0.07344221 0.11268886 -0.032213073
0002e0 ff da 74 3d de 58 86 bc e3 06 1f bc c5 d0 e5 3d
       0.059779163 -0.016399797 -0.009706232 0.1122146
0002f0 f7 e5 0f be 4f 1d 8d bd 96 ed 3a 3a b0 3e fe 3d
       -0.14052568 -0.06890356 0.000713074 0.124143004
000300 50 58 18 be 3d 44 cf 3d b8 50 90 ba da b5 a2 bc
       -0.14877439 0.10120437 -0.0011010384 -0.019862104
000310 fb 2c dd bd b2 d1 6a bc 25 de ea bd f7 2e 3b 3e
       -0.10799595 -0.014332222 -0.11468152 0.18279634
000320 ad 79 b9 3d 2f ba ed bc c0 76 f2 3c e2 e0 69 bd
       0.09056411 -0.029019443 0.02959764 -0.05709923
000330 96 b1 c3 3d 7c 43 b5 3d f1 42 d4 bc bd 99 f8 bd
       0.09555356 0.08850762 -0.025910826 -0.12138698
000340 c1 15 81 bc 07 62 a5 3d 67 ca a3 3d 76 21 bf ba
       -0.015757443 0.08075338 0.079975896 -0.0014582116
000350 c4 6f af bc 30 bc 45 3d d5 4f 0d be 37 a5 91 3d
       -0.021415599 0.048275173 -0.13799985 0.0711159
000360 f0 e8 90 3d 91 46 bb 3d db 3a bf bd 7e c0 04 be
       0.07075679 0.09144319 -0.09337398 -0.12964055
000370 aa c0 a6 bd 17 aa d4 3d ea 3c 10 3d 09 36 13 be
       -0.081422165 0.103840046 0.035214342 -0.14376082
000380 fe 6f ec 3c fe 72 1b be 67 a6 95 3d c5 b3 ea bc
       0.028861996 -0.15180585 0.07307129 -0.028650174
000390 71 c3 1a be d1 00 51 bd 84 8d 79 3d 62 57 22 bd
       -0.15113617 -0.05102617 0.060925975 -0.039634116
0003a0 cc 18 85 3c 59 77 af bd 7e 24 ec 3d 09 1c d1 3d
       0.016247176 -0.08567686 0.11530398 0.102104254
0003b0 a6 e7 6c bc 39 6a c6 bd 45 29 08 be 03 65 31 bc
       -0.014459526 -0.09688229 -0.13296993 -0.010827306
0003c0 c3 97 33 3d 52 d5 b9 3d 37 09 94 bc 93 10 95 3c
       0.043845903 0.09073891 -0.0180708 0.01819638
0003d0 24 f6 8b bd 26 49 67 bd c2 03 c5 bc 4d 35 11 3a
       -0.06834057 -0.056466244 -0.024049643 0.00055392535
0003e0 d2 cf 21 be de 9e ab bd 0f bd 7e bd 4b ed e6 3d
       -0.15801933 -0.08379911 -0.06219202 0.11275729
0003f0 23 22 d3 3c 97 4f cb 3c 1b db 9b bb 55 49 97 3d
       0.025773114 0.024818225 -0.004756344 0.07387034

AFeatRNN.bias_ih_l1 f4 [256]
000000 25 8a 45 3e 61 da b5 3d 65 59 16 3e ab 40 4e 3d
       0.19290979 0.08879543 0.14682539 0.05035464
000010 a1 d8 b4 bd 04 5c fe bc 79 1c 51 3e 07 1e 10 3c
       -0.08830381 -0.031049736 0.20421018 0.008796222
000020 69 32 15 3e d8 d3 f1 3d 99 9e b0 ba 5e f7 a0 3d
       0.14570011 0.11807984 -0.0013475 0.078596815
000030 e0 ca 1f 3e 24 34 e9 bb c9 f6 ce bd 2f 86 a5 3c
       0.15604734 -0.0071168113 -0.10105664 0.020205585
000040 15 95 32 3d a9 94 a8 3d 5f e1 30 3d 5a 5c b9 3b
       0.043599207 0.0823148 0.04318368 0.005656761
000050 a7 79 36 3d 36 a7 26 3e f8 a6 82 3e cb a2 08 3e
       0.04454961 0.16274723 0.25518012 0.1334335
000060 d6 b2 bc bd 27 ee 09 3d 53 fb 89 3d 90 cf d6 3b
       -0.09213798 0.033674385 0.067373894 0.006555505
000070 a9 2a 36 3e 7c 56 08 3c 50 77 55 3e cc 83 2e 3d
       0.17789711 0.008321401 0.20846295 0.04260616
000080 72 ab 74 bd ea 01 0d be 37 48 95 bc 45 db c0 bd
       -0.059733815 -0.13770261 -0.018222911 -0.09416822
000090 4d 3b 4b bc 5b 76 0c bd ad 7c 4f 3d 1a e8 9b 3d
       -0.012404275 -0.03429256 0.05065601 0.07612629
0000a0 c9 5a db bc 0c 1a 9a 3d d5 76 07 3e ca fb 8b bd
       -0.026776688 0.07524499 0.13228925 -0.06835134
0000b0 69 dc 82 3d b8 40 aa 3d 66 05 2d 3d b5 43 db 3c
       0.06389696 0.08313125 0.042241476 0.026765684
0000c0 56 56 db bd e9 f9 4f bd f4 46 96 3d 34 ba 92 3d
       -0.10709827 -0.050775442 0.07337752 0.07164422
0000d0 b5 9e 1b 3e 10 fb 97 bc 20 c7 d6 bd d3 af 32 3e
       0.1519726 -0.018552333 -0.10487199 0.17449884
0000e0 d8 15 a3 3d 5b 67 c6 3d a1 89 d3 3c 2f f8 05 bc
       0.07963151 0.09687682 0.025822463 -0.008176847
0000f0 22 18 36 3e 17 5f de 3d 21 bb 67 3d b0 c7 72 3d
       0.17782643 0.10857981 0.056574944 0.059272468
000100 b0 30 a2 3d 81 a4 d8 bd 3f 9c 2b 3d 27 a1 bd 3c
       0.07919443 -0.10578252 0.041897055 0.023148132
000110 a6 fa 17 be 33 fc 00 bc ed 6d 8e bb 8c d4 9a bd
       -0.14841709 -0.007872629 -0.0043466003 -0.07560071
000120 c5 99 b3 3d f8 be 68 bd e8 4a f4 bb 77 a5 cb bc
       0.087695636 -0.056822747 -0.0074552186 -0.024859173
000130 f3 5c f1 3c 3e 2f 05 3e 77 89 66 3d 36 33 7e 3c
       0.029463267 0.13006303 0.05628344 0.015515139
000140 e5 ed 4f bd d7 5b 12 be 66 0e bc bd b6 5d 2c bc
       -0.050763983 -0.14292847 -0.09182434 -0.010520389
000150 a3 67 f5 bc 7b a1 ba bd 98 51 c1 3e d9 bd 1d 3c
       -0.029956644 -0.09112831 0.37757564 0.009627783
000160 42 08 87 bd 29 13 e4 3c 97 c0 c5 3c 6d 7c 52 be
       -0.06593372 0.027841168 0.024139686 -0.20555277
000170 30 38 21 bd 02 11 14 bd 5a 37 4f 3c 23 de 77 3d
       -0.039360225 -0.036149032 0.012647474 0.06051458
000180 d6 15 23 be d6 c8 d1 bd e1 25 8d bd f9 15 f7 3b
       -0.15926298 -0.102433845 -0.068919905 0.007540461
000190 fc 2a 05 be 89 36 be bd 77 fe e5 bd 1a e5 38 bb
       -0.13004678 -0.092877455 -0.11230176 -0.0028212727
0001a0 3b 3c a2 3c c5 a3 80 3a ee ef 25 3e cc b5 d9 3c
       0.01980411 0.0009814432 0.16204807 0.026575945
0001b0 cd a7 09 be e0 b4 97 bc af df a3 bd 9c df 10 3a
       -0.13442917 -0.018518865 -0.08001649 0.00055264845
0001c0 87 d3 4e bb 30 61 f3 bd 81 4c 00 be be 3a 78 3d
       -0.0031559186 -0.118837714 -0.12529184 0.060602896
0001d0 00 40 16 3e 2b 93 e7 3b 1e 1a 6e 3d 47 bf d2 bd
       0.14672852 0.0070671043 0.058130376 -0.102903895
0001e0 07 e0 54 3d 82 56 26 3d 53 9c eb bd 8e 05 05 bd
       0.05197146 0.040609844 -0.11504426 -0.032476
0001f0 79 c7 9d bd c5 8f 2a 3d 7e 77 31 3d e1 d2 0b be
       -0.07704062 0.041641016 0.043326847 -0.13654663
000200 4f 87 06 be 0e e4 b7 3d 6c 48 1a 3e bb 20 ff bc
       -0.13137554 0.08979045 0.15066689 -0.031143537
000210 a8 1b ea bd 63 6e 91 bd 60 eb 90 3d 0d cb 11 3d
       -0.11431056 -0.07101133 0.07076144 0.035594035
000220 3b c2 c9 bd e2 c9 57 3d 66 82 34 3d 29 3b d1 3d
       -0.098515 0.052682765 0.04406967 0.10216362
000230 f8 f6 82 3d 2b 48 a7 3c bf 0a 45 bb ce aa 7c bc
       0.06394762 0.020420155 -0.003006622 -0.015421582
000240 79 37 5b 3d e5 03 30 3e d8 6b 11 bd c8 99 0e be
       0.0535197 0.17188986 -0.03550324 -0.1392585
000250 77 ac f2 3c 9f 3a 86 bd 06 6f 7f be 34 56 d7 3d
       0.029623253 -0.0655415 -0.24944696 0.10514489
000260 06 d6 3c bd c7 2b 93 3c 7f e1 05 bd bb b8 cc bc
       -0.046102546 0.01796521 -0.032685753 -0.02499043
000270 d7 23 a2 3c d5 75 dc bc 8c 82 32 be 99 20 a0 3d
       0.01979248 -0.026911655 -0.17432612 0.078187175
000280 c3 c4 4f 3d 11 a1 1d be aa cb 4d 3d 0c 36 9e bd
       0.050724756 -0.15393473 0.050243057 -0.077251524
000290 ed 43 be 3d 98 d8 03 3c 3a 36 4e 3d d1 69 fc 3b
       0.092902996 0.008047245 0.050344683 0.007703044
0002a0 f7 94 12 bd 58 55 d1 bd 93 63 08 bd fb 71 23 3d
       -0.035786595 -0.10221356 -0.033298086 0.039903622
0002b0 fe 1e ac bc 49 60 56 bd 4e 34 d5 bb 13 4b 2d 3d
       -0.021010872 -0.05233792 -0.0065064793 0.042307924
0002c0 c3 a9 80 3d a9 ff e8 3d c9 f1 13 3e 72 0c 21 3e
       0.062823795 0.11376888 0.14447702 0.15727404
0002d0 e0 9c eb 3a ea e1 c7 bc 33 bc 8a bd 3f d9 a9 3c
       0.001797583 -0.024399716 -0.067741774 0.020733474
0002e0 f4 69 86 bd 88 d7 c4 3d 80 ee 03 bd 16 c4 2d bd
       -0.06563178 0.09611422 -0.032209873 -0.04242333
0002f0 be b6 9a 3d 1d 2a da 3d 06 af 14 be bb a1 cf bd
       0.075543866 0.10652564 -0.14519891 -0.101382695
000300 b7 dd 08 3e 51 fa 36 bb 71 f7 6c bc 9e ff 28 3e
       0.13365828 -0.0027920196 -0.0144632915 0.1650376
000310 71 ee 00 3c 5c d4 13 bd 62 ca 0e bd 0c 47 78 bd
       0.007869349 -0.036091194 -0.034860976 -0.06061463
000320 05 f6 90 3c 71 b1 f7 3d 66 8e fa 3d ea 4f 93 3d
       0.017695436 0.12094391 0.122341916 0.07192977
000330 53 ab b2 3d 92 a4 b8 3d 27 59 f8 3d 80 35 a5 bd
       0.08724084 0.09015764 0.121263795 -0.08066845
000340 d8 25 74 bd c6 5d 5d 3c da 63 38 3b bb 2d 93 bc
       -0.059606403 0.013511127 0.0028135688 -0.017966142
000350 09 e7 87 bd 78 df 39 3d b4 da 8c 3d 6e c0 98 3d
       -0.06635863 0.045379132 0.06877652 0.07458578
000360 19 7d 1a bd d3 a6 f3 3c 84 09 05 3e d1 c2 f0 bd
       -0.03771696 0.029742634 0.12991911 -0.11755908
000370 19 99 fd 3d a4 68 b9 bc fe e4 90 bd 0b 5e ad 3c
       0.12382717 -0.022632904 -0.07074927 0.021163007
000380 d0 f6 d1 3d 5a b9 9e 3c e6 4b 9d bc bf 62 32 3d
       0.10252154 0.019375492 -0.01920123 0.043551203
000390 8b 9f bd bd 91 bc 03 3e 47 4f 7f bd 44 e9 2a 3e
       -0.09258946 0.12864901 -0.062331464 0.16690546
0003a0 d8 46 35 bd ab 1a a6 3d 9a cc 33 bd e2 77 fc bd
       -0.044257015 0.08110555 -0.043896295 -0.12327553
0003b0 70 c6 d4 3b 07 a3 38 bc 37 81 97 bd 55 3f ef bc
       0.006493382 -0.0112693375 -0.07397693 -0.029205004
0003c0 a7 b2 81 bd 89 5b 96 bb b5 d8 78 3d d9 4b 9f bd
       -0.06332903 -0.0045885486 0.060753543 -0.07778139
0003d0 28 6e 68 3d 1d c9 1b bd 20 50 c4 3c 97 c0 83 bd
       0.05674568 -0.038033593 0.023963988 -0.06433218
0003e0 a5 fb 75 3c 35 0c 31 3d df 40 cf bc a1 7a b9 3d
       0.01501361 0.043224532 -0.025299488 0.09056593
0003f0 6a 3c 31 bd 70 4a 8c 3d 2c 10 e0 bc fe 7f a4 bd
       -0.043270506 0.06850135 -0.027351461 -0.08032225
