STD/checkpoints/LSTM2linear3/VA_METRIC_state_epoch60.pth (torch, 585522 bytes, 24 tensors)

AFeatRNN.weight_ih_l0 f4 [256, 128]
-0.0020503886 0.066040106 -0.027559768 0.031657662 -0.05110598 -0.031306617 0.050431166 -0.124506
-0.06365798 0.14807375 0.02685962 0.018867044 -0.12793878 0.1943743 -0.01579761 0.18657415
-0.028151998 -0.042590138 -0.04173267 -0.08045659 -0.08783866 -0.023435256 -0.06873812 -0.059148557
0.03623144 0.06576529 -0.08446435 0.15004157 0.062522925 -0.14695963 0.16420816 -0.0061936313
0.05526192 -0.10807576 0.14624758 -0.032672726 -0.08507865 -0.004990905 0.025050081 0.051529564
0.07942464 0.06398668 -0.29383633 0.0034847963 0.18972465 -0.06267435 0.039542854 -0.022265743
0.096367076 0.03521842 0.012524959 0.19354214 -0.055635486 0.062229168 0.1781849 -0.006814598
0.0027628874 -0.06449323 -0.05370749 0.15589403 0.05617216 0.1185079 0.13410938 -0.002053893
0.009613694 0.014450021 -0.123126514 0.10678703 0.0685711 -0.02057248 -0.09694627 0.061531182
-0.037828367 0.01012373 0.020997623 -0.03843179 0.21337627 -0.014256148 0.030862218 -0.021082858
-0.20996301 0.09935263 -0.052418232 0.21389337 -0.10739346 -0.11300633 0.04205329 -0.009255691
0.0049548834 0.15412545 0.02295087 0.06990047 0.08593843 0.026632266 0.16558635 0.121108465
0.008965539 0.14960648 0.030948265 0.06384781 0.021770751 0.13717367 -0.027839622 0.21523103
-0.12243013 -0.10619675 0.17228091 -0.121261306 -0.045821354 0.1052447 -0.12160397 0.04166117
-0.18729064 0.13174395 0.07176981 -0.09702093 -0.04835861 0.026041796 0.015704589 0.027043166
0.12542525 -0.07977174 -0.10766246 0.020093597 -0.025734903 -0.08326329 0.263832 0.024034759
0.073056966 -0.0423635 0.016696941 0.08124533 -0.16143359 -0.13846815 -0.072035514 0.01766294
-0.06590742 -0.010088503 -0.22100037 0.10190729 -0.015407914 -0.17796913 -0.10483367 -0.23040335
-0.026067417 -0.02784616 0.10538683 -0.21328978 0.26454082 -0.026184617 -0.042283975 -0.23597923
0.10522529 -0.06930442 0.0786759 0.1363318 0.0507659 -0.07817702 -0.01684371 -0.13280508
-0.20938572 -0.042340618 -0.017211543 0.06950326 -0.08806518 0.10486562 -0.032148644 0.04013446
0.019661473 0.004563534 -0.010488383 -0.099676736 -0.045514114 0.037432373 -0.26006782 -0.17195138
-0.046865515 -0.09467229 -0.024655659 -0.23520792 0.13242123 0.08445992 -0.1789544 -0.09491036
-0.023567332 -0.16393948 -0.04745903 -0.055716358 -0.10368131 -0.070658885 -0.09991658 -0.018451063
-0.055741113 0.08769084 0.0049635996 -0.060837466 -0.044848796 -0.10080346 0.016178263 -0.042049553
0.06864274 -0.022057906 -0.0018511235 -0.01863857 -0.11229683 -0.06676659 -0.103380375 -0.06530876
0.0781705 0.10768444 0.036563914 0.102177545 -0.10751784 0.07294489 0.2229262 -0.09437644
0.034972586 0.060318287 0.020819103 -0.06456827 0.015152999 -0.038584836 -0.10451297 -0.17440355
0.08583828 0.090684555 -0.0874151 0.12298302 -0.20342244 -0.053118683 0.12534563 -0.16725387
-0.069025986 -0.08318839 0.09680352 0.05931768 0.11922691 -0.09491147 -0.014162015 -0.072120145
-0.06515113 -0.30465537 0.026680753 -0.015671592 -0.083290964 0.017470084 -0.018124292 -0.14338212
-0.10276321 -0.03544813 0.12099754 0.095386736 0.07120078 -0.15303029 0.13223389 0.0068186237
00000000: d05f 06bb 0940 873d 06c5 e1bc 77ab 013d
00000010: 8154 51bd 5e3b 00bd e990 4e3d 00fd febd
00000020: 1d5f 82bd a5a0 173e b508 dc3c 0f8f 9a3c
00000030: 6202 03be 0e0a 473e fd69 81bc 4b0d 3f3e
00000040: 059f e6bc ff72 2ebd e0ef 2abd 6dc6 a4bd
00000050: c1e4 b3bd 4bfb bfbc 92c6 8cbd c245 72bd
00000060: 6b67 143d f4af 863d a5fb acbd 7fa4 193e
00000070: 050c 803d 967c 16be 2f26 283e f2f3 cabb
00000080: 535a 623d d356 ddbd edc1 153e d6d3 05bd
00000090: b73d aebd bf8a a3bb d435 cd3c aa10 533d
000000a0: 63a9 a23d 730b 833d b771 96be 2e61 643b
000000b0: 2e47 423e 695b 80bd b0f7 213d a666 b6bc
000000c0: 1a5c c53d 3141 103d 7c35 4d3c e92f 463e
000000d0: 09e2 63bd 03e4 7e3d 1a76 363e fe4c dfbb
000000e0: 8f11 353b 0715 84bd 63fc 5bbd afa2 1f3e
000000f0: c714 663d 45b4 f23d f853 093e 9b9a 06bb
00000100: c182 1d3c c8bf 6c3c c129 fcbd 29b3 da3d
00000110: 016f 8c3d 9e87 a8bc c48b c6bd 1f08 7c3d
00000120: ebf1 1abd 00de 253c 3503 ac3c a76a 1dbd
00000130: 4f7f 5a3e 9e92 69bc c3d2 fc3c f5b5 acbc
00000140: 8b00 57be 6479 cb3d 80b4 56bd dd06 5b3e
00000150: 1af1 dbbd dd6f e7bd 1240 2c3d 2fa5 17bc
00000160: 935c a23b 10d3 1d3e 7703 bc3c fa27 8f3d
00000170: 7d00 b03d e92b da3c 788f 293e b707 f83d
00000180: 32e4 123c 7132 193e 3787 fd3c a4c2 823d
00000190: 9358 b23c 4177 0c3e eb0f e4bc 8665 5c3e
000001a0: a6bc fabd af7d d9bd 686a 303e d957 f8bd
000001b0: 2caf 3bbd 898a d73d 810b f9bd e7a4 2a3d
000001c0: 1ec9 3fbe e3e7 063e 0dfc 923d e9b2 c6bd
000001d0: ae13 46bd 9b55 d53c e9a6 803c a189 dd3c
000001e0: 7a6f 003e 5e5f a3bd 237e dcbd 549b a43c
000001f0: 01d2 d2bc f285 aabd fd14 873e 8be4 c43c
00000200: e49e 953d 5985 2dbd 06c8 883c f463 a63d
00000210: d94e 25be 98ca 0dbe 5b87 93bd dfb1 903c
00000220: 78fa 86bd 404a 25bc ec4d 62be c5b4 d03d
00000230: 7a71 7cbc 8a3d 36be 09b3 d6bd dbee 6bbe
00000240: 568b d5bc a11d e4bc 0dd5 d73d a368 5abe
00000250: e571 873e 1f81 d6bc f631 2dbd 8aa4 71be
00000260: 5b80 d73d 7aef 8dbd d520 a13d 909a 0b3e
00000270: e8ef 4f3d 461b a0bd d2fb 89bc 0efe 07be
00000280: 3669 56be 5b6d 2dbd 39ff 8cbc ba57 8e3d
00000290: 845b b4bd c9c3 d63d 4cae 03bd 0864 243d
000002a0: 1911 a13c b389 953b 77d7 2bbc 5123 ccbd
000002b0: 026d 3abd b052 193d 9c27 85be 0614 30be
000002c0: 0ef6 3fbd 8ce3 c1bd aafa c9bc 58da 70be
000002d0: 6e99 073e 53f9 ac3d d23f 37be 5d60 c2bd
000002e0: 4710 c1bc c0df 27be 6664 42bd d636 64bd
000002f0: de56 d4bd 9bb5 90bd 10a1 ccbd af26 97bc
00000300: cb50 64bd 4197 b33d b1a5 a23b b530 79bd
00000310: 5fb3 37bd 0b72 cebd 4788 843c 273c 2cbd
00000320: 9194 8c3d c8b2 b4bc 66a1 f2ba eaaf 98bc
00000330: e1fb e5bd ecbc 88bd 17b9 d3bd 99c0 85bd
00000340: db17 a03d a989 dc3d 0bc4 153d 7642 d13d
00000350: 5032 dcbd 2164 953d c446 643e 6f48 c1bd
00000360: 6a3f 0f3d 4f10 773d d38c aa3c 5f3c 84bd
00000370: 4944 783c 220b 1ebd e50a d6bd d896 32be
00000380: fbcb af3d d3b8 b93d b006 b3bd 86de fb3d
00000390: f94d 50be fa92 59bd 9b5a 003e 9944 2bbe
000003a0: 7f5d 8dbd ad5e aabd ed40 c63d 18f7 723d
000003b0: 3d2d f43d f260 c2bd cc07 68bc bab3 93bd
000003c0: f56d 85bd cafb 9bbe 9891 da3c b661 80bc
000003d0: 7494 aabd 6c1d 8f3c 6579 94bc c3d2 12be
000003e0: 8575 d2bd 0f32 11bd 8fcd f73d 1f5a c33d
000003f0: b7d1 913d f9b3 1cbe 5268 073e c36e df3b

AFeatRNN.weight_hh_l0 f4 [256, 64]
-0.08046334 0.02595227 0.0072717015 -0.0020534708 0.026340395 -0.033624403 -0.116087876 0.03882164
-0.123685874 0.0088363625 0.04499423 0.08602825 0.11254802 -0.17013477 0.08901622 -0.066430174
-0.09745867 -0.06943343 -0.011310345 -0.013402238 -0.12572338 -0.01581878 -0.15856546 0.10478527
-0.056217253 0.04644002 0.24397972 -0.059738208 0.18803746 -0.032773484 0.052261047 -0.14414707
-0.0038314345 -0.17796616 -0.029557165 0.08920164 -0.041399103 -0.12832482 0.08455174 -0.41354015
0.0033835936 0.161824 0.12062509 -0.13879359 0.14618567 0.12576577 0.016029783 0.08633886
0.21724299 -0.07626047 0.0359415 -0.105173156 0.05078956 -0.08167796 0.05419968 -0.11488234
-0.15752134 0.07195288 0.0006554153 0.058690064 -0.18247947 -0.20778827 -0.21603596 -0.010441041
0.14614649 0.003583074 -0.1305578 0.13707632 -0.06073141 -0.0992404 -0.0012002734 -0.028729877
0.076708496 0.07409993 -0.13437389 -0.11677006 0.07882982 -0.032215133 0.10962077 0.102299914
-0.060589325 -0.033470087 0.12489894 0.076541044 -0.052035145 0.015779817 -0.056203052 -0.14774701
0.038744982 -0.1358511 0.12513712 -0.072289735 0.01656795 -0.039459832 0.029756842 -0.06962048
0.01004437 -0.031318672 -0.055208344 0.12290179 0.13008808 -0.006688963 0.08461516 0.058544364
0.10555825 -0.033506017 0.08517164 0.20580117 -0.019898683 -0.10276032 0.051222257 -0.14885989
-0.15203087 -0.07162916 0.130758 -0.18683814 0.09985831 -0.18874723 0.017470066 0.061379254
-0.052884363 -0.107408844 -0.059715375 -0.078160934 0.069450006 -0.020644069 0.0746198 -0.10629106
-0.098358214 -0.12730578 -0.06404941 -0.023804467 0.03178875 -0.046687838 0.01962888 0.03478862
-0.015250633 -0.11243571 0.11239969 0.04245066 -0.022902358 0.023214662 -0.02862558 -0.019793445
-0.034740232 -0.041143216 -0.031978738 -0.011647541 0.09953329 -0.12325365 -0.043580916 0.0008279395
-0.098958366 0.064651735 -0.07879789 -0.041495405 0.09460723 -0.080814354 0.115227364 -0.05198506
0.1059705 0.014801917 0.042760592 0.030006014 0.124328814 0.19070709 -0.02126725 -0.24370226
0.084915 0.110657826 -0.028570376 -0.061205998 0.14634803 -0.048070073 -0.07712206 -0.08166826
-0.14412875 -0.06172123 -0.018330446 -0.04403817 -0.28319636 0.0143227205 0.015389415 -0.117677696
0.10552859 -0.029351337 -0.0076434463 0.06309749 -0.07479251 0.06772102 -0.14882968 -0.06882331
0.024373738 0.18259571 0.029217348 0.1101427 -0.030158425 -0.08768608 6.665962e-05 0.032364868
0.04477498 0.017308269 -0.008560179 -0.13309109 -0.051612444 0.07214463 0.14976382 0.043230332
0.029917061 0.05845167 0.04518015 -0.052743543 0.10428604 -0.110689506 -0.05684339 0.024247942
-0.051194314 0.017748764 -0.0068951286 0.026051538 -0.007921626 -0.07095571 0.028755562 -0.10660819
-0.12195164 -0.05471713 -0.06771105 -0.05655709 0.03984293 -0.027585693 0.07980137 -0.08945546
-0.013365031 0.22067562 0.1041815 -0.11384004 -0.058323354 0.18656687 0.08638691 -0.010579066
0.034431536 0.02611928 0.016066419 0.04332437 -0.026277384 -0.051338498 0.114176095 0.085634954
0.032426953 -0.19041905 0.015625888 -0.0013957527 0.115183145 0.0061382414 -0.029525688 -0.08294729
00000000: f7c9 a4bd db99 d43c 7447 ee3b 8693 06bb
00000010: d0c7 d73c beb9 09bd 7bbf edbd 7103 1f3d
00000020: 054f fdbd 64c6 103c df4b 383d 942f b03d
00000030: 947f e63d cf37 2ebe 234e b63d 8b0c 88bd
00000040: 6998 c7bd 1d33 8ebd 064f 39bc 0f95 5bbc
00000050: a1bd 00be 6396 81bc fc5e 22be a999 d63d
00000060: 1044 66bd e437 3e3d d2d5 793e 0db0 74bd
00000070: e48c 403e 7d3d 06bd ae0f 563d 4a9b 13be
00000080: ce18 7bbb c33c 36be de21 f2bc 59af b63d
00000090: 1b92 29bd 9567 03be 7629 ad3d 89bb d3be
000000a0: 48bf 5d3b 31b5 253e 4a0a f73d e81f 0ebe
000000b0: b2b1 153e bec8 003e e450 833c 6ed2 b03d
000000c0: f274 5e3e 732e 9cbd 6537 133d 0665 d7bd
000000d0: b708 503d c646 a7bd 7c00 5e3d 6f47 ebbd
000000e0: 464d 21be 085c 933d 2dd0 2b3a fe64 703d
000000f0: e6db 3abe 73c6 54be 8838 5dbe e610 2bbc
00000100: 6da7 153e 02d2 6a3b f2b0 05be bc5d 0c3e
00000110: 80c1 78bd 8d3e cbbd 7e52 9dba eb5a ebbc
00000120: 5819 9d3d b4c1 973d 4f99 09be 2425 efbd
00000130: 8771 a13d 04f4 03bd db80 e03d 9e82 d13d
00000140: 832c 78bd ee17 09bd 04cb ff3d 8dc1 9c3d
00000150: ce22 55bd ad44 813c 2c35 66bd fe4a 17be
00000160: 0fb3 1e3d 8d1c 0bbe f223 003e a40c 94bd
00000170: 82b9 873c a2a0 21bd 9fc4 f33c 2f95 8ebd
00000180: 2491 243c 0248 00bd 2522 62bd efb3 fb3d
00000190: cf35 053e 172f dbbb b74a ad3d 37cc 6f3d
000001a0: ec2e d83d 9b3d 09bd 786e ae3d 8bbd 523e
000001b0: 9002 a3bc 0174 d2bd 6ece 513d ba6e 18be
000001c0: fbad 1bbe 4fb2 92bd 6de5 053e 7f52 3fbe
000001d0: 8382 cc3d f446 41be 621d 8f3c d068 7b3d
000001e0: 469d 58bd 2bf9 dbbd 1c98 74bd d712 a0bd
000001f0: ce3b 8e3d c01d a9bc 44d2 983d 21af d9bd
00000200: 0870 c9bd 725c 02be 562c 83bd 9601 c3bc
00000210: ec34 023d bf3b 3fbd bfcc a03c 837e 0e3d
00000220: cadd 79bc b244 e6bd cf31 e63d bee0 2d3d
00000230: ba9d bbbc ad2c be3c 3180 eabc dd25 a2bc
00000240: c64b 0ebd ca85 28bd 23fc 02bd 54d5 3ebc
00000250: 1cd8 cb3d 696c fcbd e781 32bd 140a 593a
00000260: afaa cabd 2168 843d ca60 a1bd 16f7 29bd
00000270: 6fc1 c13d ff81 a5bd 53fc eb3d 49ee 54bd
00000280: 1007 d93d bd83 723c bb25 2f3d 2ccf f53c
00000290: 1ba0 fe3d b848 433e a838 aebc 168d 79be
000002a0: eae7 ad3d 92a0 e23d 6c0c eabc 24b3 7abd
000002b0: 42dc 153e 20e5 44bd 2cf2 9dbd b041 a7bd
000002c0: 7d96 13be 67cf 7cbd bb29 96bc 5e61 34bd
000002d0: 1dff 90be d8a9 6a3c e323 7c3c 0101 f1bd
000002e0: 601f d83d 3772 f0bc e075 fabb 4239 813d
000002f0: d12c 99bd 51b1 8a3d cf66 18be 3cf3 8cbd
00000300: 6fab c73c 5ffa 3a3e 3859 ef3c 7f92 e13d
00000310: cd0e f7bc c294 b3bd 9ccb 8b38 0691 043d
00000320: f865 373d 12ca 8d3c fe3f 0cbc 0849 08be
00000330: 9267 53bd 90c0 933d b05b 193e 4a12 313d
00000340: a014 f53c 056b 6f3d d20e 393d 9d09 58bd
00000350: eb93 d53d 2eb1 e2bd 9dd4 68bd 9fa3 c63c
00000360: 21b1 51bd db65 913c 88f0 e1bb 096a d53c
00000370: b5c9 01bc 3a51 91bd c990 eb3c 6555 dabd
00000380: c8c1 f9bd 121f 60bd 17ac 8abd 68a8 67bd
00000390: 5732 233d 64fb e1bc e76e a33d 6d34 b7bd
000003a0: 01f9 5abc caf8 613e 1c5d d53d f824 e9bd
000003b0: 78e4 6ebd 630b 3f3e 9feb b03d d253 2dbc
000003c0: 1508 0d3d 1af8 d53c b99d 833c e574 313d
000003d0: ab43 d7bc 5148 52bd 28d5 e93d 6161 af3d
000003e0: 20d2 043d 36fd 42be dd01 803c b0f1 b6ba
000003f0: 24e5 eb3d 4d23 c93b dbdf f1bc 45e0 a9bd

AFeatRNN.bias_ih_l0 f4 [256]
0.14192115 0.059632193 -0.09407333 -0.07411411 0.07413993 -0.047295067 0.033862233 0.0011476736
0.07913014 0.07995292 0.056330085 0.05294932 -0.061518375 -0.012035114 0.00048989104 0.0584626
0.063380696 -0.042495646 0.03498553 0.033155996 0.03714623 0.09482778 0.0026371526 0.031461567
-0.06865692 0.07208799 0.0007489022 -0.025074739 0.009766859 0.07129848 0.051180393 0.13034147
0.04227235 -0.024411712 0.1233188 -0.1155863 0.08084663 0.055814132 -0.09647895 -0.080600835
-0.078904584 0.038570996 -0.048686095 0.088031955 0.046632353 -0.08650623 -0.043165386 0.12101458
0.07073716 -0.13676912 0.08994151 -0.10705664 0.004959899 0.10611484 -0.09089979 0.009952724
0.072151355 0.06051217 0.08122203 0.10187825 -0.052117076 0.077516414 -0.09166431 -0.100286685
0.005059177 0.063311234 0.13869709 -0.05592741 0.036202997 0.03783421 0.041643187 -0.11864081
0.07481116 0.08902798 -0.048089165 0.035057213 0.061971594 0.021639515 -0.05839028 0.048765887
-0.032714 -0.037254997 -0.08399218 0.084135205 0.054545056 -0.016326126 -0.05612773 -0.05996074
0.080170624 -0.011249538 -0.010050501 -0.01758555 -0.13200043 -0.10562205 0.103996366 0.024996504
0.071519405 0.11433647 -0.14708984 0.012849685 0.12611389 -0.04853639 0.04067147 -0.10755052
-0.043132428 -0.07353152 -0.0017148618 -0.07359462 -0.035043336 -0.04447941 0.123771235 -0.055229317
0.03543703 0.028250083 -0.12047099 -0.019769646 -0.119981706 -0.0731198 -0.14378597 0.08788129
0.009172135 -0.10539508 0.056051828 0.08194531 -0.031471945 -0.009070103 -0.09887458 -0.0147037795
-0.07817097 0.08966957 0.033583745 -0.1144658 0.070695706 -0.034682725 -0.015159209 0.12811694
-0.056173194 -0.023174223 0.034847055 0.070386715 0.10825585 0.060173843 -0.040375054 -0.047037173
-0.052309286 -0.049652345 -0.12260873 0.1121665 -0.05765867 0.0807585 0.10428904 -0.022625906
0.033841908 -0.13416126 -0.038804814 -0.028217724 -0.09982987 0.0016664285 -0.01144365 -0.088027544
0.068485476 -0.053753182 -0.016342552 0.02708211 -0.03277906 0.053935144 0.08262958 -0.003014613
-0.058362376 -0.11035931 0.020175986 0.043728486 0.03107226 -0.1032232 -0.08767788 0.117532104
0.058354456 0.07686396 0.04073336 0.06324301 -0.088064976 0.024539907 0.06562761 -0.10079902
0.08456206 -0.10575124 0.10187963 -0.0028007438 -0.017665463 0.108040646 -0.12825015 -0.025030725
0.14047216 -0.020739585 0.01832938 -0.020091046 0.12218957 0.037888113 0.04451839 -0.006828805
0.07407636 -0.06302561 0.040218662 -0.027955983 0.0528057 0.012243191 -0.015312979 -0.054948702
0.07964028 0.06613623 -0.09006796 0.011832187 -0.0066004256 0.053117756 0.14998823 -0.11572019
0.039143994 -0.12310856 -0.08837311 -0.0032467216 -0.010307629 -0.06917694 -0.08058202 0.03158134
0.05310322 -0.031052759 -0.08840076 -0.05689984 -0.08051702 0.010577924 0.092865765 0.053260945
0.13254261 0.14894657 0.09006729 0.1089643 -0.079618834 0.114451356 -0.09953219 0.103293814
-0.035187736 -0.06024989 0.033520497 0.06912396 -0.005444789 -0.031756267 -0.041605823 -0.0675407
-0.14710099 0.11250941 -0.009223819 0.09375769 0.042422052 -0.12152329 -0.04382024 -0.07248056
00000000: c753 113e e340 743d 85a9 c0bd 23c9 97bd
00000010: add6 973d 79b8 41bd 20b3 0a3d 896d 963a
00000020: fc0e a23d 5bbe a33d 60ba 663d 63e1 583d
00000030: b1fa 7bbd ed2e 45bc 086c 003a 7b76 6f3d
00000040: bdcd 813d ea0f 2ebd fd4c 0f3d 95ce 073d
00000050: a526 183d 1135 c23d 14d4 2c3b d8dd 003d
00000060: 009c 8cbd dea2 933d fa51 443a 8a69 cdbc
00000070: 2d05 203c f004 923d 88a2 513d 3c78 053e
00000080: c625 2d3d 12fb c7bc 918e fc3d 83b8 ecbd
00000090: eb92 a53d 5c9d 643d c196 c5bd 0d12 a5bd
000000a0: ba98 a1bd 9ffc 1d3d 126b 47bd 194a b43d
000000b0: 9101 3f3d 2e2a b1bd 30ce 30bd 7ed6 f73d
000000c0: a5de 903d 340d 0cbe 4133 b83d 8340 dbbd
000000d0: a686 a23b bd52 d93d ab29 babd c010 233c
000000e0: 17c4 933d 9cdb 773d bc57 a63d 8ba5 d03d
000000f0: b778 55bd edc0 9e3d 7fba bbbd 1b63 cdbd
00000100: 74c7 a53b 52a9 813d 9c06 0e3e 2414 65bd
00000110: 9849 143d 0bf8 1a3d 0c92 2a3d f4f9 f2bd
00000120: 9836 993d 4d54 b63d 25f9 44bd 2798 0f3d
00000130: edd5 7d3d 5a45 b13c a52a 6fbd bdbe 473d
00000140: 1eff 05bd b298 18bd 1804 acbd 144f ac3d
00000150: a36a 5f3d 5ebe 85bc 31e6 65bd 6599 75bd
00000160: 7f30 a43d fb4f 38bc dbaa 24bc 920f 90bc
00000170: 1f2b 07be 6050 d8bd 0cfc d43d 78c5 cc3c
00000180: c478 923d 3d29 ea3d b89e 16be 7c87 523c
00000190: 0024 013e 18ce 46bd 2197 263d 7243 dcbd
000001a0: a1ab 30bd b297 96bd 37c5 e0ba c7b8 96bd
000001b0: 9a89 0fbd 0b30 36bd c67b fd3d 2338 62bd
000001c0: 6b26 113d b86c e73c 7fb9 f6bd f4f3 a1bc
000001d0: f8b8 f5bd d5bf 95bd a13c 13be 1bfb b33d
000001e0: b946 163c 60d9 d7bd 9a96 653d f1d2 a73d
000001f0: bae8 00bd c59a 14bc c17e cabd 1fe8 70bc
00000200: 1a18 a0bd aea4 b73d 1c8f 093d 0c6d eabd
00000210: e9c8 903d 790f 0ebd 555e 78bc 1631 033e
00000220: dd15 66bd ded7 bdbc c9bb 0e3d e926 903d
00000230: 3eb5 dd3d d978 763d 5060 25bd 0daa 40bd
00000240: 4342 56bd 4260 4bbd 491a fbbd 8db7 e53d
00000250: 7f2b 6cbd b664 a53d 7e95 d53d f759 b9bc
00000260: d09d 0a3d 9261 09be ccf1 1ebd db28 e7bc
00000270: 9a73 ccbd 106c da3a 267e 3bbc c947 b4bd
00000280: 1d42 8c3d 4c2c 5cbd d1e0 85bc 4ddb dd3c
00000290: 5643 06bd 19eb 5c3d b239 a93d d090 45bb
000002a0: 630d 6fbd 1004 e2bd 1c48 a53c a41c 333d
000002b0: 418b fe3c af66 d3bd 7690 b3bd acb4 f03d
000002c0: 1505 6f3d da6a 9d3d 06d8 263d 8d85 813d
000002d0: 695b b4bd ea07 c93c c567 863d b76f cebd
000002e0: e02e ad3d 1b94 d8bd 44a6 d03d af8c 37bb
000002f0: 29b7 90bc 6a44 dd3d 0254 03be 3c0d cdbc
00000300: efd7 0f3e 10e6 a9bc 7f27 963c fa95 a4bc
00000310: 863e fa3d 9130 1b3d ea58 363d 2bc4 dfbb
00000320: 59b5 973d 9213 81bd 53bc 243d f203 e5bc
00000330: ca4a 583d aa97 483c 4ae3 7abc e411 61bd
00000340: 711a a33d 6f72 873d 8d75 b8bd cadb 413c
00000350: 6248 d8bb 0192 593d 8496 193e b5fe ecbd
00000360: 7455 203d 5720 fcbd f6fc b4bd f3c6 54bb
00000370: 54e1 28bc a4ac 8dbd 3008 a5bd 6f5b 013d
00000380: c382 593d 5b62 febc 750b b5bd ce0f 69bd
00000390: 1be6 a4bd 074f 2d3c 6830 be3d 2628 5a3d
000003a0: 40b9 073e 7385 183e 3375 b83d ad28 df3d
000003b0: 330f a3bd 7965 ea3d 88d7 cbbd b58b d33d
000003c0: 0421 10bd 97c8 76bd ca4c 093d dd90 8d3d
000003d0: 336a b2bb dc12 02bd de6a 2abd c752 8abd
000003e0: a4a1 16be 556b e63d 801f 17bc 0804 c03d
000003f0: bfc2 2d3d 34e1 f8bd da7c 33bd b070 94bd

AFeatRNN.bias_hh_l0 f4 [256]
0.080668986 0.06632711 0.05541852 0.10695609 0.17964879 0.09591372 0.14271255 0.094228886
-0.007406952 -0.11013829 0.14408801 -0.000987869 -0.04885983 -0.111976065 0.042450234 0.026111554
0.022267552 -0.15618703 0.12757458 0.121493794 -0.0108602205 -0.071599774 0.06655669 0.09478653
-0.054146055 0.09033441 -0.0050752214 0.1272135 -0.12774023 -0.06833384 0.00085435685 0.055850558
0.08624245 -0.008852599 -0.042659845 -0.11425006 -0.04533179 0.0641553 -0.004064364 0.14226659
0.08828914 -0.02325765 0.031088043 -0.1519792 0.011937514 -0.061946005 0.030279467 0.06460457
0.08371445 -0.010180441 -0.03924668 -0.10214377 0.024137914 -0.098077826 -0.036733814 0.07446202
-0.064279854 0.006094468 0.07612711 0.017583355 -0.030230753 0.00084741367 0.03332226 -0.09435054
-0.049125675 -0.02186532 -0.03951076 0.06496853 0.008728292 0.027263222 0.083369695 0.053571448
0.13985564 0.07579672 -0.096363924 -0.08206418 -0.09620459 0.09839388 0.046853412 -0.0939647
0.08918584 -0.092182495 -0.06987493 -0.06654908 0.025517173 -0.06525701 -0.10632215 -0.020937331
-0.030301526 0.002837401 -0.053830143 -0.05538117 -0.03434851 0.068643376 0.014385096 -0.08174824
0.016905526 0.060348455 0.03760264 -0.17350747 0.14417537 0.05491731 0.056184527 -0.13192862
-0.07801252 -0.063243136 -0.025386076 0.061967723 -0.046293963 0.009655952 0.016260248 0.029392991
-0.058164705 -0.04379703 0.07016016 0.010900535 0.11044879 -0.05065002 0.042690773 -0.059218235
0.05907451 -0.0566415 0.0030174605 0.022194097 0.0780933 0.07269848 0.06268361 -0.006610418
0.088279605 0.091806844 0.030417586 -0.04876318 0.078009106 0.057059877 -0.020154115 -0.06868655
0.05109125 0.020333182 0.120286815 0.02827145 0.10464215 -0.108233824 -0.08709579 0.031065218
-0.027876442 0.007966976 0.07760467 0.08629123 -0.017775383 -0.07354474 0.007436432 -0.05356181
0.08482669 -0.13299078 0.022608813 0.0564193 -0.12051748 0.05590726 0.11713154 -0.07473492
0.062272716 -0.015876636 0.11591635 0.08645512 0.10538983 -0.009131475 -0.0075625083 0.019175347
-0.11461259 0.10315603 -0.01830415 -0.015196349 -0.1095765 -0.07119719 0.003982349 -0.09102884
0.035897534 0.072088085 0.09524756 0.046644412 -0.037444238 -0.05833138 -0.049133502 0.10886685
0.009016747 0.047180403 0.08945197 -0.013251815 -0.04059435 -0.06568865 0.10419827 0.08594111
0.07254175 -0.098246805 0.034562096 0.13018875 0.012060399 0.06534516 -0.07939475 -0.052518595
-0.039614215 0.008421044 0.011974829 0.08620049 -0.063499525 0.025917135 -0.0062369 0.090885416
-0.091910884 -0.065158136 0.08225461 -0.08981635 -0.003908155 0.13414909 0.0013236018 -0.04662075
-0.08538217 -0.08388047 -0.0963911 -0.07645241 -0.105917215 0.11510126 0.10074295 0.036354203
-0.06236669 -0.057794835 -0.00713338 -0.05965318 -0.057373106 -0.037016366 0.08680129 -0.04299985
-0.05129982 -0.047095418 0.094237395 -0.06936994 0.14292641 0.037839603 -0.08671907 0.078732334
-0.088900626 -0.062585115 -0.0012716915 -0.034834236 -0.08329794 -0.006515289 0.018567698 0.107544295
-0.03978707 -0.019166894 -0.016674438 0.074179135 -0.1248048 -0.055475086 -0.017005952 -0.12487051
00000000: c835 a53d 82d6 873d 88fe 623d cb0b db3d
00000010: daf5 373e 6a6e c43d 3d23 123e 13fb c03d
00000020: 04b6 f2bb 2f90 e1bd cf8b 133e 627b 81ba
00000030: 3f21 48bd b553 e5bd 4ce0 2d3d e6e7 d53c
00000040: 716a b63c 7eef 1fbe e9a2 023e bdd1 f83d
00000050: 11ef 31bc e7a2 92bd e04e 883d 711f c23d
00000060: 41c8 5dbd 3f01 b93d 0b4e a6bb 4144 023e
00000070: 56ce 02be 9df2 8bbd ebf6 5f3a 8ec3 643d
00000080: e29f b03d 7e0a 11bc 17bc 2ebd effb e9bd
00000090: d4ad 39bd db63 833d 5b2e 85bb 55ae 113e
000000a0: f0d0 b43d d486 bebc 5aac fe3c 6fa0 1bbe
000000b0: 9095 433c 18bb 7dbd a50c f83c 674f 843d
000000c0: 7b72 ab3d ddcb 26bc 20c1 20bd c130 d1bd
000000d0: e0bc c53c 07dd c8bd 3276 16bd 8b7f 983d
000000e0: 28a5 83bd 1ab4 c73b 88e8 9b3d f80a 903c
000000f0: 7ca6 f7bc f824 5e3a ec7c 083d db3a c1bd
00000100: 0138 49bd e61e b3bc 09d6 21bd 380e 853d
00000110: 1c01 0f3c 1f57 df3c bbbd aa3d bc6d 5b3d
00000120: 5136 0f3e 503b 9b3d 735a c5bd 4411 a8bd
00000130: e906 c5bd bb82 c93d 5de9 3f3d 9170 c0bd
00000140: 11a7 b63d 2dca bcbd 961a 8fbd e24a 88bd
00000150: 6409 d13c 78a5 85bd 6dbf d9bd c484 abbc
00000160: e83a f8bc b1f3 393b ff7c 5cbd 5ed7 62bd
00000170: 06b1 0cbd e694 8c3d 77af 6b3c 9f6b a7bd
00000180: 757d 8a3c f12f 773d 3a05 1a3d f1ab 31be
00000190: b5a2 133e f9f0 603d bf21 663d 4c18 07be
000001a0: 07c5 9fbd 9e85 81bd 76f6 cfbc ded1 7d3d
000001b0: bd9e 3dbd 0034 1e3c 3634 853c 92c9 f03c
000001c0: 1d3e 6ebd 8464 33bd 21b0 8f3d 2898 323c
000001d0: fa32 e23d 6576 4fbd 85dc 2e3d d28e 72bd
000001e0: 1df8 713d eb00 68bd 96c0 453b 65d0 b53c
000001f0: 61ef 9f3d f1e2 943d 4460 803d 359c d8bb
00000200: f0cb b43d 3a05 bc3d 4d2e f93c e6bb 47bd
00000210: 3dc3 9f3d 9eb7 693d 3e1a a5bc 89ab 8cbd
00000220: 0f45 513d c691 a63c ef58 f63d 8799 e73c
00000230: a04e d63d b2a9 ddbd 475f b2bd 7c7c fe3c
00000240: 235d e4bc eb87 023c 32ef 9e3d 75b9 b03d
00000250: ae9d 91bc a09e 96bd 50ad f33b a163 5bbd
00000260: 9eb9 ad3d bc2e 08be 1e36 b93c ed17 673d
00000270: ded1 f6bd 03ff 643d a9e2 ef3d 9f0e 99bd
00000280: ad11 7f3d b80f 82bc 8d65 ed3d 620f b13d
00000290: a0d6 d73d 2f9c 15bc ebce f7bb 9e15 9d3c
000002a0: 01ba eabd 7843 d33d 96f2 95bc 1bfa 78bc
000002b0: a569 e0bd d5cf 91bd 5d7e 823b 546d babd
000002c0: 4b09 133d eba2 933d 2711 c33d 360e 3f3d
000002d0: 215f 19bd e3ec 6ebd 3640 49bd 95f5 de3d
000002e0: faba 133c 3d40 413d 9832 b73d 241e 59bc
000002f0: 4346 26bd c587 86bd e765 d53d e501 b03d
00000300: c590 943d 9f35 c9bd fc90 0d3d 3350 053e
00000310: fb98 453c afd3 853d b799 a2bd bd1d 57bd
00000320: 8442 22bd 6bf8 093c 1332 443c e289 b03d
00000330: 0a0c 82bd 2c50 d43c e95e ccbb 2222 ba3d
00000340: c63b bcbd a171 85bd 1b75 a83d a2f1 b7bd
00000350: fb0f 80bb 615e 093e b57c ad3a 66f5 3ebd
00000360: d9dc aebd 86c9 abbd b268 c5bd 1593 9cbd
00000370: 20eb d8bd 36ba eb3d 5252 ce3d 25e8 143d
00000380: 3774 7fbd 47ba 6cbd 21bf e9bb e556 74bd
00000390: 1000 6bbd 799e 17bd e0c4 b13d 9c20 30bd
000003a0: c31f 52bd 20e7 40bd 89ff c03d d411 8ebd
000003b0: 4d5b 123e b3fd 1a3d c599 b1bd 6b3e a13d
000003c0: 8811 b6bd a02c 80bd e3ae a6ba 58ae 0ebd
000003d0: 1c98 aabd 357e d5bb 491b 983c 2f40 dc3d
000003e0: c4f7 22bd e403 9dbc d598 88bc 3beb 973d
000003f0: a999 ffbd d839 63bd 1150 8bbc 1cbc ffbd

AFeatRNN.weight_ih_l1 f4 [256, 64]
-0.15844858 0.023847695 -0.07300975 0.14843664 -0.04876908 -0.013357656 -0.21120937 -0.014020929
-0.19666499 -0.019220758 0.16627909 -0.026420344 0.110884175 -0.04602743 0.06614753 -0.004251809
0.10199068 0.07693652 -0.0066321185 0.15902425 0.008405937 0.06767585 -0.0036624584 0.2276561
-0.037179943 -0.06509487 0.02425371 -0.15146963 0.053075545 0.054289132 0.04424554 0.065742195
0.031492244 -0.2118847 0.10885577 0.22553352 -0.23539394 -0.13268135 -0.014546181 -0.044672072
-0.22314176 -0.038052626 0.020957299 -0.07819252 0.26660395 0.06982691 0.02700789 0.25215694
0.056183144 0.17485732 -0.0739054 0.105477035 0.21045029 -0.1283926 -0.020231858 -0.115597434
0.028174821 0.06668566 0.12843655 -0.035943527 -0.11025806 -0.053815298 -0.10496345 -0.049261622
-0.13556203 0.074475296 0.09167893 0.08668568 0.086271405 0.12027266 -0.1332822 -0.014081118
-0.06302271 -0.09915854 -0.07583715 0.096016176 -0.020526113 -0.005013853 -0.13290574 0.080362104
-0.1441847 0.06288055 -0.17546242 0.2215049 -0.054836687 -0.026856529 0.0069047925 0.08139584
-0.13407242 -0.14219496 0.051487166 -0.106057964 -0.019446582 -0.03617052 -0.09908354 -0.14796242
-0.15263093 -0.11578186 0.059147675 0.08253981 -0.026445279 -0.2361676 -0.07767997 0.009145933
-0.068223216 0.096647546 -0.11296631 -0.016294675 0.091408156 -0.0017528532 0.0848376 0.10506504
0.12068174 0.020248659 -0.09747273 -0.08782632 0.11212977 0.01828613 0.012227915 -0.076054715
0.08729672 0.15899345 0.09703351 -0.017031183 -0.01834723 0.0046128244 -0.035575923 -0.13002177
-0.21648087 0.009572077 -0.11260791 -0.082515635 -0.061954338 0.13721173 -0.12908657 -0.041511647
0.039199814 0.04919487 0.14688689 -0.06833946 0.12360621 -0.13092124 0.042941306 -0.040556855
-0.020640839 -0.10529801 0.07645187 0.19000159 -0.02525032 0.021083059 -0.101890475 0.13426293
-0.12929702 -0.010699103 -0.03791385 -0.023915622 0.026476204 -0.064191036 0.1229565 0.08533938
-0.09324145 -0.17200537 0.09028441 0.09884741 0.06634208 -0.07826439 -0.04916457 -0.033284195
0.024909202 -0.05995166 0.029706853 0.044489108 0.1373423 0.17397445 0.05695287 0.11141638
0.061417002 0.13434169 0.024838777 0.029687693 0.052529074 -0.07106796 0.045001563 0.067443736
0.11926834 -0.12985459 0.0710097 0.0010155293 0.04032612 -0.028587928 0.036486007 0.08980671
-0.3094132 -0.13702066 0.09660642 -0.067973554 0.20786557 0.1471834 0.011864383 -0.07641107
-0.11063785 -0.03923564 -0.05141998 0.05238112 0.07155731 0.08585232 -0.08792985 0.027871147
-0.13919668 -0.13637803 -0.16457172 0.16540402 -0.05372058 -0.10163232 0.10970495 0.19549909
-0.05480792 -0.20755026 0.2852012 0.09473626 0.2164406 0.08664279 -0.051483504 0.032120258
0.026443735 -0.04387031 -0.08355788 -0.0047374493 0.053707704 -0.0665479 -0.14207089 -0.26698297
-0.008076544 0.17453253 0.036503196 0.12440522 0.2041752 0.42451406 -0.00022351653 -0.0877664
0.002080322 -0.08053344 0.15658027 0.04847381 -0.04013873 -0.12954974 -0.044666905 -0.13070053
0.14469944 -0.011406547 0.031661022 -0.13569029 -0.04589789 0.02742261 -0.099071674 0.05498656
00000000: 5840 22be 3e5c c33c 2386 95bd c6ff 173e
00000010: 16c2 47bd 12da 5abc 4547 58be 0ab8 65bc
00000020: 8c62 49be da74 9dbc 1145 2a3e 7a6f d8bc
00000030: 3e17 e33d 4287 3cbd 5b78 873d c252 8bbb
00000040: 7de0 d03d e590 9d3d 3e52 d9bb 41d7 223e
00000050: 0eb9 093c a399 8a3d db05 70bb ae1e 693e
00000060: ff49 18bd 7650 85bd b7af c63c db1a 1bbe
00000070: be65 593d 485e 5e3d d03a 353d d8a3 863d
00000080: 03fe 003d 4ef8 58be c6ef de3d 42f2 663e
00000090: 1c0b 71be 9fdd 07be 1b53 6ebc 10fa 36bd
000000a0: 467f 64be 12dd 1bbd a4ae ab3c 6623 a0bd
000000b0: 5080 883e 6901 8f3d a73f dd3c b71a 813e
000000c0: 4c20 663d cc0d 333e b75b 97bd 5804 d83d
000000d0: 4880 573e 5a79 03be 48bd a5bc 59be ecbd
000000e0: e2ce e63c 7e92 883d df84 033e 8539 13bd
000000f0: face e1bd 6e6d 5cbd 14f7 d6bd 8ec6 49bd
00000100: c6d0 0abe 8186 983d 2ac2 bb3d 4388 b13d
00000110: 10af b03d 8351 f63d 217b 08be 7db4 66bc
00000120: 0d12 81bd a213 cbbd 8250 9bbd 21a4 c43d
00000130: 6126 a8bc 3f4b a4bb 7118 08be e394 a43d
00000140: 27a5 13be 85c7 803d 6cac 33be 2ed2 623e
00000150: 6f9c 60bd 3902 dcbc 9941 e23b ddb2 a63d
00000160: 484a 09be 8e9b 11be 35e4 523d eb34 d9bd
00000170: 704e 9fbc 8a27 14bd 50ec cabd 7683 17be
00000180: 484b 1cbe 0a1f edbd d544 723d a20a a93d
00000190: c5a3 d8bc ebd5 71be ad16 9fbd d3d8 153c
000001a0: 9db8 8bbd 26ef c53d e15a e7bd 697c 85bc
000001b0: 3334 bb3d febf e5ba 56bf ad3d 572c d73d
000001c0: fd27 f73d 84e0 a53c c89f c7bd 49de b3bd
000001d0: 4ba4 e53d cbcc 953c 9857 483c 93c2 9bbd
000001e0: 9fc8 b23d 2ecf 223e 81b9 c63d fb84 8bbc
000001f0: ee4c 96bc 2d27 973b 0fb8 11bd 6d24 05be
00000200: 29ad 5dbe 33d4 1c3c fa9e e6bd f5fd a8bd
00000210: d5c3 7dbd 3b81 0c3e 452f 04be 1e08 2abd
00000220: fc8f 203d 8f80 493d 8469 163e 8ff5 8bbd
00000230: 4125 fd3d 3810 06be 39e3 2f3d f21e 26bd
00000240: fa16 a9bc 7ca6 d7bd cc92 9c3d c78f 423e
00000250: c2d9 cebc 61b6 ac3c f4ab d0bd 397c 093e
00000260: 7066 04be 4a4b 2fbc 8e4b 1bbd b2ea c3bc
00000270: a0e4 d83c 9776 83bd 9ed0 fb3d 6ac6 ae3d
00000280: 60f5 bebd 2d22 30be 08e7 b83d 8370 ca3d
00000290: 5bde 873d 1549 a0bd ca60 49bd 0255 08bd
000002a0: 620e cc3c df8f 75bd c95b f33c 363a 363d
000002b0: 76a3 0c3e 5c26 323e 6a47 693d 452e e43d
000002c0: 6590 7b3d de90 093e b17a cb3c 9b33 f33c
000002d0: ba28 573d 148c 91bd 8f53 383d f11f 8a3d
000002e0: f642 f43d 9af8 04be 896d 913d 821b 853a
000002f0: 002d 253d 3b31 eabc 5a72 153d 95ec b73d
00000300: 686b 9ebe 254f 0cbe 96d9 c53d b835 8bbd
00000310: b6da 543e 3fb7 163e d462 423c 687d 9cbd
00000320: 1996 e2bd 8db5 20bd c29d 52bd 968d 563d
00000330: a48c 923d 57d3 af3d 9114 b4bd 0852 e43c
00000340: 9389 0ebe afa6 0bbe 7d85 28be ac5f 293e
00000350: 1c0a 5cbd 9b24 d0bd fdac e03d ea30 483e
00000360: 457e 60bd 0e88 54be e405 923e 1605 c23d
00000370: 9ba2 5d3e c671 b13d 5ee0 52bd 8890 033d
00000380: 88a0 d83c 5bb1 33bd 6520 abbd 9b3c 9bbb
00000390: 9cfc 5b3d 444a 88bd 087b 11be feb1 88be
000003a0: 7b53 04bc a8b8 323e 6084 153d 2ac8 fe3d
000003b0: 4e13 513e e859 d93e c35f 6ab9 dfbe b3bd
000003c0: 0356 083b b7ee a4bd 9456 203e 798c 463d
000003d0: 8268 24bd b0a8 04be a5f4 36bd 5cd6 05be
000003e0: 172c 143e 87e2 3abc fdae 013d 65f2 0abe
000003f0: 6dff 3bbd 62a5 e03c 17e6 cabd 9639 613d

AFeatRNN.weight_hh_l1 f4 [256, 64]
0.02687679 0.046120174 -0.032541428 0.026713429 -0.1476529 -0.10409679 0.13914506 -0.09477669
-0.14479534 0.104033455 0.12009784 0.10295855 0.09222478 -0.06783906 -0.057919066 0.100223824
0.08900838 0.15729281 0.068203196 -0.12339894 0.18076131 -8.0081154e-05 -0.053491637 0.053228732
-0.10655702 0.01491152 0.025155496 -0.031202143 -0.10334998 0.18738326 -0.11115713 -0.004551396
0.08405332 -0.034857653 -0.13383247 0.041365907 0.088945374 0.046880525 0.1224013 0.07968004
0.017145133 -0.06828185 0.035931863 0.09312817 -0.018450655 -0.023864778 -0.07084386 -0.015657993
-0.048479564 0.010839357 -0.041638035 0.16374378 -0.057888318 -0.026941676 0.106793664 0.04404577
0.055301152 -0.0074804625 -0.0665329 -0.14902784 -0.02960941 0.054129016 -0.11126214 -0.13080601
0.06615151 0.03525639 -0.020136502 0.17269978 -0.12672213 -0.03568541 0.07524084 -0.054413922
0.03180983 0.023410622 -0.10409092 0.07362992 0.103054404 0.071347326 0.1351414 -0.13981478
-0.10723055 0.106087066 0.022226034 0.037946943 -0.0640204 -0.0072185453 -0.033935063 -0.0933077
-0.13660942 0.04226479 -0.1260526 0.12627535 -0.09513154 0.05323103 0.09788106 -0.12753104
0.0017423513 -0.068855576 -0.044862393 0.05183738 -0.10437206 0.058506403 0.04809085 0.17666472
0.07619245 -0.124016255 0.07169184 0.17677727 -0.09438627 0.056797564 -0.041867767 0.05487513
0.106601276 -0.029839916 0.020571018 -0.07456375 -0.13603641 0.09492866 0.0748602 -0.03335939
-0.050317496 -0.13615039 -0.067689665 0.010137451 -0.025480313 0.054114565 -0.087880686 0.07852906
-0.056196727 0.0045507667 0.037016988 -0.007832032 0.038415182 -0.031611577 0.062182065 0.073508695
-0.037148062 0.09180406 0.10220896 0.102145 0.08303596 0.060145933 0.10286543 0.070605814
-0.06585617 -0.08541799 0.03664307 0.014702687 -0.00412272 0.13111307 -0.051723544 -0.05630198
-0.018991401 -0.008734229 -0.07685347 0.115266845 -0.12023373 0.005182085 -0.108342096 -0.13495678
-0.0008388143 0.059166335 -0.08012624 0.07571341 -0.061157115 -0.05220077 -0.0065171 -0.06839192
-0.06977629 -0.06096477 0.011481931 0.11823313 0.072331674 0.008536127 -0.07035757 -0.06239573
0.040589046 0.1252204 -0.08301466 0.04810359 -0.10427135 -0.06555651 0.10389879 -0.012973092
0.052161317 -0.012865515 -0.012941409 0.112087555 -0.1359526 -0.06813352 0.009415571 0.118283965
-0.15640141 0.116671145 0.008455387 -0.0004532903 -0.11145897 -0.022884276 -0.10728396 0.18399443
0.08176668 -0.03704057 0.05198088 -0.047657955 0.03219837 0.09873579 -0.015432931 -0.12371023
-0.005396341 0.1015254 0.09039935 -0.026820479 -0.022056492 0.044258446 -0.15172099 0.057910006
0.07161162 0.07699161 -0.12216376 -0.10621693 -0.08526689 0.104487956 0.01874159 -0.10013938
0.02588292 -0.15989572 0.12740354 -0.035899714 -0.11741174 -0.047336593 0.061471403 -0.02514308
0.0134101445 -0.09959857 0.12553558 0.063696906 -0.019606052 -0.083519265 -0.1449695 -0.023500126
0.043205407 0.08316813 -0.023160888 0.00045197943 -0.094267435 -0.09403592 -0.045015186 0.008007976
-0.16495791 -0.08152289 -0.01782933 0.09165594 0.010936573 0.039941173 0.0065888558 0.06524177
00000000: b72c dc3c 82e8 3c3d 294a 05bd 1fd6 da3c
00000010: 5232 17be b330 d5bd 0b7c 0e3e 481a c2bd
00000020: 3b45 14be 7e0f d53d dbf5 f53d efdb d23d
00000030: 58e0 bc3d 35ef 8abd 8b3c 6dbd 2642 cd3d
00000040: 074a b63d 5e11 213e 1eae 8b3d 95b8 fcbd
00000050: 7e19 393e 3ef1 a7b8 0c1a 5bbd 5f06 5a3d
00000060: 913a dabd 734f 743c e612 ce3c a39b ffbc
00000070: 28a9 d3bd 66e1 3f3e 59a6 e3bd e023 95bb
00000080: 2624 ac3d e6c6 0ebd 610b 09be 4c6f 293d
00000090: fe28 b63d cb05 403d 88ad fa3d 4a2f a33d
000000a0: f373 8c3c 5bd7 8bbd 4a2d 133d fbb9 be3d
000000b0: d425 97bc 1180 c3bc 9616 91bd 3145 80bc
000000c0: 8292 46bd 8f97 313c a58c 2abd 73ac 273e
000000d0: 4d1c 6dbd cab4 dcbc a3b6 da3d 5669 343d
000000e0: 7683 623d ab1e f5bb 6742 88bd c19a 18be
000000f0: 6f8f f2bc 63b6 5d3d 68dd e3bd 03f2 05be
00000100: 717a 873d 0169 103d 4ef5 a4bc 36d8 303e
00000110: 72c3 01be dd2a 12bd df17 9a3d 22e1 5ebd
00000120: 064b 023d a2c7 bf3c 9f2d d5bd 49cb 963d
00000130: 300e d33d 8c1e 923d 8262 0a3e 9b2b 0fbe
00000140: b19b dbbd 2d44 d93d 5f13 b63c 416e 1b3d
00000150: 211d 83bd 8c89 ecbb 7eff 0abd 1b18 bfbd
00000160: 57e3 0bbe d81d 2d3d ef13 01be 534e 013e
00000170: 53d4 c2bd c808 5a3d dd75 c83d 7f97 02be
00000180: 9c5f e43a 2704 8dbd a1c1 37bd 6f53 543d
00000190: 05c1 d5bd 69a4 6f3d e9fa 443d 99e7 343e
000001a0: ca0a 9c3d 3cfc fdbd 2cd3 923d 1a05 353e
000001b0: 974d c1bd 90a4 683d 897d 2bbd bfc4 603d
000001c0: c551 da3d d772 f4bc 8d84 a83c e1b4 98bd
000001d0: 214d 0bbe f569 c23d 4e50 993d dba3 08bd
000001e0: b819 4ebd 026b 0bbe e1a0 8abd 8d17 263c
000001f0: 17bc d0bc 3ca7 5d3d cafa b3bd d8d3 a03d
00000200: 8a2e 66bd 991e 953b 209f 173d ec51 00bc
00000210: 3d59 1d3d 247b 01bd 9fb2 7e3d ba8b 963d
00000220: 9128 18bd c403 bc3d ee52 d13d 6631 d13d
00000230: c20e aa3d 955b 763d 1cab d23d c899 903d
00000240: 9adf 86bd a1ef aebd 0b17 163d 8ae3 703c
00000250: e217 87bb 8142 063e 11dc 53bd e89c 66bd
00000260: db93 9bbc 031a 0fbc 5a65 9dbd 0611 ec3d
00000270: 1a3d f6bd 7bce a93b 76e2 ddbd 1c32 0abe
00000280: e0e3 5bba 6658 723d 3a19 a4bd a20f 9b3d
00000290: e27f 7abd 79d0 55bd 668d d5bb 1011 8cbd
000002a0: dfe6 8ebd 32b6 79bd b61e 3c3c 3624 f23d
000002b0: a122 943d 1ddb 0b3c a117 90bd aa92 7fbd
000002c0: b340 263d c739 003e 9703 aabd 4508 453d
000002d0: 388c d5bd 7e42 86bd e4c8 d43d 178d 54bc
000002e0: 1ba7 553d e2c9 52bc 3408 54bc 298e e53d
000002f0: 2937 0bbe 9689 8bbd c443 1a3c dd3e f23d
00000300: b127 20be 48f1 ee3d 7788 0a3c 98a7 edb9
00000310: 9a44 e4bd ce77 bbbc b1b7 dbbd 0969 3c3e
00000320: 4a75 a73d dab7 17bd e7e9 543d fd34 43bd
00000330: 70e2 033d fd35 ca3d 67da 7cbc ca5b fdbd
00000340: cad3 b0bb 8dec cf3d 4b23 b93d 9fb6 dbbc
00000350: d1af b4bc 5848 353d bf5c 1bbe 0b33 6d3d
00000360: 1da9 923d c7ad 9d3d fe30 fabd 4388 d9bd
00000370: 68a0 aebd c8fd d53d f787 993c e015 cdbd
00000380: 6b08 d43c b4bb 23be 1376 023e 940b 13bd
00000390: 9175 f0bd 04e4 41bd 70c9 7b3d dcf8 cdbc
000003a0: 39b6 5b3c 56fa cbbd 668c 003e 8673 823d
000003b0: df9c a0bc 260c abbd e272 14be 5683 c0bc
000003c0: 27f8 303d 0d54 aa3d e7bb bdbc a7f7 ec39
000003d0: 490f c1bd e895 c0bd d861 38bd e333 033c
000003e0: baea 28be 79f5 a6bd d10e 92bc 1cb6 bb3d
000003f0: 502f 333c 5b99 233d 54e7 d73b 7a9d 853d

AFeatRNN.bias_ih_l1 f4 [256]
0.15673918 0.08829226 0.14084442 0.051411588 -0.08465106 -0.016584966 0.19407077 0.02661934
0.12452329 0.1103592 -0.010831199 0.07346838 0.155578 -0.010791958 -0.10028174 0.024202317
0.038094968 0.082589425 0.046734143 0.018588908 0.049167927 0.15749693 0.2215686 0.13557796
-0.083969235 0.04185499 0.06401897 0.023429293 0.18058367 0.010436239 0.19481055 0.04120685
-0.062697165 -0.13409938 -0.0066842227 -0.08565061 0.010323472 -0.033927996 0.05879711 0.07476307
-0.031862274 0.08312228 0.11006874 -0.051785633 0.06906925 0.08128916 0.03436202 0.030235978
-0.11865657 -0.052421954 0.07100765 0.06502688 0.13158426 -0.01749397 -0.0987286 0.1514208
0.06814666 0.09567529 0.035666764 -0.0030978466 0.1801228 0.11608038 0.062829226 0.060667917
0.048961077 -0.09735608 0.03845687 0.02737372 -0.13177808 0.0034232612 -0.0007310188 -0.055394668
0.054057762 -0.059680067 -0.011370633 -0.017325304 0.04261667 0.11702456 0.056858208 0.030296128
-0.06018758 -0.13584946 -0.08374218 -0.0024586886 -0.026807278 -0.08664291 0.3242968 0.011530477
-0.055645768 0.019082932 0.026890956 -0.1905131 -0.03130257 -0.042143825 0.01032821 0.05346561
-0.15958731 -0.10230826 -0.0624929 0.025321074 -0.10959892 -0.082554445 -0.10612579 -0.0005053549
0.019390332 0.0011792653 0.14200759 0.028566275 -0.12389073 -0.008196701 -0.07963615 0.00835105
-0.00055688363 -0.10772841 -0.118751116 0.06377145 0.13329117 0.0010492897 0.072499596 -0.117909804
0.050481368 0.04254688 -0.10666069 -0.023396028 -0.07116954 0.054586045 0.026635265 -0.1259099
-0.12147413 0.08499804 0.14475264 -0.031245358 -0.118095696 -0.068231456 0.07293595 0.034864616
-0.09076068 0.05171104 0.03604544 0.09218238 0.06019588 0.016014049 -0.0051912083 -0.0034188365
0.050161816 0.16280979 -0.03540732 -0.13964 0.03001266 -0.06421448 -0.23404202 0.09846619
-0.036241814 0.010046164 -0.030870145 -0.012484444 0.019795468 -0.029959034 -0.16143344 0.072870135
0.050212633 -0.14086501 0.05122283 -0.07817312 0.09341528 0.017236935 0.05113227 0.007369579
-0.029357186 -0.09936288 -0.04407504 0.052352447 -0.024193434 -0.04932394 -0.0074395817 0.040895328
0.05539532 0.11087705 0.14232947 0.15145998 0.014979952 -0.029851241 -0.058689088 0.029877119
-0.046362486 0.09767504 -0.043405674 -0.037095513 0.07987124 0.09863123 -0.13861977 -0.09609801
0.12384676 0.0002665445 -0.013524129 0.16884322 0.012325891 -0.02528843 -0.047657818 -0.036209054
0.0048915604 0.110669814 0.12135573 0.07895137 0.08226538 0.08193831 0.12572606 -0.06536988
-0.061782613 0.018184727 -0.0013382866 -0.0070567257 -0.06665317 0.0480284 0.054200597 0.07977005
-0.032161944 0.034508694 0.13509335 -0.10092515 0.12964098 -0.025267895 -0.070900306 0.018305805
0.10852593 0.023045246 -0.01771953 0.05079045 -0.07113641 0.13816355 -0.056499705 0.16591854
-0.045820277 0.09065449 -0.045635704 -0.10515515 0.011603958 -0.009483081 -0.07673117 -0.023080528
-0.0756124 0.0049111904 0.06275334 -0.08538658 0.04399696 -0.03701498 0.030532358 -0.07687059
0.006546772 0.046080828 -0.0124970125 0.0947782 -0.03799522 0.079618186 -0.031336233 -0.0748129
00000000: 3c80 203e 93d2 b43d 8539 103e f594 523d
00000010: 895d adbd 32dd 87bc 7dba 463e cd10 da3c
00000020: 1106 ff3d 0104 e23d 5775 31bc 9776 963d
00000030: d74f 1f3e c1d0 30bc 8360 cdbd f043 c63c
00000040: 7809 1c3d a524 a93d 4d6c 3f3d c447 983c
00000050: 4f64 493d e046 213e e1e2 623e f3d4 0a3e
00000060: 10f8 abbd 2370 2b3d 611c 833d caee bf3c
00000070: edea 383e c2fc 2a3c 6b7c 473e 84c8 283d
00000080: 5f67 80bd 5951 09be 5307 dbbb 9669 afbd
00000090: c823 293c 15f8 0abd 3dd5 703d 611d 993d
000000a0: 0482 02bd 043c aa3d b86b e13d 2c1d 54bd
000000b0: 2e74 8d3d ee7a a63d 31bf 0c3d 71b1 f73c
000000c0: 3702 f3bd 67b8 56bd 756c 913d d02c 853d
000000d0: 06be 063e 844f 8fbc 3832 cabd 0e0e 1b3e
000000e0: 7a90 8b3d 68f1 c33d 5017 123d 3e05 4bbb
000000f0: 1c72 383e 8dbb ed3d 9cac 803d ec7e 783d
00000100: 698b 483d a062 c7bd f384 1d3d da3e e03c
00000110: d5f0 06be cb58 603b d7a1 3fba 85e5 62bd
00000120: ac6b 5d3d 1673 74bd e44b 3abc cced 8dbc
00000130: d18e 2e3d 93aa ef3d 27e4 683d 962f f83c
00000140: 4087 76bd 1f1c 0bbe 0581 abbd f321 21bb
00000150: f09a dbbc d771 b1bd 3b0a a63e 53ea 3c3c
00000160: d1ec 63bd cf53 9c3c 6c4a dc3c de15 43be
00000170: 2037 00bd 019f 2cbd a737 293c c1fe 5a3d
00000180: db6a 23be fe86 d1bd 8ef8 7fbd 246e cf3c
00000190: 6675 e0bd 4e12 a9bd 7a58 d9bd cb79 04ba
000001a0: 79d8 9e3c 9491 9a3a 706a 113e d203 ea3c
000001b0: 6cba fdbd 754b 06bc 4718 a3bd d8d2 083c
000001c0: d4fb 11ba b6a0 dcbd c933 f3bd 9b9a 823d
000001d0: 7b7d 083e 5288 893a ab7a 943d b27a f1bd
000001e0: 8dc5 4e3d a345 2e3d eb70 dabd 07a9 bfbc
000001f0: 56c1 91bd 9e95 5f3d 3332 da3c 86ee 00be
00000200: 6ec7 f8bd 7413 ae3d 093a 143e 44f6 ffbc
00000210: 28dc f1bd efbc 8bbd 715f 953d 33ce 0e3d
00000220: bce0 b9bd f5ce 533d 62a4 133d 1eca bc3d
00000230: f48f 763d e52f 833c 031b aabb 8f0e 60bb
00000240: 7a76 4d3d 9cb7 263e 4407 11bd cafd 0ebe
00000250: 1cdd f53c e282 83bd b6a8 6fbe a4a8 c93d
00000260: 4c72 14bd aa98 243c 63e3 fcbc 8e8b 4cbc
00000270: 1b2a a23c a66c f5bc cf4e 25be f03c 953d
00000280: c3ab 4d3d eb3e 10be 08cf 513d 3b19 a0bd
00000290: 8350 bf3d 7934 8d3c 1270 513d 827c f13b
000002a0: 7b7e f0bc c47e cbbd 0788 34bd 856f 563d
000002b0: 4f31 c6bc e607 4abd bcc7 f3bb dc81 273d
000002c0: 34e6 623d 8213 e33d d1be 113e 5318 1b3e
000002d0: 796e 753c 978a f4bc f863 70bd dcc0 f43c
000002e0: 97e6 3dbd da09 c83d 26ca 31bd 77f1 17bd
000002f0: 8893 a33d 2cff c93d 57f2 0dbe 09cf c4bd
00000300: 5fa3 fd3d ffbe 8b39 4f94 5dbc 3de5 2c3e
00000310: 89f2 493c ae29 cfbc d834 43bd f24f 14bd
00000320: 6249 a03b dba6 e23d 5a89 f83d 42b1 a13d
00000330: c07a a83d 46cf a73d 55be 003e a5e0 85bd
00000340: c40f 7dbd 23f8 943c 7269 afba 1b3c e7bb
00000350: 7581 88bd 6db9 443d 7201 5e3d 7b5e a33d
00000360: 3ebc 03bd fd58 0d3d e955 0a3e d8b1 cebd
00000370: 9bc0 043e 9efe cebc 2e34 91bd 0ef6 953c
00000380: d842 de3d 62c9 bc3c 8c28 91bc a609 503d
00000390: f7af 91bd bf7a 0d3e 3c6c 67bd 8de6 293e
000003a0: 0bae 3bbd 10a9 b93d 81ec 3abd 955b d7bd
000003b0: 871e 3e3c ed5e 1bbc 3b25 9dbd 6013 bdbc
000003c0: adda 9abd 0dee a03b d384 803d 29df aebd
000003d0: 2836 343d 059d 17bd ff1e fa3c 546e 9dbd
000003e0: 4e86 d63b 40bf 3c3d 45c0 4cbc 131b c23d
000003f0: e0a0 1bbd dc0e a33d 6c5a 00bd 8137 99bd
