STD/checkpoints/LSTM2linear3/VA_METRIC_state_epoch30.pth (torch, 585522 bytes, 24 tensors)

AFeatRNN.weight_ih_l0 f4 [256, 128]
-0.0049649565 0.05412936 -0.031036457 0.045995113 -0.04591712 -0.022118747 0.03851534 -0.114285216
-0.074037105 0.15981065 0.025705997 0.0118494565 -0.12827384 0.18748058 0.014744539 0.14589088
-0.027292889 -0.037466932 -0.04697636 -0.06793938 -0.063841924 -0.027671784 -0.043885697 -0.015062594
0.024720535 0.048960276 -0.0739661 0.1365101 0.026115468 -0.13681428 0.16274479 0.026720323
0.053841237 -0.058250558 0.10963773 -0.029892372 -0.040849075 -0.020400174 0.03666213 0.067107975
0.08324516 0.05629011 -0.2146374 0.039016213 0.15197366 -0.0636005 0.019009847 -0.04748764
0.088230856 0.03651882 0.024026766 0.14360793 -0.016886717 0.07414092 0.13422245 0.0011316271
0.031109726 -0.08985748 -0.053205322 0.147375 0.04821115 0.110405385 0.10184647 0.029682161
0.027638385 0.040753055 -0.0775523 0.106436275 0.06129578 -0.022428555 -0.05739666 0.028799312
-0.027117426 -6.643915e-05 0.033619944 -0.0077700582 0.18798949 0.009816574 0.035457842 -0.00041041846
-0.17787178 0.090013154 -0.05861577 0.1787218 -0.086992726 -0.10186653 0.043835904 -0.0008424818
0.029958423 0.18006375 0.041070275 0.073660284 0.07077973 -0.012064861 0.154693 0.1335594
0.02319896 0.116357274 0.030938946 0.07607807 0.0028761912 0.052915055 7.2390634e-05 0.19474287
-0.09132442 -0.084197484 0.19617712 -0.11202371 -0.03701531 0.09457334 -0.09689735 0.06988813
-0.14591417 0.0745605 0.07423731 -0.09071181 -0.039186317 0.027477393 0.046791673 0.0068348125
0.07693016 -0.0936852 -0.118716784 0.005176517 -0.037035905 -0.094278045 0.22129935 0.027902374
0.069641314 -0.036084592 0.016831568 0.08766966 -0.15520477 -0.12894711 -0.083112925 0.007842986
-0.05706698 -0.015037614 -0.20346798 0.093429044 -0.012913402 -0.17472582 -0.117324285 -0.20473592
-0.0327353 -0.0044052126 0.10859962 -0.18674031 0.24707714 -0.022857547 -0.043574095 -0.20840976
0.085678846 -0.051372312 0.07363924 0.12429588 0.041494414 -0.09992528 -0.03567743 -0.12343492
-0.15421507 -0.022475235 -0.007020724 0.077096686 -0.05232091 0.09185162 -0.049285013 0.030205652
0.007343039 -0.0043625142 0.035293605 -0.077996224 -0.040376715 0.024917128 -0.23748435 -0.15930583
-0.052913275 -0.06929278 -0.04295766 -0.19199127 0.14398704 0.06750191 -0.14034411 -0.06107082
-0.030510617 -0.13184294 -0.015863134 -0.04202053 -0.101824455 -0.061894123 -0.10726469 -0.025131054
-0.052712906 0.092780605 0.011348249 -0.04337124 -0.057901956 -0.12028713 0.02173253 -0.050274678
0.066318 -0.033895373 -0.017654967 -0.040857967 -0.07671447 -0.045439962 -0.1249735 -0.029158331
0.08526336 0.08036286 0.024108985 0.080265395 -0.10789867 0.07350167 0.19453248 -0.100176126
0.017826179 0.0590443 0.0015602275 -0.055321638 0.02772822 -0.03744602 -0.103227705 -0.16778617
0.04410084 0.08415674 -0.105025545 0.11266058 -0.19239177 -0.037287958 0.10252296 -0.16224423
-0.016179606 -0.09303631 0.11272021 0.07781694 0.10710054 -0.099502966 -0.0136730075 -0.08701342
-0.057591826 -0.22928679 0.0404018 -0.020865478 -0.061906587 0.0060970616 -0.032564364 -0.121774875
-0.12768744 -0.03249578 0.11660933 0.08676474 0.059481278 -0.14487794 0.16254936 0.005627485
00000000: 13b1 a2bb bfb6 5d3d 2b40 febc 5f65 3c3d
00000010: 9713 3cbd 6032 b5bc 43c2 1d3d 5e0e eabd
00000020: c4a0 97bd 67a5 233e 6295 d23c 3924 423c
00000030: 385a 03be e9fa 3f3e 1493 713c 6b64 153e
00000040: 5695 dfbc ed76 19bd 496a 40bd cd23 8bbd
00000050: 8ebf 82bd f0af e2bc 7dc1 33bd 19c9 76bc
00000060: b882 ca3c 928a 483d 8a7b 97bd 4ec9 0b3e
00000070: 1bf0 d53c 0b19 0cbe 92a6 263e 94e4 da3c
00000080: a188 5c3d 2398 6ebd bf89 e03d d9e0 f4bc
00000090: 5c51 27bd 441e a7bc 082b 163d e86f 893d
000000a0: 707c aa3d 7590 663d e8c9 5bbe 77cf 1f3d
000000b0: fc9e 1b3e fb40 82bd 8aba 9b3c 6682 42bd
000000c0: 61b2 b43d c294 153d c8d3 c43c f50d 133e
000000d0: 0356 8abc 32d7 973d 9c71 093e 1b53 943a
000000e0: d3d9 fe3c 3307 b8bd d3ed 59bd 79e9 163e
000000f0: 0e79 453d 381c e23d e294 d03d 0128 f33c
00000100: e569 e23c adec 263d bed3 9ebd 43fb d93d
00000110: 4911 7b3d 17bc b7bc c318 6bbd 89ec eb3c
00000120: 5d25 debc 3f55 8bb8 11b5 093d f99b febb
00000130: 5180 403e b2d5 203c 3e3c 113d 6f2d d7b9
00000140: 0524 36be d158 b83d 1717 70bd d902 373e
00000150: 3e29 b2bd 669f d0bd 478d 333d ffd9 5cba
00000160: 5e6b f53c a262 383e 4e39 283d 34db 963d
00000170: f7f4 903d b2ab 45bc d767 1e3e ccc3 083e
00000180: bf0b be3c b94c ee3d ac73 fd3c d2ce 9b3d
00000190: 7b7e 3c3b 75bd 583d 6dd0 9738 ad6a 473e
000001a0: 4c08 bbbd bb6f acbd a8e2 483e b06c e5bd
000001b0: 5e9d 17bd abaf c13d 1e72 c6bd 8221 8f3d
000001c0: 866a 15be 2db3 983d bb09 983d 1dc7 b9bd
000001d0: d581 20bd 4518 e13c a0a8 3f3d 90f6 df3b
000001e0: 8f8d 9d3d 07de bfbd c921 f3bd c69f a93b
000001f0: f6b2 17bd d914 c1bd 4c9c 623e 8593 e43c
00000200: 1ba0 8e3d 70cd 13bd 5be2 893c 278c b33d
00000210: 00ee 1ebe b60a 04be 1c37 aabd de7f 003c
00000220: 11bf 69bd 5360 76bc e959 50be ba57 bf3d
00000230: bc92 53bc 53eb 32be b747 f0bd 4ba6 51be
00000240: 7315 06bd 9a59 90bb 7a69 de3d da38 3fbe
00000250: ca01 7d3e c03f bbbc c07a 32bd 5e69 55be
00000260: 6478 af3d c66b 52bd 2bd0 963d d78e fe3d
00000270: 0cf6 293d a0a5 ccbd 7f22 12bd 73cb fcbd
00000280: 8eea 1dbe fc1d b8bc 1a0e e6bb dee4 9d3d
00000290: 734e 56bd b41c bc3d 15df 49bd d871 f73c
000002a0: e09d f03b 6cf3 8ebb 0790 103d 7cbc 9fbd
000002b0: 0e62 25bd 011f cc3c 192f 73be 1121 23be
000002c0: 97bb 58bd 5fe9 8dbd 5ff4 2fbd 5c99 44be
000002d0: 5771 133e 713e 8a3d 5eb6 0fbe 6525 7abd
000002e0: 67f1 f9bc d601 07be 67f3 81bc b81d 2cbd
000002f0: 5789 d0bd b184 7dbd 97ad dbbd a4df cdbc
00000300: 7de9 57bd c203 be3d 02ee 393c 0ba6 31bd
00000310: 9a2a 6dbd 1959 f6bd 6b08 b23c d2ec 4dbd
00000320: bbd1 873d e0d5 0abd 26a1 90bc af5a 27bd
00000330: 7a1c 9dbd 411f 3abd 1bf2 ffbd 74dd eebc
00000340: 8e9e ae3d 4895 a43d 3580 c53c 2f62 a43d
00000350: faf9 dcbd 0b88 963d 8633 473e 2429 cdbd
00000360: 3508 923c 70d8 713d 8c80 cc3a f198 62bd
00000370: 4b26 e33c ff60 19bd 0c69 d3bd 23d0 2bbe
00000380: 15a3 343d 5e5a ac3d a217 d7bd 97ba e63d
00000390: 5902 45be 42bb 18bd 8ff7 d13d 5a23 26be
000003a0: 188b 84bc d289 bebd dad9 e63d 7d5e 9f3d
000003b0: 8757 db3d 36c8 cbbd c004 60bc 1834 b2bd
000003c0: 68e5 6bbd 28ca 6abe 5c7c 253d 14ee aabc
000003d0: c391 7dbd dcc9 c73b 3662 05bd 1b65 f9bd
000003e0: 7fc0 02be 4c1a 05bd dfd0 ee3d b6b1 b13d
000003f0: a4a2 733d e25a 14be 5773 263e c466 b83b

AFeatRNN.weight_hh_l0 f4 [256, 64]
-0.043826964 0.02994478 0.0025574802 -0.050685573 0.071033 -0.04456165 -0.11162291 0.0073731635
-0.11331484 0.014607312 0.023370584 0.09225084 0.10777781 -0.18833765 0.1100708 -0.04845133
-0.11165816 -0.05719835 -0.008149917 -0.016509697 -0.10555783 0.018499928 -0.15188414 0.09892719
-0.06114115 0.04740225 0.21978842 -0.041441277 0.1411005 0.0011897436 0.07683781 -0.121384
-0.025054276 -0.17292912 -0.039846025 0.15728833 -0.07519351 -0.084160574 0.094369166 -0.29596487
0.009406974 0.12292195 0.120984 -0.09368485 0.13544916 0.09365212 -0.016506245 0.07167587
0.19461274 -0.08197054 0.004402237 -0.10729625 0.09389268 -0.060262475 0.09076113 -0.0511027
-0.12893003 0.055771023 -0.022933852 0.061946034 -0.16887869 -0.12818265 -0.13732857 0.0016677027
0.114575006 0.008327639 -0.13800131 0.109276004 -0.06518044 -0.10120324 -0.0035160084 -0.039018724
0.07713784 0.06820504 -0.10446439 -0.120626524 0.073035195 -0.042493504 0.106092386 0.08836517
-0.08586721 -0.018465115 0.119949706 0.07596147 -0.043814786 -3.0242786e-06 -0.04358515 -0.13790345
0.023417031 -0.13329487 0.116519935 -0.039735146 0.0032440529 -0.039554887 0.029985389 -0.031180443
0.006363814 -0.016242014 -0.073962286 0.13222034 0.12445344 -0.025402954 0.076523 0.08613876
0.087648295 -0.02005404 0.078147046 0.17228453 -0.012480004 -0.11752909 0.03429867 -0.1596953
-0.16284315 -0.07438303 0.13461097 -0.16827561 0.09211968 -0.18274236 0.015864115 0.06344984
-0.03560183 -0.112999685 -0.053658642 -0.08753506 0.06202387 -0.00815991 0.08655776 -0.114871845
-0.033338986 -0.12148207 -0.07574782 -0.035216063 0.051633537 -0.049517117 0.018397313 0.02009305
-0.0041293884 -0.109299354 0.113428466 -0.025696993 -0.02990099 0.03258229 -0.0005967197 -0.0006729986
-0.07653705 -0.036388706 -0.055861328 -0.03744517 0.10129283 -0.095143214 -0.039615754 0.00040439444
-0.10927185 0.05936801 -0.08401647 -0.07070841 0.06652928 -0.052425995 0.10631221 -0.01123548
0.08820481 0.01949232 0.04923801 -0.00059301854 0.12955119 0.19979043 -0.025108844 -0.17239788
0.09550285 0.08165228 -0.032252584 -0.07136369 0.124447286 -0.044045847 -0.0875001 -0.10952195
-0.15803894 -0.05986697 0.023817336 0.017732123 -0.19720976 -0.026077108 0.0665916 -0.111932054
0.0510116 -0.05953746 -0.021836305 0.027880145 -0.07344425 0.08048846 -0.13788964 -0.06587151
0.03183163 0.17644517 0.01896461 0.12076485 -0.04058841 -0.08978947 -0.016981747 0.054261353
0.019417664 0.0055388873 0.00060413656 -0.102209106 -0.05020684 0.041901875 0.12314905 0.06688015
0.04625519 0.05290697 0.062363375 -0.048232544 0.1045519 -0.103696615 -0.062759735 0.033296656
-0.04186969 0.009161267 -0.004621448 0.028355896 -0.077437796 -0.07904969 0.018984394 -0.1129461
-0.12845549 -0.05308152 -0.06745589 -0.05608062 0.030678725 -0.04304255 0.05603588 -0.12083308
-0.047219045 0.21542253 0.11596282 -0.11583747 -0.04860736 0.18882364 0.06400032 0.021018067
0.05312916 0.02841137 0.016827201 0.032453947 0.028812572 -0.061879344 0.10027125 0.048437722
-0.0005004179 -0.15763086 0.026825277 -0.01654594 0.1024386 -0.031089589 -0.039321948 -0.0971931
00000000: e783 33bd c14e f53c 669b 273b ad9b 4fbd
00000010: c079 913d 4786 36bd 8d9a e4bd 949a f13b
00000020: 9c11 e8bd 8253 6f3c ab73 bf3c 02ee bc3d
00000030: 9dba dc3d 96db 40be cd6c e13d e774 46bd
00000040: 09ad e4bd d148 6abd 3b87 05bc 583f 87bc
00000050: b42e d8bd 298d 973c 8487 1bbe 579a ca3d
00000060: 246f 7abd dd28 423d 3710 613e 54be 29bd
00000070: a67c 103e 2cf1 9b3a 245d 9d3d 2d98 f8bd
00000080: a03e cdbc 5514 31be 9635 23bd 3110 213e
00000090: 0eff 99bd 615c acbd 9f44 c13d b588 97be
000000a0: b51f 1a3c 81be fb3d 76c6 f73d d8dd bfbd
000000b0: 2fb3 0a3e afcc bf3d 1b38 87bc ccca 923d
000000c0: 9048 473e 2ce0 a7bd a440 903b 23be dbbd
000000d0: ce4a c03d c9d5 76bd f9e0 b93d 1151 51bd
000000e0: 3c06 04be 2870 643d c6df bbbc 20bb 7d3d
000000f0: 89ee 2cbe 5042 03be dc9f 0cbe d196 da3a
00000100: 4da6 ea3d a670 083c 3750 0dbe 19cc df3d
00000110: 537d 85bd a543 cfbd d56c 66bb 19d2 1fbd
00000120: 72fa 9d3d 16af 8b3d 6df1 d5bd 0a0b f7bd
00000130: 7a93 953d ab0d 2ebd f746 d93d ccf8 b43d
00000140: 26db afbd 2744 97bc 31a8 f53d b091 9b3d
00000150: 2277 33bd b6f4 4ab6 5886 32bd 9036 0dbe
00000160: 13d5 bf3c 737e 08be 01a2 ee3d 52c1 22bd
00000170: 2d9a 543b 4e04 22bd eba3 f53c 216e ffbc
00000180: 8b87 d03b f90d 85bc 8a79 97bd c564 073e
00000190: 72e1 fe3d db19 d0bc 17b8 9c3d 8569 b03d
000001a0: f380 b33d 5f48 a4bc 8f0b a03d 5b6b 303e
000001b0: ee78 4cbc 17b3 f0bd c37c 0c3d 2a87 23be
000001c0: 5bc0 26be 2156 98bd 75d7 093e 7150 2cbe
000001d0: 3ea9 bc3d d020 3bbe 76f5 813c fdf1 813d
000001e0: 39d3 11bd 616c e7bd 2ac9 5bbd 9545 b3bd
000001f0: be0c 7e3d 25b1 05bc 3245 b13d ee41 ebbd
00000200: 768e 08bd 97cb f8bd ac21 9bbd b83e 10bd
00000210: b07d 533d 76d2 4abd f6b5 963c 2e9a a43c
00000220: d24f 87bb 57d8 dfbd 2f4d e83d 8082 d2bc
00000230: ecf2 f4bc 0275 053d 2e6d 1cba 2c6c 30ba
00000240: 75bf 9cbd 530c 15bd d9ce 64bd 1b60 19bd
00000250: 9e72 cf3d 72da c2bd 2144 22bd e704 d439
00000260: ebc9 dfbd df2b 733d d410 acbd 92cf 90bd
00000270: 8140 883d a4bc 56bd 37ba d93d 0515 38bc
00000280: b9a4 b43d 5cae 9f3c ccad 493d cd74 1bba
00000290: 11a9 043e dd95 4c3e 10b1 cdbc 1289 30be
000002a0: 0097 c33d 5039 a73d 491b 04bd 2027 92bd
000002b0: 38de fe3d 6b69 34bd 4133 b3bd 0b4d e0bd
000002c0: f6d4 21be 1137 75bd 931c c33c f542 913c
000002d0: 5bf1 49be a99f d5bc 2d61 883d a23c e5bd
000002e0: 8af1 503d 8ddd 73bd 0de2 b2bc e764 e43c
000002f0: f069 96bd 22d7 a43d f132 0dbe a4e7 86bd
00000300: e261 023d 0bae 343e ab5b 9b3c 9053 f73d
00000310: 0840 26bd 8be3 b7bd 4e1d 8bbc 2741 5e3d
00000320: cb11 9f3c 8e7f b53b eb5e 1e3a 0253 d1bd
00000330: b0a5 4dbd 4da1 2b3d 9235 fc3d 76f8 883d
00000340: 1576 3d3d fbb4 583d bd70 7f3d 7d8f 45bd
00000350: 4e1f d63d e45e d4bd 2d88 80bd 1362 083d
00000360: 8d7f 2bbd 2419 163c 846f 97bb a04a e83c
00000370: b597 9ebd cee4 a1bd 2985 9b3c 4950 e7bd
00000380: d689 03be 026c 59bd 5026 8abd cbb4 65bd
00000390: f351 fb3c 634d 30bd e185 653d 5577 f7bd
000003a0: c268 41bd b997 5c3e ea7d ed3d 323c edbd
000003b0: 8318 47bd fc5a 413e 9a12 833d 152e ac3c
000003c0: f69d 593d f6be e83c 33d9 893c 6eee 043d
000003d0: 5808 ec3c 3275 7dbd 035b cd3d a266 463d
000003e0: 7a2e 03ba fc69 21be afc0 db3c 5a8b 87bc
000003f0: 54cb d13d 98af febc 0d10 21bd 2d0d c7bd

AFeatRNN.bias_ih_l0 f4 [256]
0.14488035 0.058516473 -0.09828303 -0.06912722 0.06543683 -0.046869807 0.04369563 0.0039208564
0.07950211 0.07831223 0.051484913 0.061959084 -0.059960928 0.003606582 -0.0022761638 0.054333225
0.059133988 -0.03178661 0.025002757 0.022323912 0.04334812 0.103272125 0.0028761807 0.03920243
-0.065072216 0.07771415 0.009374984 -0.023078794 0.008500551 0.069937944 0.06443206 0.1357833
0.055586934 -0.025430093 0.123342924 -0.11017531 0.08309984 0.07781066 -0.09443183 -0.095934354
-0.07538127 0.04443638 -0.040698286 0.092596054 0.04625724 -0.08706774 -0.05768885 0.11355098
0.068799354 -0.12542376 0.09739282 -0.102952205 0.004505794 0.11459584 -0.09754986 0.0049259416
0.07825507 0.049520317 0.086862594 0.08896156 -0.04832706 0.08350789 -0.090297155 -0.09598977
0.0016736384 0.065495655 0.13011755 -0.053660482 0.040348787 0.04249736 0.055739515 -0.119442485
0.07523734 0.08936177 -0.04435186 0.03765193 0.063691266 0.024254598 -0.057316884 0.06198504
-0.028927486 -0.032664165 -0.11437043 0.08461014 0.061716616 -0.023478406 -0.05220037 -0.060894016
0.07918139 -0.0003436552 -0.010426264 -0.003459979 -0.10750131 -0.09765155 0.087669194 0.025438808
0.07414174 0.11374008 -0.14555386 0.03342091 0.12130532 -0.049920756 0.022549067 -0.09657655
-0.046658292 -0.077713355 -0.009884912 -0.06032881 -0.031984698 -0.04977594 0.11318449 -0.053081993
0.04005015 0.03495292 -0.11503352 0.0072883684 -0.119667016 -0.07804013 -0.15142602 0.08669022
0.010530342 -0.09767316 0.06305029 0.0904282 -0.025696307 -0.0012997562 -0.089195475 -0.007430565
-0.07853756 0.08928005 0.03208479 -0.114483155 0.071077086 -0.032814372 -0.01502794 0.12700582
-0.06172032 -0.020675832 0.032100726 0.06822642 0.10404233 0.059987105 -0.037140917 -0.04553772
-0.05201982 -0.051969405 -0.11935168 0.108947515 -0.06494657 0.082274616 0.107108645 -0.02211505
0.03353781 -0.13569681 -0.04222775 -0.030505508 -0.101581395 0.0011016062 -0.01056061 -0.0870319
0.069612585 -0.05291174 -0.015823051 0.025598489 -0.02925325 0.052053645 0.08156634 -0.001485613
-0.058798786 -0.11140382 0.019167716 0.04435292 0.028961597 -0.10366997 -0.088367015 0.11599746
0.05622405 0.08362689 0.040824182 0.061338246 -0.086848386 0.021993658 0.06614629 -0.101966165
0.08344004 -0.107662775 0.102281585 -0.0054485323 -0.018238898 0.10991171 -0.12565905 -0.027621528
0.14173387 -0.021058174 0.019699654 -0.017784553 0.12837826 0.04646191 0.053761132 0.0021207018
0.082274474 -0.054298762 0.042571306 -0.01395077 0.051575348 0.019455729 -0.016569937 -0.0515003
0.076735735 0.08093373 -0.09028033 0.0053504547 -0.0008016885 0.04774779 0.14823173 -0.11002059
0.03864784 -0.11236552 -0.076820016 -0.00044826104 -0.005101387 -0.06460467 -0.07702041 0.025175923
0.058678504 -0.022003138 -0.091803 -0.06156212 -0.083805725 0.015948402 0.09666449 0.046094485
0.12923604 0.15258406 0.09521614 0.106621794 -0.08573795 0.112802476 -0.09407052 0.09812604
-0.036337018 -0.04796711 0.0383763 0.064356335 -0.0024046768 -0.032270912 -0.040754344 -0.080747366
-0.14171833 0.10380667 -0.0041671055 0.08014474 0.048547033 -0.11342027 -0.04425656 -0.066283986
00000000: 845b 143e f8ae 6f3d 9d48 c9bd 9292 8dbd
00000010: bf03 863d 8efa 3fbd 30fa 323d 877a 803b
00000020: 01d2 a23d 2a62 a03d d8e1 523d cfc8 7d3d
00000030: 9799 75bd 685c 6c3b b12b 15bb 848c 5e3d
00000040: 7b36 723d ad32 02bd 95d2 cc3c a3e0 b63c
00000050: cc8d 313d 5680 d33d 4e7e 3c3b ba92 203d
00000060: 9544 85bd 9928 9f3d 8899 193c bd0f bdbc
00000070: e545 0b3c a03b 8f3d f5f4 833d c70a 0b3e
00000080: 20af 633d c552 d0bc 379b fc3d 98a3 e1bd
00000090: 4030 aa3d 325b 9f3d 7a65 c1bd 3b79 c4bd
000000a0: 7f61 9abd ec02 363d 3fb3 26bd 00a3 bd3d
000000b0: 3b78 3d3d 9250 b2bd 254b 6cbd 6b8d e83d
000000c0: ade6 8c3d 166f 00be e375 c73d 9bd8 d2bd
000000d0: 57a5 933b 39b1 ea3d 39c8 c7bd cb69 a13b
000000e0: 3244 a03d d1d5 4a3d 04e5 b13d 7a31 b63d
000000f0: 98f2 45bd 2f06 ab3d b7ed b8bd 4996 c4bd
00000100: fc5d db3a 9622 863d 893d 053e 18cb 5bbd
00000110: c544 253d b611 2e3d 1e4f 643d 439e f4bd
00000120: 0916 9a3d 4e03 b73d 4caa 35bd e938 1a3d
00000130: 9170 823d 94b1 c63c 1cc5 6abd 06e4 7d3d
00000140: 56f9 ecbc dcca 05bd 0b3b eabd 1548 ad3d
00000150: 90ca 7c3d c955 c0bc 0ed0 55bd 016c 79bd
00000160: da29 a23d 9f2c b4b9 ecd2 2abc d1c0 62bb
00000170: a629 dcbd 89fd c7bd e88b b33d 0c65 d03c
00000180: a0d7 973d 8ff0 e83d 120c 15be 5de4 083d
00000190: ec6e f83d b579 4cbd d2b8 b83c edc9 c5bd
000001a0: c41c 3fbd 2e28 9fbd 53f4 21bc 581b 77bd
000001b0: 6302 03bd dbe1 4bbd 45cd e73d 816c 59bd
000001c0: a00b 243d cb2a 0f3d b296 ebbd 44d3 ee3b
000001d0: fb13 f5bd 81d3 9fbd 6c0f 1bbe a48a b13d
000001e0: 7587 2c3c de08 c8bd 8320 813d 6c32 b93d
000001f0: 1081 d2bc 955c aaba 1eac b6bd 197c f3bb
00000200: 4dd8 a0bd 75d8 b63d 576b 033d 2576 eabd
00000210: dd90 913d 5d68 06bd c037 76bc d00d 023e
00000220: 72ce 7cbd 5d60 a9bc 0d7c 033d 4bba 8b3d
00000230: 2514 d53d 0ab5 753d 1321 18bd c385 3abd
00000240: bc12 55bd dfdd 54bd a76e f4bd e01f df3d
00000250: b502 85bd 987f a83d c75b db3d 9f2a b5bc
00000260: f15e 093d 1bf4 0abe 01f7 2cbd b0e6 f9bc
00000270: e809 d0bd c563 903a 6906 2dbc c83d b2bd
00000280: 0b91 8e3d fbb9 58bd 589f 81bc ecb3 d13c
00000290: 83a4 efbc 3436 553d 410c a73d e6b8 c2ba
000002a0: ffd6 70bd b027 e4bd 9d05 9d3c 68ab 353d
000002b0: df40 ed3c ec50 d4bd c4f9 b4bd 1490 ed3d
000002c0: 304b 663d 9344 ab3d 4237 273d d03d 7b3d
000002d0: 91dd b1bd 0b2c b43c b577 873d a3d3 d0bd
000002e0: 9de2 aa3d 4d7e dcbd 0279 d13d 9a89 b2bb
000002f0: be69 95bc 6419 e13d c4ac 00be 8b46 e2bc
00000300: af22 113e 3182 acbc 2b61 a13c e9b0 91bc
00000310: 9775 033e d84e 3e3d a234 5c3d 79fb 0a3b
00000320: 857f a83d 6168 5ebd 405f 2e3d c591 64bc
00000330: ac40 533d 9f61 9f3c adbd 87bc fbf1 52bd
00000340: a027 9d3d 95c0 a53d e5e4 b8bd de52 af3b
00000350: 6828 52ba 3093 433d 0fca 173e 7a52 e1bd
00000360: 334d 1e3d e51f e6bd d053 9dbd 9404 ebb9
00000370: 8929 a7bb 744f 84bd e0bc 9dbd bd3d ce3c
00000380: df58 703d ed3f b4bc 3603 bcbd 9028 7cbd
00000390: 56a2 abbd 39a6 823c 08f8 c53d 92cd 3c3d
000003a0: 7456 043e ff3e 1c3e ae00 c33d 875c da3d
000003b0: 6197 afbd fc04 e73d 0ba8 c0bd 4ef6 c83d
000003c0: 20d6 14bd 2979 44bd 7830 1d3d 41cd 833d
000003d0: c897 1dbb 812e 04bd 07ee 26bd e05e a5bd
000003e0: 9c1e 11be 9798 d43d 378c 88bb ed22 a43d
000003f0: 41d9 463d e348 e8bd 5e46 35bd e6bf 87bd

AFeatRNN.bias_hh_l0 f4 [256]
0.08362822 0.06521149 0.05120891 0.11194298 0.1709461 0.09633908 0.15254585 0.097001955
-0.0070350803 -0.111778975 0.13924293 0.008022006 -0.04730239 -0.096334286 0.03968412 0.02198221
0.018020935 -0.14547825 0.11759185 0.11066173 -0.004658326 -0.06315545 0.06679557 0.1025274
-0.050561402 0.09596057 0.003550867 0.12920949 -0.12900655 -0.06969438 0.014106023 0.061292134
0.09955709 -0.009870961 -0.042635676 -0.108839065 -0.043078583 0.08615172 -0.0020172498 0.12693337
0.091812454 -0.017392306 0.039075863 -0.14741507 0.011562361 -0.06250768 0.015756035 0.057140984
0.08177664 0.0011649302 -0.031795446 -0.09803934 0.023683857 -0.08959683 -0.04338368 0.06943518
-0.05817618 -0.0048974063 0.08176768 0.004666727 -0.026440658 0.0068389163 0.034689397 -0.090053625
-0.05251122 -0.019680992 -0.04809032 0.06723557 0.012874105 0.031926386 0.097465955 0.05276979
0.14028166 0.07613052 -0.09262653 -0.07946934 -0.09448495 0.10100886 0.047926806 -0.08074548
0.092972346 -0.08759164 -0.10025317 -0.06607413 0.032688767 -0.07240935 -0.10239474 -0.02187063
-0.0312907 0.013743289 -0.05420598 -0.04125559 -0.009849437 0.07661388 -0.0019421366 -0.08130582
0.019527705 0.059751954 0.039138794 -0.15293628 0.13936676 0.053532943 0.0380621 -0.120954715
-0.08153844 -0.067425005 -0.033556078 0.07523351 -0.043235347 0.0043594325 0.00567362 0.031540323
-0.053551584 -0.0370943 0.07559763 0.037958525 0.11076343 -0.055570174 0.035050616 -0.060409233
0.060432687 -0.04891959 0.01001588 0.030677004 0.08386884 0.08046876 0.07236271 0.0006627934
0.087913014 0.09141732 0.028918637 -0.04878063 0.07839049 0.05892823 -0.020022837 -0.069797516
0.04554412 0.022831572 0.117540516 0.02611116 0.10042863 -0.10842069 -0.08386155 0.032564666
-0.027587056 0.005649951 0.08086172 0.083072245 -0.025063317 -0.07202862 0.010256045 -0.05305092
0.0845226 -0.13452636 0.019185966 0.054131556 -0.122269005 0.05534244 0.11801451 -0.073739275
0.06339983 -0.015035262 0.11643587 0.08497165 0.108915605 -0.011012974 -0.008625887 0.020704318
-0.11504906 0.10211152 -0.019312419 -0.014571965 -0.11168718 -0.07164396 0.003293138 -0.09256348
0.033767127 0.078851014 0.09533843 0.044739623 -0.036227565 -0.060877662 -0.048614778 0.1076997
0.0078948075 0.045268815 0.08985393 -0.015899593 -0.04116779 -0.06381755 0.106789276 0.0833504
0.07380378 -0.098565444 0.035932377 0.1324955 0.018249143 0.07391898 -0.07015198 -0.043569062
-0.03141596 0.017147887 0.014327475 0.10020582 -0.06472995 0.033129692 -0.0074938824 0.09433387
-0.094815426 -0.050360598 0.08204224 -0.09629815 0.0018905806 0.12877929 -0.00043298936 -0.0409211
-0.08587803 -0.07313744 -0.084838 -0.07365383 -0.10071097 0.119673535 0.10430457 0.029948806
-0.056791432 -0.04874521 -0.010535574 -0.06431548 -0.06066202 -0.03164585 0.090600014 -0.05016631
-0.054606255 -0.04345823 0.099386245 -0.07171246 0.13680756 0.036190584 -0.0812574 0.07356456
-0.09004979 -0.05030232 0.0035841018 -0.039601803 -0.080257855 -0.0070299557 0.019419145 0.09433763
-0.034404345 -0.027869387 -0.011617719 0.06056618 -0.11867976 -0.04737211 -0.017442342 -0.118674025
00000000: 4645 ab3d 9a8d 853d 6fc0 513d 5c42 e53d
00000010: 7f0c 2f3e 6c4d c53d fb34 1c3e f6a8 c63d
00000020: 8886 e6bb 60ec e4bd b395 0e3e bb6e 033c
00000030: 27c0 41bd e94a c5bd d18b 223d 0914 b43c
00000040: a4a0 933c 40f8 14be ffd3 f03d 9ea2 e23d
00000050: dfa4 98bb a557 81bd 1ecc 883d e3f9 d13d
00000060: 7919 4fbd fa86 c43d aab5 683b 7e4f 043e
00000070: 4b1a 04be edbb 8ebd f31c 673c 760d 7b3d
00000080: 96e4 cb3d d0b9 21bc bfa2 2ebd 04e7 debd
00000090: 2b73 30bd 5070 b03d d633 04bb d2fa 013e
000000a0: 2b08 bc3d 4f7a 8ebc 030e 203d faf3 16be
000000b0: 0f70 3d3c 0704 80bd cd12 813c aa0c 6a3d
000000c0: 837a a73d 92b0 983a f13b 02bd d9c8 c8bd
000000d0: a604 c23c 8b7e b7bd 16b3 31bd 0834 8e3d
000000e0: 254a 6ebd 6c7a a0bb d075 a73d 58eb 983b
000000f0: 149a d8bc fd18 e03b 7816 0e3d 096e b8bd
00000100: 0116 57bd 083a a1bc 5bfa 44bd cdb2 893d
00000110: e9ed 523c 3ec5 023d 3b9c c73d 2325 583d
00000120: ffa5 0f3e 51ea 9b3d fab2 bdbd d2c0 a2bd
00000130: 5381 c1bd bcdd ce3d e64e 443d e35d a5bd
00000140: 4968 be3d 3f63 b3bd 8951 cdbd e051 87bd
00000150: a8e4 053d 5a4b 94bd 55b4 d1bd 092a b3bc
00000160: ad2a 00bd 882b 613c 1707 5ebd 9ffb 28bd
00000170: 885f 21bc bde7 9c3d 4a8f feba aa83 a6bd
00000180: 91f8 9f3c 77be 743d 0050 203d 549b 1cbe
00000190: 29b6 0e3e 5c45 5b3d 01e7 1b3d 1bb7 f7bd
000001a0: a0fd a6bd 1f16 8abd 1972 09bd 0714 9a3d
000001b0: 8c17 31bd 92d9 8e3b c6e9 b93b 6d30 013d
000001c0: e858 5bbd 31f0 17bd eed2 9a3d 667a 1b3d
000001d0: f0d7 e23d 8d9d 63bd 3c91 0f3d ac6f 77bd
000001e0: 4488 773d e85f 48bd a519 243c 574e fb3c
000001f0: 6dc3 ab3d cecc a43d e732 943d 50bf 2d3a
00000200: bd0b b43d 0139 bb3d c7e6 ec3c 33ce 47bd
00000210: 318b a03d ba5e 713d ef06 a4bc 00f2 8ebd
00000220: 798c 3a3d 4709 bb3c 15b9 f03d 12e7 d53c
00000230: 87ad cd3d ab0b debd 9bbf abbd 8762 053d
00000240: 40fe e1bc 3923 b93b d49a a53d c821 aa3d
00000250: 9651 cdbc be83 93bd f808 283c ec4b 59bd
00000260: 2f1a ad3d 47c1 09be e32b 9d3c 0db9 5d3d
00000270: 2c68 fabd c1ae 623d 97b1 f13d 9e04 97bd
00000280: c5d7 813d 7656 76bc ee75 ee3d 9e05 ae3d
00000290: 250f df3d c36f 34bc 9853 0dbc 1a9c a93c
000002a0: d79e ebbd d81f d13d 1435 9ebc 40bf 6ebc
000002b0: 40bc e4bd 12ba 92bd b0d1 573b ec91 bdbd
000002c0: 664f 0a3d a47c a13d cb40 c33d e540 373d
000002d0: 5b63 14bd db5a 79bd 4a20 47bd a991 dc3d
000002e0: 3959 013c cb6b 393d 5605 b83d dd3f 82bc
000002f0: 8e9f 28bd c7b2 82bd 56b4 da3d 9db3 aa3d
00000300: 7026 973d aedc c9bd d42d 133d e6ac 073e
00000310: 3a7f 953c d662 973d d7ab 8fbd 7975 32bd
00000320: 06ae 00bd ba79 8c3c c9bd 6a3c b538 cd3d
00000330: 2391 84bd 00b3 073d 3e8f f5bb 1e32 c13d
00000340: 972e c2bd ea46 4ebd c305 a83d f737 c5bd
00000350: 5ccd f73a b8de 033e d902 e3b9 e29c 27bd
00000360: d2e0 afbd 15c9 95bd 8cbf adbd d2d7 96bd
00000370: 8e41 cebd 6617 f53d a29d d53d 3357 f53c
00000380: 229e 68bd 0fa9 47bd 669d 2cbc d6b7 83bd
00000390: bd78 78bd 149f 01bd 808c b93d 307b 4dbd
000003a0: cfaa 5fbd 4201 32bd 048b cb3d fbdd 92bd
000003b0: 4817 0c3e 943c 143d 486a a6bd 04a9 963d
000003c0: 066c b8bd ce09 4ebd 40e3 6a3b 8035 22bd
000003d0: 3b5e a4bd 8b5b e6bb e614 9f3c 1634 c13d
000003e0: 92eb 0cbd 574e e4bc 3f58 3ebc 3e14 783d
000003f0: 600e f3bd 4209 42bd 3ee3 8ebc 5e0b f3bd

AFeatRNN.weight_ih_l1 f4 [256, 64]
-0.11396161 0.011716843 -0.068273775 0.14983985 -0.02006213 -0.002268067 -0.18930852 -0.028285218
-0.17116015 -0.009887879 0.14091176 -0.032860063 0.09020709 -0.030968316 0.08172344 0.025238326
0.11457776 0.07762536 0.008795274 0.13613027 0.012753973 -0.0030696245 0.003939622 0.20309506
-0.037189998 -0.050226483 0.028041473 -0.15124969 0.056494404 0.06572274 0.006903463 0.04083779
0.043639086 -0.19987972 0.09304816 0.17504781 -0.22941 -0.13049841 0.0045954003 -0.034434415
-0.19378726 -0.015870014 -0.0092982175 -0.08227549 0.21366866 0.11774128 0.017816048 0.23239572
0.050927263 0.17039281 -0.043322966 0.14306939 0.22038205 -0.13843447 -0.022402879 -0.1009683
-0.016770402 0.056953516 0.11745233 -0.04479423 -0.09214432 -0.03936122 -0.103691906 -0.032240473
-0.094555214 0.053665005 0.07953199 0.08259433 0.07956897 0.11126034 -0.134947 -0.016976539
-0.06394067 -0.10118399 -0.07501415 0.07261581 -0.019893667 -0.014331119 -0.12108961 0.07149871
-0.12449725 0.06436336 -0.16238569 0.19679426 -0.055681523 -0.029963387 -0.011386408 0.08547018
-0.13608988 -0.140281 0.029648807 -0.11575013 -0.05445209 -0.026155228 -0.09812753 -0.14756946
-0.14019094 -0.11527541 0.09412325 0.063235894 -0.039267484 -0.21040192 -0.080699764 0.039025843
-0.05989543 0.078030996 -0.10954574 -0.02619618 0.0711466 -0.039564945 0.0730454 0.09209383
0.10830731 0.025117675 -0.09958277 -0.11164809 0.1135732 0.035959765 0.036876567 -0.04776698
0.067691125 0.15327244 0.09742465 -0.02285168 -0.023883777 0.015841583 -0.010925933 -0.12922987
-0.18304878 0.022091407 -0.1152894 -0.075249135 -0.06972365 0.13481054 -0.1250751 -0.03883867
0.046695746 0.054450504 0.14177082 -0.10590201 0.11653044 -0.12502624 0.03288586 -0.048452005
-0.0066236164 -0.11224478 0.08109904 0.17797396 -0.026143359 0.017711466 -0.112721995 0.13103512
-0.14033261 -0.0025373842 -0.04800485 -0.022000767 -0.0015582747 -0.0585932 0.11256931 0.07857563
-0.07263374 -0.16540731 0.11574069 0.07796227 0.07386777 -0.095569134 -0.04803502 -0.003839452
0.036687046 -0.091365024 0.047364432 0.028324774 0.12280473 0.15738826 0.054944042 0.09415403
0.056060582 0.13379368 0.025008427 0.017814728 0.055958956 -0.07772208 0.055546515 0.091264814
0.109650865 -0.11904749 0.0678087 0.0019702925 0.04114056 -0.018352663 0.035017762 0.09620698
-0.2795918 -0.14567156 0.083888836 -0.06156446 0.17685676 0.110196605 0.01283243 -0.074645124
-0.111826845 -0.038106654 -0.058549892 0.13060926 0.049931243 0.064181216 -0.09613485 -0.027037218
-0.09763625 -0.1204664 -0.12018338 0.14026845 -0.0472679 -0.06486675 0.09810244 0.17601274
-0.051827338 -0.18769233 0.22548532 0.07019878 0.14855133 0.07740572 0.013024478 -0.0033343511
0.047155634 -0.032835227 0.0018134337 0.02494277 0.0271965 0.020910125 -0.13429213 -0.21132119
-0.0056298026 0.16940403 0.04095505 0.13833398 0.2016835 0.2877468 0.0020631037 -0.07152591
-0.0047630384 -0.09082598 0.08650494 -0.027870739 -0.08681792 -0.09864458 -0.06859613 -0.08566054
0.12166169 0.011968437 0.02924396 -0.054543883 -0.03898788 0.077010676 -0.06426606 0.064807944
00000000: b464 e9bd 00f8 3f3c 1fd3 8bbd 9e6f 193e
00000010: 5659 a4bc daa3 14bb 18da 41be 67b6 e7bc
00000020: 9b44 2fbe c500 22bc 2c4b 103e 4698 06bd
00000030: 7fbe b83d 44b1 fdbc 9e5e a73d 9bc0 ce3c
00000040: bfa7 ea3d 0bfa 9e3d 0e1a 103c bc65 0b3e
00000050: 0af6 503c c12b 49bb f217 813b 27f8 4f3e
00000060: 8a54 18bd 49ba 4dbd 3bb7 e53c 33e1 1abe
00000070: ad66 673d a599 863d 7236 e23b 8745 273d
00000080: e6be 323d 45ad 4cbe 0990 be3d bc3f 333e
00000090: 74ea 6abe 60a1 05be 0395 963b 1a0b 0dbd
000000a0: 2b70 46be d501 82bc 8d57 18bc 0d80 a8bd
000000b0: f5cb 5a3e 5722 f13d f6f2 913c 25f9 6d3e
000000c0: 1b99 503d 747b 2e3e 6c73 31bd c880 123e
000000d0: d5ab 613e c4c1 0dbe 3e86 b7bc 78c8 cebd
000000e0: 1562 89bc 1748 693d d98a f03d 287a 37bd
000000f0: 29b6 bcbd 3b39 21bd 6c5c d4bd 960e 04bd
00000100: 2aa6 c1bd d6cf 5b3d abe1 a23d 3727 a93d
00000110: 0ef5 a23d 76dc e33d 8c2f 0abe 6212 8bbc
00000120: 53f3 82bd 8d39 cfbd 05a1 99bd 99b7 943d
00000130: 0bf8 a2bc 12cd 6abc d4fd f7bd ea6d 923d
00000140: 6af8 febd f0d0 833d 6f48 26be 6f84 493e
00000150: 4f12 64bd c775 f5bc 0e8e 3abc fd0a af3d
00000160: 255b 0bbe d3a5 0fbe 0ee2 f23c 670e edbd
00000170: 2809 5fbd 7d43 d6bc 16f7 c8bd 731c 17be
00000180: 378e 0fbe 8415 ecbd b1c3 c03d d281 813d
00000190: f1d6 20bd 9a73 57be eb45 a5bd 90d9 1f3d
000001a0: e954 75bd b7ce 9f3d 8459 e0bd 5f99 d6bc
000001b0: 4fb5 913d da0e 22bd d498 953d b19b bc3d
000001c0: 39d0 dd3d 95c3 cd3c 0df2 cbbd c1a7 e4bd
000001d0: 1199 e83d 8c4a 133d e20b 173d 4fa7 43bd
000001e0: a5a1 8a3d 73f3 1c3e 9386 c73d 7233 bbbc
000001f0: e9a7 c3bc 35c6 813c af02 33bc d654 04be
00000200: 2471 3bbe 0af9 b43c d91c ecbd 381c 9abd
00000210: 46cb 8ebd c60b 0a3e b013 00be 4c15 1fbd
00000220: 0a44 3f3d 7e07 5f3d 5f2c 113e 27e3 d8bd
00000230: 83a7 ee3d e106 00be 53b3 063d 9c75 46bd
00000240: ec0a d9bb 97e0 e5bd 4117 a63d ce3e 363e
00000250: 992a d6bc a317 913c cada e6bd 122e 063e
00000260: 5ab3 0fbe 3e4a 26bb bca0 44bd f43a b4bc
00000270: 063f ccba 6cff 6fbd bd8a e63d 43ec a03d
00000280: 00c1 94bd 8960 29be 7409 ed3d afaa 9f3d
00000290: fc47 973d c0b9 c3bd 5ec0 44bd 519f 7bbb
000002a0: 2845 163d 961d bbbd 3501 423d 5b09 e83c
000002b0: 0c81 fb3d 632a 213e 010d 613d d4d3 c03d
000002c0: c89f 653d 3601 093e 79de cc3c 31f0 913c
000002d0: 3835 653d c12c 9fbd be84 633d 0ce9 ba3d
000002e0: a290 e03d 2ccf f3bd 4adf 8a3d 0620 013b
000002f0: 0183 283d 5358 96bc c96e 0f3d 2a08 c53d
00000300: a826 8fbe ed2a 15be e9cd ab3d 042b 7cbd
00000310: f019 353e c2ae e13d 1d3f 523c 8bdf 98bd
00000320: 7905 e5bd b915 1cbd 03d2 6fbd 6fbe 053e
00000330: b484 4c3d 7171 833d 59e2 c4bd 287d ddbc
00000340: 84f5 c7bd 17b7 f6bd b422 f6bd 88a2 0f3e
00000350: fc9b 41bd dcd8 84bd efe9 c83d af3c 343e
00000360: e748 54bd 6b32 40be a0e5 663e 61c4 8f3d
00000370: d71d 183e e486 9e3d 9f64 553c 2185 5abb
00000380: 4426 413d 3b7e 06bd bdb0 ed3a c854 cc3c
00000390: 32cb de3c b64b ab3c e083 09be 9564 58be
000003a0: 357a b8bb 4078 2d3e 7cc0 273d 6ca7 0d3e
000003b0: 1f86 4e3e 8c53 933e 2335 073b 2d7c 92bd
000003c0: 4313 9cbb f902 babd 8129 b13d 2d51 e4bc
000003d0: 98cd b1bd 2b06 cabd 217c 8cbd cb6e afbd
000003e0: c429 f93d 4317 443c 0791 ef3c 6869 5fbd
000003f0: c1b1 1fbd c6b7 9d3d ed9d 83bd 07ba 843d

AFeatRNN.weight_hh_l1 f4 [256, 64]
0.019282004 0.04257356 -0.04228931 0.029158913 -0.14888208 -0.098205395 0.13935946 -0.08512056
-0.14680174 0.096421085 0.094743446 0.10324304 0.08131301 -0.06630312 -0.06540736 0.09499783
0.08513512 0.1413195 0.08126361 -0.12417442 0.19793381 -0.010263654 -0.03819433 0.04929113
-0.107508376 0.02248703 0.022606177 -0.027651789 -0.09773968 0.16327266 -0.10528912 -0.010611865
0.07617588 -0.03369017 -0.13504802 0.034337483 0.09205785 0.057519518 0.12809509 0.07258479
0.030253556 -0.075686224 0.039384637 0.089634016 -0.011080507 -0.028356355 -0.06542054 -0.016951514
-0.015938994 -0.0018189215 -0.060974672 0.16041659 -0.059332043 -0.009010221 0.1286399 0.03628947
0.07677667 -0.0039745937 -0.086245626 -0.13832974 -0.028064199 0.043565404 -0.09925018 -0.1253822
0.053721752 0.045416832 -0.0013451937 0.16521014 -0.12267933 -0.022394514 0.07469785 -0.05287795
0.019814054 0.012866434 -0.09015685 0.08289769 0.111281194 0.070169225 0.1286543 -0.13483587
-0.093472 0.11098782 0.010280044 0.030775696 -0.07594929 -0.021166703 -0.04501365 -0.0879003
-0.12845825 0.04758449 -0.11485429 0.11378601 -0.088271044 0.06490826 0.08447287 -0.1001572
0.007656613 -0.07261861 -0.05912773 0.057308756 -0.111777425 0.059018355 0.04374203 0.1549493
0.07845382 -0.11408993 0.08144177 0.1404647 -0.10331798 0.047616985 -0.05331601 0.06875236
0.10078508 -0.025476959 0.033003025 -0.06190726 -0.14523542 0.10263868 0.0671384 -0.0281553
-0.034109794 -0.1266735 -0.06228573 0.0030273658 -0.017317295 0.06282466 -0.09629603 0.06862901
-0.063172385 0.015257797 0.04906213 -0.014386702 0.041546322 -0.008508147 0.07951576 0.070530154
-0.04002439 0.08053014 0.11159098 0.11061401 0.06982817 0.055019535 0.10108951 0.0664414
-0.059795395 -0.08387979 0.016576577 0.020826047 -0.0082105305 0.11971537 -0.05116055 -0.058008432
0.0049986024 -0.027004072 -0.064081766 0.10977807 -0.10554541 0.016869526 -0.113704525 -0.12792239
-0.0011444935 0.055168122 -0.10825431 0.08098835 -0.07985675 -0.054501053 -0.031142188 -0.07724752
-0.05203811 -0.05952186 0.022106983 0.12203978 0.06641912 0.00054307806 -0.08479197 -0.05973266
0.043060955 0.1116753 -0.07407462 0.055456974 -0.101201236 -0.06700608 0.10117641 0.005684828
0.047602765 0.0013603905 -0.02807636 0.110452965 -0.1275967 -0.07014925 0.0052458746 0.11182526
-0.14277345 0.11494306 0.015092064 0.012634366 -0.11503777 -0.04521931 -0.115712725 0.1751196
0.08054715 -0.04844842 0.06590668 -0.0468138 0.014988387 0.095594786 -0.027431006 -0.09932925
-0.0011262813 0.10134436 0.10028289 -0.03729226 -0.05234821 0.054884046 -0.15557334 0.03587533
0.07584829 0.08599153 -0.13831379 -0.09051421 -0.09307498 0.10975144 0.008590019 -0.08247941
0.034380488 -0.1495244 0.13787746 -0.027014988 -0.09693033 -0.04777233 0.07704062 -0.009782234
0.008706131 -0.0909165 0.12184859 0.008705067 -0.015738131 -0.07868724 -0.14181781 -0.040035963
-0.010254552 0.10966334 -0.03192751 -0.009250304 -0.10079094 -0.08777575 -0.034390412 0.0048507135
-0.15642582 -0.08422796 0.0019357671 0.08251954 0.014655492 0.047565706 0.033500995 0.062042393
00000000: 4bf5 9d3c 9d61 2e3d 8e37 2dbd acde ee3c
00000010: 8b74 18be e91f c9bd 3fb4 0e3e b053 aebd
00000020: 3253 16be 6b78 c53d da08 c23d 1671 d33d
00000030: 6f87 a63d eec9 87bd 4bf4 85bd 398e c23d
00000040: 525b ae3d 0fb6 103e 896d a63d 294f febd
00000050: 29af 4a3e e328 28bc a871 1cbd 7fe5 493d
00000060: 5a2d dcbd b836 b83c 9730 b93c 0186 e2bc
00000070: be2b c8bd f330 273e d2a1 d7bd 63dd 2dbc
00000080: 1a02 9c3d b4fe 09bd 074a 0abe 76a5 0c3d
00000090: d388 bc3d 9699 6b3d 5c2b 033e 56a7 943d
000000a0: 4ed6 f73c 6101 9bbd c951 213d 0a92 b73d
000000b0: 048b 35bc 964b e8bc 34fb 85bd e7dd 8abc
000000c0: 7e92 82bc e168 eeba 94c0 79bd 3f44 243e
000000d0: 2806 73bd 9b9f 13bc 2eba 033e 44a4 143d
000000e0: 163d 9d3d 4f3d 82bb 8ca1 b0bd 50a6 0dbe
000000f0: e4e6 e5bc a371 323d ae43 cbbd 3164 00be
00000100: 570b 5c3d 0007 3a3d 3651 b0ba d92c 293e
00000110: 4d3f fbbd b374 b7bc 30fb 983d 8d96 58bd
00000120: 1551 a23c bccd 523c 28a4 b8bd 44c6 a93d
00000130: 65e7 e33d e2b4 8f3d f4bd 033e 6a12 0abe
00000140: 3f6e bfbd 954d e33d a16d 283c 501d fc3c
00000150: 4d8b 9bbd cb65 adbc 3c60 38bd 1305 b4bd
00000160: 8f8a 03be f4e7 423d ba38 ebbd a408 e93d
00000170: 73c7 b4bd 9fee 843d 1d00 ad3d 381f cdbd
00000180: 53e4 fa3b 11b9 94bd eb2f 72bd 96bc 6a3d
00000190: 90eb e4bd 3bbd 713d d82a 333d 08ab 1e3e
000001a0: 65ac a03d fba7 e9bd f1ca a63d fad5 0f3e
000001b0: 6198 d3bd 070a 433d e361 5abd 0ace 8c3d
000001c0: 6868 ce3d 0eb5 d0bc 2e2e 073d 7892 7dbd
000001d0: 98b8 14be 3a34 d23d dc7f 893d f2a5 e6bc
000001e0: b6b6 0bbd b3b6 01be 521f 7fbd c566 463b
000001f0: 00dd 8dbc 37aa 803d da36 c5bd 5e8d 8c3d
00000200: 8660 81bd d7fb 793c 5ff5 483d 34b6 6bbc
00000210: 7a2c 2a3d c165 0bbc 29d9 a23d 1d72 903d
00000220: 9df0 23bd fcec a43d d089 e43d 9989 e23d
00000230: 1202 8f3d 2a5c 613d 0408 cf3d 6e12 883d
00000240: 04ec 74bd 2bc9 abbd 9acb 873c 639b aa3c
00000250: 7685 06bc 552d f53d ba8d 51bd 409a 6dbd
00000260: 51cb a33b a537 ddbc 4d3d 83bd 53d3 e03d
00000270: 3128 d8bd f631 8a3c ebdd e8bd 16fe 02be
00000280: d402 96ba f8f7 613d 70b4 ddbd 38dd a53d
00000290: f08b a3bd 7f3c 5fbd e71d ffbc f333 9ebd
000002a0: ea25 55bd 32cd 73bd b419 b53c feef f93d
000002b0: bf06 883d 5a5d 0e3a 6aa7 adbd 3caa 74bd
000002c0: af60 303d 05b6 e43d 6fb4 97bd da26 633d
000002d0: 9842 cfbd 7c3a 89bd 9435 cf3d cb47 ba3b
000002e0: 1efb 423d 214f b23a 6500 e6bc 2a35 e23d
000002f0: b6a8 02be 69aa 8fbd 96e5 ab3b a404 e53d
00000300: 3433 12be 4467 eb3d b444 773c 5f00 4f3c
00000310: ec98 ebbd e237 39bd cbfa ecbd 8d52 333e
00000320: e7f5 a43d da71 46bd 15fa 863d d4bf 3fbd
00000330: da91 753c 33c7 c33d fdb6 e0bc 226d cbbd
00000340: bb9f 93ba a28d cf3d 1e61 cd3d c5bf 18bd
00000350: 146b 56bd 18ce 603d 9e4e 1fbe 03f2 123d
00000360: 5956 9b3d 541c b03d 21a2 0dbe 845f b9bd
00000370: 189e bebd 5dc5 e03d 27bd 0c3c f7ea a8bd
00000380: 8ed2 0c3d ed1c 19be c02f 0d3e 894e ddbc
00000390: 6983 c6bd ebac 43bd 79c7 9d3d aa45 20bc
000003a0: 29a4 0e3c 6e32 babd c18b f93d b39f 0e3c
000003b0: 41ed 80bc c726 a1bd b038 11be c0fc 23bd
000003c0: b502 28bc 2c97 e03d 6cc6 02bd 968e 17bc
000003d0: 7b6b cebd c6c3 b3bd f6dc 0cbd bcf2 9e3b
000003e0: 172e 20be b57f acbd 91b9 fd3a 0100 a93d
000003f0: 971d 703c 42d4 423d 5738 093d 2a20 7e3d

AFeatRNN.bias_ih_l1 f4 [256]
0.13350907 0.09210405 0.13456894 0.04867874 -0.079233125 -0.008034734 0.17598319 0.03555472
0.10176093 0.092721306 -0.020050948 0.057439886 0.13483173 -0.018303005 -0.09132293 0.044087764
0.03124364 0.08883099 0.054510776 0.027729776 0.05354069 0.14897813 0.1726215 0.12822494
-0.08049008 0.02202178 0.058420073 0.04021774 0.17990655 0.011927633 0.17815948 0.027991297
-0.057335403 -0.1259463 -0.009911353 -0.0857056 0.013761566 -0.04159776 0.07832462 0.07483344
-0.042499535 0.07659817 0.09181281 -0.0642916 0.07755512 0.07772503 0.033743314 0.030796636
-0.10034738 -0.05491075 0.053654373 0.065436505 0.11746454 -0.019246442 -0.084455065 0.14530054
0.054317433 0.09597175 0.040539633 -0.0033094287 0.16852029 0.11653353 0.06489926 0.06205481
0.042816013 -0.085525796 0.043246236 0.04790607 -0.1085792 0.019408207 0.013835369 -0.04400846
0.02831043 -0.054950584 -0.0054449644 -0.008615775 0.04872818 0.113627516 0.07199377 0.05700507
-0.06292437 -0.1187838 -0.07049891 0.0107784765 -0.022954036 -0.07189432 0.26514813 0.00397071
-0.032110434 0.0038897987 0.036306143 -0.16751975 -0.008629426 -0.040452033 0.010019751 0.061182685
-0.14190331 -0.08966736 -0.057441182 0.034470752 -0.094351806 -0.06518862 -0.08280476 0.02099346
0.025488382 0.015114394 0.12844954 0.013527759 -0.10561086 0.008827076 -0.07017915 0.028536258
0.037746508 -0.10609304 -0.108878806 0.08229521 0.1326263 0.009959118 0.09740361 -0.100272544
0.05512493 0.060945272 -0.095906995 -0.009118925 -0.06344509 0.0697398 0.016065547 -0.11065905
-0.1118181 0.08860489 0.1348723 -0.023805138 -0.11651627 -0.06328558 0.07852345 0.023306435
-0.07767906 0.04820552 0.022365246 0.081767954 0.06290797 0.010299356 -0.0041621425 -0.005571812
0.046356227 0.15293834 -0.04419894 -0.13231462 0.029057756 -0.06338567 -0.2025357 0.097537205
-0.024945604 0.008808751 -0.021899635 0.0008320863 0.023489451 -0.030709505 -0.14541627 0.08033014
0.053852603 -0.1336119 0.050055902 -0.07062849 0.09527925 0.032457665 0.046649344 0.007704121
-0.02290335 -0.09807468 -0.05001295 0.067894414 -0.02506772 -0.050136432 -0.0052071325 0.037504707
0.058204625 0.10319875 0.13478607 0.1442508 0.033694673 -0.03299133 -0.049969595 0.035092372
-0.030404173 0.10024729 -0.051266957 -0.025158837 0.08905641 0.07718999 -0.13464147 -0.09161494
0.12591274 0.0076047373 -0.009348783 0.16652302 0.022644138 -0.019132614 -0.05658528 -0.01954149
-0.0040506897 0.09447767 0.12413043 0.08220262 0.060154334 0.07539684 0.13994287 -0.051038906
-0.0669675 0.024832424 0.000702367 0.0022232377 -0.058903694 0.04562438 0.031942856 0.07540303
-0.02683491 0.02349218 0.13413142 -0.0777989 0.13226163 -0.028726477 -0.070275545 0.0065204846
0.11981558 0.033615377 -0.022697777 0.049892336 -0.066734634 0.15081704 -0.03627904 0.17273565
-0.04857238 0.08523077 -0.049260635 -0.10580661 0.021800783 -0.008291311 -0.07360635 -0.019384172
-0.05803267 0.008465124 0.053694475 -0.08435791 0.052189253 -0.038959358 0.046479795 -0.07404025
0.0005667067 0.048345745 -0.0046013296 0.09829479 -0.036359865 0.085152365 -0.027054371 -0.066720754
00000000: 9ab6 083e 0ca1 bc3d 71cc 093e 5c63 473d
00000010: fa44 a2bd 1ea4 03bc f034 343e d3a1 113d
00000020: 0968 d03d abe4 bd3d e341 a4bc 1646 6b3d
00000030: 5411 0a3e 2ff0 95bc 8407 bbbd 5f95 343d
00000040: aaf2 ff3c 06ed b53d b146 5f3d 8e29 e33c
00000050: 7c4d 5b3d b98d 183e b1c3 303e 664d 033e
00000060: fcd7 a4bd 0567 b43c e349 6f3d 5bbb 243d
00000070: 6c39 383e 1e6c 433c 706f 363e 014e e53c
00000080: 87d8 6abd 11f8 00be 3a63 22bc 6b86 afbd
00000090: 3178 613c 6a62 2abd a968 a03d 4642 993d
000000a0: fe13 2ebd 80df 9c3d 5b08 bc3d 50ab 83bd
000000b0: 38d5 9e3d 4d2e 9f3d 6e36 0a3d 3a49 fc3c
000000c0: ed82 cdbd 18ea 60bd b0c4 5b3d 9303 863d
000000d0: 4091 f03d b7aa 9dbc c7f6 acbd aac9 143e
000000e0: f57b 5e3d d68c c43d e30c 263d 00e3 58bb
000000f0: 9590 2c3e 22a9 ee3d e7e9 843d 2f2d 7e3d
00000100: d85f 2f3d 2628 afbd f722 313d 2839 443d
00000110: c65e debd f6fd 9e3c bead 623c 3742 34bd
00000120: 46eb e73c dd13 61bd ac6b b2bb 2e29 0dbc
00000130: 3397 473d 8bb5 e83d 7871 933d 267e 693d
00000140: 7ede 80bd ec44 f3bd bc61 90bd 3598 303c
00000150: 1a0a bcbc 543d 93bd 7fc1 873e bb1c 823b
00000160: 3b86 03bd feeb 7e3b c0b5 143d 4c8a 2bbe
00000170: 7062 0dbc 08b1 25bd e229 243c b29a 7a3d
00000180: 1a4f 11be 85a3 b7bd 7247 6bbd 3431 0d3d
00000190: 853b c1bd 9c81 85bd 8b95 a9bd 7afa ab3c
000001a0: 03cd d03c 5da2 773c 4788 033e 89a3 5d3c
000001b0: 824a d8bd 719f 103c 16ba 8fbd dfc4 e93c
000001c0: 159c 1a3d 4f47 d9bd dafb debd 648a a83d
000001d0: 30cf 073e 922b 233c 8b7b c73d b15b cdbd
000001e0: aeca 613d c0a1 793d e36a c4bd 8b67 15bc
000001f0: 80ef 81bd bed3 8e3d e59b 833c 36a1 e2bd
00000200: e300 e5bd 7b76 b53d f71b 0a3e fe02 c3bc
00000210: 15a0 eebd df9b 81bd e7d0 a03d 23ed be3c
00000220: 3316 9fbd 2773 453d 5237 b73c f575 a73d
00000230: e5d5 803d a1be 283c 9562 88bb bf93 b6bb
00000240: 07e0 3d3d de9b 1c3e f309 35bd 7c7d 07be
00000250: 880a ee3c 59d0 81bd 8565 4fbe 96c1 c73d
00000260: b95a ccbc 9452 103c dd66 b3bc 5e20 5a3a
00000270: f36c c03c 8092 fbbc 01e8 14be 2184 a43d
00000280: 8c94 5c3d 8fd1 08be 6b07 4d3d aba5 90bd
00000290: c421 c33d 54f2 043d 6213 3f3d da72 fc3b
000002a0: ce9f bbbc 61db c8bd 61da 4cbd 3a0c 8b3d
000002b0: d25a cdbc dc5b 4dbd 98a0 aabb 899e 193d
000002c0: f967 6e3d de59 d33d 5c05 0a3e 7bb6 133e
000002d0: 6d03 0a3d eb21 07bd ebac 4cbd 05bd 0f3d
000002e0: 2c12 f9bc 744e cd3d 4dfd 51bd e819 cebc
000002f0: 3563 b63d c915 9e3d 74df 09be 9da0 bbbd
00000300: 45ef 003e 2931 f93b a32b 19bc 0385 2a3e
00000310: 3380 b93c 00bc 9cbc f7c5 67bd 7a15 a0bc
00000320: a6bb 84bb 827d c13d 1838 fe3d d959 a83d
00000330: 6464 763d a969 9a3d 2f4d 0f3e 2c0e 51bd
00000340: 4226 89bd 5e6d cb3c 0d1f 383a bdb3 113b
00000350: 0045 71bd a1e0 3a3d 83d6 023d e76c 9a3d
00000360: e3d4 dbbc ac72 c03c bf59 093e 0855 9fbd
00000370: 986f 073e ca53 ebbc a0ec 8fbd caa9 d53b
00000380: df61 f53d 47b0 093d b0f0 b9bc e85b 4c3d
00000390: 2bac 88bd c86f 1a3e 5599 14bd 9de1 303e
000003a0: d5f3 46bd 788d ae3d 85c5 49bd 23b1 d8bd
000003b0: 8e97 b23c 47d8 07bc edbe 96bd 8ecb 9ebc
000003c0: aab3 6dbd 4eb1 0a3c bdee 5b3d d7c3 acbd
000003d0: 66c4 553d d993 1fbd 9961 3e3d 6aa2 97bd
000003e0: 0b8f 143a 3006 463d c0c6 96bb c74e c93d
000003f0: 15ee 14bd 5d64 ae3d 21a1 ddbc e4a4 88bd
