STD/checkpoints/LSTM2linear3/VA_METRIC_state_epoch20.pth (torch, 585522 bytes, 24 tensors)

AFeatRNN.weight_ih_l0 f4 [256, 128]
-0.006557095 0.043210357 -0.034053665 0.046009474 -0.04651422 -0.020505115 0.027442152 -0.10763574
-0.072545685 0.15826039 0.025663948 0.015345017 -0.119830206 0.18636027 0.024870846 0.1236617
-0.03837767 -0.04621132 -0.05214344 -0.067557245 -0.06130793 -0.029781332 -0.03494998 -0.0051796157
0.024135286 0.05284298 -0.06247556 0.13238598 0.017932737 -0.12770458 0.14941436 0.047871385
0.06749468 -0.047953382 0.074878365 -0.02861367 -0.032632478 -0.027485382 0.040689968 0.07088671
0.08470608 0.060415026 -0.20800148 0.051601548 0.12782392 -0.06167816 0.011203618 -0.059836343
0.07951483 0.034759775 0.03972152 0.10988791 0.006108612 0.079451844 0.14586234 -0.011270514
0.03757654 -0.090010755 -0.047534853 0.15464273 0.04099209 0.089898296 0.08651938 0.04192668
0.03524803 0.051364403 -0.058399092 0.10950658 0.049804557 -0.010212562 -0.043665905 0.030661933
-0.020396313 -0.008647537 0.039959397 -0.009654423 0.15723982 0.03061472 0.031903878 0.01098883
-0.1624229 0.08949877 -0.05913169 0.16124476 -0.08046078 -0.09801123 0.047315266 -0.0038227586
0.026697842 0.17857067 0.050069034 0.08047124 0.06243122 -0.01268231 0.13321966 0.1350874
0.014176076 0.095244 0.038797244 0.08147511 0.00032928612 0.02644588 -0.015144853 0.17689651
-0.09082496 -0.079217516 0.20118098 -0.09597846 -0.03493871 0.10474806 -0.08056055 0.09575221
-0.14581436 0.077651486 0.08891934 -0.08857195 -0.032074917 0.013280423 0.05884853 0.0075155287
0.05797971 -0.09643273 -0.08385352 0.024312427 -0.030969944 -0.08624101 0.20417109 0.029599214
0.06909872 -0.031169465 0.01609519 0.0859903 -0.14911593 -0.12434316 -0.073936105 0.006850099
-0.043710876 -0.019017834 -0.18723333 0.10433087 -0.013433552 -0.16528478 -0.11738784 -0.1842426
-0.025482602 -0.0035866832 0.10429138 -0.1748184 0.2312428 -0.021093568 -0.041387185 -0.17022559
0.0743355 -0.045314953 0.07569096 0.12218643 0.045831807 -0.10374155 -0.03489965 -0.12159819
-0.12746958 -0.014279221 -0.0052870116 0.07505244 -0.046352163 0.0812154 -0.058938652 0.03256548
0.0028309685 -0.004181739 0.04594057 -0.07378524 -0.038353905 0.021076333 -0.21175443 -0.15186146
-0.052264318 -0.061471112 -0.043621458 -0.17626889 0.13972439 0.061110996 -0.13615201 -0.05841538
-0.038019992 -0.10336006 -0.0111359805 -0.03857871 -0.10389687 -0.07027483 -0.11214682 -0.029793598
-0.052062854 0.0953374 0.010119774 -0.03999725 -0.053749077 -0.11445191 0.02751338 -0.050554328
0.06562047 -0.028924255 -0.008321914 -0.054021243 -0.053651962 -0.0368743 -0.12110893 -0.012503331
0.09036239 0.06620756 0.017573996 0.077406354 -0.1027692 0.068809934 0.18546487 -0.09447131
0.02254276 0.049274262 -0.0018733663 -0.049801897 0.025349109 -0.041210156 -0.09447405 -0.16266222
0.02524912 0.07717717 -0.09896157 0.115065984 -0.1858689 -0.03520385 0.1093223 -0.16559795
0.021023259 -0.088571884 0.10262599 0.079472125 0.106093355 -0.0956691 -0.009340357 -0.086538516
-0.06409027 -0.18191282 0.049191978 -0.015101169 -0.054503977 0.0041938233 -0.051256493 -0.1292311
-0.12063861 -0.03312498 0.10968072 0.09458665 0.051277798 -0.16679968 0.15618 0.0064843493
00000000: e6dc d6bb 58fd 303d db7b 0bbd 6e74 3c3d
00000010: b285 3ebd 58fa a7bc 5dce e03c 2070 dcbd
00000020: d592 94bd 030f 223e 333d d23c ab69 7b3c
00000030: 8a69 f5bd 3ad5 3e3e f2bd cb3c 5842 fd3d
00000040: e731 1dbd 1548 3dbd 5c94 55bd 745b 8abd
00000050: 061e 7bbd fbf7 f3bc b627 0fbd c4b9 a9bb
00000060: 5db7 c53c e171 583d 5fe6 7fbd 3190 073e
00000070: ade7 923c fdc4 02be 1400 193e c914 443d
00000080: a73a 8a3d c46a 44bd d459 993d 3767 eabc
00000090: a2a9 05bd 0629 e1bc 86aa 263d 0d2d 913d
000000a0: 627a ad3d bf75 773d 57fe 54be 255c 533d
000000b0: 46e4 023e 3da2 7cbd 618f 373c f416 75bd
000000c0: acd8 a23d 4460 0e3d 08b3 223d ea0c e13d
000000d0: c02a c83b a6b7 a23d f05c 153e f6a7 38bc
000000e0: dce9 193d 8f57 b8bd e8b3 42bd aa5a 1e3e
000000f0: 52e7 273d 991c b83d 1331 b13d 4fbb 2b3d
00000100: 3d60 103d 7b63 523d e333 6fbd fc44 e03d
00000110: ddff 4b3d 9752 27bc 05db 32bd bc2e fb3c
00000120: 2b16 a7bc 66ae 0dbc 77ac 233d 962d 1ebc
00000130: 7a03 213e b9cb fa3c a4ad 023d 7e0a 343c
00000140: 3052 26be 224b b73d 1234 72bd 591d 253e
00000150: 9fc8 a4bd 1dba c8bd a7cd 413d 3f87 7abb
00000160: 6fb5 da3c 3bdb 363e 3015 4d3d 1bce a43d
00000170: e1b7 7f3d 77c9 4fbc bc6a 083e 5a54 0a3e
00000180: c642 683c 490f c33d dce9 1e3d 6cdc a63d
00000190: 09a4 ac39 08a5 d83c 1e22 78bc 5c24 353e
000001a0: 7002 babd cb3c a2bd 6302 4e3e 5b90 c4bd
000001b0: e51b 0fbd 2786 d63d eefc a4bd bc19 c43d
000001c0: 5c50 15be be07 9f3d 581b b63d 3665 b5bd
000001d0: fd60 03bd 2296 593c 280b 713d d344 f63b
000001e0: 227c 6d3d 867e c5bd 65bb abbd db2a c73c
000001f0: aeb4 fdbc 209f b0bd 3a12 513e 0d7a f23c
00000200: a183 8d3d 1b57 ffbc 0fda 833c af1b b03d
00000210: d9b1 18be a0a7 febd d06b 97bd cc76 e03b
00000220: 2d0a 33bd 4acb 9bbc 18ba 3fbe 6cab d53d
00000230: 6718 5cbc 6a40 29be 0969 f0bd 18aa 3cbe
00000240: e4c0 d0bc 8f0e 6bbb b896 d53d 9803 33be
00000250: eaca 6c3e 6bcc acbc 9c85 29bd 9e4f 2ebe
00000260: 363d 983d 2c9c 39bd dd03 9b3d e13c fa3d
00000270: 22ba 3b3d 7376 d4bd eff2 0ebd 7908 f9bd
00000280: 6387 02be 65f3 69bc ab3e adbb 18b5 993d
00000290: c4db 3dbd 4254 a63d a869 71bd 6163 053d
000002a0: c587 393b f806 89bb 2e2c 3c3d b71c 97bd
000002b0: fc18 1dbd 46a8 ac3c 27d6 58be 9281 1bbe
000002c0: 1c13 56bd 22c9 7bbd 6aac 32bd d57f 34be
000002d0: e913 0f3e 864f 7a3d 6f6b 0bbe f744 6fbd
000002e0: daba 1bbd 70ae d3bd b073 36bc b604 1ebd
000002f0: e2c7 d4bd 40ec 8fbd 3bad e5bd b411 f4bc
00000300: dc3f 55bd 4140 c33d 69cd 253c 28d4 23bd
00000310: fe27 5cbd c365 eabd bd63 e13c 0e12 4fbd
00000320: 0664 863d 8ff2 ecbc a358 08bc 6145 5dbd
00000330: 29c2 5bbd 8209 17bd f507 f8bd c5da 4cbc
00000340: eb0f b93d d497 873d 57f7 8f3c 3987 9e3d
00000350: a978 d2bd 39ec 8c3d 81ea 3d3e 2d7a c1bd
00000360: 98ab b83c cfd3 493d be8b f5ba 13fd 4bbd
00000370: efa8 cf3c fbcb 28bd 9c7b c1bd ed90 26be
00000380: 3ed7 ce3c 100f 9e3d 5dac cabd b7a7 eb3d
00000390: 6b54 3ebe ea31 10bd 5fe4 df3d 8292 29be
000003a0: f838 ac3c 2d65 b5bd 932d d23d 48c2 a23d
000003b0: 7947 d93d 29ee c3bd 4c08 19bc 1b3b b1bd
000003c0: c241 83bd 5b47 3abe 877d 493d e56a 77bc
000003d0: 903f 5fbd 576c 893b 54f2 51bd 2855 04be
000003e0: 6011 f7bd 0fae 07bd 49a0 e03d a5b6 c13d
000003f0: ab08 523d 89cd 2abe a6ed 1f3e aa7a d43b

AFeatRNN.weight_hh_l0 f4 [256, 64]
-0.037292928 0.011792373 -0.02863354 -0.0538215 0.04486797 -0.04370463 -0.10936165 0.016648265
-0.109782286 0.015498096 0.017464599 0.09714615 0.10814199 -0.1696041 0.11434775 -0.08413
-0.106886506 -0.039356418 -0.0035556296 -0.019332523 -0.100907154 0.017966583 -0.12846689 0.0896338
-0.055492006 0.045008074 0.20112398 -0.02995507 0.112770885 -0.0031653785 0.07812925 -0.12472642
-0.01521703 -0.16971442 -0.05769603 0.15880221 -0.09276999 -0.075100996 0.09007341 -0.25141203
0.006744217 0.1078708 0.12682544 -0.07843194 0.13457082 0.06439987 0.0039469018 0.06595942
0.17851675 -0.08618751 -0.010436549 -0.072965235 0.09136232 -0.023941709 0.07051093 -0.026528472
-0.09641629 0.07019148 -0.019716024 0.067626975 -0.16339469 -0.10380281 -0.13247503 0.0025108578
0.11419838 0.013266526 -0.14193043 0.107567735 -0.04328282 -0.103963144 -0.0075469213 -0.036891494
0.074151844 0.060206626 -0.10808062 -0.10777759 0.074483246 -0.039328948 0.10879016 0.0794065
-0.089698255 -0.01819461 0.11108226 0.077962466 -0.03558393 0.0018468711 -0.033764184 -0.13099921
0.023104299 -0.13412547 0.109287485 -0.024683723 0.005489889 -0.036723576 0.032862104 -0.020483477
0.003188669 -0.025715511 -0.06977821 0.122003764 0.11624433 -0.017829653 0.065423414 0.099808745
0.082721725 -0.045399286 0.09021458 0.15420613 0.0018140344 -0.12978238 0.03314998 -0.15284918
-0.16550672 -0.075345695 0.13000004 -0.17091636 0.082564816 -0.17698349 0.033030406 0.080811664
-0.023637332 -0.09252844 -0.054683074 -0.078909464 0.05751136 -0.00033667838 0.09979497 -0.112588346
0.023862898 -0.11414126 -0.08410604 -0.053983808 0.053957038 -0.05310657 0.019824859 0.010317474
0.0010857611 -0.106880315 0.11359737 -0.032634836 -0.031120729 0.033259746 0.00027954913 -0.014744738
-0.08794963 -0.02967799 -0.06810148 -0.070061915 0.10642667 -0.09943194 -0.032085154 -0.0011130407
-0.106820785 0.061328124 -0.076720335 -0.062962405 0.05053075 -0.042095553 0.10133375 -0.028919961
0.07830014 0.019933756 0.035424724 -0.03736092 0.12336864 0.18053871 -0.024492672 -0.13613677
0.100640245 0.06531574 -0.025823703 -0.08216706 0.11123049 -0.031571854 -0.091979854 -0.106315546
-0.15105125 -0.061661564 0.00909821 0.02752832 -0.15727401 -0.028676381 0.098495975 -0.086069144
0.062620156 -0.07737878 -0.026806965 0.022968119 -0.07019958 0.07993705 -0.1253933 -0.060985778
0.018216603 0.16065513 0.0118349055 0.12723337 -0.04569992 -0.091666356 -0.021034345 0.06055198
0.0065097963 0.009096712 0.012588224 -0.090114385 -0.04748895 0.036006887 0.120047726 0.058748193
0.06485931 0.05437856 0.066284925 -0.04143723 0.10473665 -0.08455026 -0.09403316 0.032840516
-0.039766055 0.008131498 -0.0017568801 0.03471072 -0.08771943 -0.09733728 0.01666047 -0.11008018
-0.12683412 -0.051133897 -0.054830477 -0.030775802 0.02068051 -0.0742189 0.046602596 -0.12681031
-0.05642696 0.20883892 0.11529453 -0.13284624 -0.052760232 0.17496836 0.045484066 0.037861455
0.052072488 0.03141884 0.013522866 0.05711361 0.032946397 -0.03924475 0.07076373 0.022433838
-0.0075844624 -0.13393414 0.029192006 -0.022639915 0.09938587 -0.049343802 -0.062496472 -0.106270485
00000000: 78c0 18bd cc34 413c e390 eabc ef73 5cbd
00000010: 7ac7 373d a003 33bd 00f9 dfbd f161 883c
00000020: 89d5 e0bd baeb 7d3c eb11 8f3c 90f4 c63d
00000030: 8c79 dd3d b2ac 2dbe 272f ea3d 594c acbd
00000040: 50e7 dabd 3234 21bd 9105 69bb 3d5f 9ebc
00000050: 69a8 cebd a82e 933c d38c 03be ed91 b73d
00000060: 964b 63bd 635a 383d 72f3 4d3e 5664 f5bc
00000070: 6cf4 e63d 3d72 4fbb 3a02 a03d 9170 ffbd
00000080: da50 79bc 9ec9 2dbe ac52 6cbd 0c9d 223e
00000090: 31fe bdbd 8dce 99bd 6878 b83d 14b9 80be
000000a0: 98fe dc3b 5eeb dc3d 87de 013e eda0 a0bd
000000b0: efcc 093e 14e4 833d 0355 813b bb15 873d
000000c0: 18cd 363e 1483 b0bd 0ffe 2abc cc6e 95bd
000000d0: 2b1c bb3d 6721 c4bc 0968 903d 3d52 d9bc
000000e0: e775 c5bd 8dc0 8f3d 8083 a1bc 0380 8a3d
000000f0: f050 27be 9196 d4bd 89a7 07be 348d 243b
00000100: d7e0 e93d d85b 593c 3656 11be 794c dc3d
00000110: 5449 31bd a1ea d4bd 2a4c f7bb 891b 17bd
00000120: ecdc 973d 399b 763d 5f59 ddbd 7fba dcbd
00000130: ac8a 983d 6417 21bd 60cd de3d e09f a23d
00000140: b8b3 b7bd dd0c 95bc 197f e33d c9aa 9f3d
00000150: 74c0 11bd b612 f23a 504c 0abd a824 06be
00000160: 3a45 bd3c 3058 09be 1ed2 df3d 8535 cabc
00000170: 87e4 b33b 766b 16bd 6a9a 063d f7cc a7bc
00000180: fdf8 503b 56a9 d2bc e1e7 8ebd 1cdd f93d
00000190: 8211 ee3d 7e0f 92bc b6fc 853d 8768 cc3d
000001a0: 026a a93d 9af4 39bd 6cc2 b83d 36e8 1d3e
000001b0: e5c4 ed3a ace5 04be 46c8 073d 7f84 1cbe
000001c0: 987a 29be d84e 9abd bb1e 053e b304 2fbe
000001d0: be17 a93d 293b 35be e44a 073d 9680 a53d
000001e0: 14a3 c1bc 8d7f bdbd 5cfb 5fbd 499b a1bd
000001f0: 0891 6b3d 3584 b0b9 4e61 cc3d b894 e6bd
00000200: 207c c33c e5c2 e9bd ca3f acbd 201e 5dbd
00000210: 0e02 5d3d 4686 59bd be67 a23c 9f0a 293c
00000220: 1950 8e3a 11e4 dabd bda5 e83d 1bac 05bd
00000230: e6f0 febc 5f3b 083d 7390 9239 ea93 71bc
00000240: f01e b4bd 421f f3bc ca78 8bbd 9f7c 8fbd
00000250: 3af6 d93d f9a2 cbbd b96b 03bd 73e3 91ba
00000260: dbc4 dabd 3333 7b3d 8d1f 9dbd 6ff2 80bd
00000270: 55f9 4e3d 636c 2cbd 1288 cf3d 8ee9 ecbc
00000280: d35b a03d 1e4c a33c 8419 113d c407 19bd
00000290: b3a8 fc3d 24df 383e dba4 c8bc 7067 0bbe
000002a0: 791c ce3d 42c4 853d 3b8c d3bc 3447 a8bd
000002b0: d0cc e33d 7d51 01bd ef5f bcbd f7bb d9bd
000002c0: 2ead 1abe d690 7cbd a910 153c 1283 e13c
000002d0: 700c 21be bbea eabc 42b8 c93d 0545 b0bd
000002e0: ff3e 803d c478 9ebd 489a dbbc a327 bc3c
000002f0: ccc4 8fbd 09b6 a33d 1a67 00be 39cc 79bd
00000300: fc3a 953c c782 243e 31e7 413c 7749 023e
00000310: d72f 3bbd 92bb bbbd 3850 acbc 5a05 783d
00000320: 2150 d53b 600a 153c d73e 4e3c e48d b8bd
00000330: c683 42bd f57b 133d 95db f53d f2a1 703d
00000340: f5d4 843d 0ebc 5e3d 64c0 873d 16ba 29bd
00000350: 2b80 d63d b028 adbd 7594 c0bd c783 063d
00000360: bbe1 22bd f939 053c 1d47 e6ba d42c 0e3d
00000370: 3fa6 b3bd c558 c7bd 8a7b 883c b871 e1bd
00000380: cee0 01be c771 51bd ec95 60bd 891d fcbc
00000390: 2c6a a93c 1400 98bd 5de2 3e3d 90da 01be
000003a0: f51f 67bd dfd9 553e 8a1f ec3d d808 08be
000003b0: 1d1b 58bd e82a 333e 804d 3a3d 9d14 1b3d
000003c0: f649 553d 0bb1 003d 038f 5d3c f6ef 693d
000003d0: cdf2 063d 1abf 20bd 93ec 903d 2bc7 b73c
000003e0: 1587 f8bb 0826 09be 1324 ef3c 5877 b9bc
000003f0: d28a cb3d ba1c 4abd 4dfc 7fbd 57a4 d9bd

AFeatRNN.bias_ih_l0 f4 [256]
0.14586316 0.059385132 -0.09812716 -0.07067187 0.057831865 -0.04313069 0.041480385 5.1759926e-05
0.07584591 0.07790284 0.050128926 0.060645014 -0.059172936 -0.000764895 0.0019130675 0.053028047
0.06505135 -0.030504294 0.028394736 0.021000706 0.046654068 0.1088158 0.0025655169 0.037054013
-0.0589332 0.07944257 0.009885704 -0.031859197 0.012097089 0.06629885 0.057937272 0.1323028
0.068971135 -0.029322902 0.1169966 -0.10088421 0.08006458 0.08470521 -0.0885041 -0.100010835
-0.07126606 0.04210285 -0.04118262 0.09269096 0.050067574 -0.09181567 -0.05634284 0.10791339
0.066932335 -0.12549712 0.09180959 -0.113262214 0.021184867 0.11721813 -0.10110618 -2.7425374e-05
0.07606927 0.039382175 0.0881686 0.091370516 -0.04846703 0.08051804 -0.08947146 -0.09989087
0.012936015 0.06718254 0.12663583 -0.04870031 0.041078474 0.047952306 0.055250455 -0.12050957
0.072837524 0.08970656 -0.04469971 0.04238807 0.06534054 0.018394785 -0.050576616 0.06569822
-0.02463506 -0.034788147 -0.10702693 0.08645587 0.06450799 -0.012628327 -0.049049035 -0.06537924
0.078249626 0.0061792596 -0.0018838921 -0.007850722 -0.10195698 -0.09390016 0.07617679 0.016449511
0.080695964 0.110368244 -0.13741906 0.047978 0.11127507 -0.058359664 0.020928882 -0.09357724
-0.042738285 -0.074546225 -0.016576229 -0.05510679 -0.029579083 -0.05117354 0.114862934 -0.05345663
0.042030748 0.035878956 -0.117118955 0.0034850256 -0.11964634 -0.084726326 -0.14597481 0.081437185
0.010353125 -0.10076422 0.06538122 0.09374504 -0.023858383 0.002443486 -0.079935566 -0.00824204
-0.076760635 0.08952857 0.03359046 -0.11360009 0.0700402 -0.035082616 -0.009360878 0.12895297
-0.05809921 -0.018237514 0.031136805 0.06893054 0.09882861 0.060901992 -0.036452144 -0.04667656
-0.04955375 -0.053844668 -0.11582084 0.10897959 -0.06522126 0.077654734 0.10592892 -0.027029261
0.03272083 -0.13873102 -0.042205397 -0.028556818 -0.09662313 0.0003908312 -0.011635053 -0.08850547
0.07094123 -0.052147523 -0.016511334 0.023679055 -0.029145595 0.05477358 0.0794604 -0.00012608958
-0.059795376 -0.10955092 0.018856356 0.042733137 0.030267542 -0.10251233 -0.08641625 0.116854995
0.055975754 0.0795382 0.03865163 0.061606858 -0.087932125 0.02590669 0.06001963 -0.10125283
0.08163715 -0.10508067 0.10399757 -0.0043958104 -0.012880676 0.110852055 -0.12584282 -0.024971351
0.14167291 -0.024884393 0.020257287 -0.019871201 0.12937851 0.052546337 0.05098463 0.002105147
0.085510775 -0.049704432 0.044780005 -0.013306398 0.051697735 0.018802766 -0.00999872 -0.053417042
0.07932385 0.08368554 -0.0787052 0.0069810026 0.002317973 0.047205206 0.14403018 -0.11225131
0.045118976 -0.107445195 -0.07799665 -0.002124645 -0.0027995512 -0.066577524 -0.082129106 0.019359397
0.060708605 -0.020050786 -0.10017865 -0.05926068 -0.08129179 0.010871821 0.104313105 0.048161224
0.13521647 0.15238212 0.09524441 0.101718135 -0.07830292 0.10836678 -0.08086597 0.09432776
-0.036617074 -0.047348626 0.02995644 0.05497119 0.0072488957 -0.036930937 -0.03523915 -0.08409612
-0.14404935 0.096606664 -0.0027675235 0.0819058 0.049232483 -0.1101372 -0.040796906 -0.06452942
00000000: 275d 153e d33d 733d e4f6 c8bd 6abc 90bd
00000010: 1be1 6c3d cea9 30bd 56e7 293d cc18 5938
00000020: 1a55 9b3d 868b 9f3d fd53 4d3d e866 783d
00000030: 525f 72bd 3c83 48ba e5bf fa3a f033 593d
00000040: a439 853d 24e4 f9bc 149c e83c ac09 ac3c
00000050: 5618 3f3d d1da de3d 3b22 283b f3c5 173d
00000060: f063 71bd c9b2 a23d a6f7 213c ca7e 02bd
00000070: de32 463c b1c7 873d a24f 6d3d 637a 073e
00000080: bd40 8d3d 9536 f0bc ea9b ef3d 619c cebd
00000090: e6f8 a33d ed79 ad3d a341 b5bd 7bd2 ccbd
000000a0: f1f3 91bd 0a74 2c3d 1baf 28bd c2d4 bd3d
000000b0: a813 4d3d db09 bcbd c0c7 66bd b201 dd3d
000000c0: d213 893d 5182 00be ab06 bc3d 05f6 e7bd
000000d0: e38b ad3c 0f10 f03d c210 cfbd 8b0f e6b7
000000e0: 35ca 9b3d 344f 213d bd91 b43d 7720 bb3d
000000f0: 5d85 46bd a4e6 a43d d03c b7bd 9693 ccbd
00000100: 94f1 533c 0097 893d d3ac 013e fa79 47bd
00000110: e741 283d a369 443d 4d4e 623d b9cd f6bd
00000120: d72b 953d 13b8 b73d 0b17 37bd 1d9f 2d3d
00000130: 43d1 853d a9b0 963c 6d29 4fbd ca8c 863d
00000140: 77cf c9bc 047e 0ebd ef30 dbbd c60f b13d
00000150: c41c 843d 0be7 4ebc a4e7 48bd 8de5 85bd
00000160: 5741 a03d 637b ca3b eeec f6ba 51a0 00bc
00000170: d2ce d0bd ba4e c0bd 9402 9c3d 20c1 863c
00000180: ed43 a53d bf08 e23d 95b7 0cbe 9484 443d
00000190: 2fe4 e33d 8b0a 6fbd 0c73 ab3c 6da5 bfbd
000001a0: 570e 2fbd b1ab 98bd dfca 87bc a8b7 61bd
000001b0: d54f f2bc 599b 51bd 423d eb3d 57f5 5abd
000001c0: 6f28 2c3d d0f5 123d 10dc efbd 0765 643b
000001d0: 2409 f5bd ff84 adbd 6c7a 15be 8ac8 a63d
000001e0: 27a0 293c 795d cebd 97e6 853d 66fd bf3d
000001f0: a872 c3bc e422 203b 42b5 a3bd 9f09 07bc
00000200: ae34 9dbd c15a b73d 2696 093d 2aa7 e8bd
00000210: 3d71 8f3d cab2 0fbd 5e5e 19bc 3f0c 043e
00000220: 70f9 6dbd d766 95bc 9d12 ff3c 742b 8d3d
00000230: a766 ca3d 5e74 793d d84e 15bd ec2f 3fbd
00000240: dff8 4abd 3a8c 5cbd 7a33 edbd b130 df3d
00000250: b992 85bd 7209 9f3d 43f1 d83d 786c ddbc
00000260: 4706 063d 810f 0ebe 91df 2cbd fdef e9bc
00000270: 59e2 c5bd 7ae8 cc39 f3a0 3ebc 5b42 b5bd
00000280: a349 913d a498 55bd c742 87bc 94fa c13c
00000290: bec2 eebc 435a 603d 22bc a23d ea36 04b9
000002a0: ffeb 74bd 3c5c e0bd a578 9a3c f108 2f3d
000002b0: a3f3 f73c fcf1 d1bd 01fb b0bd ac51 ef3d
000002c0: d546 653d ece4 a23d 2c51 1e3d 7957 7c3d
000002d0: c215 b4bd 443a d43c 25d7 753d a55d cfbd
000002e0: 6131 a73d 8934 d7bd aefc d43d bb0a 90bb
000002f0: 7909 53bc 6706 e33d f1dc 00be b890 ccbc
00000300: b412 113e 5bda cbbc 9cf2 a53c eec8 a2bc
00000310: cd7b 043e d43a 573d 42d5 503d 82f6 093b
00000320: 4620 af3d e096 4bbd 3d6b 373d 1403 5abc
00000330: 01c1 533d 4208 9a3c acd1 23bc d4cb 5abd
00000340: 8b74 a23d 5363 ab3d 3130 a1bd e5c0 e43b
00000350: 22e9 173b 3f5a 413d a67c 133e 04e4 e5bd
00000360: adce 383d 3a0c dcbd b5bc 9fbd a13d 0bbb
00000370: ad78 37bb cc59 88bd 4e33 a8bd 9997 9e3c
00000380: 96a9 783d 8c41 a4bc 772a cdbd 54bb 72bd
00000390: 4f7c a6bd b91f 323c 1ca2 d53d b444 453d
000003a0: 3076 0a3e 0f0a 1c3e 800f c33d 9951 d03d
000003b0: 485d a0bd 67ef dd3d 0f9d a5bd ea2e c13d
000003c0: c9fb 15bd a2f0 41bd 3567 f53c 7829 613d
000003d0: 2588 ed3b e544 17bd ed56 10bd 963a acbd
000003e0: ac81 13be b7d9 c53d 575f 35bb 3abe a73d
000003f0: 00a8 493d 9d8f e1bd a81a 27bd 0028 84bd

AFeatRNN.bias_hh_l0 f4 [256]
0.08461102 0.06608016 0.05136483 0.11039832 0.16334112 0.1000783 0.1503307 0.093132876
-0.010691289 -0.11218837 0.13788684 0.006707918 -0.0465144 -0.10070571 0.043873325 0.020677088
0.023938227 -0.14419597 0.120983854 0.10933849 -0.001352386 -0.057611722 0.066484965 0.10037895
-0.044422384 0.09768899 0.004061599 0.12042918 -0.12541 -0.07333347 0.0076112123 0.057811633
0.11294128 -0.013763747 -0.048981972 -0.09954796 -0.046113804 0.09304627 0.003910522 0.12285698
0.09592766 -0.0197258 0.03859153 -0.14732006 0.0153727075 -0.06725564 0.017102074 0.05150325
0.07990962 0.0010915949 -0.037378553 -0.108349346 0.040362928 -0.08697454 -0.046939973 0.064481795
-0.060361974 -0.015035561 0.08307368 0.007075723 -0.026580615 0.0038489827 0.035515044 -0.09395473
-0.041248854 -0.017994132 -0.051571913 0.072195776 0.013603782 0.037381332 0.096976906 0.051702656
0.13788188 0.07647531 -0.09297439 -0.07473322 -0.09283567 0.095149025 0.054667085 -0.07703228
0.097264774 -0.089715585 -0.09290967 -0.06422843 0.03548019 -0.061559223 -0.099243395 -0.026355835
-0.032222524 0.0202662 -0.045663577 -0.045646347 -0.0043050293 0.08036527 -0.01343457 -0.09029512
0.026081933 0.056380108 0.047273595 -0.13837925 0.12933645 0.045094036 0.03644191 -0.11795541
-0.07761839 -0.06425788 -0.040247407 0.08045541 -0.04082971 0.0029618011 0.0073520383 0.031165691
-0.051570985 -0.036168262 0.0735122 0.034155186 0.110784106 -0.062256295 0.040501826 -0.06566228
0.06025547 -0.052010622 0.012346813 0.033993866 0.08570678 0.084212065 0.08162262 -0.00014868246
0.08968994 0.09166584 0.03042435 -0.047897484 0.077353604 0.05665999 -0.014355786 -0.06785041
0.049165234 0.02526989 0.11657669 0.026815282 0.09521491 -0.10750579 -0.083172776 0.031425834
-0.025120992 0.0037746832 0.084392555 0.08310432 -0.025338037 -0.0766485 0.009076303 -0.057965115
0.08370556 -0.13756056 0.019208353 0.056080233 -0.11731074 0.054631673 0.1169401 -0.07521284
0.064728476 -0.014271015 0.11574755 0.083052255 0.10902329 -0.008293047 -0.010731743 0.022063855
-0.11604568 0.10396442 -0.01962378 -0.016191745 -0.1103813 -0.07048632 0.0052439338 -0.09170595
0.033518832 0.07476232 0.09316592 0.045008224 -0.037311308 -0.056964573 -0.054741416 0.10841303
0.0060918992 0.047850907 0.091569915 -0.014846868 -0.035809554 -0.0628772 0.10660554 0.08600055
0.073742926 -0.10239174 0.036490005 0.13040885 0.019249363 0.08000341 -0.07292855 -0.043584596
-0.028179683 0.021742173 0.016536169 0.100850135 -0.06460759 0.03247674 -0.00092265976 0.09241709
-0.09222731 -0.04760866 0.09361737 -0.09466763 0.0050102454 0.12823655 -0.0046345936 -0.043151814
-0.07940694 -0.06821711 -0.086014636 -0.07533014 -0.09840913 0.11770068 0.09919587 0.02413228
-0.054761346 -0.04679283 -0.018911177 -0.06201406 -0.0581481 -0.03672245 0.09824863 -0.04809957
-0.04862585 -0.043660082 0.09941451 -0.076616116 0.14424251 0.03175483 -0.06805286 0.06976628
-0.09032991 -0.049683835 -0.004835762 -0.048986986 -0.0706043 -0.011689926 0.024934327 0.090988874
-0.03673536 -0.03506932 -0.0102181295 0.062327255 -0.11799433 -0.04408895 -0.013982676 -0.11691946
00000000: 8b48 ad3d 0955 873d ee63 523d 8418 e23d
00000010: e542 273e daf5 cc3d 4bf0 193e 73bc be3d
00000020: 842a 2fbc 04c3 e5bd 3532 0d3e 18ce db3b
00000030: e285 3ebd cc3e cebd 84b4 333d ff62 a93c
00000040: 1a1a c43c 1ca8 13be 62c6 f73d dcec df3d
00000050: 8b42 b1ba 45fa 6bbd 4529 883d 7b93 cd3d
00000060: 3ff4 35bd 2a11 c83d 2917 853b 93a3 f63d
00000070: 7b6b 00be dc2f 96bd 7a67 f93b e4cb 6c3d
00000080: c24d e73d 5781 61bc 52a1 48bd cddf cbbd
00000090: d4e1 3cbd 0b8f be3d d623 803b 719c fb3d
000000a0: b975 c43d 0098 a1bc 2712 1e3d 12db 16be
000000b0: cfdd 7b3c 53bd 89bd a619 8c3c 12f5 523d
000000c0: a8a7 a33d d913 8f3a 411a 19bd 43e6 ddbd
000000d0: 9953 253d b51f b2bd 2144 40bd 080f 843d
000000e0: 1e3e 77bd b757 76bc 8922 aa3d 77db e73b
000000f0: 97bf d9bc 373f 7c3b 3978 113d 566b c0bd
00000100: 8ff4 28bd 6e68 93bc 123d 53bd 61db 933d
00000110: 66e2 5e3c 2b1d 193d d49b c63d 2ac6 533d
00000120: e830 0d3e 169f 9c3d 5b69 bebd bb0d 99bd
00000130: a120 bebd 7edd c23d 98ea 5f3d 1ac3 9dbd
00000140: c132 c73d cebc b7bd 6d47 bebd 328a 83bd
00000150: ad53 113d 8625 7cbd 1f40 cbbd 31e8 d7bc
00000160: c4fb 03bd 4d05 a63c bb09 3bbd aaf7 3abd
00000170: 3411 8dbb 8c96 a43d ac1c 5cbc a6ec b8bd
00000180: c7a9 d53c d4ee 663d f5a1 413d 4ab3 0dbe
00000190: c670 043e 86b4 383d 1d44 153d 9b92 f1bd
000001a0: 64f6 9ebd a399 83bd 77da 24bd cec5 a43d
000001b0: 0e3d 27bd c71a 423b 5ee9 f03b 314f ff3c
000001c0: 193c 53bd 2c25 14bd 908d 963d 4fe6 0b3d
000001d0: c7e2 e23d 7500 7fbd 3ee5 253d f279 86bd
000001e0: 71ce 763d 1709 55bd 4a4a 4a3c 273d 0b3d
000001f0: 0987 af3d 6077 ac3d c329 a73d a5e7 1bb9
00000200: 5caf b73d 4dbb bb3d 7d3c f93c 2730 44bd
00000210: 916b 9e3d 4e14 683d 8834 6bbc 28f5 8abd
00000220: 7c61 493d cd02 cf3c c2bf ee3d b9ab db3c
00000230: 0900 c33d ff2b dcbd 7d56 aabd 60b8 003d
00000240: 8aca cdbc ad60 773b 01d6 ac3d 9932 aa3d
00000250: b791 cfbc e4f9 9cbd c6b4 143c d46c 6dbd
00000260: d26d ab3d addc 0cbe d65a 9d3c 63b4 653d
00000270: 9d40 f0bd 76c5 5f3d 4b7e ef3d 3109 9abd
00000280: 5d90 843d fad0 69bc 0d0d ed3d 4d17 aa3d
00000290: 9a47 df3d 8fdf 07bc 31d4 2fbc 42bf b43c
000002a0: 5ca9 edbd 4ceb d43d 0dc2 a0bc 8da4 84bc
000002b0: 970f e2bd 225b 90bd 4ed5 ab3b 54d0 bbbd
000002c0: 0b4b 093d fd1c 993d c6cd be3d 8b5a 383d
000002d0: bed3 18bd af53 69bd 8938 60bd a707 de3d
000002e0: 8e9e c73b 50ff 433d 0289 bb3d 4740 73bc
000002f0: 0aad 12bd c3c5 80bd 0154 da3d 0e21 b03d
00000300: 8806 973d c3b2 d1bd 8b76 153d e689 053e
00000310: d7b0 9d3c d4d8 a33d 905b 95bd c385 32bd
00000320: 14d9 e6bc a41c b23c dc76 873c 848a ce3d
00000330: fc50 84bd 5506 053d a6de 71ba 2c45 bd3d
00000340: ace1 bcbd 4c01 43bd 77ba bf3d 1ae1 c1bd
00000350: fc2c a43b 7150 033e cadd 97bb f5bf 30bd
00000360: 1ba0 a2bd 6ab5 8bbd 7128 b0bd b046 9abd
00000370: ba8a c9bd 0e0d f13d 3427 cb3d 0fb1 c53c
00000380: 6f4d 60bd d7a9 3fbd 9deb 9abc 7402 7ebd
00000390: b42c 6ebd 486a 16bd 9436 c93d 0e04 45bd
000003a0: e62b 47bd ead4 32bd d699 cb3d e9e8 9cbd
000003b0: 4fb4 133e 5a11 023d 4c5f 8bbd a0e1 8e3d
000003c0: e3fe b8bd 4781 4bbd 5075 9ebb 94a6 48bd
000003d0: fd98 90bd 1a87 3fbc 1343 cc3c 6058 ba3d
000003e0: d177 16bd d9a4 0fbd f169 27bc dd4a 7f3d
000003f0: 03a7 f1bd 9d96 34bd 9817 65bc 7873 efbd

AFeatRNN.weight_ih_l1 f4 [256, 64]
-0.08142849 0.0061932188 -0.053921018 0.12031415 -0.003946578 0.006066421 -0.1742853 -0.04870381
-0.15607631 0.0041246344 0.12615342 -0.03622976 0.071870044 -0.011919577 0.09806533 0.026866302
0.11366825 0.08146338 0.03543968 0.12555279 0.018270222 -0.030186847 0.023288459 0.18651186
-0.044884093 -0.03742766 0.02259416 -0.1431219 0.059665736 0.07566696 -0.0060605896 0.048648875
0.03364987 -0.18227832 0.09427391 0.14671434 -0.20593585 -0.13348956 0.0191413 -0.018393826
-0.18020731 -0.025164107 -0.025620664 -0.08062564 0.17748831 0.12884162 0.0129154315 0.21345446
0.04310212 0.16221797 -0.038528107 0.1403457 0.21635531 -0.14423943 -0.012844425 -0.11388244
-0.044126336 0.0415145 0.106903136 -0.033836003 -0.079249695 -0.03015232 -0.10440613 -0.022899171
-0.07899707 0.054222126 0.07612529 0.06787262 0.06483356 0.107901424 -0.1335411 -0.022960022
-0.06483881 -0.10116642 -0.07660908 0.064269125 -0.018774582 -0.014305885 -0.109084524 0.0684562
-0.11857349 0.07044142 -0.16032663 0.17372307 -0.057160866 -0.020791389 -0.013051292 0.086113945
-0.14046487 -0.1380939 0.008902394 -0.12403086 -0.06269025 -0.01620333 -0.09771214 -0.1404106
-0.13997602 -0.112675734 0.11555365 0.06375004 -0.039436705 -0.19940186 -0.084727615 0.048262678
-0.060270812 0.063275315 -0.11008904 -0.028045423 0.06552283 -0.04771575 0.07410184 0.0901416
0.10852502 0.026463427 -0.10627615 -0.10895781 0.111627184 0.03533994 0.057487406 -0.05224626
0.05334071 0.12924495 0.095210984 -0.020710696 -0.024170743 0.017303057 -0.002412252 -0.12914759
-0.16626407 0.01339288 -0.11388872 -0.08186189 -0.076014 0.13047375 -0.12364288 -0.03958679
0.04510995 0.05356605 0.14430211 -0.112920314 0.11948923 -0.13180389 0.04549075 -0.05358673
0.006832187 -0.103687726 0.0741144 0.1610112 -0.027304951 0.030559473 -0.1126306 0.13186356
-0.14240754 -0.0025573343 -0.055013783 -0.026060414 -0.0039715683 -0.060933337 0.112154655 0.07329994
-0.07683346 -0.16407509 0.12946862 0.093347356 0.06968578 -0.08380102 -0.050796244 0.0069464683
0.03589807 -0.09946778 0.052182697 0.031816565 0.12169691 0.14846924 0.057045598 0.089808434
0.06195336 0.13421057 0.010387171 0.013419694 0.05067485 -0.07460743 0.06110724 0.07880138
0.10463032 -0.12226079 0.067213 0.0098366225 0.04105849 -0.018353209 0.03746297 0.0987904
-0.2569263 -0.15097296 0.06695162 -0.058189947 0.14080155 0.09824173 0.01468385 -0.07530834
-0.114576355 -0.039139953 -0.053841673 0.1403118 0.04712234 0.04827869 -0.08705075 -0.06605663
-0.056202613 -0.099525295 -0.11011822 0.13451296 -0.04105447 -0.067916065 0.11960013 0.16535966
-0.051632684 -0.18227549 0.19551198 0.057794243 0.10679539 0.05201711 0.021821829 -0.036773387
0.05943979 -0.029123863 0.03128165 0.020113006 0.021807577 0.072126605 -0.13514271 -0.17160359
-0.014842913 0.16555424 0.050982155 0.13661619 0.19080536 0.24273138 0.0063071684 -0.06987476
-0.006163324 -0.08834484 0.06121872 -0.005540746 -0.11810349 -0.106269106 -0.07580221 -0.075773634
0.10718619 0.014126112 0.025197204 -0.02751942 -0.04434869 0.10110347 -0.04327029 0.06370422
00000000: fbc3 a6bd 7cf0 ca3b 49dc 5cbd 4467 f63d
00000010: 4c52 81bb d4c8 c63b d877 32be a57d 47bd
00000020: 78d2 1fbe f127 873b 5d2e 013e a865 14bd
00000030: 9a30 933d 544a 43bc 7ad6 c83d b816 dc3c
00000040: e6ca e83d 46d6 a63d 3329 113d e990 003e
00000050: 6fab 953c 684a f7bc 70c7 be3c f7fc 3e3e
00000060: 62d8 37bd bf4d 19bd 6317 b93c 8c8e 12be
00000070: 0f64 743d 47f7 9a3d e997 c6bb 0b44 473d
00000080: 72d4 093d 2ba7 3abe ae12 c13d 493c 163e
00000090: d9e0 52be 7db1 08be 37ce 9c3c a6ae 96bc
000000a0: 4488 38be f524 cebc 6de2 d1bc 0e1f a5bd
000000b0: 7fbf 353e 0fef 033e 3f9b 533c ce93 5a3e
000000c0: d98b 303d 781c 263e a6cf 1dbd c8b6 0f3e
000000d0: 3f8c 5d3e 80b3 13be 6c71 52bc 323b e9bd
000000e0: d1bd 34bd 1c0b 2a3d 08f0 da3d 9f97 0abd
000000f0: aa4d a2bd 0002 f7bc e2d2 d5bd 0b97 bbbc
00000100: 37c9 a1bd 0518 5e3d 93e7 9b3d cd00 8b3d
00000110: 75c7 843d 6cfb dc3d 00bf 08be a816 bcbc
00000120: 36ca 84bd 5730 cfbd 39e5 9cbd 889f 833d
00000130: 27cd 99bc 3b63 6abc b567 dfbd c432 8c3d
00000140: a8d6 f2bd 9743 903d aa2c 24be 76e4 313e
00000150: 8321 6abd b452 aabc 16d5 55bc 825c b03d
00000160: 06d6 0fbe 7d68 0dbe 59db 113c e403 febd
00000170: bf63 80bd d9bc 84bc 4d1d c8bd ccc7 0fbe
00000180: e055 0fbe 89c2 e6bd 64a7 ec3d 628f 823d
00000190: 6288 21bd 0030 4cbe ac85 adbd 16af 453d
000001a0: 87de 76bd 7d96 813d 5d76 e1bd 84bf e5bc
000001b0: d530 863d 9771 43bd b5c2 973d 299c b83d
000001c0: 5e42 de3d d4c9 d83c 4fa7 d9bd 4625 dfbd
000001d0: cb9c e43d 9dc0 103d ea77 6b3d 2d00 56bd
000001e0: ca7b 5a3d ca58 043e fafd c23d 7aa9 a9bc
000001f0: b901 c6bc 24bf 8d3c df16 1ebb 443f 04be
00000200: 2141 2abe cf6d 5b3c 7d3e e9bd 35a7 a7bd
00000210: 3aad 9bbd e99a 053e 7a38 fdbd c225 22bd
00000220: 36c5 383d 1368 5b3d efc3 133e c442 e7bd
00000230: c5b6 f43d 99f7 06be 8254 3a3d c27d 5bbd
00000240: 8ae0 df3b 3b5a d4bd 4ac9 973d 1fe0 243e
00000250: a2ae dfbc dc57 fa3c dfaa e6bd 3e07 073e
00000260: 48d3 11be f398 27bb 2256 61bd a67c d5bc
00000270: ee23 82bb 3c95 79bd 57b1 e53d 471e 963d
00000280: dc5a 9dbd 4d03 28be 6c93 043e e62c bf3d
00000290: 6bb7 8e3d df9f abbd b90f 50bd 339f e33b
000002a0: db09 133d c3b5 cbbd 86bd 553d 1652 023d
000002b0: 3b3c f93d 5208 183e a5a8 693d 7ced b73d
000002c0: cec2 7d3d 7f6e 093e f42e 2a3c 47de 5b3c
000002d0: 6e90 4f3d c8cb 98bd 964b 7a3d 9e62 a13d
000002e0: 6c48 d63d dd63 fabd f8a6 893d c929 213c
000002f0: f22c 283d 7859 96bc c572 193d 9f52 ca3d
00000300: d88b 83be a898 1abe ee1d 893d 9558 6ebd
00000310: 482e 103e f632 c93d 8894 703c 423b 9abd
00000320: 02a7 eabd 3751 20bd 1689 5cbd e6ad 0f3e
00000330: 5b03 413d e0bf 453d aa47 b2bd b348 87bd
00000340: b634 66bd ebd3 cbbd a985 e1bd c4bd 093e
00000350: bb28 28bd 9417 8bbd eaf0 f43d 0b54 293e
00000360: cb7c 53bd 6da6 3abe 4b34 483e a8b9 6c3d
00000370: 8bb7 da3d e50f 553d b1c3 b23c b19f 16bd
00000380: 2377 733d 2b95 eebc 3021 003d 08c4 a43c
00000390: cea5 b23c 1db7 933d da62 0abe dab8 2fbe
000003a0: b02f 73bc 0d87 293e aad2 503d 1de5 0b3e
000003b0: 7b62 433e 938e 783e 5dac ce3b 801a 8fbd
000003c0: b6f5 c9bb 24ee b4bd 7bc0 7a3d 258f b5bb
000003d0: 3ee0 f1bd 9ea3 d9bd 303e 9bbd 352f 9bbd
000003e0: 6f84 db3d 3571 673c 5e6a ce3c 6870 e1bc
000003f0: f9a6 35bd 560f cf3d 303c 31bd 5c77 823d

AFeatRNN.weight_hh_l1 f4 [256, 64]
0.028593002 0.029547809 -0.054712087 0.03016335 -0.13462982 -0.1067942 0.1429354 -0.09782674
-0.12935705 0.106584504 0.08127779 0.093177 0.07220258 -0.07672715 -0.07218243 0.09876248
0.068460956 0.12120048 0.08971914 -0.11444908 0.19507049 -0.021257367 -0.020900842 0.029122042
-0.09062286 0.013511655 0.03837148 -0.009599375 -0.0897529 0.13969624 -0.08835233 0.004067318
0.07679085 -0.020962358 -0.1390377 0.047704726 0.07942049 0.06268113 0.124125965 0.077709466
0.044537205 -0.08337878 0.025295446 0.10291357 0.0066584717 -0.038585015 -0.04973453 -0.03793537
0.004876035 -0.021056032 -0.056355756 0.15292409 -0.044470448 -0.012497728 0.14634463 0.04761366
0.08589735 0.010329368 -0.0947133 -0.12484536 -0.016848028 0.027130514 -0.08009483 -0.112554535
0.048894178 0.05279862 0.009224394 0.15335764 -0.118157364 -0.013502506 0.07241997 -0.058045637
0.01668844 0.015923543 -0.081954874 0.08916768 0.121231444 0.07459779 0.12487728 -0.12863158
-0.087767 0.11273875 -0.00014749765 0.033836454 -0.07014331 -0.03357045 -0.049048353 -0.089875475
-0.121019654 0.056778554 -0.105660446 0.10733122 -0.08357096 0.06579511 0.078848116 -0.08418243
0.0038326157 -0.074454315 -0.06591258 0.06450831 -0.11544973 0.056073535 0.036446456 0.14421418
0.08188376 -0.097965665 0.086103685 0.13080673 -0.10394477 0.041272406 -0.06069246 0.0738741
0.099676885 -0.024614867 0.04200812 -0.05287493 -0.14961141 0.10346476 0.07011012 -0.028868891
-0.024843121 -0.12178669 -0.066918164 -0.001669033 -0.014314388 0.065293476 -0.09551498 0.061638873
-0.07330895 0.02716601 0.06380228 -0.0276608 0.053479195 0.012233569 0.08233632 0.06580833
-0.048748374 0.07102821 0.12571427 0.12285951 0.07991306 0.057606798 0.09777304 0.062359843
-0.052950673 -0.07610251 -0.002295878 0.022500504 -0.011358707 0.10362645 -0.05759233 -0.05153852
0.020656528 -0.02457457 -0.05353745 0.095907755 -0.093844466 0.025804203 -0.1241878 -0.12316454
0.0020508764 0.048109993 -0.121616535 0.08597509 -0.08518619 -0.0634644 -0.04969165 -0.09031422
-0.045175944 -0.05491906 0.034011744 0.11568845 0.06326544 -0.012980496 -0.09765145 -0.05450024
0.035351366 0.11341499 -0.061837994 0.06532355 -0.106304936 -0.059529997 0.09998587 0.01743206
0.050467115 0.010741606 -0.032018766 0.10578109 -0.117139615 -0.06739711 -0.0015988279 0.1014091
-0.14270447 0.119402 0.022739751 0.009251198 -0.1223017 -0.062745094 -0.107170284 0.16399658
0.0796103 -0.053872004 0.07653244 -0.05036134 -0.0015439324 0.09814442 -0.011118862 -0.08589187
0.0034481892 0.09964331 0.1038453 -0.05400995 -0.07421525 0.06345591 -0.16412719 0.012322011
0.080905125 0.09793248 -0.15341267 -0.072633184 -0.102463044 0.08688046 0.00060556974 -0.07440306
0.030135768 -0.15921272 0.15060103 -0.02341179 -0.07100479 -0.047808092 0.097392924 0.0063492637
-0.0021765458 -0.085418984 0.11735418 -0.0088417195 -0.022275595 -0.067137584 -0.14800575 -0.042453907
-0.035485838 0.1157212 -0.039784092 -0.008324916 -0.112433776 -0.09528159 -0.03290023 -0.0063032755
-0.16135137 -0.098594375 0.019341717 0.071230866 0.010673059 0.06027557 0.048263323 0.058210883
00000000: df3b ea3c 3f0e f23c c819 60bd 2119 f73c
00000010: 66dc 09be ebb6 dabd a85d 123e 6359 c8bd
00000020: 2d76 04be fa48 da3d f874 a63d 95d3 be3d
00000030: f2de 933d 2023 9dbd 62d4 93bd fc43 ca3d
00000040: 4235 8c3d f537 f83d abbe b73d 4764 eabd
00000050: 8fc0 473e ee23 aebc 3e38 abbc 5991 ee3c
00000060: 7a98 b9bd fd5f 5d3c 6a2b 1d3d b246 1dbc
00000070: 5ed0 b7bd 880c 0f3e 11f2 b4bd 2347 853b
00000080: 8544 9d3d 40b9 abbc e65f 0ebe 0866 433d
00000090: 36a7 a23d f75e 803d c135 fe3d 2426 9f3d
000000a0: a56c 363d 7ec2 aabd 6538 cf3c 5ac4 d23d
000000b0: 4f2f da3b 520b 1ebd 6fb6 4bbd 1e62 1bbd
000000c0: 25c7 9f3b b37d acbc 4bd5 66bd 2298 1c3e
000000d0: a526 36bd 45c3 4cbc 5edb 153e 8b06 433d
000000e0: f3ea af3d 823c 293c 0cf9 c1bd edae ffbd
000000f0: e004 8abc d040 de3c c208 a4bd fe82 e6bd
00000100: 4345 483d 5e43 583d ea21 173c c909 1d3e
00000110: 7dfc f1bd 9d39 5dbc ec50 943d 43c1 6dbd
00000120: 32b6 883c 1772 823c f5d7 a7bd 8b9d b63d
00000130: 3148 f83d bac6 983d a9bf ff3d ffb7 03be
00000140: 2fbf b3bd 93e3 e63d 99a9 1ab9 1898 0a3d
00000150: 4ca7 8fbd 2b81 09bd ede6 48bd a210 b8bd
00000160: 27d9 f7bd a190 683d 8164 d8bd 78d0 db3d
00000170: 4027 abbd 96bf 863d 1f7b a13d d667 acbd
00000180: 9f2c 7b3b 817b 98bd 2dfd 86bd ef1c 843d
00000190: e870 ecbd 5dad 653d e148 153d e2ac 133e
000001a0: acb2 a73d 39a2 c8bd 2157 b03d 33f2 053e
000001b0: ffe0 d4bd 410d 293d a898 78bd 4e4b 973d
000001c0: 6523 cc3d 1ea5 c9bc b510 2c3d 6293 58bd
000001d0: bc33 19be 55e5 d33d e595 8f3d 747e ecbc
000001e0: cd83 cbbc 4d6b f9bd 640c 89bd 74c3 daba
000001f0: e586 6abc 96b8 853d 5c9d c3bd 0b79 7c3d
00000200: 0123 96bd 418b de3c c5aa 823d e798 e2bc
00000210: 000d 5b3d 4f6f 483c f29f a83d 85c6 863d
00000220: 60ac 47bd 3d77 913d 3ebb 003e c49d fb3d
00000230: 75a9 a33d 1bf5 6b3d 3b3d c83d 096d 7f3d
00000240: cee2 58bd a2db 9bbd 7176 16bb fa52 b83c
00000250: df19 3abc 1b3a d43d efe5 6bbd 0e1a 53bd
00000260: e137 a93c 9c50 c9bc 164a 5bbd 496b c43d
00000270: 8731 c0bd 5663 d33c 2c56 febd b13d fcbd
00000280: ff67 063b fc0e 453d 1712 f9bd b513 b03d
00000290: 1976 aebd a0f9 81bd 7989 4bbd a9f6 b8bd
000002a0: 690a 39bd cff2 60bd e64f 0b3d 11ee ec3d
000002b0: 5091 813d 25ac 54bc 7cfd c7bd a53b 5fbd
000002c0: 98cc 103d 1e46 e83d d649 7dbd 5ac8 853d
000002d0: 67b6 d9bd bad5 73bd 64c5 cc3d aecd 8e3c
000002e0: 9bb6 4e3d 90fd 2f3c 1c26 03bd c2a3 d83d
000002f0: e5e6 efbd 7f07 8abd c38f d1ba 93af cf3d
00000300: 1f21 12be 0989 f43d b748 ba3c 5692 173c
00000310: 5079 fabd 8080 80bd 187c dbbd b8ee 273e
00000320: ba0a a33d e4a8 5cbd 0abd 9c3d b147 4ebd
00000330: c65d caba f1ff c83d e32b 36bc 14e8 afbd
00000340: 04fb 613b cb11 cc3d d8ac d43d 8a39 5dbd
00000350: 2afe 97bd 2cf5 813d f510 28be 43e2 493c
00000360: 96b1 a53d d390 c83d 3618 1dbe b5c0 94bd
00000370: 25d8 d1bd 62ee b13d 19bf 1e3a a260 98bd
00000380: 49df f63c a908 23be 2837 1a3e 15ca bfbc
00000390: f66a 91bd 6bd2 43bd f175 c73d 7c0d d03b
000003a0: 61a4 0ebb 26f0 aebd 6357 f03d dcdc 10bc
000003b0: 4f7b b6bc 6e7f 89bd d28e 17be 26e4 2dbd
000003c0: 9959 11bd 3dff ec3d a5f4 22bd 3a65 08bc
000003d0: ae43 e6bd ff22 c3bd 64c2 06bd b58b cebb
000003e0: 4b39 25be d9eb c9bd 8572 9e3c 7de1 913d
000003f0: 0ede 2e3c 84e3 763d c3af 453d 896e 6e3d

AFeatRNN.bias_ih_l1 f4 [256]
0.116848074 0.091747954 0.1340464 0.04844083 -0.08432719 -0.004890904 0.15660635 0.033877846
0.09090929 0.09117881 -0.020367527 0.045812823 0.14261793 -0.017091094 -0.0966899 0.035065543
0.029037295 0.08727633 0.0503048 0.025110118 0.047480732 0.14294805 0.14263035 0.12712117
-0.08362534 0.012686051 0.051763915 0.034299627 0.18236761 0.009548875 0.16829048 0.030748682
-0.05866756 -0.13352725 -0.008417616 -0.081322774 0.011299686 -0.059140425 0.0854609 0.069991015
-0.054435138 0.07728787 0.08441466 -0.04688622 0.07674838 0.07481521 0.028360516 0.033120893
-0.09918424 -0.056740224 0.048351128 0.06461084 0.10705651 -0.023159534 -0.088005826 0.14695323
0.026455993 0.10144964 0.042912435 -0.001515879 0.16173299 0.110027514 0.058662843 0.06321111
0.029660083 -0.0787063 0.05295535 0.066315405 -0.10363213 0.02699008 0.015615288 -0.04183434
0.015183068 -0.043600813 0.0015996245 -0.0022480674 0.07495818 0.122423574 0.073123455 0.049175628
-0.061383482 -0.11006206 -0.06499797 0.011623028 -0.021623705 -0.06614458 0.2295895 0.015843756
-0.026675297 -0.006763789 0.03940191 -0.15867226 0.006058136 -0.02962283 0.0074001807 0.06847083
-0.13636513 -0.08827816 -0.046187613 0.04138822 -0.08651822 -0.065971486 -0.075318865 0.024973214
0.019019114 0.024553362 0.12836055 0.035769623 -0.105101995 0.016410897 -0.06960661 0.037426297
0.037342273 -0.11551952 -0.10108418 0.091310225 0.12775625 0.006033692 0.09905187 -0.092944704
0.040929012 0.074480034 -0.086503476 -0.0012016387 -0.061355937 0.06591987 0.024245964 -0.10468833
-0.10520669 0.08277724 0.12435653 -0.024614248 -0.117187984 -0.06327675 0.0790374 0.022277242
-0.07053365 0.04879103 0.01450365 0.07577348 0.06149624 0.008080741 -0.008193817 0.0016393244
0.044455968 0.13756427 -0.04381277 -0.12787613 0.03072055 -0.063868195 -0.17123507 0.08795515
-0.020510366 0.003560314 -0.022089992 0.01585924 0.021259721 -0.033251572 -0.13407402 0.08505074
0.051598683 -0.12714928 0.054926198 -0.06855906 0.096089154 0.043569785 0.046423685 0.0057206587
-0.018172389 -0.096838154 -0.05731619 0.07619245 -0.022961462 -0.046485152 -0.005547033 0.036721837
0.057057936 0.104463205 0.13041851 0.14059915 0.040780596 -0.033008642 -0.03595398 0.037192024
-0.014367168 0.09814569 -0.052011 -0.02116192 0.08927221 0.06252431 -0.1277558 -0.08643461
0.121353514 0.012380058 -0.0035159746 0.16815796 0.01827623 -0.018295852 -0.06607309 -0.021868173
-0.005281054 0.088133246 0.12874183 0.080673836 0.06321286 0.07855991 0.13749291 -0.06381157
-0.0674166 0.029972525 -0.0050243004 0.0018505856 -0.063072085 0.041276753 0.016501343 0.07300417
-0.030867256 0.021591395 0.12667832 -0.07867835 0.13554353 -0.032574225 -0.07391631 0.009069314
0.12048728 0.026884826 -0.021110915 0.05474981 -0.0691996 0.1419526 -0.029912814 0.1663518
-0.05848722 0.0790533 -0.04886021 -0.085458465 0.022195728 -0.01189696 -0.07474153 -0.01363288
-0.05807867 0.01178458 0.050417777 -0.08484751 0.0531319 -0.043806087 0.045673065 -0.0735785
-0.026494687 0.05270051 -0.0013760058 0.102834806 -0.03791211 0.08051913 -0.03432471 -0.06202258
00000000: 0b4e ef3d 5ae6 bb3d 7643 093e e469 463d
00000010: bcb3 acbd e043 a0bb 6a5d 203e 7fc3 0a3d
00000020: a62e ba3d f5bb ba3d cdd9 a6bc 3aa6 3b3d
00000030: 6f0a 123e 9f02 8cbc 5b05 c6bd e3a0 0f3d
00000040: 9fdf ed3c efbd b23d 680c 4e3d bcb3 cd3c
00000050: 287b 423d f960 123e b10d 123e 0d2c 023e
00000060: c343 abbd 28d9 4f3c 6606 543d c47d 0c3d
00000070: 93be 3a3e e272 1c3c 5754 2c3e a9e4 fb3c
00000080: 654d 70bd 5ebb 08be 0aea 09bc 8e8c a6bd
00000090: 5122 393c 3b3d 72bd 2006 af3d 7357 8f3d
000000a0: 61f7 5ebd 1a49 9e3d 98e1 ac3d c40b 40bd
000000b0: 412e 9d3d b838 993d 5054 e83c c6a9 073d
000000c0: 1b21 cbbd 7068 68bd d50b 463d b052 843d
000000d0: 7240 db3d 10b9 bdbc 663c b4bd e87a 163e
000000e0: 3dba d83c d4c4 cf3d f3c4 2f3d 75b0 c6ba
000000f0: 559d 253e 1b56 e13d 7348 703d d474 813d
00000100: b4f9 f23c c530 a1bd b6e7 583d 5fd0 873d
00000110: 153d d4bd 4d1a dd3c 44d7 7f3c 7c5a 2bbd
00000120: 67c2 783c c496 32bd 7eaa d13a 5054 13bb
00000130: ad83 993d 36b9 fa3d c0c1 953d 626c 493d
00000140: 3f6d 7bbd 3868 e1bd a81d 85bd 836e 3e3c
00000150: 3224 b1bc cf76 87bd 8319 6b3e c4ca 813c
00000160: 2786 dabc c6a2 ddbb e663 213d fb7a 22be
00000170: 5483 c63b 94ab f2bc 377d f23b 6f3a 8c3d
00000180: 4da3 0bbe 2ecb b4bd 392f 3dbd b286 293d
00000190: 7730 b1bd 0f1c 87bd c740 9abd a094 cc3c
000001a0: f9cd 9b3c 2224 c93c f370 033e 2b83 123d
000001b0: b73f d7bd 2570 863c e98d 8ebd 514c 193d
000001c0: 36f4 183d 8095 ecbd 3905 cfbd db00 bb3d
000001d0: 89d2 023e 47b6 c53b b5db ca3d cb59 bebd
000001e0: 2ea5 273d fd88 983d bc28 b1bd 4e80 9dba
000001f0: 5d50 7bbd ff00 873d 799f c63c d666 d6bd
00000200: 9b76 d7bd 1d87 a93d a3ae fe3d d2a3 c9bc
00000210: 4100 f0bd 3e97 81bd 5cde a13d c37e b63c
00000220: f273 90bd 1ad9 473d b8a0 6d3c 202f 9b3d
00000230: 7be3 7b3d 1665 043c 5c3f 06bc 99de d63a
00000240: 7617 363d a6dd 0c3e 0575 33bd f6f1 02be
00000250: aaa9 fb3c 54cd 82bd 3f58 2fbe d421 b43d
00000260: 5b05 a8bc 2854 693b 12f6 b4bc 3deb 813c
00000270: de28 ae3c cd32 08bd b34a 09be 152f ae3d
00000280: 2459 533d 6c33 02be 4bfa 603d b168 8cbd
00000290: 64ca c43d 3b76 323d c326 3e3d 5d74 bb3b
000002a0: 43de 94bc 1553 c6bd 62c4 6abd ca0a 9c3d
000002b0: ad19 bcbc 3767 3ebd e3c3 b5bb a369 163d
000002c0: 95b5 693d cef0 d53d 6e8c 053e 39f9 0f3e
000002d0: 8e09 273d 1234 07bd 7b44 13bd aa56 183d
000002e0: 4564 6bbc 9c00 c93d 7d09 55bd c35b adbc
000002f0: 59d4 b63d bf0c 803d 6bd2 02be a104 b1bd
00000300: 3188 f83d bad5 4a3c 446c 66bb 9a31 2c3e
00000310: 08b8 953c 2fe1 95bc 5451 87bd e224 b3bc
00000320: b10c adbb 347f b43d e6d4 033e 5338 a53d
00000330: be75 813d 05e4 a03d f1ca 0c3e a4af 82bd
00000340: b711 8abd f188 f53c e3a2 a4bb 598f f23a
00000350: f02b 81bd d011 293d d32d 873c 3683 953d
00000360: 54dd fcbc 70e0 b03c f6b7 013e 1d22 a1bd
00000370: eccb 0a3e 8d6c 05bd 6f61 97bd 7697 143c
00000380: 09c2 f63d 913d dc3c ccf0 acbc 5641 603d
00000390: 85b8 8dbd 065c 113e b80b f5bc 2058 2a3e
000003a0: 4c90 6fbd b2e6 a13d a521 48bd d904 afbd
000003b0: d1d3 b53c 78eb 42bc 1612 99bd 715c 5fbc
000003c0: e6e3 6dbd 1c14 413c df82 4e3d 88c4 adbd
000003d0: d6a0 593d 036e 33bd ae13 3b3d 53b0 96bd
000003e0: 630b d9bc 7ddc 573d 185b b4ba 0e9b d23d
000003f0: bb49 1bbd 37e7 a43d 1198 0cbd 640b 7ebd
