STD/checkpoints/LSTM2linear3/VA_METRIC_state_epoch70.pth (torch, 585522 bytes, 24 tensors)

AFeatRNN.weight_ih_l0 f4 [256, 128]
000000 53 fe 50 bc 4e b9 75 3d 27 37 0f bd 85 0b 77 3c
       -0.012755948 0.059991173 -0.034964707 0.01507843
000010 7d 9c 82 bd 78 76 2f bd ed 7d 31 3d 37 ce 0a be
       -0.06377504 -0.04283759 0.043332983 -0.13555227
000020 4f e8 9d bd fd a2 0b 3e 89 cf 92 3c 9b 5e 6d 3c
       -0.07710325 0.13636394 0.017921226 0.014487888
000030 11 2c 14 be 40 a4 3e 3e 69 fd 62 bc 0d ee 51 3e
       -0.14469935 0.18617344 -0.013854363 0.20500965
000040 ba d3 32 bd df 0d 33 bd ab 34 54 bd be 02 c6 bd
       -0.04365895 -0.0437144 -0.05180804 -0.09668492
000050 35 0c d6 bd c6 57 1a bd 8a 56 b5 bd 00 71 b2 bd
       -0.10451547 -0.037681364 -0.08854397 -0.08712959
000060 e4 ec d4 3c 26 41 84 3d 0f e3 cb bd 81 c6 11 3e
       0.025991865 0.064577386 -0.09955417 0.1423588
000070 48 5f 64 3d 29 c5 2b be 18 2e 21 3e 51 5e ec bc
       0.05575493 -0.1677443 0.1574024 -0.028853567
000080 ef 73 4e 3d ec d2 01 be a1 a2 17 3e 1b af 29 bd
       0.05040353 -0.12678117 0.14808132 -0.04142676
000090 8c 70 cd bd a0 ff b4 bc 17 43 80 3c 25 18 25 3d
       -0.10031232 -0.022094548 0.01565699 0.04030623
0000a0 a3 2f 93 3d a9 64 4d 3d 85 c9 9f be a9 3d 93 bc
       0.0718682 0.050144825 -0.31208435 -0.017973738
0000b0 d4 5b 38 3e f8 37 9f bd 9c 6e 0e 3d 99 24 c2 bc
       0.1800378 -0.07774347 0.034773454 -0.023699092
0000c0 d8 17 9b 3d 8d ef d0 3c fc 63 db 3b 83 80 42 3e
       0.07572907 0.025504852 0.0066952687 0.18994336
0000d0 47 db a4 bd f7 ce 65 3d 86 32 44 3e 2a 3f 69 bc
       -0.08049636 0.05610558 0.19159898 -0.014236251
0000e0 52 ca 81 bc cc 85 58 bd ae 2d 7f bd 45 96 11 3e
       -0.015843544 -0.052861974 -0.062299423 0.1421748
0000f0 6c 01 5b 3d a9 b0 d2 3d 92 a7 18 3e 54 11 a1 bc
       0.053468153 0.102876015 0.14907673 -0.019661583
000100 18 dd 91 bb e2 c3 a5 bb ae 61 12 be d1 2a c2 3d
       -0.0044514053 -0.0050587514 -0.14295074 0.09480823
000110 51 b0 7e 3d a2 c3 b6 bc ba 4b ec bd 3a dc 39 3d
       0.062179867 -0.022310082 -0.11537881 0.04537604
000120 e6 bb 5d bd 90 e4 e8 3b 9f cb 5c 3c dd b5 6b bd
       -0.054134272 0.007107325 0.013476281 -0.057546485
000130 2a c6 5c 3e 68 cc b3 bc fa bd b8 3c 22 bd 12 bd
       0.21559969 -0.021948054 0.022551525 -0.035824902
000140 11 88 6a be f4 43 b5 3d 1b dd 89 bd 9c 26 5e 3e
       -0.22903468 0.08850852 -0.06731626 0.21694416
000150 55 d8 ef bd 59 cc 08 be a1 9d 19 3d f9 77 ad bc
       -0.11711184 -0.13359202 0.037503842 -0.021175371
000160 1a ab 2c bc fd 66 0b 3e 0b 6a b4 3c dd ec 77 3d
       -0.010538841 0.13613506 0.022023221 0.060528625
000170 5b 32 9e 3d de 17 55 3c 47 62 2d 3e e2 35 df 3d
       0.07724448 0.013006179 0.16932021 0.10898949
000180 60 2e 2e bc ee 0e 25 3e 92 cc cf 3c 82 3f 37 3d
       -0.010631174 0.16118976 0.025366101 0.0447383
000190 a7 5b 2e 3c fd 70 1e 3e d2 0c 21 bd 29 58 58 3e
       0.010641969 0.15472789 -0.039318867 0.2112738
0001a0 ea e0 05 be 94 26 f6 bd c9 ae 1f 3e d4 b4 12 be
       -0.13074079 -0.12019077 0.15594019 -0.14326793
0001b0 c8 5d 86 bd 6e 5d a8 3d c0 c9 08 be 5a 01 be 3c
       -0.06560856 0.08220945 -0.13358212 0.023194004
0001c0 b8 b3 71 be bd 57 f1 3d 70 33 5e 3d 17 56 e8 bd
       -0.23603714 0.11784313 0.054248273 -0.11344545
0001d0 1f 25 48 bd 31 9d 9f 3c 5a b3 70 3b ac c3 e6 3c
       -0.048863526 0.019484134 0.0036727996 0.028169475
0001e0 fd df 05 3e 11 6f b8 bd cd 3a fc bd 8c 5c a8 3b
       0.13073726 -0.09005559 -0.12315903 0.0051379856
0001f0 8c fc 13 bd f3 87 a7 bd 8a 1d 8b 3e 46 63 3f 3c
       -0.03612952 -0.08180227 0.27170974 0.0116813835
000200 df b9 94 3d 09 f4 38 bd cf 72 67 3c 50 ad ad 3d
       0.072620146 -0.045154605 0.014126494 0.08480322
000210 82 f1 22 be be df 0d be ba 82 82 bd 76 96 9a 3c
       -0.1591244 -0.13854882 -0.0637259 0.018870573
000220 3a 4c 74 bd c0 ce 11 bc d0 02 64 be 2c ff d9 3d
       -0.059643008 -0.008899391 -0.22266698 0.10644373
000230 1b 20 5e bc b6 8a 35 be 9a 83 c9 bd 2f b3 71 be
       -0.013557459 -0.17728695 -0.09839554 -0.2360351
000240 85 4c 5e bc fc 17 2d bd 47 5b cf 3d dd 38 61 be
       -0.013568048 -0.0422592 0.10124832 -0.21994348
000250 9f d6 84 3e aa 9f df bc cd a9 e4 bc d2 92 74 be
       0.25944993 -0.027297813 -0.027912999 -0.23884133
000260 21 f0 e5 3d 08 bb 8e bd c9 b7 a5 3d da 55 0f 3e
       0.112274416 -0.06969267 0.08091695 0.13997594
000270 90 0d 6e 3d 47 8a 8a bd bf d4 57 bc eb cc 0a be
       0.058118403 -0.067646556 -0.013173281 -0.13554733
000280 b6 ac 62 be 14 4f 40 bd b7 8b e4 bc f9 9b 8c 3d
       -0.22136196 -0.046950415 -0.027898652 0.06865687
000290 08 6d c2 bd 0c a2 e0 3d 12 7e e6 bc c1 29 2c 3d
       -0.09493452 0.10968408 -0.028136287 0.042032007
0002a0 a7 de 8a 3c 9b f1 2d 3b 07 57 d9 bc 4e 1e d8 bd
       0.016951872 0.0026541713 -0.026530756 -0.10552655
0002b0 0f fd 3b bd c2 42 1c 3d 10 2e 89 be 10 4c 31 be
       -0.045895632 0.038149603 -0.26792955 -0.17314172
0002c0 eb 3c 4d bd 3d 37 d2 bd b8 42 b8 bc 82 97 70 be
       -0.050106924 -0.10264442 -0.022492751 -0.23495296
0002d0 90 96 05 3e f1 78 bf 3d e9 c7 42 be de d7 de bd
       0.13045716 0.093492396 -0.19021572 -0.10881017
0002e0 3d 5b 9a bc ef 1f 1f be 58 27 75 bd 29 82 86 bd
       -0.018842334 -0.15539525 -0.059851974 -0.06567795
0002f0 7f c5 d4 bd 3f 5d 96 bd 1c a9 d6 bd 08 0a 73 bc
       -0.10389232 -0.07342004 -0.10481474 -0.014833935
000300 4a 1d 6f bd 7f 2e b9 3d e7 5a 68 ba b5 38 5a bd
       -0.05837754 0.090420716 -0.0008863643 -0.053276736
000310 c1 6d 41 bd 61 7c ae bd 1e df 3f 3c 93 53 21 bd
       -0.04722381 -0.08519817 0.01171091 -0.039386343
000320 b5 e4 8e 3d 00 18 8c bc a5 c2 7d 3b 89 17 9c bc
       0.06977216 -0.017101288 0.0038720754 -0.019054191
000330 54 04 07 be 26 65 8f bd 0d 1f bb bd e2 1b 8a bd
       -0.13185245 -0.070017144 -0.09136782 -0.067435995
000340 36 bd 9c 3d 70 1d f5 3d 89 54 32 3d 67 ff ef 3d
       0.076532766 0.119685054 0.04353765 0.11718636
000350 44 e5 d9 bd c4 13 9e 3d fc 69 67 3e af 1e b4 bd
       -0.10639432 0.07718614 0.22599024 -0.08794915
000360 6d 0e 33 3d 29 6e 74 3d fe 07 de 3c 1c 56 8e bd
       0.04371493 0.05967537 0.02710342 -0.06950018
000370 ee b1 43 3c d3 ad 1e bd 44 a2 e0 bd 9e f9 37 be
       0.011944277 -0.03873999 -0.1096845 -0.17966315
000380 a1 94 fd 3d fd 19 bc 3d 43 43 af bd 3e c6 06 3e
       0.12381864 0.09184644 -0.08557751 0.13161561
000390 b3 d3 4b be dc ee 7f bd ac 19 02 3e f2 cd 27 be
       -0.19904976 -0.062483653 0.12705106 -0.16387156
0003a0 15 8f 9d bd 61 4e a7 bd 05 3a c9 3d ed aa 40 3d
       -0.07693306 -0.081692465 0.098255195 0.047038008
0003b0 9e 9f 03 3e 2c 24 ba bd c0 34 59 bc 01 09 99 bd
       0.12853858 -0.090889305 -0.0132572055 -0.074724205
0003c0 8e e4 a0 bd 36 4e a7 be 9e 3d d3 3c 3a 9d a6 3b
       -0.07856093 -0.32676858 0.025786217 0.005084661
0003d0 13 1e c9 bd da 1e 77 3c 2a 50 ed 3a 05 4a 23 be
       -0.09820189 0.015083039 0.0018105556 -0.15946205
0003e0 36 8c bd bd bc c0 03 bd 82 9b f5 3d e2 7d d1 3d
       -0.09255259 -0.032166228 0.119925514 0.10229088
0003f0 cc 55 99 3d 79 37 16 be 6b d3 cf 3d f1 c9 f9 3b
       0.074870676 -0.14669599 0.10147747 0.0076229502

AFeatRNN.weight_hh_l0 f4 [256, 64]
000000 7a 62 b6 bd fd c6 fe 3c d1 59 7f 3c c2 06 ac 3b
       -0.08905502 0.031100744 0.015585379 0.005249829
000010 d2 05 ee 3c 29 e2 d4 bc b0 4e d5 bd 8d f9 f1 3c
       0.02905551 -0.025986748 -0.10415399 0.02953794
000020 7b 6e d3 bd f5 55 c2 3c 7b 69 0e 3d 78 0f c0 3d
       -0.10323807 0.023722628 0.034768563 0.093779504
000030 f3 e9 ca 3d e5 a9 17 be 44 a3 a9 3d 92 7a 19 bd
       0.099079035 -0.14810903 0.082830936 -0.037470408
000040 8e 36 c6 bd 5e c2 8e bd 33 d3 fa 3b e5 5a 8b bc
       -0.09678374 -0.06970666 0.0076545714 -0.017011115
000050 a3 ff f1 bd 49 8b 04 bd 23 a5 21 be db 16 bb 3d
       -0.11816337 -0.032359395 -0.15785651 0.09135219
000060 77 a9 4f bd 42 0f 6c 3d f8 a7 86 3e 96 2e 4d bd
       -0.050698724 0.05763174 0.26300025 -0.050093256
000070 f2 a9 39 3e 34 d7 4e bc 1a b5 2a 3d 97 ea 04 be
       0.18131235 -0.012624551 0.04167662 -0.12980114
000080 8b 08 c6 bb ad a4 2b be 18 9a c2 bc 52 ea 81 3d
       -0.006043499 -0.16762038 -0.023755118 0.06343521
000090 f5 3d 7e bc 4f 9d 02 be 6c 8b d1 3d 78 4d e5 be
       -0.015517701 -0.12755321 0.10231671 -0.44785666
0000a0 43 d5 1b 3c 42 e2 3b 3e 4d 25 db 3d 3c 70 30 be
       0.009511295 0.1834803 0.10700474 -0.17230314
0000b0 c5 73 19 3e 41 d4 20 3e 7c 7d 6f 3c 13 6e b8 3d
       0.14985569 0.15705968 0.01461732 0.0900537
0000c0 57 c7 67 3e 4a 1a b4 bd 51 d8 d3 3c ea a4 e8 bd
       0.22634636 -0.08794077 0.025859984 -0.1135958
0000d0 32 fb 04 3d b2 70 a1 bd 06 6a fe 3c 8a 8b dd bd
       0.03246612 -0.07882823 0.031056415 -0.108176306
0000e0 4a 91 45 be ef 8c 9a 3d 27 93 f9 bb 0b b7 8f 3d
       -0.19293705 0.07546412 -0.007616419 0.070173346
0000f0 8e 29 34 be 2d 18 63 be e4 7b 65 be dd d2 24 bb
       -0.17593977 -0.22177191 -0.22410542 -0.0025150098
000100 f2 28 0e 3e 27 4b f3 3a dd be 08 be 77 ce 14 3e
       0.13882807 0.0018561826 -0.13354059 0.14531885
000110 e7 0f 8b bd 39 e6 c8 bd 2a 84 f3 ba 65 22 c3 bc
       -0.067901425 -0.098095365 -0.0018578817 -0.023820112
000120 86 da 9b 3d 79 50 97 3d 28 5f 10 be 92 c6 e4 bd
       0.076100394 0.07388396 -0.14098799 -0.11170687
000130 05 f2 b7 3d 59 dd da bc 9a 87 fa 3d c8 40 ce 3d
       0.089817084 -0.026716875 0.12232895 0.1007095
000140 38 e9 df bc 8e 80 16 bd 03 7b fe 3d f6 d4 ae 3d
       -0.027332887 -0.036743693 0.124258064 0.08536713
000150 ae d6 65 bd 2f c3 da 3c 1b 21 74 bd 75 a2 19 be
       -0.056112938 0.026704399 -0.059601884 -0.15003379
000160 b1 61 1d 3d ff 0e 0a be 6e 39 08 3e 7d d2 86 bd
       0.038423244 -0.13482283 0.13303158 -0.06583116
000170 88 5a b9 3c ca d5 29 bd db b1 1f 3d 82 f6 a7 bd
       0.022626176 -0.04146365 0.038987976 -0.082013145
000180 f5 b4 69 3c 2b a3 07 bd 42 eb 3e bd 81 d3 08 3e
       0.014264335 -0.033114593 -0.046611078 0.13361932
000190 71 8d f9 3d 8e 5d 66 bc 0f 83 aa 3d fd 2e 4b 3d
       0.12185181 -0.014060391 0.08325779 0.04960536
0001a0 bc 5f db 3d 29 f8 14 bd a8 e7 b7 3d 30 50 53 3e
       0.10711619 -0.036369476 0.08979732 0.20636058
0001b0 f8 a1 a9 bc 1b 3c c9 bd 45 a7 7e 3d 29 d9 18 be
       -0.020707116 -0.09825917 0.06217124 -0.1492659
0001c0 6e 3c 19 be e2 b9 8e bd 03 4b 08 3e 92 c4 66 be
       -0.14964458 -0.06969048 0.13309865 -0.22535923
0001d0 58 48 d7 3d 9b 19 3e be 4d be 5e 3c 93 ab 29 3d
       0.10511845 -0.18564455 0.013595176 0.04142339
0001e0 f6 2d 66 bd 6c 81 a3 bd 22 5c 7e bd 76 06 ae bd
       -0.056196176 -0.0798367 -0.062099583 -0.08497326
0001f0 a8 10 93 3d 04 dd c1 bc 81 39 95 3d 6a fa dc bd
       0.07180911 -0.023664959 0.072863586 -0.1078995
000200 20 48 ba bd 04 77 04 be 9b af 7e bd cc 2c 87 bc
       -0.09095788 -0.12936026 -0.06217919 -0.016500853
000210 64 8d c7 3c 1c 50 55 bd 2c de 9e 3c 27 32 fa 3c
       0.024359412 -0.05207835 0.01939305 0.030541493
000220 f5 1e 99 bc 16 b8 eb bd dc b2 e3 3d 12 67 40 3d
       -0.01869152 -0.11509721 0.11118099 0.046973296
000230 c5 e7 ae bc de 70 b4 3c 73 b8 6c bc eb 42 cf bc
       -0.02135075 0.022026476 -0.014448273 -0.025300464
000240 63 dc db bc fc 76 15 bd 93 5f 07 bd f3 df 87 bc
       -0.026838487 -0.036490425 -0.03305013 -0.01658628
000250 a2 c0 cc 3d b9 7d 01 be df 16 54 bd 24 90 9d 3a
       0.09997679 -0.12645616 -0.051779624 0.0012021107
000260 49 90 c4 bd 3f ba 8a 3d 4b d7 b4 bd 56 3d 3d bd
       -0.09597833 0.06773805 -0.088301264 -0.046201073
000270 43 d9 bd 3d 2a 72 c0 bd c3 eb fb 3d ae 56 5a bd
       0.09269955 -0.09396775 0.12300827 -0.05330532
000280 e0 0b f4 3d 79 da 8a 3c ea 65 63 3d 17 44 b2 3c
       0.119163275 0.016949879 0.055517115 0.021760983
000290 38 a9 ff 3d 68 95 41 3e 1d 2b a3 bc 19 4e 86 be
       0.12483448 0.1890465 -0.019918019 -0.2623146
0002a0 6e 33 a4 3d 9e f9 e1 3d 05 21 dd bc f5 a5 7c bd
       0.08017622 0.11033939 -0.026993284 -0.061681706
0002b0 6e 7b 10 3e c1 66 73 bd 4b 74 9d bd d9 ed ba bd
       0.14109585 -0.059424166 -0.07688197 -0.09127397
0002c0 71 35 20 be 0a 1e 80 bd 04 88 84 bc fd d3 42 bd
       -0.15645386 -0.062557295 -0.016178139 -0.04756545
0002d0 09 2d 94 be 60 e6 5c 3c f6 2c 9b 3c 13 89 ea bd
       -0.2894061 0.01348266 0.018942337 -0.11451926
0002e0 aa 84 f4 3d bb 89 d6 bc a3 ba bb bb 22 d5 82 3d
       0.11939366 -0.026188722 -0.005729036 0.06388308
0002f0 0d b8 95 bd 61 1c 8c 3d c4 20 0e be 5c 00 93 bd
       -0.073104955 0.0684135 -0.13879687 -0.07177803
000300 57 28 d2 3c 51 a6 2d 3e b3 c3 ad 3c 61 1c e7 3d
       0.025654001 0.16957976 0.02121148 0.1128471
000310 dd cb cf bc 02 b5 ca bd 6e 81 f9 bb 89 50 0b 3d
       -0.025365764 -0.09897806 -0.007614306 0.03401235
000320 02 4b 23 3d d7 3e 07 3c 6a 9c df b9 21 74 f0 bd
       0.039866455 0.008254728 -0.00042650412 -0.117409
000330 22 69 45 bd 59 25 63 3d 6e 2b 21 3e 44 0e 3b 3d
       -0.048195966 0.05545554 0.15739223 0.0456679
000340 6f d9 0d 3d ba 48 7e 3d 10 3b 2b 3d 4c 02 64 bd
       0.03463119 0.062081076 0.041804373 -0.055666253
000350 01 1e d5 3d e9 66 cf bd 68 7f 5f bd f1 d5 0b 3d
       0.104061134 -0.101270504 -0.054564863 0.034139577
000360 49 2c 28 bd 72 dc 0a 3c 27 cf 0a bc 40 c1 07 3d
       -0.04105786 0.00847541 -0.0084722405 0.033143282
000370 9c cf db bb a6 48 8b bd af 82 0f 3d c0 fd c9 bd
       -0.0067080986 -0.06800966 0.03503674 -0.09862852
000380 d0 02 f4 bd 2a 36 8c bd d6 18 89 bd e6 d7 14 bd
       -0.11914599 -0.068462685 -0.0669419 -0.03633871
000390 ac 49 07 3d 68 a2 82 bc 89 93 a7 3d 0a fd b7 bd
       0.033029243 -0.015946582 0.08182437 -0.0898381
0003a0 85 ee 6a bc b4 ba 6e 3e 12 84 c1 3d 86 3f e9 bd
       -0.014339094 0.23313409 0.094490185 -0.11389069
0003b0 9f 68 54 bd 73 44 3c 3e 99 5f bf 3d ef f2 8c bb
       -0.051857587 0.18385486 0.09344406 -0.004301421
0003c0 e2 e8 d5 3c 7f 14 e1 3c 63 b9 ae 3c ee 48 57 3d
       0.026112024 0.027475594 0.021328634 0.052559786
0003d0 92 50 fb bc 92 1c 68 bd 8f 04 dd 3d 65 e3 dc 3d
       -0.030678067 -0.05666787 0.10791885 0.107855596
0003e0 2f 72 30 3d ce cd 40 be 86 98 8f 3c 49 3e 33 3c
       0.043077644 -0.18828508 0.017528784 0.010940143
0003f0 16 45 e2 3d f1 51 be 3b 8c 84 0d bd 99 ff af bd
       0.11048333 0.005808108 -0.034550235 -0.08593673

AFeatRNN.bias_ih_l0 f4 [256]
000000 63 7d 04 3e b3 73 77 3d 20 ae c0 bd 0c c1 88 bd
       0.12938456 0.060413074 -0.09408212 -0.06677446
000010 93 d0 a3 3d b9 8b 54 bd 2e 75 04 3d 7c 71 11 3c
       0.07998767 -0.051891062 0.032338314 0.008877154
000020 06 45 b0 3d c1 ca a5 3d b7 99 66 3d 5e 50 6b 3d
       0.08606915 0.08095313 0.056298938 0.05744969
000030 d1 e1 80 bd 85 7a 77 bc 82 c9 47 bb fc 1d 72 3d
       -0.06293071 -0.0151048945 -0.0030485098 0.059110627
000040 d7 ab 7b 3d 38 b8 2e bd 7d d8 f7 3c a0 6c 17 3d
       0.061443176 -0.042656153 0.030254597 0.036968827
000050 6a 94 19 3d a3 50 ab 3d 7b 9f 26 bb a6 4c 06 3d
       0.037495054 0.083649896 -0.0025424648 0.03278794
000060 c8 12 94 bd 15 7b 90 3d ae 99 20 3c e3 45 b7 bc
       -0.07230145 0.07054726 0.009802265 -0.022372192
000070 a6 47 21 3c de d0 99 3d 1b 4e 5b 3d 47 13 06 3e
       0.0098437425 0.075105414 0.053541284 0.13093291
000080 67 c4 0c 3d 4e ba de bc 6e 18 02 3e e8 1d ef bd
       0.03436699 -0.027188446 0.12704632 -0.11675626
000090 08 d4 a4 3d 22 02 67 3d 38 6d d9 bd b9 18 a4 bd
       0.08048254 0.05639852 -0.10616535 -0.08012528
0000a0 1f 7e ac bd 97 2b 19 3d 79 b8 4e bd 17 78 b8 3d
       -0.08422493 0.037395086 -0.050468896 0.0900728
0000b0 35 4c 3e 3d 69 23 aa bd 31 5c 28 bd 79 3c 01 3e
       0.046459395 -0.08307535 -0.041103546 0.12620725
0000c0 89 77 93 3d 5b 76 0a be b6 ad be 3d d9 2b d4 bd
       0.07200534 -0.13521712 0.093104765 -0.10359926
0000d0 10 fc b0 38 c1 27 d4 3d 92 6f bc bd 61 6c 0a 3c
       8.439284e-05 0.10359145 -0.09200968 0.008448691
0000e0 ee 35 98 3d 5b 66 84 3d 77 1e a5 3d 00 fd ce 3d
       0.07432161 0.06464835 0.08062451 0.1010685
0000f0 51 f6 5b bd bd 1b a8 3d 42 b9 ba bd c7 ac cc bd
       -0.053701703 0.08208416 -0.091173664 -0.09993892
000100 9e 56 05 3a 48 6b 84 3d e5 68 0d 3e a0 0f 50 bd
       0.00050864543 0.06465775 0.13809545 -0.05079615
000110 0b 27 23 3d d7 74 0a 3d 62 cf 21 3d 71 bb eb bd
       0.039832156 0.033802833 0.039504416 -0.11510361
000120 34 d9 b6 3d 0d 01 ba 3d 2a c8 5b bd 13 c0 02 3d
       0.08928147 0.09082232 -0.05365769 0.031921457
000130 3a c3 7b 3d e0 8a 96 3c df 8d 4f bd 35 63 59 3d
       0.06146548 0.018376768 -0.05067241 0.053073127
000140 03 4d 13 bd db c6 1f bd 9f d9 ba bd eb f6 ad 3d
       -0.035962116 -0.039008003 -0.09123539 0.084943615
000150 23 5e 5d 3d 81 f5 89 bc 58 9a 57 bd cf 3d 70 bd
       0.054044854 -0.016840698 -0.052637428 -0.058652695
000160 10 98 a1 3d 72 35 48 bc c2 b7 23 bc 3a ab 99 bc
       0.07890332 -0.012219774 -0.009992542 -0.018758405
000170 77 28 09 be 04 f7 dc bd 6b 47 dd 3d 58 4a d3 3c
       -0.13394342 -0.10789302 0.108046375 0.025792286
000180 7a c6 91 3d 39 e6 e5 3d 67 09 18 be 17 3f ff 3b
       0.071179345 0.11225552 -0.14847337 0.0077895033
000190 d7 13 02 3e 1f c6 43 bd 7b cd 2f 3d 55 7c cf bd
       0.12702881 -0.047796365 0.04292057 -0.10131136
0001a0 84 f7 3b bd c2 8d 8d bd fc a2 3c 3b 2b bc 89 bd
       -0.045890346 -0.06911804 0.002878367 -0.06725343
0001b0 b0 ff 01 bd 70 c6 11 bd d9 9d 08 3e b9 5d 58 bd
       -0.031737983 -0.035589635 0.13341464 -0.052823756
0001c0 58 37 14 3d 5d 4e ee 3c 8a 32 ef bd ad 34 99 bc
       0.036185592 0.0290901 -0.116795614 -0.018701876
0001d0 19 46 f7 bd e7 64 90 bd 13 18 15 be 04 4b bd 3d
       -0.12073917 -0.070504956 -0.14559965 0.09242824
0001e0 ba 1f 3d 3c 77 54 d4 bd b0 45 5f 3d f8 d0 b4 3d
       0.011543209 -0.10367673 0.05450982 0.0882892
0001f0 6e d2 0c bd 20 2a f7 bb 0f 75 c7 bd 8a ac 4e bc
       -0.03438037 -0.0075428635 -0.09739124 -0.012614379
000200 5d 70 9f bd 4c d7 b6 3d 65 80 08 3d aa c1 e7 bd
       -0.077851035 0.08927783 0.03332557 -0.11316235
000210 f7 42 8f 3d b8 6e 08 bd 2e 17 78 bc 30 4f 02 3e
       0.069951944 -0.033308715 -0.015142245 0.1272552
000220 04 86 89 bd 05 45 ca bc 64 8d 01 3d 36 3f 94 3d
       -0.067150146 -0.024691114 0.03162898 0.07238619
000230 5a 94 d9 3d 5e 30 76 3d 9e 24 25 bd f4 cd 42 bd
       0.10623999 0.06010472 -0.040318124 -0.047559693
000240 a0 91 56 bd c7 37 4d bd ba 68 f7 bd 4a 6b e1 3d
       -0.052384973 -0.05010202 -0.12080522 0.11006792
000250 02 10 6d bd 44 4b a8 3d b4 34 d5 3d e4 33 a7 bc
       -0.057876594 0.08217481 0.10410443 -0.020410486
000260 70 99 07 3d 89 a0 0b be f5 f3 21 bd ef 51 ed bc
       0.033105314 -0.13635458 -0.039539296 -0.028969733
000270 74 e6 cc bd f3 f3 09 ba 47 1d 38 bc b3 f9 b2 bd
       -0.10004893 -0.00052624865 -0.011237449 -0.087390326
000280 9e 30 8e 3d ba 60 57 bd af eb 86 bc fd bf e5 3c
       0.06942867 -0.05258248 -0.016469805 0.028045649
000290 0d 39 08 bd ef ef 64 3d 74 97 a9 3d 0b 73 5b bb
       -0.033257533 0.05589288 0.082808405 -0.003348532
0002a0 96 1a 7a bd f6 6d e4 bd c1 11 98 3c 0d f6 36 3d
       -0.06106051 -0.11153786 0.018563153 0.044668246
0002b0 0e 05 f7 3c f0 10 cf bd 29 5a b4 bd 05 d8 e8 3d
       0.030153777 -0.101106524 -0.08806259 0.113693275
0002c0 7b 31 6b 3d c8 c2 a0 3d cc 6e 28 3d c2 54 70 3d
       0.057420235 0.078496516 0.04112129 0.05867458
0002d0 de ca b5 bd 17 01 d7 3c 7f 87 86 3d a3 9c c8 bd
       -0.088765845 0.026245637 0.065688126 -0.09795501
0002e0 84 73 b5 3d 97 4f d6 bd 48 07 d1 3d 53 00 8a bb
       0.088599235 -0.10464399 0.10206467 -0.0042114644
0002f0 54 3e 73 bc 36 ce e1 3d 65 b6 01 be 2e 1e c1 bc
       -0.014846403 0.1102566 -0.12667234 -0.023573961
000300 fa e0 0a 3e 49 97 8a bc 1c 26 82 3c 3d 7c 6e bc
       0.13562384 -0.016917842 0.015887313 -0.014555988
000310 eb 78 00 3e ce bc 0b 3d f2 35 31 3d eb 80 20 bb
       0.12546127 0.034115605 0.043264337 -0.0024490904
000320 9f 10 96 3d 94 a1 83 bd e8 89 15 3d aa e4 dc bc
       0.07327389 -0.06427303 0.03650847 -0.026964504
000330 ea 70 54 3d f7 e5 86 3c 4b cb a7 bc ba 7c 5c bd
       0.051865496 0.016467078 -0.02048268 -0.053829886
000340 9f 59 9e 3d 7e 81 87 3d 66 3d bc bd 7a 52 11 3c
       0.077319376 0.066164955 -0.09191398 0.008869762
000350 8e f3 ca bb 48 43 48 3d 05 cd 10 3e 12 fa f0 bd
       -0.0061935848 0.04889229 0.14140709 -0.11766447
000360 f9 3a 15 3d be fd ff bd c1 63 a9 bd b8 ca 6a ba
       0.036433194 -0.12499569 -0.0827098 -0.0008956599
000370 73 c6 41 bc ea b6 91 bd 33 a6 a4 bd f4 3d 15 3d
       -0.011827099 -0.07114966 -0.080395125 0.036436036
000380 bb c8 34 3d 57 e3 0e bd d9 99 a6 bd 22 04 62 bd
       0.044136744 -0.034884777 -0.08134813 -0.055179723
000390 1b 8e a6 bd b7 08 34 3c 3d c1 bb 3d 29 b6 5f 3d
       -0.08132573 0.010988406 0.09167717 0.05461708
0003a0 66 ad 05 3e 32 c7 16 3e 67 7e b5 3d c2 9d e1 3d
       0.13054428 0.14724424 0.08862 0.11016418
0003b0 e7 14 9e bd 59 86 f2 3d 5d 8f c9 bd 61 f1 dc 3d
       -0.077188306 0.11842031 -0.098417975 0.10788227
0003c0 4a fc e5 bc 2b 39 71 bd 37 60 14 3d a2 8e 90 3d
       -0.028074402 -0.05889241 0.03622457 0.07058455
0003d0 df 73 11 bc 41 55 d9 bc 0d 4c 29 bd 01 32 8b bd
       -0.0088777235 -0.02652991 -0.041332293 -0.06796647
0003e0 01 61 14 be 3a 2a e8 3d e7 7b 27 bc 8e 1e c4 3d
       -0.14490129 0.11336179 -0.010222412 0.0957614
0003f0 da 96 26 3d b7 f1 f1 bd ac 81 3e bd 57 16 94 bd
       0.040671207 -0.118136816 -0.046510383 -0.072308235

AFeatRNN.bias_hh_l0 f4 [256]
000000 d8 88 8b 3d f0 6f 89 3d 6d f5 62 3d e2 13 ea 3d
       0.0681321 0.067108035 0.055409838 0.114295736
000010 c5 f2 3d 3e ce 04 bb 3d c7 93 10 3e 81 cf d0 3d
       0.1854964 0.09131776 0.14118873 0.10195828
000020 20 50 f5 b9 c9 83 df bd ac 83 13 3e 47 32 66 3b
       -0.0004678974 -0.10913808 0.14405698 0.0035125182
000030 3f ea 4d bd 2c 9d eb bd fc 61 1f 3d d1 36 db 3c
       -0.050272223 -0.115045875 0.038911805 0.026759537
000040 22 8b a6 3c 8a 19 20 be 74 95 fb 3d 64 50 00 3e
       0.020330016 -0.15634742 0.12284365 0.12530667
000050 f7 37 2c bc 55 87 a9 bd 8d 66 7b 3d d1 d6 c4 3d
       -0.01051139 -0.08277766 0.061377097 0.096112855
000060 cc b5 6c bd 76 d9 b5 3d 13 5b 82 3b b3 08 05 3e
       -0.057790563 0.08879368 0.003978142 0.129916
000070 2a ba 02 be af 26 84 bd f9 b6 52 3b b5 2f 67 3d
       -0.12766328 -0.06452691 0.0032152517 0.05644198
000080 36 6f a0 3d fa 88 3e bc 9d 77 1f bd 54 61 ec bd
       0.07833712 -0.011629337 -0.03893243 -0.11542001
000090 ab 2b 3b bd 47 96 84 3d da 4a 61 bc fb 2a 12 3e
       -0.045695942 0.06473976 -0.013750756 0.14274208
0000a0 8b eb a9 3d f8 28 c8 bc 92 11 f0 3c 72 89 19 be
       0.082968794 -0.024433598 0.029305253 -0.14993837
0000b0 4d c0 40 3c 7d ad 6f bd 52 78 04 3d eb f1 8e 3d
       0.011764598 -0.05851506 0.03234131 0.06979736
0000c0 5f 0b ae 3d c1 5d 0d bc 30 cc 13 bd 17 1c ca bd
       0.084982626 -0.00862831 -0.0360834 -0.09868639
0000d0 38 cc 9d 3c 03 08 ce bd f3 01 1b bd 01 6b 95 3d
       0.019262418 -0.10060122 -0.037843656 0.072958
0000e0 95 66 7e bd 8c 9e 27 3c 43 af 9a 3d d8 68 89 3c
       -0.06210955 0.010230672 0.0755296 0.016773626
0000f0 d4 50 02 bd 9b 71 b1 3b 5c 7f 0a 3d 87 84 c0 bd
       -0.031815365 0.005415154 0.033812866 -0.094002776
000100 90 db 5b bd 2e 17 a8 bc 07 4d 24 bd 7f 90 8f 3d
       -0.053676188 -0.020518865 -0.04011252 0.07009982
000110 ff 76 4a 3c a9 50 be 3c 66 5c a6 3d a1 ea 69 3d
       0.012357472 0.023231821 0.08123092 0.057108525
000120 9e 07 1e 3e 10 e8 9e 3d 02 c2 d0 bd 3c 7d ae bd
       0.15432593 0.07759106 -0.10193254 -0.0851998
000130 43 10 c6 bd 16 d4 c2 3d 23 86 5f 3d 53 9e b7 bd
       -0.096710704 0.095131084 0.054571282 -0.08965745
000140 21 00 b0 3d 4a 61 c0 bd 1d f0 9d bd 0b a3 86 bd
       0.085937746 -0.093935564 -0.077118136 -0.06574067
000150 83 f0 cc 3c 4e b3 86 bd 7c 99 d2 bd 8a cd a0 bc
       0.025017029 -0.065771684 -0.10283181 -0.019629259
000160 4d 4e 01 bd d1 bb f4 3a 3c 40 5c bd 2a a5 67 bd
       -0.031568814 0.0018671696 -0.053772196 -0.056553997
000170 6a a6 14 bd 42 ee 87 3d 3f 05 97 3c 69 ca a5 bd
       -0.036291517 0.06637241 0.018435119 -0.08095247
000180 62 b4 87 3c cd a9 6e 3d 8c 5a 14 3d 79 da 36 be
       0.016565505 0.058267403 0.036219165 -0.17856778
000190 8a 92 14 3e f2 f8 63 3d 19 58 6f 3d ca b4 00 be
       0.14509025 0.055657335 0.058433626 -0.12568966
0001a0 fa 6a a5 bd 71 f7 70 bd bf 55 aa bc 8d e5 8b 3d
       -0.08077045 -0.05882973 -0.02079284 0.06830893
0001b0 d3 14 30 bd 3a ed 97 3c f2 33 d4 3c 2f 3f 02 3d
       -0.04298861 0.018545736 0.025903676 0.031798538
0001c0 30 2d 6b bd a5 f3 2f bd 14 37 97 3d ae 16 44 3c
       -0.05741614 -0.042956967 0.07383552 0.011968298
0001d0 d9 a5 e0 3d 8a c0 44 bd b2 6e 27 3d 02 ef 5f bd
       0.10969133 -0.048035182 0.04087705 -0.054671295
0001e0 64 ae 7b 3d 16 f7 60 bd b0 64 c1 3a 9d c8 e9 3c
       0.06144561 -0.05492314 0.0014754739 0.028538043
0001f0 93 fa 99 3d a2 03 98 3d f7 69 83 3d 0d 25 94 bb
       0.07518496 0.07422568 0.064166956 -0.0045210184
000200 ad 73 b5 3d d8 37 bb 3d f0 10 f7 3c 26 65 42 bd
       0.08859954 0.09141511 0.030159444 -0.047459744
000210 4b 3d 9e 3d 5f 58 6f 3d ab f6 a4 bc 57 6f 8e bd
       0.077265345 0.058433887 -0.020137152 -0.0695483
000220 e6 4e 24 3d 9f 24 9a 3c bc c1 ef 3d a9 fa f7 3c
       0.040114306 0.01881629 0.11706874 0.030270891
000230 bc 2d d2 3d f8 cd dd bd 64 41 b2 bd b2 34 fa 3c
       0.102626294 -0.10830301 -0.087038785 0.030542705
000240 d4 fb e4 bc 75 53 f6 3b c1 a0 a2 3d 32 6d ac 3d
       -0.027952112 0.007517273 0.079408176 0.08419265
000250 ab 66 93 bc 12 b8 93 bd 07 a0 ed 3b 9c 50 52 bd
       -0.017993292 -0.07212843 0.0072517428 -0.051346406
000260 6b 37 ac 3d b3 6d 0a be c9 31 b3 3c 63 03 64 3d
       0.08409008 -0.1351841 0.021874325 0.055667292
000270 b8 44 f7 bd dc 03 5c 3d c0 4e f0 3d 89 c0 97 bd
       -0.12073654 0.053714618 0.1173377 -0.0740977
000280 56 77 81 3d 00 f1 70 bc d3 22 ed 3d 8d 08 b3 3d
       0.0632159 -0.014705896 0.11578908 0.08741865
000290 be db d6 3d bc 11 eb bb 1f f3 f1 bb 58 59 9a 3c
       0.10491131 -0.007173745 -0.0073837186 0.01884143
0002a0 97 40 f0 bd 92 d9 d0 3d f1 28 a3 bc 45 94 69 bc
       -0.117310695 0.10197748 -0.019916983 -0.014256542
0002b0 34 4b e2 bd 16 7a 8d bd e9 c6 6b 3b fb 49 c2 bd
       -0.110495 -0.06908052 0.0035976714 -0.09486767
0002c0 b1 35 0f 3d d9 fa 96 3d 8b dc c3 3d e2 57 2c 3d
       0.034963313 0.07372064 0.095635496 0.042076
0002d0 16 3e 1c bd 4b f0 67 bd d5 00 49 bd a9 c8 e4 3d
       -0.038145147 -0.056625646 -0.04907306 0.111710854
0002e0 3a e0 55 3c 3e c9 45 3d 9c 93 b7 3d 24 3b 70 bc
       0.013053948 0.048287623 0.08963701 -0.014662538
0002f0 43 ba 1a bd f9 fd 81 bd 24 a1 d8 3d 9d fd b2 3d
       -0.03777529 -0.063472696 0.1057761 0.08739779
000300 f0 a2 8a 3d f8 61 c1 bd 42 90 03 3d 39 fb 0a 3e
       0.06769359 -0.09442514 0.032119997 0.13572396
000310 49 33 7b 3c a2 33 7c 3d 33 2b a5 bd 48 2d 45 bd
       0.015332052 0.06157268 -0.0806488 -0.048138887
000320 e8 8b 25 bd 5b 10 eb 3b 41 68 07 3c ae 91 b2 3d
       -0.040416628 0.0071735806 0.008264602 0.087191924
000330 f7 f8 83 bd 54 ea f6 3c c0 e2 3a bc bd 6c bc 3d
       -0.06443971 0.030141033 -0.0114066005 0.09200428
000340 98 fc c0 bd 94 62 85 bd 42 ad a4 3d d1 02 be bd
       -0.094231784 -0.06512943 0.08040859 -0.09277881
000350 75 76 65 bb bd 0a 05 3e ba d0 ed bb 21 ec 46 bd
       -0.0035013233 0.12992378 -0.007257548 -0.048565034
000360 10 6a b4 bd ec a6 af bd 7d cf b9 bd 76 c2 97 bd
       -0.08809292 -0.0857676 -0.090727784 -0.07410137
000370 c0 07 dc bd f0 af e7 3d 4f b4 ce 3d ab ca 28 3d
       -0.10743666 0.11312854 0.10092985 0.041208904
000380 31 17 92 bd 71 6c 7c bd 8d 72 a9 b8 39 4b 6d bd
       -0.0713333 -0.061626855 -8.079885e-05 -0.057933066
000390 0d 50 6e bd 08 f0 15 bd b5 55 af 3d 99 92 2a bd
       -0.05818181 -0.036605865 0.08561269 -0.041643713
0003a0 51 4f 5a bd 01 e0 47 bd bd 08 be 3d bf 9c 8b bd
       -0.0532983 -0.04879761 0.092790104 -0.06817006
0003b0 76 d8 14 3e 81 3f 2b 3d 9a 51 af bd 17 a4 aa 3d
       0.14535698 0.04180861 -0.08560486 0.08332079
0003c0 20 80 a7 bd d7 c9 7a bd 53 bf bb 3a d6 b2 08 bd
       -0.08178735 -0.061227646 0.0014323987 -0.033373676
0003d0 f7 9f b1 bd a5 f1 a8 ba db 58 9a 3c f3 60 db 3d
       -0.08673089 -0.0012889398 0.018841198 0.10711851
0003e0 2d f5 19 bd 8b 08 96 bc 05 c7 90 bc c1 05 9c 3d
       -0.037587333 -0.01831462 -0.017673025 0.07618285
0003f0 bf 97 01 be ed 5a 55 bd cd 59 a1 bc c1 61 ff bd
       -0.12655543 -0.052088667 -0.01969614 -0.12469817

AFeatRNN.weight_ih_l1 f4 [256, 64]
000000 52 d1 28 be 1a 3e 06 3d 93 1a a8 bd 11 b1 20 3e
       -0.164861 0.03277407 -0.08208194 0.15692545
000010 33 57 93 bd 1d 17 b8 bc 4a 60 63 be 66 9f 42 3c
       -0.07194366 -0.022471959 -0.222047 0.011878824
000020 25 63 5e be 04 5a 02 bd 29 c5 35 3e a8 35 a3 bc
       -0.21717508 -0.031824127 0.17750992 -0.019923046
000030 04 3e 05 3e 1d 81 55 bd 07 b9 38 3d b8 22 77 bc
       0.13011938 -0.052125085 0.04509833 -0.015083961
000040 3b 67 fa 3d 83 4b a3 3d 72 db 62 bc 0d 77 17 3e
       0.12226721 0.07973387 -0.013846265 0.14791508
000050 8d a6 bb 3b e8 b0 9d 3d 1e 8c 88 bc 46 c0 77 3e
       0.0057266415 0.07699758 -0.016668376 0.2419444
000060 c6 36 b7 bc e9 53 94 bd 80 30 b8 3c e2 8a 24 be
       -0.022364985 -0.07242567 0.022484064 -0.16068605
000070 6c 8d 62 3d 4d d1 4b 3d 6c 81 5d 3d f2 ac 8f 3d
       0.05531065 0.04976015 0.054078504 0.070154086
000080 b0 bb 12 3d 37 28 5b be 40 34 fa 3d 1e 2f 67 3e
       0.035823524 -0.2140206 0.12216997 0.22576568
000090 df 4b 70 be ec ef 09 be 3f 1f df bc 66 fa 49 bd
       -0.23466443 -0.13470429 -0.027236579 -0.049311064
0000a0 44 1c 6e be 13 c1 27 bd 03 ab f4 3c 7c 2b 9e bd
       -0.2325297 -0.040955614 0.029866701 -0.07723138
0000b0 64 6e 8e 3e 52 10 58 3d 61 df f4 3c 86 9e 82 3e
       0.27818596 0.05274994 0.029891672 0.2551157
0000c0 ca e1 89 3d b8 e8 39 3e a7 e3 b0 bd 80 7d d9 3d
       0.06732519 0.18155181 -0.08637171 0.1061964
0000d0 d8 bc 4d 3e 5b a0 f7 bd f1 78 6e bc f9 d5 f9 bd
       0.2009157 -0.12091132 -0.014555202 -0.12199015
0000e0 2d ab c2 3c 55 4d 8d 3d d7 d7 0e 3e 06 c6 41 bd
       0.023763264 0.068995155 0.13949524 -0.04730799
0000f0 1b 1c fc bd 70 8b 5b bd 72 6b d4 bd 28 4c 7b bd
       -0.12310048 -0.053599775 -0.10372056 -0.061351925
000100 5c a2 0f be f4 76 b7 3d 5d 4e c0 3d a8 da a1 3d
       -0.14026779 0.089582354 0.093899466 0.079030335
000110 62 73 b9 3d e7 99 fd 3d 78 22 08 be 20 88 74 bc
       0.09055211 0.1238287 -0.13294399 -0.014925033
000120 50 60 82 bd 42 4b cb bd 7f 08 9b bd 4a 3a c3 3d
       -0.063660264 -0.09926464 -0.0756998 0.09532602
000130 d0 8f 81 bc 40 f5 97 ba 90 f1 12 be 53 03 be 3d
       -0.015815645 -0.0011593476 -0.14349961 0.09277978
000140 ff 67 10 be e4 9c 72 3d bb c5 34 be 21 80 64 3e
       -0.14102171 0.059231654 -0.17653553 0.22314502
000150 03 40 61 bd 92 04 cd bc c5 c3 ee 3b fc df a5 3d
       -0.054992687 -0.025026593 0.007286521 0.08099362
000160 cc 2e 09 be da 17 12 be a9 b8 81 3d 69 58 d6 bd
       -0.13396758 -0.14266911 0.06334049 -0.10466082
000170 af 36 81 bc 53 8b f6 bc c6 c6 db bd 65 e8 20 be
       -0.015773145 -0.030095732 -0.107312724 -0.15713651
000180 31 2d 21 be e8 13 ed bd 88 cd 6d 3d 84 a4 af 3d
       -0.15739895 -0.115760624 0.058057338 0.08576301
000190 39 84 d3 bc 94 03 6d be 7d a0 a0 bd 89 6f 2d 3c
       -0.025819885 -0.23145896 -0.07843111 0.010585674
0001a0 e6 00 87 bd 33 c4 c7 3d c5 d1 e8 bd ee 88 64 bc
       -0.06591968 0.09754219 -0.11368135 -0.013948662
0001b0 a5 bf c8 3d 67 e1 a2 3b 03 01 9f 3d 40 c5 e9 3d
       0.09802178 0.0049707177 0.07763865 0.114145756
0001c0 f7 0d 0c 3e e0 e3 a8 3c b2 7b d9 bd f6 e6 b7 bd
       0.13677202 0.020616472 -0.10619296 -0.08979599
0001d0 8d 7e de 3d e5 07 55 3c b0 7f 88 3b 7f 5d 92 bd
       0.108639814 0.0130023705 0.004165612 -0.07146739
0001e0 a9 25 b5 3d 59 2f 25 3e 5f 59 c4 3d 2c 23 2a bc
       0.08845074 0.16131343 0.09587359 -0.010384362
0001f0 08 e3 97 bc 55 64 33 3b ca 25 34 bd db 15 06 be
       -0.018540874 0.0027373035 -0.04398135 -0.13094275
000200 72 34 66 be 29 61 e9 3c bb 91 ed bd 4d 8b b2 bd
       -0.22480944 0.028488712 -0.116000615 -0.08717976
000210 57 c9 90 bd 29 b0 10 3e 9c c3 04 be 22 65 10 bd
       -0.070696525 0.141297 -0.12965244 -0.035252698
000220 97 6d ff 3c 78 19 3d 3d 52 21 1a 3e c7 c8 74 bd
       0.031180186 0.046166867 0.15051773 -0.05976179
000230 12 81 05 3e 80 d0 07 be e2 b9 fd 3c 50 17 0d bd
       0.13037518 -0.1326313 0.030972425 -0.03444606
000240 30 3a 3a bc f0 56 d0 bd bd f8 91 3d 86 70 4c 3e
       -0.011366412 -0.10172832 0.07127521 0.199648
000250 e6 6e d7 bc b6 01 8e 3c ce cf d3 bd 66 77 09 3e
       -0.026297998 0.0173348 -0.1034237 0.13424453
000260 e6 8f fa bd ca f0 42 bc 78 61 c6 bc d8 de a7 bc
       -0.12234478 -0.011898229 -0.024216399 -0.020492002
000270 49 0c e3 3c bb 30 85 bd 4e 8e ef 3d 85 41 9a 3d
       0.027715819 -0.06503435 0.11697064 0.07532028
000280 47 b2 c1 bd 34 7d 32 be 18 68 ad 3d 8a 0a c7 3d
       -0.09457832 -0.17430574 0.0846712 0.09718807
000290 dd c8 6c 3d 05 16 a2 bd c7 2c 6a bd b6 04 0d bd
       0.057808746 -0.07914356 -0.05717161 -0.03442832
0002a0 b6 21 9e 3c bb a2 8a bd f0 4e 00 3d ad 14 45 3d
       0.019303184 -0.067693196 0.03132528 0.04811542
0002b0 9d 6e 13 3e e6 fb 31 3e b5 a0 75 3d 4d 91 f5 3d
       0.14397664 0.17381248 0.059967715 0.119906045
0002c0 2a 98 97 3d 49 69 0c 3e 7e 53 96 3c 7c 7f a5 3c
       0.0740207 0.13712038 0.018350359 0.02020239
0002d0 29 b5 56 3d 84 26 86 bd ed 9c 24 3d 9e 01 80 3d
       0.05241886 -0.06550315 0.04018872 0.062503085
0002e0 3a 30 f8 3d e6 73 f1 bd 6c 1a 96 3d da 01 2b ba
       0.121185735 -0.11789684 0.07329258 -0.0006523408
0002f0 19 d5 21 3d 91 43 1d bd ed 02 ec 3c 1c b3 b0 3d
       0.039509866 -0.038394514 0.028809989 0.086279124
000300 98 94 9d be a0 35 fc bd 19 e7 c8 3d 9a 6b 9f bd
       -0.3077743 -0.12314916 0.098097034 -0.07784195
000310 aa 25 60 3e 56 a8 1a 3e 81 61 04 3c 65 1d aa bd
       0.21889368 0.15103278 0.008079887 -0.08306388
000320 95 76 cc bd 46 fd 30 bd 92 91 4d bd 5e 7d 3c 3d
       -0.09983555 -0.04321029 -0.050187655 0.046017997
000330 66 07 bc 3d 76 6c bc 3d 36 d7 c1 bd 96 28 3a 3d
       0.09181099 0.09200375 -0.09464876 0.045448862
000340 2b 8d 1f be e7 46 0f be c1 24 25 be 87 0b 20 3e
       -0.15581195 -0.13991891 -0.16127302 0.15629397
000350 a2 38 5c bd 93 68 cb bd 63 a4 cd 3d 85 01 55 3e
       -0.053764947 -0.09932055 0.1004112 0.20801361
000360 6b 48 66 bd f4 fa 5b be 8f 8b 9e 3e 12 bc d3 3d
       -0.056221407 -0.2148245 0.3096585 0.10338606
000370 08 cf 6b 3e 49 bf d7 3d f6 47 36 bd 42 e5 b8 3c
       0.23028195 0.105345316 -0.04450222 0.022570256
000380 03 02 ed 3c 1d 18 38 bd 2e 8c c8 bd 3a 5e c6 bc
       0.028931623 -0.04494487 -0.09792362 -0.024214853
000390 97 72 68 3d 4d 36 76 bd 17 c7 0b be cb 74 90 be
       0.056749906 -0.06011038 -0.13650165 -0.28214106
0003a0 95 e4 4b ba 8f 45 2c 3e 44 7a db 3c 6c 77 eb 3d
       -0.0007777897 0.1682341 0.0267917 0.11497387
0003b0 fc 8c 54 3e 81 4d ef 3e 95 6b f3 ba 0c 14 aa bd
       0.20756906 0.46738818 -0.0018571491 -0.08304605
0003c0 1d 18 0f 3c d0 44 99 bd 6f d5 15 3e 25 58 1f 3d
       0.008733776 -0.07483828 0.146322 0.03890242
0003d0 e1 1a 1d bd aa f7 ec bd 35 a5 20 bd 6d 13 e0 bd
       -0.03835571 -0.11570676 -0.039220054 -0.10941205
0003e0 e1 8c 2a 3e 39 d4 6b bc a7 f9 09 3d b1 8d 1f be
       0.16655304 -0.01439386 0.033685353 -0.15581395
0003f0 c5 bd 45 bd c9 8a 8f 3b 1c 36 df bd 52 06 45 3d
       -0.04827668 0.004380558 -0.108989924 0.04810173

AFeatRNN.weight_hh_l1 f4 [256, 64]
000000 88 33 9e 3c 78 28 4f 3d d0 9c a7 bc 9c 9a b7 3c
       0.019311681 0.050575703 -0.020460516 0.02241259
000010 c4 3f 18 be ae 39 de bd a1 9b f4 3d 7d f8 a9 bd
       -0.14868075 -0.10850845 0.11943746 -0.082993485
000020 83 56 1d be 3a 4d ea 3d 5f ef 06 3e ec bf d3 3d
       -0.15365033 0.11440511 0.1317725 0.103393406
000030 c2 f2 c6 3d e5 ab 51 bd 3c f7 56 bd ec f7 cb 3d
       0.09714271 -0.051189322 -0.052481875 0.09959397
000040 fe c8 be 3d 60 7a 28 3e 39 f0 84 3d 68 7f 04 be
       0.0931568 0.16452932 0.06491131 -0.12939227
000050 2b 6c 39 3e e5 06 ac 3a 7a d3 89 bd dc 4a 5a 3d
       0.18107669 0.0013124613 -0.06729789 0.053294048
000060 1b 09 e5 bd 8b 63 be 3c 2a 2a af 3c 10 ba 11 bd
       -0.11183377 0.023240825 0.02138241 -0.035577834
000070 18 5f e5 bd 4e 9a 3f 3e bc 6e f4 bd ab e3 2c bc
       -0.11199778 0.18711206 -0.119351834 -0.010552327
000080 ff 63 b2 3d d1 24 ef bc 82 25 07 be 76 4a f5 3c
       0.08710479 -0.02919236 -0.13197902 0.029942732
000090 04 af bf 3d fb dc 54 3d 01 7b f3 3d f2 77 a1 3d
       0.093595535 0.051968556 0.118886955 0.07884206
0000a0 e9 9f 18 3c e6 11 75 bd f5 21 20 3d b1 59 b0 3d
       0.009315469 -0.059831522 0.039094884 0.08610857
0000b0 af 32 05 bd 10 78 8f bc f3 d5 94 bd 6b 25 35 bb
       -0.03251904 -0.017513305 -0.0726737 -0.002764071
0000c0 82 e8 6a bd 7d 07 b7 3c 5d df 26 bd 3c 9b 30 3e
       -0.057350643 0.022342438 -0.04074036 0.17246717
0000d0 a6 2b 81 bd 93 ad 0b bd 3e ee c5 3d 29 0d 14 3d
       -0.063071534 -0.03410108 0.09664582 0.036145363
0000e0 41 44 4d 3d 01 44 0e bc 60 b3 5f bd 9e 80 23 be
       0.05011392 -0.008683206 -0.054614425 -0.15967032
0000f0 bd 11 fc bc da 3a 88 3d 24 d8 e3 bd c9 f1 10 be
       -0.030770177 0.0665185 -0.1112521 -0.14154734
000100 58 26 8c 3d c4 b8 fb 3c 1b 19 cf bc 2c fb 31 3e
       0.06843251 0.030727752 -0.025280526 0.1738097
000110 e0 5e f6 bd f9 09 15 bd a3 5b 9a 3d cc 7a 6c bd
       -0.12029815 -0.036386464 0.075370096 -0.057734296
000120 a8 d6 0e 3d aa c9 cc 3c 27 c3 dd bd 2f 59 90 3d
       0.03487268 0.024998505 -0.10828238 0.070482604
000130 b7 36 e4 3d d5 8b 91 3d 8a 51 fc 3d f3 09 12 be
       0.111432485 0.07106749 0.1232024 -0.14261608
000140 3b 51 e4 bd dc 54 d0 3d 2a 1f b3 3c 72 9a 2e 3d
       -0.11148306 0.10172436 0.021865446 0.04262776
000150 04 d0 80 bd 76 96 2e bc 07 2a ef bc 49 e9 bc bd
       -0.06289676 -0.01065599 -0.029194845 -0.09224183
000160 11 7f 04 be 54 49 0e 3d a1 9e f5 bd f9 d5 03 3e
       -0.12939097 0.0347379 -0.11993147 0.12874593
000170 a1 cc be bd 17 5a 50 3d 47 14 d4 3d 2a 60 07 be
       -0.093163736 0.050867166 0.1035543 -0.13220277
000180 85 58 bc 3b f8 de 91 bd f3 ee 4d bd 80 59 72 3d
       0.005747857 -0.07122606 -0.050276708 0.059167385
000190 5a e3 d6 bd bf 1f 77 3d 97 bc 22 3d d5 25 38 3e
       -0.104925826 0.06033301 0.039730635 0.17983182
0001a0 af 1c b1 3d 13 b9 05 be 98 35 8b 3d b0 2a 49 3e
       0.08648049 -0.13058881 0.067973316 0.1964519
0001b0 d7 a7 bd bd 12 c4 55 3d 36 19 20 bd 83 9f 43 3d
       -0.092605285 0.05218894 -0.039086543 0.047759544
0001c0 3e af e0 3d 50 a1 15 bd 6b 38 af 3c d8 d2 a0 bd
       0.10970925 -0.036530793 0.021389207 -0.07852715
0001d0 45 12 02 be db eb ba 3d e1 26 a4 3d 8a 7c 00 bd
       -0.12702282 0.09127017 0.08015228 -0.03136877
0001e0 ee 6a 39 bd 10 8c 08 be fe cd 9f bd 83 5e 77 3c
       -0.04526799 -0.1333468 -0.07802962 0.015098217
0001f0 3a 8b 71 bc 88 53 46 3d 0f 50 ad bd a2 bb a4 3d
       -0.014742667 0.048419505 -0.084625356 0.080436006
000200 76 20 78 bd d6 e8 62 3b 8b bb 14 3d 0d 18 1b bc
       -0.060577832 0.0034623644 0.036311667 -0.009466183
000210 0a f3 14 3d ab 8a ee bc 7e 7c 6b 3d 37 c3 9a 3d
       0.036364593 -0.029118856 0.057491772 0.075567655
000220 48 f9 23 bd 39 f3 c3 3d 7f 88 cd 3d 95 d6 c7 3d
       -0.040032655 0.095678754 0.100358 0.09757725
000230 c4 5a d9 3d 7f 45 82 3d 79 43 b7 3d f1 9b a2 3d
       0.10613015 0.063609116 0.08948416 0.079399
000240 b8 cc 71 bd 1e a6 ae bd 75 20 09 3d 91 39 9c 3c
       -0.059033126 -0.08527778 0.03347822 0.019070419
000250 2d 69 33 3c 88 3f 08 3e 27 86 4f bd a0 62 61 bd
       0.010950369 0.13305485 -0.050665047 -0.055025697
000260 47 2a ad bc c5 48 92 bb e3 52 9c bd 16 e4 f2 3d
       -0.021138323 -0.004464241 -0.07632997 0.1185991
000270 65 da f8 bd ae a0 7d 3c c1 ea d9 bd 14 a6 01 be
       -0.121510305 0.015480204 -0.10640479 -0.1266101
000280 50 d4 ab bb 73 ea 7f 3d f5 95 b8 bd ac 83 a4 3d
       -0.0052438155 0.062479448 -0.09012977 0.08032927
000290 b6 2e 67 bd 42 d0 31 bd d3 cb 5b bc 19 8e a2 bd
       -0.05644103 -0.0434115 -0.013415295 -0.07937259
0002a0 cc 64 7f bd 09 8b 57 bd 70 21 46 3c dc 98 00 3e
       -0.062351987 -0.05262283 0.012092933 0.12558311
0002b0 5c 84 8e 3d 2d dc 35 3c ca 19 90 bd 08 0c 68 bd
       0.06958839 0.011099857 -0.07036169 -0.0566521
0002c0 6d 6f 2f 3d d2 96 00 3e 89 4d b2 bd 3c e7 4e 3d
       0.042830873 0.12557533 -0.08706195 0.05051349
0002d0 94 2d d5 bd dc b1 71 bd d0 29 dc 3d a2 58 b1 bc
       -0.10409084 -0.05900751 0.107501626 -0.021648709
0002e0 20 9e 86 3d dd 2c 85 bc c6 c4 9e bc 76 1f e5 3d
       0.06573129 -0.016256744 -0.019380938 0.11187641
0002f0 6c 56 0d be 60 98 8f bd 08 c4 a2 3b 15 db eb 3d
       -0.13802499 -0.07011485 0.0049672164 0.11516396
000300 1b fd 1f be 97 f9 e5 3d 7a 17 fa 3b e4 b7 6d bb
       -0.15623896 0.11229246 0.007632193 -0.0036272937
000310 5e 42 ee bd 70 9c 68 bc 0f f0 ee bd 00 a7 3a 3e
       -0.11633752 -0.014197454 -0.11666881 0.18227768
000320 b6 5b a3 3d af 38 dc bc 90 d7 34 3d 64 0b 41 bd
       0.07976477 -0.026882498 0.04415089 -0.047130004
000330 25 96 81 3d 12 4f d1 3d ce 5d 08 bd 67 85 ee bd
       0.06327466 0.102201596 -0.033292584 -0.11646538
000340 b6 ca 2b bb 9f 66 c0 3d 9e 11 b1 3d 0d 59 67 bc
       -0.0026213354 0.093945734 0.08645938 -0.014120352
000350 d8 12 79 bc b8 bd 3b 3d 3d 0e 16 be b6 d9 86 3d
       -0.015202247 0.045835227 -0.14653869 0.06584494
000360 de 30 92 3d 1f 23 c0 3d 7f 68 e3 bd 63 7e ef bd
       0.07138227 0.09381699 -0.111039154 -0.11694028
000370 4e 49 b0 bd 56 6a d6 3d b7 27 b8 3c 48 24 f0 bd
       -0.08607732 0.10469501 0.022479875 -0.1172567
000380 31 c4 f2 3c f8 f8 21 be 78 2a d8 3d 3f d9 ac bc
       0.029634567 -0.1581763 0.10554975 -0.021099685
000390 c3 45 01 be bd 18 2c bd f4 78 75 3d 5f 1e 17 bd
       -0.12624268 -0.04201578 0.059929803 -0.0368942
0003a0 29 f6 d5 3c 27 aa ac bd 2f a1 01 3e 9a 48 94 3d
       0.026118355 -0.084308915 0.12659143 0.0724041
0003b0 46 ab a3 bc aa b7 a9 bd 36 c7 11 be 2d a4 8b bc
       -0.01997913 -0.08286984 -0.14236149 -0.017046059
0003c0 96 70 03 3d 77 7d be 3d ad 29 c7 bc 83 c2 0f 3b
       0.032089792 0.09301274 -0.024311865 0.0021936006
0003d0 ea 16 b3 bd 41 f9 8f bd d7 cf 11 bd df 3e 9e bb
       -0.08744605 -0.07029963 -0.035598602 -0.004829272
0003e0 80 fe 19 be c8 58 b1 bd b1 3e 20 bd 26 1b c9 3d
       -0.1503849 -0.08659512 -0.039122287 0.09819631
0003f0 fa 24 8f 3c ec 01 05 3d ae df 12 3c 1f ac 82 3d
       0.017473686 0.032472536 0.008964462 0.06380486

AFeatRNN.bias_ih_l1 f4 [256]
000000 95 35 32 3e 14 62 b5 3d 92 76 13 3e be 36 66 3d
       0.17403252 0.088565975 0.144007 0.05620455
000010 44 46 b4 bd 87 e4 b7 bc 5c 98 45 3e 21 2e cf 3c
       -0.088024646 -0.022447838 0.19296402 0.02529055
000020 50 84 06 3e f4 52 ed 3d 24 7c c9 bb 68 03 94 3d
       0.1313641 0.11588088 -0.006148832 0.07227212
000030 aa 21 26 3e f2 c1 fc b9 cb fb c6 bd 0c 18 88 3c
       0.1622378 -0.00048209686 -0.097159944 0.016613029
000040 64 c8 29 3d 5e 8a ad 3d 12 7c 2f 3d 28 97 7b 3c
       0.041450873 0.08473657 0.042842932 0.015355863
000050 6e 5a 5e 3d 9b be 1a 3e 74 06 6e 3e 75 d4 06 3e
       0.05428546 0.15111773 0.23244649 0.13166983
000060 50 ad b7 bd 26 d4 ee 3c 94 4f 87 3d ba d4 95 3c
       -0.089686036 0.029153895 0.06606975 0.018289912
000070 d4 2d 33 3e 60 4f ff 3b 40 65 4f 3e 58 fb 14 3d
       0.17497951 0.0077914447 0.20253468 0.036372513
000080 8a 92 69 bd df 72 0b be a5 b9 85 bb 2a 31 b9 bd
       -0.057024516 -0.13618039 -0.0040809684 -0.090425804
000090 a0 56 21 ba 0f 9d 08 bd 3b 69 67 3d 38 44 a1 3d
       -0.0006154571 -0.033352908 0.05649684 0.0787434
0000a0 cc 69 e2 bc c3 32 a2 3d f0 d2 f0 3d 5e 20 77 bd
       -0.027638339 0.07919838 0.11758983 -0.060333602
0000b0 cb e1 82 3d 79 63 a4 3d fe f5 1a 3d 29 45 ed 3c
       0.06390723 0.080267854 0.037832253 0.028963642
0000c0 a6 4f f0 bd 17 08 67 bd c0 6c 8b 3d 8d 6b 91 3d
       -0.11733942 -0.0564042 0.06807852 0.07100592
0000d0 83 30 0b 3e 8e a2 a5 bc 79 07 cc bd da 71 18 3e
       0.13592725 -0.020219114 -0.09962363 0.14887181
0000e0 e1 8a 93 3d 36 4c c1 3d 33 10 0f 3d 4c 18 23 bb
       0.072042234 0.09438364 0.03492756 -0.0024886308
0000f0 69 dd 35 3e 47 e2 e1 3d f7 50 85 3d 38 67 81 3d
       0.17760243 0.11029487 0.065095834 0.063185155
000100 2b 4f 6a 3d 68 18 d0 bd 3d b3 16 3d 6e 08 d6 3c
       0.057204407 -0.10160905 0.03679203 0.026127066
000110 07 11 0e be 23 25 66 bb f7 bf 09 bc e8 0e 70 bd
       -0.13873683 -0.003511735 -0.008407584 -0.058607966
000120 04 69 80 3d a8 94 60 bd 5c 18 2c bc 9a 70 c1 bc
       0.0627003 -0.05482927 -0.010503855 -0.023613263
000130 68 df 37 3d d0 4a 02 3e 54 d4 72 3d 93 61 ab 3c
       0.04489079 0.12723851 0.059284523 0.02092055
000140 89 37 70 bd 1b bd 0c be b4 4c af bd a9 ff 75 bb
       -0.058646712 -0.13744013 -0.08559552 -0.0037536419
000150 c2 dd b8 bc 1a f8 bc bd a3 51 ac 3e 62 29 7a 3b
       -0.02256668 -0.09227009 0.33656034 0.0038171639
000160 0d 3c 6f bd 0e d5 60 3c ec 5e cd 3c 7f 36 46 be
       -0.05840688 0.013722671 0.025069676 -0.19356726
000170 d0 f4 0a bd a7 d6 30 bd 31 df 3f 3c b0 0a 31 3d
       -0.033924878 -0.04317346 0.011710928 0.043223083
000180 e6 c8 22 be 51 3d db bd b1 fe 6b bd d8 29 93 3c
       -0.15896949 -0.107050546 -0.05761594 0.017964289
000190 05 6e f3 bd bf e4 b1 bd 1b da da bd 1e 58 aa 3a
       -0.11886219 -0.08686208 -0.106861316 0.0012996232
0001a0 c1 69 c7 3c 27 72 2b bb 69 93 17 3e 95 da b6 3c
       0.02434242 -0.002616057 0.14802326 0.022321025
0001b0 66 57 05 be 74 e9 2d bc 17 ac a6 bd 8d 52 db 3b
       -0.13021621 -0.010614742 -0.08138292 0.0066931904
0001c0 14 67 13 3b 9b ed e6 bd cb a1 f9 bd de 2e 82 3d
       0.002249186 -0.112757884 -0.12189063 0.063565955
0001d0 9f 59 07 3e cd cc 78 3b 06 15 8e 3d 84 19 f3 bd
       0.13217781 0.0037963868 0.06937604 -0.11870101
0001e0 04 12 52 3d 94 85 30 3d 0f 04 dc bd 29 7f db bc
       0.051286712 0.04309614 -0.107429616 -0.026794033
0001f0 0f 4f a1 bd 24 8f 44 3d 15 ae 0e 3d 6e 5b 01 be
       -0.07876407 0.047988072 0.034833986 -0.12632534
000200 cc 47 fc bd 0c 03 b5 3d 7e 12 17 3e 0e eb f9 bc
       -0.12318382 0.08838472 0.14753148 -0.03050759
000210 95 1f ed bd 59 4e 87 bd eb 9f 99 3d 62 ff 03 3d
       -0.115782894 -0.066067405 0.07501205 0.032225974
000220 cc b3 c1 bd a1 5b 58 3d a2 e8 2d 3d c5 6f c9 3d
       -0.09458122 0.05282176 0.042458184 0.098357715
000230 cf 79 82 3d f7 4a 9f 3c c3 b3 7b bb f1 0e 88 bb
       0.063708894 0.019444926 -0.0038406707 -0.004152172
000240 df b2 4e 3d 62 8d 29 3e 99 97 28 bd fe c6 0c be
       0.050463554 0.1655784 -0.0411602 -0.13747784
000250 fd 70 01 3d bb 06 81 bd 6c 6f 77 be e7 55 d0 3d
       0.031601895 -0.06300112 -0.24163598 0.101726346
000260 04 8d 10 bd 45 bd 07 3c 6b 00 f3 bc 39 c0 c2 bc
       -0.035290733 0.0082848715 -0.029663285 -0.0237733
000270 f9 13 b1 3c 24 af da bc 58 0c 30 be de 6e 9d 3d
       0.021615969 -0.026694842 -0.17192209 0.07687162
000280 5b c9 50 3d 34 69 15 be ba 6e 50 3d bf 63 98 bd
       0.050973278 -0.14590913 0.050886847 -0.074409
000290 6f ed ba 3d f7 94 43 3c 2f 5e 46 3d 86 24 14 3c
       0.09127318 0.011937371 0.048429664 0.009041911
0002a0 4a 20 fd bc 15 4f ce bd 12 bd 1f bd 7e 63 38 3d
       -0.030899186 -0.100736775 -0.03899867 0.04501676
0002b0 5f 32 c1 bc bf 8b 4d bd 7c 30 ec bb 50 44 2c 3d
       -0.02358359 -0.0501821 -0.007207928 0.042057335
0002c0 35 c1 6c 3d a5 a6 df 3d a9 1b 14 3e a9 32 1c 3e
       0.057801444 0.10920457 0.14463677 0.152537
0002d0 5f c0 4d 3c 19 96 10 bd 23 a6 7d bd ad 0c f0 3c
       0.012558072 -0.035299394 -0.06192602 0.02930292
0002e0 1d 87 4e bd 17 ef c7 3d ea ea 2e bd 7f 5c 19 bd
       -0.050421823 0.097624 -0.0427045 -0.037441727
0002f0 b9 bb a5 3d e9 2c ca 3d 4c 58 11 be 28 aa c7 bd
       0.08092446 0.09871847 -0.14193839 -0.097492516
000300 ba 70 08 3e d2 a4 7d ba 9b fb 52 bc 8e 8c 2f 3e
       0.13324252 -0.0009675744 -0.01287737 0.17143461
000310 72 d8 ea 3b 9e 2c f8 bc f7 4d 4a bd a5 2b 23 bd
       0.0071669156 -0.030294713 -0.04939076 -0.039836545
000320 e0 7c ff 3b 8c 60 ea 3d e7 40 fc 3d bf f6 99 3d
       0.0077968687 0.11444196 0.12317067 0.07517766
000330 cb 98 b4 3d 2b e2 bb 3d ed 90 01 3e 3f f6 94 bd
       0.088182054 0.091739975 0.12652941 -0.0727353
000340 e0 6a 77 bd 3a c7 8f 3c b3 74 84 ba 50 ea 29 bc
       -0.06040466 0.017551053 -0.001010558 -0.010370806
000350 70 b6 81 bd 85 bf 25 3d af 83 6c 3d 17 d4 9a 3d
       -0.06333625 0.04046585 0.05774277 0.07559984
000360 ea 5c 16 bd cc 3c a1 3c fc 48 08 3e 10 fa db bd
       -0.036709704 0.01968231 0.13309091 -0.10741055
000370 8c 6d fc 3d 5b e6 b4 bc bc 67 93 bd f6 e0 50 3c
       0.12325582 -0.022082498 -0.0719752 0.012748947
000380 d1 ba e1 3d 3c 39 af 3c a6 5b 63 bc f2 74 3d 3d
       0.110219605 0.021389596 -0.013876831 0.046254106
000390 52 12 a9 bd ca ef 08 3e 7a b4 6e bd 72 c2 2c 3e
       -0.082554474 0.13372722 -0.058277585 0.1687105
0003a0 7d 01 34 bd b9 4f a9 3d 3a 1b 38 bd b4 b0 f4 bd
       -0.04394673 0.08267159 -0.04494784 -0.11947766
0003b0 56 fd e3 3b 57 37 4b bc 0b 06 9b bd 5d d0 d2 bc
       0.00695769 -0.012403331 -0.07569512 -0.025734121
0003c0 9d 76 96 bd 92 87 0e bb ad 28 6b 3d df 07 a3 bd
       -0.073468424 -0.0021748287 0.05741184 -0.07960486
0003d0 33 48 39 3d 42 ba 2f bd 82 f5 ed 3c f3 d2 a8 bd
       0.04523487 -0.04290224 0.029047731 -0.0824336
0003e0 0a 34 1d 3c eb ff 25 3d 0d 62 6c bc 01 cb c3 3d
       0.009594927 0.040527266 -0.014427674 0.09560204
0003f0 a6 48 27 bd 51 dc 97 3d 9a 4a c5 bc e6 7b 97 bd
       -0.040840767 0.07415069 -0.024083424 -0.073966786
