STD/checkpoints/LSTM2linear3/VA_METRIC_state_epoch50.pth (torch, 585522 bytes, 24 tensors)

AFeatRNN.weight_ih_l0 f4 [256, 128]
-0.009199267 0.05700986 -0.034670755 0.03293881 -0.05301947 -0.029818691 0.043226827 -0.12947609
-0.077247955 0.14544751 0.023264287 0.014699135 -0.13480641 0.18896164 -0.009580971 0.17061073
-0.025014615 -0.045467936 -0.047669858 -0.087236375 -0.091072775 -0.02716445 -0.06794302 -0.052976158
0.030228177 0.05359311 -0.09017896 0.14149307 0.039781 -0.14513308 0.16446212 0.007292291
0.04905045 -0.09792349 0.13338564 -0.04056671 -0.074345574 -0.014217741 0.01383884 0.050769053
0.075555295 0.057209592 -0.27377558 0.007643133 0.17969464 -0.07019211 0.02417272 -0.03873557
0.099736586 0.02672261 0.01581352 0.15907268 -0.05123625 0.06907555 0.15814854 -0.0043725683
0.014029835 -0.07920888 -0.055546924 0.14750126 0.04473967 0.1168942 0.118237905 0.002996049
0.007740833 0.01934392 -0.11298729 0.10808374 0.06110895 -0.024491971 -0.08985182 0.043453638
-0.037800632 0.0021790334 0.023503445 -0.030935565 0.19949047 -0.011515368 0.018239684 -0.018494602
-0.21259956 0.08594627 -0.060615987 0.19478324 -0.10342029 -0.124318935 0.04121407 -0.014461213
0.0113649145 0.16539676 0.01857138 0.058801524 0.084834665 0.007512959 0.16667126 0.11974557
0.0027261623 0.13948107 0.01965258 0.0643269 0.008562331 0.10249664 -0.025934549 0.2044202
-0.13356021 -0.105942614 0.17400928 -0.11753992 -0.044604845 0.09365676 -0.11831836 0.050251532
-0.17326988 0.110970594 0.06470681 -0.08623183 -0.05494079 0.025879968 0.031714175 0.012683348
0.10205726 -0.08785303 -0.10798303 0.015344664 -0.030154161 -0.09700965 0.25508893 0.019189969
0.070853695 -0.039372124 0.01534553 0.08114549 -0.16248362 -0.14170022 -0.07695744 0.014623139
-0.06444168 -0.012387842 -0.22114591 0.09856552 -0.017622346 -0.1804323 -0.11341696 -0.22247508
-0.02604735 -0.023248792 0.104201704 -0.20803827 0.2621129 -0.025228566 -0.04990007 -0.23451142
0.100070015 -0.06112009 0.07355481 0.12525481 0.04567248 -0.085582525 -0.015675453 -0.14217584
-0.2080284 -0.036035705 -0.026136702 0.06800737 -0.06816008 0.10010119 -0.040332865 0.038417175
0.016348336 0.0041679684 -0.0036572437 -0.09106925 -0.04226327 0.03295746 -0.24735834 -0.1687664
-0.045225743 -0.08891859 -0.033090472 -0.2111158 0.11892014 0.076427504 -0.17350951 -0.09675776
-0.028339589 -0.16172989 -0.048653807 -0.059347216 -0.10680785 -0.06222799 -0.09799763 -0.024790416
-0.05771987 0.078371085 -0.0056746164 -0.057718936 -0.048161197 -0.10602549 0.01584543 -0.046356745
0.066786036 -0.026118934 -0.010512383 -0.026060708 -0.10335663 -0.058353767 -0.11115303 -0.059799835
0.073513344 0.099494204 0.03183642 0.09661538 -0.10926791 0.06490109 0.21851632 -0.09828995
0.028519684 0.049826548 0.012657407 -0.062567025 0.017708715 -0.03992678 -0.11733256 -0.17757937
0.07690481 0.09025384 -0.09232654 0.11705743 -0.20502302 -0.048460636 0.11728599 -0.17258814
-0.06620011 -0.086298704 0.09520436 0.061387856 0.11338475 -0.09766863 -0.008234934 -0.07494021
-0.05772941 -0.2943356 0.028448509 -0.025455361 -0.07779041 0.018533448 -0.017399957 -0.12759337
-0.10240375 -0.040924232 0.13058728 0.08426703 0.06825652 -0.14512286 0.15660295 0.0047255647
00000000: 86b8 16bc 2c83 693d ec02 0ebd d8ea 063d
00000010: f22a 59bd 5446 f4bc 9d0e 313d 6195 04be
00000020: 2d34 9ebd 31f0 143e bf94 be3c a4d4 703c
00000030: b10a 0abe 297f 413e 81f9 1cbc 94b4 2e3e
00000040: 73eb ccbc 963c 3abd 7841 43bd fca8 b2bd
00000050: 5d84 babd fb87 debc b625 8bbd 87fd 58bd
00000060: 15a1 f73c 7384 5b3d bfaf b8bd 8fe3 103e
00000070: 67f1 223d c49d 14be c268 283e 2cf4 ee3b
00000080: 20e9 483d 1c8c c8bd 3f96 083e 4729 26bd
00000090: 7e42 98bd 87f1 68bc 4dbc 623c 36f3 4f3d
000000a0: bcbc 9a3d 9b54 6a3d 502c 8cbe 3f73 fa3b
000000b0: df01 383e e2c0 8fbd de05 c63c 30a9 1ebd
000000c0: b242 cc3d 60e9 da3c 5b8b 813c f3e3 223e
000000d0: 1add 51bd 7b77 8d3d b1f1 213e c347 8fbb
000000e0: 65dd 653c 4438 a2bd 2c85 63bd 920a 173e
000000f0: f240 373d 3a66 ef3d b726 f23d 5c59 443b
00000100: d0a6 fd3b 2477 9e3c e165 e7bd 025b dd3d
00000110: 614d 7a3d 63a3 c8bc 3b04 b8bd 71fc 313d
00000120: d6d4 1abd 1dce 0e3b 4c8a c03c 956c fdbc
00000130: 3b47 4c3e f4aa 3cbc 646b 953c fe81 97bc
00000140: b3b3 59be 9904 b03d 7848 78bd 4275 473e
00000150: 04ce d3bd ed9a febd 16d0 283d b9ee 6cbc
00000160: e833 3a3c c55d 293e 0223 983c ded9 703d
00000170: ccbd ad3d 452f f63b dfab 2a3e 2a3d f53d
00000180: 6aa9 323b 20d4 0e3e 73fe a03c d2bd 833d
00000190: 0549 0c3c c2e9 d13d b174 d4bc 8753 513e
000001a0: 02c4 08be 71f8 d8bd 7d2f 323e c5b8 f0bd
000001b0: 92b3 36bd 1ecf bf3d e550 f2bd 8dd4 4d3d
000001c0: a96d 31be 8d44 e33d 0185 843d 509a b0bd
000001d0: 9809 61bd 3a02 d43c b9e6 013d d1cd 4f3c
000001e0: 6603 d13d 4aec b3bd 3526 ddbd 3068 7b3c
000001f0: dc05 f7bc ffac c6bd 049b 823e 4834 9d3c
00000200: be1b 913d aa44 21bd d16b 7b3c 9b2f a63d
00000210: 1b62 26be dd19 11be dd9b 9dbd e495 6f3c
00000220: 00fa 83bd 60f6 4abc 1374 62be b8dc c93d
00000230: bd5c 90bc 3fc3 38be 2747 e8bd 82d0 63be
00000240: 4161 d5bc 4074 bebc b467 d53d fc07 55be
00000250: a933 863e 23ac cebc 0464 4cbd c323 70be
00000260: 82f1 cc3d 0f59 7abd e7a3 963d cc42 003e
00000270: 1113 3b3d e445 afbd cf69 80bc 8b96 11be
00000280: 6605 55be 2d9a 13bd a31c d6bc 7347 8b3d
00000290: 8397 8bbd da01 cd3d 1334 25bd 545b 1d3d
000002a0: f2ec 853c 7493 883b 5eae 6fbb 8482 babd
000002b0: 401c 2dbd 67fe 063d 814b 7dbe 19d1 2cbe
000002c0: a13e 39bd f31a b6bd e089 07bd be2e 58be
000002d0: 678c f33d 0686 9c3d 7aac 31be ef28 c6bd
000002e0: 6d28 e8bc 859c 25be 3749 47bd 1116 73bd
000002f0: 13be dabd c7e2 7ebd fbb2 c8bd 4515 cbbc
00000300: ac6b 6cbd 0581 a03d 22f2 b9bb b16a 6cbd
00000310: ad44 45bd e423 d9bd 46ce 813c 92e0 3dbd
00000320: 1ec7 883d 60f7 d5bc 213c 2cbc 447d d5bc
00000330: a4ac d3bd 5c04 6fbd 33a4 e3bd acf0 74bd
00000340: 2a8e 963d 9ec3 cb3d e866 023d 49de c53d
00000350: dbc7 dfbd ddea 843d bec2 5f3e 3e4c c9bd
00000360: 1da2 e93c ec16 4c3d 0361 4f3c 2423 80bd
00000370: de11 913c 438a 23bd 0e4c f0bd 5ed7 35be
00000380: 4580 9d3d 01d7 b83d b215 bdbd cebb ef3d
00000390: 8ef1 51be a97e 46bd a333 f03d f2ba 30be
000003a0: ec93 87bd 60bd b0bd 81fa c23d d571 7b3d
000003b0: 4436 e83d 7e06 c8bd d1eb 06bc 417a 99bd
000003c0: ac75 6cbd 28b3 96be d90c e93c c387 d0bc
000003d0: 9450 9fbd 75d3 973c 5b8a 8ebc d6a7 02be
000003e0: 0fb9 d1bd 2ba0 27bd acb8 053e 3194 ac3d
000003f0: 13ca 8b3d 169b 14be 865c 203e e9d8 9a3b

AFeatRNN.weight_hh_l0 f4 [256, 64]
-0.065345295 0.038087517 0.03135686 -0.034193378 0.044002514 -0.03691792 -0.11377511 0.007903858
-0.118130535 0.018858958 0.032488097 0.08437249 0.101863176 -0.17971776 0.086528055 -0.04548334
-0.098089494 -0.06940508 -0.0033741093 -0.0069787647 -0.12263164 -0.0076324046 -0.15946592 0.10107723
-0.06975034 0.0492825 0.24751827 -0.050091576 0.17455886 0.0009544777 0.05139264 -0.13499215
-0.032348454 -0.17966029 -0.035206936 0.1279826 -0.0538859 -0.12694125 0.09401563 -0.37561917
0.007845593 0.13753617 0.11163746 -0.107697785 0.13390541 0.12278721 -0.010712227 0.08946731
0.21370889 -0.07562649 0.02729675 -0.119590834 0.07129198 -0.07456236 0.07686022 -0.11755249
-0.15348221 0.060848217 -0.016255565 0.06425388 -0.18040398 -0.19444306 -0.18462093 -0.0037233115
0.11619933 0.010153647 -0.12658149 0.14471187 -0.056457933 -0.09842429 0.001335833 -0.02977779
0.0800249 0.07394048 -0.122599065 -0.11712704 0.08083716 -0.02618441 0.10250726 0.108470015
-0.074833184 -0.029967101 0.12050283 0.07261836 -0.048638687 0.007732989 -0.060105447 -0.14598268
0.030924331 -0.1316352 0.119349025 -0.06521681 0.024266476 -0.032100413 0.029579453 -0.07013922
0.007438665 -0.028142523 -0.061431054 0.11154582 0.13433403 -0.003087644 0.08950911 0.0583011
0.10192259 -0.0024928802 0.07951976 0.20304212 -0.017925825 -0.0990926 0.03670589 -0.14958291
-0.14961874 -0.07316864 0.1303215 -0.18771018 0.103074886 -0.18368305 0.011844405 0.0735953
-0.04677501 -0.12556414 -0.05967138 -0.090296276 0.073922485 -0.026944807 0.07368917 -0.10355769
-0.097849764 -0.118303165 -0.056170147 -0.03199622 0.045165412 -0.04219677 0.025072454 0.025313612
-0.0032920006 -0.105392985 0.10363209 0.016766444 -0.029873304 0.035135813 -0.02099229 -0.009296193
-0.047756124 -0.043267306 -0.029873526 -0.025100937 0.100471765 -0.1274764 -0.049430553 -0.006493971
-0.10465269 0.067457095 -0.08275104 -0.051133167 0.075067595 -0.07545119 0.10574633 -0.04346145
0.09934785 0.022173679 0.044648554 0.027833572 0.13627155 0.17658842 -0.01671505 -0.23085251
0.09054193 0.097944744 -0.038427234 -0.07457475 0.14197195 -0.035794612 -0.08261594 -0.09436974
-0.14963174 -0.06310246 -0.019877227 -0.012885343 -0.2575548 -0.0022140874 0.029613208 -0.11863384
0.09400249 -0.04250075 -0.01589806 0.051461224 -0.07021174 0.06979207 -0.13927203 -0.06497696
0.03823825 0.1899343 0.018025298 0.1114868 -0.02846681 -0.09050649 7.160921e-05 0.036132872
0.0422627 0.013919943 -0.009046505 -0.13153432 -0.05251942 0.061975602 0.1450401 0.051582627
0.045379918 0.062051855 0.04978989 -0.050739136 0.10426632 -0.11582312 -0.062998526 0.022072246
-0.045951195 0.019928617 -0.02775612 0.026547085 -0.022339651 -0.07605541 0.015107571 -0.11644061
-0.12243691 -0.048371505 -0.056338266 -0.055049255 0.032483105 -0.03459513 0.0744988 -0.09699566
-0.017804917 0.23341201 0.10762781 -0.12815014 -0.06293452 0.17540519 0.08318527 0.0013023688
0.032853145 0.027047038 0.017393956 0.03957325 -0.013805857 -0.058811396 0.12006214 0.09079727
0.040330622 -0.18469822 0.014665123 -0.0014940375 0.11551146 -0.017163726 -0.022183891 -0.080984704
00000000: c1d3 85bd a801 1c3d 0d70 003d 5b0e 0cbd
00000010: fb3b 343d 3f37 17bd ed02 e9bd 2f7f 013c
00000020: 6cee f1bd 1a7e 9a3c 3d12 053d 7ccb ac3d
00000030: a49d d03d ef07 38be 9f35 b13d bd4c 3abd
00000040: 25e3 c8bd 4024 8ebd 2920 5dbb 1fae e4bb
00000050: 4c26 fbbd 4019 fabb 094b 23be 9401 cf3d
00000060: 44d9 8ebd 72dc 493d 6e75 7d3e d32c 4dbd
00000070: 8fbf 323e ea35 7a3a 1781 523d 623b 0abe
00000080: d07f 04bd def8 37be 2635 10bd df0d 033e
00000090: 76b7 5cbd e3fc 01be 448b c03d 2851 c0be
000000a0: cd8a 003c 48d6 0c3e 2ea2 e43d a890 dcbd
000000b0: 801e 093e dc77 fb3d 5682 2fbc a33a b73d
000000c0: 81d6 5a3e 10e2 9abd 6f9d df3c 0aec f4bd
000000d0: 8801 923d 27b4 98bd e468 9d3d 5cbf f0bd
000000e0: 712a 1dbe fb3b 793d 642a 85bc 8a97 833d
000000f0: d2bb 38be 151c 47be 450d 3dbe cd02 74bb
00000100: eaf9 ed3d 7b5b 263c 949e 01be 592f 143e
00000110: 6f40 67bd ad92 c9bd 1e17 af3a 8df0 f3bc
00000120: 18e4 a33d 1b6e 973d 3815 fbbd 4de0 efbd
00000130: f48d a53d b080 d6bc 54ef d13d 8725 de3d
00000140: 2442 99bd 917d f5bc 30ca f63d efb8 943d
00000150: 5c39 47bd 0365 fd3b 2131 76bd 7c7c 15be
00000160: 0655 fd3c 61cb 06be 436d f43d 6490 85bd
00000170: 7dca c63c b97b 03bd 9c50 f23c 27a5 8fbd
00000180: 0bc0 f33b 268b e6bc 219f 7bbd 2372 e43d
00000190: dc8e 093e 125a 4abb 8d50 b73d 22cd 6e3d
000001a0: cabc d03d 975f 23bb 42db a23d 46ea 4f3e
000001b0: 2ed9 92bc 10f1 cabd ea58 163d 432c 19be
000001c0: a835 19be 71d9 95bd 0073 053e 1937 40be
000001d0: ed18 d33d 6917 3cbe 090f 423c 22b9 963d
000001e0: 2797 3fbd e393 00be fa69 74bd 41ed b8bd
000001f0: ac64 973d 5bbb dcbc 59ea 963d 0e16 d4bd
00000200: 7565 c8bd ee48 f2bd ab12 66bd 780e 03bd
00000210: 5eff 383d 85d6 2cbd bf64 cd3c 7e5e cf3c
00000220: 9bbe 57bb 47d8 d7bd 103d d43d c859 893c
00000230: dcb8 f4bc 92ea 0f3d 06f8 abbc 0f4f 18bc
00000240: ed9b 43bd 0f39 31bd 53b9 f4bc 7ba0 cdbc
00000250: 24c4 cd3d 2c89 02be b177 4abd 61cb d4bb
00000260: 2654 d6bd f226 8a3d 6179 a9bd 0371 51bd
00000270: 0abd 993d 2786 9abd 8891 d83d a204 32bd
00000280: e376 cb3d 93a5 b53c 67e1 363d 3b03 e43c
00000290: c58a 0b3e 98d3 343e 00ee 88bc 9a64 6cbe
000002a0: 0c6e b93d 4197 c83d e065 1dbd a6ba 98bd
000002b0: 1861 113e 5f9d 12bd 8c32 a9bd ec44 c1bd
000002c0: 1039 19be dd3b 81bd 91d5 a2bc 0c1d 53bc
000002d0: 39de 83be 391a 11bb 6697 f23c 4cf6 f2bd
000002e0: 6184 c03d 4415 2ebd a63c 82bc 01c9 523d
000002f0: 2ccb 8fbd 25ef 8e3d 549d 0ebe a412 85bd
00000300: b69f 1c3d 237e 423e caa9 933c 3153 e43d
00000310: 3a33 e9bc 775b b9bd e72c 9638 1000 143d
00000320: a71b 2d3d 7910 643c cb37 14bc efb0 06be
00000330: 9a1e 57bd 21da 7d3d 6485 143e 4e48 533d
00000340: 4be0 393d 162a 7e3d 7cf0 4b3d d7d3 4fbd
00000350: 9589 d53d ac34 edbd 5f05 81bd dbd0 b43c
00000360: 5237 3cbd 5741 a33c cd60 e3bc 4679 d93c
00000370: a501 b7bc f0c2 9bbd bf85 773c 6a78 eebd
00000380: 34c0 fabd 3321 46bd f4c2 66bd 547b 61bd
00000390: 010d 053d 9fb3 0dbd d492 983d a9a5 c6bd
000003a0: 9edb 91bc 8f03 6f3e f86b dc3d ca39 03be
000003b0: d0e3 80bd 6b9d 333e 0a5d aa3d 3fb4 aa3a
000003c0: 0591 063d c091 dd3c c57d 8e3c 8f17 223d
000003d0: f631 62bc 38e4 70bd 24e3 f53d ebf3 b93d
000003e0: b931 253d 8821 3dbe fc45 703c 94d3 c3ba
000003f0: 4691 ec3d f19a 8cbc feba b5bc 4fdb a5bd

AFeatRNN.bias_ih_l0 f4 [256]
0.13722016 0.057540048 -0.102295145 -0.07347671 0.06932418 -0.04898998 0.036949746 0.0010540624
0.08550992 0.079638034 0.05211059 0.06590671 -0.062544376 -0.007167954 0.004040468 0.05519052
0.061528005 -0.04065146 0.025414085 0.030509813 0.03920308 0.09543731 0.0027967985 0.032358747
-0.06914996 0.07461949 0.0040363604 -0.026832802 0.008540723 0.07077673 0.055832345 0.13186613
0.038947977 -0.028618181 0.12510814 -0.1141719 0.08668413 0.06174062 -0.0906816 -0.087585285
-0.080502845 0.03547011 -0.043653943 0.08861802 0.05476283 -0.088330604 -0.059759844 0.12166097
0.068988375 -0.13321456 0.096173435 -0.10926866 0.009360195 0.111376695 -0.092502475 0.009565085
0.07287351 0.06129946 0.082040675 0.10233827 -0.052216947 0.07946589 -0.09086268 -0.100755475
0.0022189112 0.057305425 0.13064519 -0.059030697 0.046988666 0.03810649 0.046636786 -0.12475342
0.07886258 0.09010955 -0.050835703 0.03887991 0.06009708 0.023694223 -0.057932273 0.05722432
-0.03265917 -0.035711132 -0.09351596 0.0873195 0.055281058 -0.0145064965 -0.057924505 -0.061392423
0.076216534 -0.008418044 -0.003395628 -0.014339518 -0.123367146 -0.10366777 0.09209426 0.032919623
0.071201734 0.11199094 -0.15116273 0.016415028 0.13280748 -0.050882008 0.038610946 -0.10663889
-0.045556735 -0.07723708 -0.0027976285 -0.066898756 -0.025984185 -0.048835833 0.11851462 -0.04967761
0.034793474 0.02972734 -0.11552825 -0.011257612 -0.12127566 -0.07368111 -0.14689243 0.091961056
0.008884032 -0.10454878 0.058875177 0.09133616 -0.02939099 -0.0075372765 -0.093645535 -0.014717063
-0.07741701 0.089369215 0.030825501 -0.11320033 0.071301326 -0.033135638 -0.013958034 0.12722178
-0.059196755 -0.021009563 0.0327268 0.071080364 0.10651766 0.06024746 -0.040160537 -0.047568273
-0.052919783 -0.05139989 -0.11949396 0.11205857 -0.059669036 0.08031114 0.10723998 -0.02620539
0.032039214 -0.13764957 -0.038123805 -0.03015677 -0.098231174 0.0025999441 -0.009575168 -0.08743748
0.06981231 -0.05103122 -0.018671278 0.028104806 -0.030838756 0.054292157 0.081199445 -0.0022434667
-0.056252632 -0.11154591 0.017454311 0.046448853 0.03171313 -0.10355104 -0.086982414 0.11519685
0.05784273 0.07826066 0.038797967 0.061000165 -0.08708073 0.023728868 0.06741597 -0.101110056
0.082657665 -0.10624421 0.10410976 -0.0038969112 -0.016043467 0.11020493 -0.127682 -0.025744269
0.1342514 -0.023852613 0.016791627 -0.024137147 0.12577754 0.03980618 0.047099113 -0.0030988436
0.07458249 -0.06049314 0.03762995 -0.014726733 0.05086124 0.019088602 -0.016608099 -0.053821065
0.07407724 0.06773435 -0.09294226 0.008543468 -0.0045491615 0.055399656 0.14341542 -0.11582685
0.04076003 -0.12051708 -0.08787937 -0.0047643264 -0.00820964 -0.06967495 -0.08556825 0.029427677
0.054781422 -0.033284284 -0.08467793 -0.05914757 -0.08475428 0.012082256 0.09205125 0.041114114
0.13027084 0.14430188 0.0929105 0.10791496 -0.07333572 0.11285058 -0.10146003 0.10405775
-0.03432258 -0.05636471 0.038178876 0.06393441 -0.0027870021 -0.027947588 -0.041163173 -0.06641531
-0.14621334 0.11200317 -0.008662355 0.094556265 0.0429475 -0.117726125 -0.045998078 -0.07310725
00000000: 7183 0c3e 1daf 6b3d 1e80 d1bd f57a 96bd
00000010: d6f9 8d3d b8a9 48bd 9e58 173d 7728 8a3a
00000020: d31f af3d 4419 a33d ea71 553d 19fa 863d
00000030: 4417 80bd 28e1 eabb e765 843b 740f 623d
00000040: ca04 7c3d 2582 26bd 3331 d03c b7ef f93c
00000050: 6993 203d a374 c33d 7e4a 373b 9b8a 043d
00000060: 7f9e 8dbd 1ad2 983d 7243 843b 77d0 dbbc
00000070: 63ee 0b3c 64f3 903d 75b0 643d ea07 073e
00000080: ea87 1f3d ad70 eabc 591c 003e f5d2 e9bd
00000090: 7387 b13d bbe3 7c3d 46b7 b9bd ea5f b3bd
000000a0: adde a4bd 1b49 113d 7ace 32bd 5d7d b53d
000000b0: fd4e 603d ade6 b4bd bdc6 74bd 6329 f93d
000000c0: c749 8d3d 6669 08be 94f6 c43d 3fc8 dfbd
000000d0: 815b 193c 7719 e43d f071 bdbd e0b6 1c3c
000000e0: b53e 953d 2415 7b3d f104 a83d ba96 d13d
000000f0: 70e1 55bd 03bf a23d 3616 babd e358 cebd
00000100: 276b 113b 18b9 6a3d dac7 053e 2cca 71bd
00000110: 3077 403d 8d15 1c3d 3706 3f3d b97e ffbd
00000120: b482 a13d 5b8b b83d 1939 50bd 8a40 1f3d
00000130: 5b28 763d 631a c23c 644a 6dbd 0c64 6a3d
00000140: 9fc5 05bd d645 12bd 4c85 bfbd 91d4 b23d
00000150: 646e 623d a8ac 6dbc 3f42 6dbd 9f76 7bbd
00000160: 6a17 9c3d d6eb 09bc 2f89 5ebb 4cf0 6abc
00000170: eaa7 fcbd c54f d4bd ea9b bc3d bad6 063d
00000180: 37d2 913d 825b e53d 67ca 1abe cf78 863c
00000190: affe 073e a769 50bd 8326 1e3d 7e65 dabd
000001a0: b399 3abd 792e 9ebd 6b58 37bb 3702 89bd
000001b0: c9dc d4bc 1508 48bd cbb7 f23d c07a 4bbd
000001c0: 9a83 0e3d c086 f33c 139a ecbd d971 38bc
000001d0: 605f f8bd 1fe6 96bd f86a 16be 1456 bc3d
000001e0: 558e 113c ac1d d6bd 1927 713d 740e bb3d
000001f0: 60c5 f0bc 42fb f6bb 3bc9 bfbd d61f 71bc
00000200: cf8c 9ebd 3507 b73d c385 fc3c 93d5 e7bd
00000210: 6e06 923d 3cb9 07bd 3db0 64bc 6d46 023e
00000220: 4c78 72bd 3f1c acbc 890c 063d 9592 913d
00000230: ee25 da3d 0ac6 763d 607f 24bd f3d6 42bd
00000240: 6ac2 58bd b188 52bd 40b9 f4bd f77e e53d
00000250: 8567 74bd 2b7a a43d a2a0 db3d b0ac d6bc
00000260: 8d3b 033d 02f4 0cbe b527 1cbd 550b f7bc
00000270: 6d2d c9bd d363 2a3b 2ae1 1cbc 6c12 b3bd
00000280: c2f9 8e3d 1d06 51bd 82f4 98bc 0d3c e63c
00000290: 8fa1 fcbc 7461 5e3d e54b a63d 2007 13bb
000002a0: 2969 66bd 2f72 e4bd 58fc 8e3c 2741 3e3d
000002b0: a1e5 013d 9112 d4bd d623 b2bd 53ec eb3d
000002c0: 80ec 6c3d 2047 a03d 9eea 1e3d 4fdb 793d
000002d0: 6257 b2bd 0b63 c23c 6211 8a3d ca12 cfbd
000002e0: 6c48 a93d 9096 d9bd 7f37 d53d 5263 7fbb
000002f0: 976d 83bc 1fb3 e13d 12bf 02be a5e5 d2bc
00000300: 3379 093e 8e66 c3bc 988e 893c 44bb c5bc
00000310: d4cb 003e ce0b 233d 00eb 403d f815 4bbb
00000320: b4be 983d a8c7 77bd dd21 1a3d 6548 71bc
00000330: e053 503d b35f 9c3c b50d 88bc 7a73 5cbd
00000340: cfb5 973d 4fb8 8a3d 8358 bebd e7f9 0b3c
00000350: 2211 95bb c0ea 623d 7edb 123e a136 edbd
00000360: fdf3 263d a9d1 f6bd 19fa b3bd 111e 9cbb
00000370: ba81 06bc bdb1 8ebd 683e afbd 5012 f13c
00000380: 7c62 603d 1a55 08bd 9f6b adbd b944 72bd
00000390: a793 adbd a8f4 453c 5e85 bc3d 4667 283d
000003a0: b865 053e dfc3 133e dc47 be3d 8502 dd3d
000003b0: 0a31 96bd 341e e73d 47ca cfbd 3b1c d53d
000003c0: d595 0cbd afde 66bd 7461 1c3d 0bf0 823d
000003d0: 23a6 36bb 57f2 e4bc b79a 28bd c004 88bd
000003e0: f3b8 15be eb61 e53d 8dec 0dbc b7a6 c13d
000003f0: b8e9 2f3d 651a f1bd 7b68 3cbd 41b9 95bd

AFeatRNN.bias_hh_l0 f4 [256]
0.07596806 0.06423502 0.047196735 0.107593484 0.1748331 0.09421894 0.14580005 0.094135255
-0.0010271786 -0.11045317 0.13986877 0.011969558 -0.049885783 -0.10710891 0.04600078 0.022839503
0.020414885 -0.15434295 0.11800315 0.118847705 -0.008803392 -0.07099024 0.066716276 0.09568367
-0.05463904 0.09286591 -0.0017877645 0.12545556 -0.12896638 -0.06885559 0.0055063386 0.057375066
0.08291803 -0.013059049 -0.040870402 -0.11283565 -0.039494384 0.07008171 0.0017329433 0.13528225
0.08669088 -0.026358532 0.036120206 -0.15139316 0.020068001 -0.06377041 0.013684968 0.06525097
0.08196566 -0.006625958 -0.03301476 -0.10435579 0.028538229 -0.09281597 -0.038336452 0.07407432
-0.063557714 0.006881718 0.07694576 0.01804332 -0.030330632 0.0027969698 0.034123864 -0.09481933
-0.05196595 -0.027871124 -0.047562733 0.061865292 0.019513983 0.027535506 0.088363215 0.047458902
0.14390704 0.076878294 -0.09911046 -0.07824142 -0.098079085 0.10044856 0.047311418 -0.08550623
0.08924062 -0.090638526 -0.07939871 -0.06336478 0.0262532 -0.063437395 -0.10811887 -0.022369053
-0.034255628 0.005668894 -0.047175318 -0.052135147 -0.025715185 0.070597656 0.0024829572 -0.073825054
0.01658781 0.058002844 0.03352986 -0.16994216 0.15086895 0.05257169 0.054124 -0.13101695
-0.080436856 -0.06694871 -0.026468832 0.0686636 -0.03723481 0.0052995663 0.011003665 0.034944702
-0.05880826 -0.04231983 0.0751029 0.019412555 0.10915483 -0.05121118 0.039584227 -0.05513836
0.05878639 -0.055795167 0.005840812 0.031584956 0.08017416 0.074231304 0.06791265 -0.0066236993
0.08903357 0.09150649 0.027659353 -0.047497712 0.07861473 0.058606964 -0.01895294 -0.0695818
0.04806769 0.022497842 0.11816655 0.02896508 0.10290396 -0.108160265 -0.08688125 0.03053412
-0.028486975 0.006219441 0.08071943 0.0861833 -0.01978576 -0.073992096 0.010387381 -0.05714129
0.08302404 -0.13647911 0.023289846 0.05448025 -0.118918784 0.05684078 0.11900003 -0.074144855
0.06359956 -0.013154712 0.11358762 0.08747785 0.10733009 -0.008774489 -0.00899264 0.019946475
-0.11250288 0.10196943 -0.021025825 -0.012476023 -0.10893557 -0.07152503 0.0046777693 -0.0933641
0.03538581 0.073484786 0.093312204 0.044401556 -0.036460023 -0.059142455 -0.047345083 0.10855581
0.007112368 0.04668738 0.0916821 -0.014347984 -0.038972348 -0.06352436 0.10476639 0.08522765
0.06632127 -0.10135989 0.03302436 0.1261428 0.015648486 0.067263275 -0.07681402 -0.04878863
-0.039108053 0.010953492 0.009386139 0.09942981 -0.06544404 0.032762554 -0.007532041 0.092013195
-0.09747392 -0.06356 0.07938031 -0.09310517 -0.0018568926 0.13643113 -0.0052493038 -0.046727374
-0.08376608 -0.081289 -0.095897354 -0.07797001 -0.10381922 0.11460326 0.095756724 0.03420053
-0.06068852 -0.06002637 -0.0034106215 -0.061900917 -0.06161043 -0.03551204 0.08598678 -0.05514668
-0.053571478 -0.051740296 0.0970806 -0.07041929 0.14920951 0.036238816 -0.08864692 0.07949627
-0.08803539 -0.05869992 0.0033866968 -0.04002378 -0.08064019 -0.00270662 0.01901031 0.10866968
-0.038899507 -0.019673118 -0.016112974 0.07497771 -0.12427931 -0.051678002 -0.019183798 -0.12549728
00000000: 2495 9b3d a68d 833d 5d51 413d f959 dc3d
00000010: 7307 333e dcf5 c03d 9c4c 153e fcc9 c03d
00000020: 65a2 86ba 4635 e2bd c239 0f3e f71b 443c
00000030: 0955 4cbd eb5b dbbd 506b 3c3d e919 bb3c
00000040: 1e3d a73c 140c 1ebe a3ab f13d 6d66 f33d
00000050: 1a3c 10bc 5563 91bd 8ba2 883d cdf5 c33d
00000060: 30cd 5fbd 7b30 be3d 6c53 eaba 6c77 003e
00000070: c30f 04be 2904 8dbd 846e b43b 1e02 6b3d
00000080: eed0 a93d 9ff5 55bc b967 27bd 6116 e7bd
00000090: ddc4 21bd 0087 8f3d ee23 e33a 6e87 0a3e
000000a0: fd8a b13d d9ed d7bc c8f2 133d cf06 1bbe
000000b0: a665 a43c 109a 82bd eb36 603c 4da2 853d
000000c0: 9ddd a73d 901e d9bb 7c3a 07bd 7db8 d5bd
000000d0: 01c9 e93c 4d16 bebd af06 1dbd 47b4 973d
000000e0: 8c2a 82bd 0980 e13b bd95 9d3d 96cf 933c
000000f0: f277 f8bc 5e4d 373b 77c5 0b3d a330 c2bd
00000100: 3fda 54bd fc51 e4bc 24d1 42bd 7666 7d3d
00000110: cadb 9f3c 2492 e13c c6f7 b43d 4464 423d
00000120: 5e5c 133e 5e72 9d3d 6dfa cabd 0a3d a0bd
00000130: b0dd c8bd fab7 cd3d 9ec9 413d e41d afbd
00000140: c9c3 b63d b1a0 b9bd ca9b a2bd 65c5 81bd
00000150: f310 d73c 77eb 81bd 6d6d ddbd 4e3f b7bc
00000160: a14f 0cbd 21c2 b93b e83a 41bd aa8b 55bd
00000170: a7a8 d2bc 8195 903d 1cb9 223b 9731 97bd
00000180: 29e3 873c 6494 6d3d 9b56 093d 5105 2ebe
00000190: 647d 1a3e 6a55 573d 21b1 5d3d 4f29 06be
000001a0: 14bc a4bd 681c 89bd 2ad5 d8bc 809f 8c3d
000001b0: 8783 18bd fca7 ad3b b748 343c 2d22 0f3d
000001c0: eee0 70bd 8f57 2dbd 8dcf 993d 1407 9f3c
000001d0: 918c df3d d0c2 51bd 1223 223d c3d8 61bd
000001e0: ffc9 703d 7989 64bd 4864 bf3b 3a5f 013d
000001f0: 5a32 a43d 9506 983d ca15 8b3d 9e0b d9bb
00000200: 3b57 b63d c167 bb3d de95 e23c f68c 42bd
00000210: c200 a13d db0d 703d 3243 9bbc e780 8ebd
00000220: a0e2 443d 654d b83c 4e01 f23d 2d48 ed3c
00000230: 50bf d23d 2183 ddbd ccee b1bd b122 fa3c
00000240: 845d e9bc 74cc cb3b 3b50 a53d df80 b03d
00000250: bf15 a2bc 2b89 97bd d52f 2a3c fc0c 6abd
00000260: 8208 aa3d 2ec1 0bbe 59ca be3c af26 5f3d
00000270: b18b f3bd e1d1 683d 4ab6 f33d 42d9 97bd
00000280: 7c40 823d dc86 57bc a0a0 e83d 9627 b33d
00000290: e1cf db3d e0c2 0fbc de55 13bc ca66 a33c
000002a0: e967 e6bd 59d5 d03d 5a3e acbc 3c68 4cbc
000002b0: 9d19 dfbd b77b 92bd f947 993b ad35 bfbd
000002c0: b6f0 103d 317f 963d 781a bf3d 68de 353d
000002d0: 1b57 15bd 5c3f 72bd ebec 41bd 8252 de3d
000002e0: de0e e93b 443b 3f3d d3c3 bb3d cf13 6bbc
000002f0: 78a1 1fbd 0f19 82bd c38f d63d d68b ae3d
00000300: 72d3 873d c695 cfbd 8d44 073d 942b 013e
00000310: 4131 803c 54c1 893d ab50 9dbd 96d6 47bd
00000320: c42f 20bd 4676 333c 52c8 193c dba1 cb3d
00000330: 8607 86bd 0732 063d 57cf f6bb 6a71 bc3d
00000340: 68a0 c7bd bf2b 82bd 2592 a23d ecad bebd
00000350: fa62 f3ba 9ab4 0b3e 5a02 acbb 3465 3fbd
00000360: 8d8d abbd d97a a6bd d565 c4bd beae 9fbd
00000370: 2c9f d4bd 1db5 ea3d 1a1c c43d db15 0c3d
00000380: 8794 78bd 36de 75bd bc84 5fbb d18b 7dbd
00000390: 385b 7cbd 1375 11bd d619 b03d 7ce1 61bd
000003a0: c46d 5bbd a2ed 53bd 32d2 c63d fd37 90bd
000003b0: 61ca 183e 276f 143d 848c b5bd f1ce a23d
000003c0: e64b b4bd 546f 70bd 58f3 5d3b faef 23bd
000003d0: af26 a5bd 8c61 31bb 82bb 9b3c 368e de3d
000003e0: 1755 1fbd 8529 a1bc 5bff 83bc ea8d 993d
000003f0: 2786 febd 50ac 53bd 5727 9dbc 5c82 00be

AFeatRNN.weight_ih_l1 f4 [256, 64]
-0.14235795 0.016864067 -0.07635492 0.14699458 -0.054604556 -0.014165798 -0.20232955 -0.016165735
-0.187082 -0.015796302 0.15260379 -0.040428445 0.10624286 -0.042204183 0.07055349 0.0061080675
0.10605242 0.07848946 0.0009857472 0.14768255 0.006981467 0.047439642 -0.0023133103 0.21979715
-0.03177354 -0.06056442 0.019080685 -0.14890072 0.05428993 0.053440716 0.029173529 0.050313827
0.03504629 -0.20408504 0.10299315 0.21906926 -0.23598583 -0.135097 -0.0017174954 -0.036200535
-0.2083909 -0.027138282 0.013123722 -0.089346565 0.24567625 0.07476734 0.029065829 0.24056846
0.04303197 0.17458814 -0.059009954 0.13371997 0.21485299 -0.14338735 -0.0057878145 -0.118365996
0.015902206 0.069075674 0.12694679 -0.033659957 -0.10395248 -0.054886047 -0.099821344 -0.042696018
-0.12004637 0.0660361 0.09000827 0.08559457 0.08279214 0.11937854 -0.1303039 -0.015459281
-0.06251475 -0.0967104 -0.07739251 0.09379206 -0.021801189 -0.010144016 -0.12307981 0.082657434
-0.13408501 0.06385113 -0.1713639 0.21769387 -0.054379847 -0.01745209 0.0054836953 0.0805727
-0.13053522 -0.13987567 0.054235704 -0.10062058 -0.016404968 -0.032488797 -0.10008185 -0.14473069
-0.1548861 -0.11497114 0.069361836 0.073897794 -0.032670565 -0.23295476 -0.07427236 0.013456474
-0.06269372 0.096252225 -0.111485586 -0.03120595 0.08254821 -0.0029415768 0.079014 0.094365925
0.115594395 0.021252643 -0.08909556 -0.114369966 0.112331435 0.03521619 0.020761022 -0.077509895
0.077326305 0.15976445 0.09694594 -0.024236176 -0.019245466 0.00211179 -0.023115313 -0.12821807
-0.20683508 0.025306663 -0.11420514 -0.07392047 -0.077113815 0.1368706 -0.123861924 -0.03715342
0.04135614 0.052732095 0.14382097 -0.07468947 0.122245245 -0.1262874 0.04653997 -0.039283946
-0.0106943 -0.10433206 0.081826456 0.18978803 -0.025658531 0.029241253 -0.10078254 0.12871161
-0.12808819 -0.004889074 -0.038454555 -0.02024842 0.02711618 -0.06116227 0.115762435 0.07623546
-0.08226338 -0.16803178 0.09791567 0.08980698 0.06404529 -0.08585113 -0.04634734 -0.02055827
0.02819748 -0.057902172 0.03848537 0.02730722 0.13283335 0.173873 0.06188441 0.1056497
0.062208775 0.13287096 0.023965199 0.02295715 0.051095914 -0.068396084 0.04489669 0.07888478
0.11653719 -0.12836088 0.06972956 0.0058541577 0.045222864 -0.035653576 0.039157465 0.09442288
-0.29422978 -0.12413839 0.10956188 -0.058102414 0.19306064 0.13592045 0.01962692 -0.07905288
-0.10973628 -0.03563701 -0.05297307 0.07062443 0.06840223 0.08139058 -0.07728858 0.0069058766
-0.11644418 -0.13897336 -0.15351062 0.161409 -0.052219834 -0.08257671 0.09148219 0.18900067
-0.06091476 -0.19806208 0.28018466 0.09767038 0.20683599 0.084777854 -0.023083568 0.0070273895
0.023022683 -0.039179474 -0.04913329 0.00916166 0.043427043 -0.037096936 -0.1353894 -0.2570444
-0.010525403 0.17613521 0.037499815 0.12234916 0.20445277 0.39068738 -0.0012773621 -0.08843673
-0.0015111954 -0.083841845 0.1440646 0.030333096 -0.054667022 -0.10290764 -0.046821855 -0.122212954
0.13951172 0.0011172472 0.026961857 -0.10540948 -0.041528907 0.023939436 -0.08103266 0.062184915
00000000: 48c6 11be 8326 8a3c f85f 9cbd bf85 163e
00000010: 07a9 5fbd aa17 68bc 7a2f 4fbe 016e 84bc
00000020: 6c92 3fbe 3f67 81bc 2b44 1c3e 4c98 25bd
00000030: db95 d93d 4bde 2cbd 597e 903d 2f26 c83b
00000040: 0332 d93d 15bf a03d 3034 813a 183a 173e
00000050: cac4 e43b 1250 423d e89a 17bb 8112 613e
00000060: f924 02bd 6612 78bd 194f 9c3c 6e79 18be
00000070: 1e5f 5e3d a7e4 5a3d 53fd ee3c df15 4e3d
00000080: b38c 0f3d abfb 50be 13ee d23d b153 603e
00000090: 45a6 71be de56 0abe 951d e1ba 0347 14bd
000000a0: 6d64 55be 1a51 debc e104 573c 55fb b6bd
000000b0: 8e92 7b3e 9f1f 993d 761b ee3c 9457 763e
000000c0: 4a42 303d 3cc7 323e 6cb4 71bd e3ed 083e
000000d0: 6c02 5c3e 22d4 12be b5a7 bdbb df69 f2bd
000000e0: 5845 823c 8c77 8d3d 57fe 013e 06df 09bd
000000f0: 0ae5 d4bd 31d0 60bd 226f ccbd 05e2 2ebd
00000100: dfda f5bd ef3d 873d 4256 b83d 354c af3d
00000110: ed8e a93d bc7c f43d 636e 05be ed48 7dbc
00000120: bc07 80bd 1a10 c6bd f77f 9ebd 0d16 c03d
00000130: 6898 b2bc 1633 26bc 4411 fcbd 4d48 a93d
00000140: 954d 09be 62c4 823d 057a 2fbe 24eb 5e3e
00000150: 67bd 5ebd aff7 8ebc 92b0 b33b 4d03 a53d
00000160: 06ab 05be 913b 0fbe 4226 5e3d 2a12 cebd
00000170: b663 86bc f912 05bd b7f7 ccbd 4834 14be
00000180: 769a 1ebe fd75 ebbd 940d 8e3d ba57 973d
00000190: 92d1 05bd b18b 6ebe 1b1c 98bd 8b78 5c3c
000001a0: 9165 80bd e31f c53d 8e52 e4bd 9fa3 ffbc
000001b0: 090f a93d 78c7 40bb 18d2 a13d ec42 c13d
000001c0: c1bc ec3d 061a ae3c bc77 b6bd cd3a eabd
000001d0: 060e e63d da3e 103d 0513 aa3c 82bd 9ebd
000001e0: 415d 9e3d 4b99 233e 988b c63d f28a c6bc
000001f0: aba8 9dbc f565 0a3b 535c bdbc 994b 03be
00000200: 93cc 53be eb4f cf3c 62e4 e9bd 9e63 97bd
00000210: d9ed 9dbd ce27 0c3e 52ab fdbd 2f2e 18bd
00000220: 0e65 293d 9cfd 573d ce45 133e cbf6 98bd
00000230: b75b fa3d 7c51 01be b2a0 3e3d 34e8 20bd
00000240: 2537 2fbc 0cac d5bd a194 a73d cb57 423e
00000250: d731 d2bc 5a8b ef3c 1467 cebd facc 033e
00000260: 8d29 03be 8634 a0bb 8682 1dbd 04e0 a5bc
00000270: c022 de3c 4a85 7abd db14 ed3d 5621 9c3d
00000280: b479 a8bd 8610 2cbe 0388 c83d b9ec b73d
00000290: 2d2a 833d b8d2 afbd b5d6 3dbd d169 a8bc
000002a0: 67fe e63c d42a 6dbd d6a2 1d3d 64b3 df3c
000002b0: 7705 083e c40b 323e 827a 7d3d df5e d83d
000002c0: a1ce 7e3d 530f 083e aa52 c43c a210 bc3c
000002d0: f349 513d 3f13 8cbd 97e5 373d 588e a13d
000002e0: 0dab ee3d 0971 03be 5fce 8e3d 3cd4 bf3b
000002f0: 9c3b 393d 7c09 12bd 9463 203d c860 c13d
00000300: 49a5 96be 453c febd fb61 e03d ccfc 6dbd
00000310: b0b1 453e bb2e 0b3e a2c8 a03c 7ae6 a1bd
00000320: 6abd e0bd 1df8 11bd 4afa 58bd 8ba3 903d
00000330: 7816 8c3d 1bb0 a63d 7a49 9ebd b14a e23b
00000340: 497a eebd 084f 0ebe e331 1dbe 6748 253e
00000350: 77e4 55bd fa1d a9bd 045b bb3d 6489 413e
00000360: c181 79bd c9d0 4abe 5d74 8f3e 6807 c83d
00000370: d0cc 533e 03a0 ad3d c019 bdbc 0446 e63b
00000380: 119a bc3c a87a 20bd fd3f 49bd ca1a 163c
00000390: 8ee0 313d f5f2 17bd 85a3 0abe 539b 83be
000003a0: bd72 2cbc ca5c 343e 6899 193d 3292 fa3d
000003b0: 115c 513e 2d08 c83e 296d a7ba 511e b5bd
000003c0: 4e13 c6ba 46b5 abbd ac85 133e 1d7d f83c
000003d0: 87ea 5fbd 3ec1 d2bd 46c8 3fbd c94a fabd
000003e0: 29dc 0e3e 9870 923a 1ddf dc3c ede0 d7bd
000003f0: 371a 2abd a31c c43c 74f4 a5bd 9cb5 7e3d

AFeatRNN.weight_hh_l1 f4 [256, 64]
0.02688073 0.04364627 -0.03735298 0.032799948 -0.14177145 -0.10739355 0.13308662 -0.0899282
-0.1423359 0.10617634 0.1104122 0.101405896 0.085333325 -0.06275949 -0.054880966 0.09621793
0.08055134 0.1552724 0.079311214 -0.12775525 0.18346934 0.0005176638 -0.050006118 0.048416793
-0.10875841 0.016941752 0.02048678 -0.03131424 -0.09817996 0.17869486 -0.1091556 -0.010531152
0.085840665 -0.03203757 -0.13028337 0.04055906 0.096390806 0.04970467 0.12732863 0.082873166
0.014207132 -0.067629404 0.033798136 0.09990362 -0.015536885 -0.024417443 -0.06425064 -0.018873258
-0.03063512 0.005757922 -0.04844071 0.15978217 -0.05711539 -0.026097665 0.11204026 0.041822877
0.058026608 -0.0074073216 -0.06690596 -0.14884542 -0.025235007 0.054876197 -0.09799445 -0.12737213
0.06293745 0.039245605 -0.014825427 0.16689065 -0.119680345 -0.025668288 0.07895774 -0.05171161
0.028535316 0.015768208 -0.099268325 0.07419229 0.105970755 0.06338155 0.12404353 -0.1377386
-0.10089815 0.10684109 0.013942967 0.041034255 -0.06791698 -0.012381921 -0.035595804 -0.09016654
-0.12966466 0.038109582 -0.11861649 0.12037637 -0.09289676 0.059921708 0.0948809 -0.1135756
-0.0031924893 -0.06705273 -0.055241857 0.049162675 -0.10884329 0.06144152 0.046122216 0.16310672
0.08147458 -0.11819193 0.075448796 0.16511899 -0.095914945 0.05049874 -0.047232386 0.060319807
0.106072165 -0.028210452 0.025807273 -0.0667678 -0.13627087 0.09476236 0.074436545 -0.0256788
-0.03829436 -0.1296179 -0.07674927 0.0112491045 -0.023237662 0.052475844 -0.098070644 0.076534405
-0.058378834 0.008866049 0.04052956 -0.009685113 0.038706634 -0.021468174 0.06934547 0.076621056
-0.039231643 0.08469758 0.10496124 0.10309377 0.080870636 0.055100583 0.090545714 0.07260497
-0.06222088 -0.08493634 0.028701495 0.020270294 0.0027006168 0.1318677 -0.049870536 -0.056403723
-0.010528435 -0.018772658 -0.07336809 0.11714855 -0.1192792 0.017450387 -0.10992919 -0.1269648
-0.005882473 0.061153296 -0.09454331 0.07651405 -0.066357724 -0.04962893 -0.0120031275 -0.07999209
-0.060053647 -0.05579291 0.016342862 0.12387224 0.068411104 0.00856409 -0.077276915 -0.05803099
0.037556786 0.121258646 -0.08669502 0.05175785 -0.10147856 -0.062954046 0.10586008 -0.0067793145
0.056662798 -0.011810537 -0.028879363 0.11152758 -0.14092799 -0.071069874 0.005962115 0.1150277
-0.15577105 0.1198408 0.011709635 0.00046507435 -0.106136605 -0.018362671 -0.108419925 0.1813225
0.07743263 -0.041876674 0.059094474 -0.046423506 0.032064855 0.09264247 -0.027554026 -0.1163874
-0.0011148301 0.10393663 0.08803089 -0.02285144 -0.028621927 0.04508363 -0.15143657 0.058524936
0.0732594 0.072606586 -0.12519178 -0.10809643 -0.08679355 0.11274437 0.015612076 -0.09652225
0.027255336 -0.15614113 0.121636525 -0.032965045 -0.114613175 -0.04437257 0.061292723 -0.036713276
0.021270096 -0.10185152 0.12962319 0.035155967 -0.016551182 -0.085039094 -0.14773129 -0.02814803
0.028088575 0.09500022 -0.024173528 -0.0005652332 -0.09677591 -0.08691818 -0.041194137 0.01070774
-0.15645465 -0.07917373 -0.019569842 0.09381328 0.016664324 0.035770662 0.0038480922 0.063765526
00000000: fa34 dc3c 6ec6 323d 70ff 18bd 3d59 063d
00000010: 892c 11be 26f1 dbbd dc47 083e 472c b8bd
00000020: 81c0 11be fb72 d93d cb1f e23d e5ad cf3d
00000030: 3dc3 ae3d 0c88 80bd ddca 60bd e80d c53d
00000040: 1af8 a43d baff 1e3e eb6d a23d 46d2 02be
00000050: 63df 3b3e d4b3 073a 37d3 4cbd b050 463d
00000060: bbbc debd 6ec9 8a3c e4d3 a73c 5c43 00bd
00000070: 9312 c9bd c9fb 363e f98c dfbd da8a 2cbc
00000080: 3bcd af3d d439 03bd 0169 05be 4221 263d
00000090: 8b68 c53d 2097 4b3d 7062 023e 68b9 a93d
000000a0: 08c5 683c 4981 8abd ea6f 0a3d 459a cc3d
000000b0: 6b8e 7ebc 1707 c8bc d795 83bd 179c 9abc
000000c0: 81f6 fabc f3ac bc3b c469 46bd f09d 233e
000000d0: d4f1 69bd c5ca d5bc 5d75 e53d 774e 2b3d
000000e0: 4fad 6d3d 1eb9 f2bb fe05 89bd ef6a 18be
000000f0: a5b9 cebc ddc5 603d 50b1 c8bd d76d 02be
00000100: 5ae5 803d 00c0 203d 59e6 72bc 62e5 2a3e
00000110: f81a f5bd 4d46 d2bc 98b4 a13d 8ecf 53bd
00000120: e5c2 e93c 542c 813c 314d cbbd 21f2 973d
00000130: 3207 d93d 30ce 813d 890a fe3d 590b 0dbe
00000140: b0a3 cebd 80cf da3d 0b71 643c 8913 283d
00000150: 0f18 8bbd 8add 4abc e8cc 11bd 3ca9 b8bd
00000160: d0c6 04be cb18 1c3d 34ed f2bd e387 f63d
00000170: a840 bebd 7770 753d eb50 c23d 539a e8bd
00000180: 1539 51bb f152 89bd 4945 62bd cd5e 493d
00000190: 3be9 debd 1aaa 7b3d a6ea 3c3d 7305 273e
000001a0: 25dc a63d 9c0e f2bd e684 9a3d f414 293e
000001b0: 0e6f c4bd c4d7 4e3d bf76 41bd e711 773d
000001c0: 5d3c d93d 9b19 e7bc c669 d33c 8ebd 88bd
000001d0: 978a 0bbe c512 c23d 3072 983d 595c d2bc
000001e0: 8cda 1cbd 8eba 04be b92e 9dbd 2a4e 383c
000001f0: e95c bebc e9f0 563d 43d9 c8bd 12be 9c3d
00000200: a51e 6fbd e842 113c 5302 263d 4fae 1ebc
00000210: d98a 1e3d 06de afbc ff04 8e3d 80eb 9c3d
00000220: 5cb1 20bd ed75 ad3d ebf5 d63d d422 d33d
00000230: 819f a53d 26b1 613d 0870 b93d eab1 943d
00000240: 52db 7ebd 1bf3 adbd 661f eb3c e30d a63c
00000250: d5fc 303b 5408 073e 0c45 4cbd 9707 67bd
00000260: 757f 2cbc 1ec9 99bc 0242 96bd 94eb ef3d
00000270: a748 f4bd 1df4 8e3c 8e22 e1bd 0f03 02be
00000280: c3c1 c0bb e17b 7a3d ec9f c1bd 66b3 9c3d
00000290: 8fe6 87bd b447 4bbd c4a8 44bc e5d2 a3bd
000002a0: d0fa 75bd 1b87 64bd 77e1 853c bbb0 fd3d
000002b0: 1f1b 8c3d 6650 0c3c 5c43 9ebd e7b1 6dbd
000002c0: 25d5 193d 7456 f83d 298d b1bd 0a00 543d
000002d0: fed3 cfbd 0dee 80bd 2bcd d83d 0325 debb
000002e0: 4017 683d fc80 41bc 6a94 ecbc 9268 e43d
000002f0: 6d4f 10be 158d 91bd d85d c33b a593 eb3d
00000300: 7282 1fbe 186f f53d c5d9 3f3c 39d5 f339
00000310: 265e d9bd 506d 96bc 440b debd 9bac 393e
00000320: 0095 9e3d e086 2bbd 0c0d 723d 9326 3ebd
00000330: 7056 033d 56bb bd3d fbb8 e1bc 845c eebd
00000340: 7e1f 92ba badc d43d 8a49 b43d f132 bbbc
00000350: 8878 eabc 9da9 383d 3012 1bbe d8b7 6f3d
00000360: 0609 963d c3b2 943d 4632 00be a961 ddbd
00000370: d1c0 b1bd 85e6 e63d cbc9 7f3c 75ad c5bd
00000380: 9546 df3c 76e3 1fbe 921c f93d 5b06 07bd
00000390: 50ba eabd 03c0 35bd 140e 7b3d a960 16bd
000003a0: a03e ae3c 8897 d0bd f1bb 043e b4ff 0f3d
000003b0: 5896 87bc fa28 aebd df46 17be b396 e6bc
000003c0: 031a e63c 7a8f c23d 9007 c6bc 282c 14ba
000003d0: 7332 c6bd 2902 b2bd 2fbb 28bd 846f 2f3c
000003e0: a635 20be d625 a2bd ef50 a0bc 2d21 c03d
000003f0: 9f83 883c 4284 123d 4630 7c3b 8097 823d

AFeatRNN.bias_ih_l1 f4 [256]
0.14792944 0.08676568 0.13569821 0.045768145 -0.078553736 -0.014025612 0.18440445 0.03004816
0.11294379 0.10647814 -0.016852623 0.06214603 0.15139681 -0.009293933 -0.093562394 0.036008395
0.034657467 0.083211206 0.046628825 0.023962867 0.054802302 0.1476749 0.20269799 0.12652606
-0.08306131 0.029452933 0.05967388 0.025979538 0.17814258 0.015093148 0.18663399 0.033048067
-0.060163807 -0.13622463 -0.009202888 -0.08625063 0.013014602 -0.035960075 0.06404864 0.07979776
-0.0361967 0.07846653 0.10117273 -0.051477067 0.069288224 0.083060905 0.034080554 0.034472495
-0.11687382 -0.058098372 0.06695767 0.06600887 0.13018672 -0.016558131 -0.09207123 0.15658537
0.065788075 0.09575031 0.037300486 -0.00092064816 0.17569356 0.11461495 0.06454232 0.062205695
0.04838349 -0.094349 0.038543325 0.029492792 -0.12544523 0.0068886685 0.00029605153 -0.052914128
0.045043223 -0.0577899 -0.011580895 -0.020687213 0.0404756 0.11715115 0.06607417 0.03711958
-0.059598498 -0.1346236 -0.0817014 0.0057434016 -0.018277919 -0.08598369 0.30046406 0.0035471339
-0.048402574 0.00032886874 0.027769621 -0.18700153 -0.030204099 -0.040440124 0.009615181 0.053342283
-0.1576865 -0.09963898 -0.06408889 0.02878576 -0.10090269 -0.0750056 -0.10023423 0.01218782
0.022159677 0.0006141864 0.13773277 0.021217711 -0.12364533 -0.00057654514 -0.07744321 0.016591743
0.0044274144 -0.11857209 -0.11224517 0.072359405 0.13389109 -0.0003037679 0.08210745 -0.10709109
0.055272747 0.047054227 -0.10278134 -0.018441096 -0.07251375 0.058456525 0.028285561 -0.1197462
-0.1136537 0.08533021 0.13846062 -0.026841493 -0.117762424 -0.06557598 0.07477692 0.028758088
-0.0809939 0.050846286 0.026222158 0.08945817 0.060324155 0.013872065 -0.0031732577 -0.0065662055
0.049255647 0.16235334 -0.03953352 -0.13828048 0.030698344 -0.06256581 -0.22297548 0.0981556
-0.032188058 0.006756278 -0.027581919 -0.0062864074 0.02143371 -0.029626807 -0.15504208 0.08136436
0.050894346 -0.1377073 0.052155025 -0.07658952 0.09564919 0.020120446 0.05286201 0.009106539
-0.026526371 -0.10125157 -0.046842206 0.05560637 -0.022818187 -0.049235024 -0.006188795 0.04074949
0.059206046 0.109431624 0.13891114 0.14362262 0.021648774 -0.028989017 -0.057191163 0.03262528
-0.037301928 0.09747786 -0.04471958 -0.032173965 0.08135687 0.09202818 -0.1350782 -0.093089156
0.12374395 -7.5986765e-07 -0.014230076 0.16057868 0.019512596 -0.023608578 -0.05624442 -0.030853303
0.0009651524 0.10707957 0.11982228 0.074040115 0.07816592 0.08320765 0.13315378 -0.05267999
-0.06480043 0.017566442 0.00011279654 -0.0015335602 -0.060762785 0.041380994 0.045913666 0.07171932
-0.030147782 0.028394144 0.13233429 -0.09723088 0.13000368 -0.025454003 -0.07442947 0.0073317606
0.11207779 0.021969775 -0.020524349 0.05059557 -0.06826084 0.14045797 -0.052686367 0.17229901
-0.046413492 0.0859243 -0.04922372 -0.102122515 0.012420707 -0.006598712 -0.07647038 -0.0203182
-0.07400279 -0.0004508501 0.059539728 -0.08342142 0.046036076 -0.038633246 0.037132796 -0.06975766
0.0051988945 0.046239518 -0.01004696 0.0993302 -0.040581144 0.08103141 -0.026151413 -0.07232154
00000000: d17a 173e 34b2 b13d 79f4 0a3e 6177 3b3d
00000010: c8e0 a0bd aecb 65bc 85d4 3c3e 8f27 f63c
00000020: 134f e73d 3611 da3d 830e 8abc d68c 7e3d
00000030: c407 1b3e 9545 18bc a49d bfbd 8a7d 133d
00000040: fdf4 0d3d a36a aa3d defd 3e3d c64d c43c
00000050: 6178 603d 1738 173e 1090 4f3e 0c90 013e
00000060: 0c1c aabd 4747 f13c 996c 743d 0ad3 d43c
00000070: 026b 363e 4049 773c fb1c 3f3e 695d 073d
00000080: 536e 76bd 787e 0bbe b6c7 16bc 2ca4 b0bd
00000090: 323b 553c df4a 13bd ef2b 833d 026d a33d
000000a0: fe42 14bd 0fb3 a03d a633 cf3d 9ed9 52bd
000000b0: fce6 8d3d d61b aa3d 0d98 0b3d 0833 0d3d
000000c0: 8b5b efbd 8ff8 6dbd 1a21 893d a92f 873d
000000d0: ab4f 053e eba4 87bc d78f bcbd ea57 203e
000000e0: e6bb 863d bd18 c43d 65c8 183d a757 71ba
000000f0: 03e9 333e 3ebb ea3d c42e 843d 66cb 7e3d
00000100: c42d 463d 0c3a c1bd 9bdf 1d3d de9a f13c
00000110: b774 00be 57ba e13b 5d37 9b39 7cbc 58bd
00000120: 3e7f 383d 1ab5 6cbd cbbd 3dbc 3b78 a9bc
00000130: bec9 253d f1ec ef3d e551 873d b30a 183d
00000140: 8e1d 74bd c5da 09be 1053 a7bd 2533 bc3b
00000150: 93bb 95bc 3818 b0bd 6dd6 993e 0877 683b
00000160: c741 46bd 046c ac39 1e7d e33c 547d 3fbe
00000170: 966e f7bc 8ba4 25bd fe88 1d3c 707d 5a3d
00000180: 9278 21be 860f ccbd 0941 83bd 1dd0 eb3c
00000190: 12a6 cebd 899c 99bd 9b47 cdbd 6caf 473c
000001a0: 3688 b53c 5a01 213a d209 0d3e c4d0 ad3c
000001b0: c339 fdbd 4a23 17ba 8c9a 9ebd 68eb 873c
000001c0: d813 913b edd5 f2bd cce0 e5bd 2b31 943d
000001d0: bf1a 093e 0a43 9fb9 f327 a83d 9352 dbbd
000001e0: ad65 623d efbb 403d 067f d2bd c811 97bc
000001f0: 1782 94bd 1c70 6f3d 1fb7 e73c 7f3d f5bd
00000200: 45c3 e8bd 9bc1 ae3d 9fc8 0d3e b1e2 dbbc
00000210: 6d2d f1bd b34c 86bd a424 993d 1596 eb3c
00000220: 21e0 a5bd 3244 503d dacf d63c d835 b73d
00000230: 7616 773d a847 633c 6ef6 4fbb 5329 d7bb
00000240: 4ac0 493d f43f 263e e6ed 21bd 6699 0dbe
00000250: 187b fb3c 8122 80bd af53 64be ce05 c93d
00000260: a0d7 03bd c563 dd3b 7af3 e1bc 35fe cdbb
00000270: bf95 af3c ebb3 f2bc 5ac3 1ebe 5ca2 a63d
00000280: 9776 503d 2403 0dbe 82a0 553d f7da 9cbd
00000290: b9e3 c33d a2d3 a43c d685 583d 9833 153c
000002a0: d54d d9bc fc5c cfbd 9ddd 3fbd 81c3 633d
000002b0: 35ed babc aaaa 49bd 60cb cabb f0e8 263d
000002c0: 0a82 723d b01d e03d b93e 0e3e cf11 133e
000002d0: c558 b13c 607a edbc 4841 6abd 16a2 053d
000002e0: e8c9 18bd 79a2 c73d e12b 37bd d9c8 03bd
000002f0: 6e9e a63d 4579 bc3d f151 0abe 87a5 bebd
00000300: 786d fd3d b5f9 4bb5 4425 69bc bd6e 243e
00000310: e1d8 9f3c c766 c1bc 8d60 66bd 11c0 fcbc
00000320: 4802 7d3a 894c db3d 6265 f53d 58a2 973d
00000330: 7415 a03d c668 aa3d 7759 083e f9c6 57bd
00000340: 16b6 84bd 80e7 8f3c 2e8d ec38 be01 c9ba
00000350: 66e2 78bd 1e7f 293d f80f 3c3d 94e1 923d
00000360: 7bf8 f6bc d69a e83c a482 073e fc20 c7bd
00000370: af1f 053e ea84 d0bc 7a6e 98bd 443f f03b
00000380: 0a89 e53d f5f9 b33c ae22 a8bc 4d3d 4f3d
00000390: 57cc 8bbd 37d4 0f3e a9cd 57bd 276f 303e
000003a0: 131c 3ebd 14f9 af3d d09e 49bd 9c25 d1bd
000003b0: 3980 4b3c 023a d8bb 819c 9cbd 5b72 a6bc
000003c0: c68e 97bd 1360 ecb9 eedf 733d d9d8 aabd
000003d0: 5390 3c3d e53d 1ebd 8f18 183d 1bdd 8ebd
000003e0: 7d5b aa3b a665 3d3d 019c 24bc a26d cb3d
000003f0: 6a38 26bd ccf3 a53d 7d3b d6bc 511d 94bd
