robot/robot_exp5/code/python_pc/model_param/model.pkl (torch, 33204 bytes, 6 tensors)

conv1.weight f4 [10, 3, 5, 5]
000000 98 22 a2 3c 6b 51 5a 3c 3e bb 54 3c e3 15 e0 3c
       0.019791886 0.013325076 0.012984095 0.027354186
000010 5c 8d 1e 3d 3c 5f 08 3d c7 cf aa 3c 95 b0 37 3d
       0.03870903 0.033293948 0.02085103 0.044846136
000020 9c bc 65 3d 06 42 47 3d ad 16 12 3d 1f c5 47 3d
       0.056088075 0.04864695 0.035666157 0.048771974
000030 88 b9 8b 3d d6 9f 77 3d 7d fd 88 3d c8 9a 6d 3d
       0.06822497 0.060455166 0.06688974 0.05800894
000040 e8 bc b1 3d d5 11 a9 3d 8a 60 98 3d 1a 26 ac 3d
       0.08678609 0.08255354 0.07440288 0.08405705
000050 b1 5f 00 3d f8 e9 8f 3d a7 8f 93 3d 7e 9f d4 3d
       0.03134126 0.07027048 0.07205134 0.10381983
000060 44 23 1b 3d 7e 30 f3 3a fa c5 53 3c 63 61 bc 3c
       0.03787543 0.001855388 0.012925619 0.022995656
000070 48 1c 29 bb b4 b0 a1 3a 54 22 81 3b 75 26 5d bb
       -0.002580421 0.0012335987 0.00394086 -0.0033744846
000080 8f ce 1e 3d 8e 93 2b 3c 7a 7a c5 3c 3e 1d 17 3d
       0.03877121 0.0104721915 0.024106253 0.036893122
000090 82 d5 a9 3c 45 e2 92 3d da 5f 6c 3c 40 ca 7d 3c
       0.020731691 0.07172064 0.01442715 0.015490115
0000a0 95 4e 8e 3d ff c3 81 3d 3d 95 4d 3d c7 ba 50 3d
       0.06948582 0.063362114 0.050191153 0.050959375
0000b0 0a db 6c 3d 44 bf 29 3d e1 0d 90 3d 3f 0c 60 3d
       0.05782608 0.04144217 0.07033897 0.05469918
0000c0 15 64 c3 3d 76 e6 7d 3d 55 82 55 bd 37 32 a7 bd
       0.095405735 0.061987363 -0.052126247 -0.081638746
0000d0 05 5e b0 bd c5 be c6 bd 84 de b8 bd 9d 0e e1 bd
       -0.08611683 -0.09704355 -0.090268165 -0.109891154
0000e0 5f 8b f9 bd c8 fa a0 bd 11 e2 aa bd 81 0d a4 bd
       -0.12184786 -0.07860333 -0.083439 -0.08010388
0000f0 0f fa 98 bd 49 de ca bd d9 d2 51 bd 12 f5 b9 bd
       -0.0746957 -0.09905679 -0.05122647 -0.090799466
000100 4a d9 a8 bd 0e f4 e1 bb da 5a 4f bd 17 49 0e bd
       -0.082445696 -0.0068955487 -0.050623752 -0.034737673
000110 a6 bb 58 bd ec 64 55 bc f3 7c 82 bd 20 a6 a6 3c
       -0.05291333 -0.01302455 -0.063714884 0.020342886
000120 4e f0 58 bd 51 78 c4 bc 77 f9 36 bc b1 c6 15 3d
       -0.052963547 -0.023983153 -0.0111678755 0.03656644
000130 9e 3c 2d 3d d0 e4 6d 3b 00 44 6d 3c 13 8f 3b 3c
       0.042294137 0.0036299713 0.0144815445 0.011447686
000140 13 13 2d 3d 9e 99 c8 3c ab ff 46 3d 17 62 b1 3c
       0.04225452 0.024487313 0.048583668 0.021653218
000150 47 87 b8 3c ac 55 71 3d 8a 9f 13 3d 78 27 cd 3c
       0.022525443 0.058919594 0.03604082 0.025043234
000160 ca d6 8b 3c 2c 5a 7a 3c 6f 59 40 3d a2 6e 6f 3d
       0.017070193 0.015280288 0.04696029 0.058455117
000170 64 43 08 3d 7f 8b 78 3c 95 3f de 3b 47 8f af 3b
       0.033267394 0.015169977 0.006782482 0.005357656
000180 c5 bf df 3c 0d 6c e4 3b 84 3d 17 3c 88 c0 48 3c
       0.027313123 0.0069708885 0.009230975 0.012252934
000190 20 cd b1 3c 89 98 99 3c d0 e4 fa 3c a5 9b e5 3c
       0.021704257 0.018749492 0.030626684 0.028028319
0001a0 05 85 51 bc 87 e2 20 3d a9 33 dc 3c 2d fe be 3c
       -0.012788062 0.039278533 0.026880102 0.02331456
0001b0 ad e5 48 3d 2a 17 d1 3c 91 ed 40 3d 75 8d 09 3d
       0.04904716 0.02552374 0.04710156 0.03358217
0001c0 5a bf 94 3c 30 98 eb 3c 99 c4 10 3d 6f fe 2a 3d
       0.01815765 0.028759092 0.03534374 0.041746553
0001d0 37 d1 49 3d c8 b7 41 3c a6 7a 02 3d 2b 67 97 3c
       0.04927179 0.011823602 0.031855248 0.018481812
0001e0 e1 8d 13 3d bb e6 74 3c 6c d2 a6 3c 5d 38 cd 3c
       0.03602398 0.014947589 0.020364009 0.02505129
0001f0 09 c4 08 3d 84 6a 2f 3d 5a cc 2c 3d 2f 52 36 3d
       0.03339008 0.04282619 0.042187072 0.04451197
000200 e1 77 16 3d 15 48 27 3d 42 7d 6b 3d 66 6d 9b 3d
       0.03673542 0.040840227 0.057492502 0.075892255
000210 81 7d 72 3d bd 4a 2e 3d 61 20 09 3d 38 44 87 3d
       0.05920172 0.042551745 0.033478145 0.066048086
000220 f9 c6 91 3d 83 b2 83 3d db 42 5a 3d 67 7e 40 3d
       0.07118029 0.06430533 0.053286415 0.046995547
000230 91 a8 7d 3d bc c4 94 3d 83 86 9f 3d a6 9d 84 3d
       0.061928336 0.072640866 0.07789328 0.064753816
000240 6b 58 4e 3d 9e 36 3f 3d 44 56 5a 3d 68 6f 67 3d
       0.05037729 0.046682946 0.053304926 0.05650273
000250 f8 11 46 3d fb 63 34 3d c8 89 f3 bb 5f 88 c3 bc
       0.04835698 0.04404066 -0.0074321963 -0.023868738
000260 7e 8f d0 bc 33 df ed bb de b0 54 3d ee 0e ae bb
       -0.025459047 -0.0072592734 0.051926486 -0.0053118384
000270 cc 2a cd bb ae 65 92 bc 2e bc 39 bb 59 e8 5a 3d
       -0.0062612053 -0.01787075 -0.0028340924 0.05344424
000280 13 4d 66 bb 98 cc 18 bb 31 34 d8 bb df 0b 5a 3c
       -0.0035141155 -0.0023315307 -0.0065980186 0.013308494
000290 2b ac 48 3d 8b 92 a2 3c 37 c1 29 3d c7 58 92 3d
       0.048992317 0.019845268 0.04144403 0.07145839
0002a0 a9 1c 6f 3d c6 4d 24 3d c6 6e 83 3c 17 fe 47 3d
       0.05837694 0.040113233 0.016044032 0.048826303
0002b0 c7 ae 50 3d 94 cb 66 3d af b1 8b 3d 9b fc 6b bc
       0.05094793 0.05634649 0.06821 -0.014403488
0002c0 7d c1 a7 bc 6c cc 72 bc 0e 7c ab bc 81 10 dc 3c
       -0.020478005 -0.014819246 -0.020933177 0.026863338
0002d0 c1 35 0a bc 77 45 c7 bc 34 d5 0a bd 05 23 93 bc
       -0.0084356675 -0.024325116 -0.033894733 -0.017961035
0002e0 c6 a2 e4 3c 75 6e 88 bb fd 70 94 bc 48 26 3a bc
       0.027909648 -0.004163558 -0.018120283 -0.011361666
0002f0 f8 76 fc 3c 06 60 58 3d da c6 f7 3b ca 78 9f 3c
       0.030818447 0.05282595 0.0075615468 0.019466776
000300 12 bc 7f 3d 19 e7 a6 3c 59 19 71 3c 20 de 5b 3c
       0.062435217 0.020373868 0.014715516 0.013419658
000310 70 71 29 3d 2e aa 9b 3d b5 1b 8c 3c fa 87 97 3c
       0.041367948 0.076008186 0.017103055 0.018497456
000320 e9 d5 71 bd ba 0b 98 bd f4 14 82 bd 19 af 62 bd
       -0.05904189 -0.07424112 -0.06351653 -0.055342767
000330 8f aa bb 3c 7b dc 75 bd 8b d4 96 bd 51 73 ac bd
       0.022908477 -0.06002472 -0.07364758 -0.08420432
000340 df ac 5e bd 8b 6b 93 3c 6d 98 87 bd 2d c8 86 bd
       -0.05436408 0.017995616 -0.0662087 -0.06581149
000350 e3 71 6b bd c2 28 0b bd e4 b6 60 3c f7 31 61 bd
       -0.057481658 -0.033974417 0.0137154795 -0.05497929
000360 1e 2f f9 bc 32 f8 89 3c 4f 53 40 bc fa b3 16 3d
       -0.030417975 0.016841982 -0.011738612 0.036792733
000370 65 ab 02 bd 97 ba 88 bc e0 37 1b 3d 3c a1 14 3b
       -0.031901736 -0.016690535 0.037895083 0.002267911
000380 d6 71 26 3d 70 73 04 bd f2 08 46 bd f7 2b 81 bd
       0.040635906 -0.032336652 -0.048348375 -0.06307214
000390 7b 15 0d bd 25 17 43 bd b4 23 72 bd 72 78 48 bd
       -0.034444313 -0.047629494 -0.05911608 -0.04894299
0003a0 3b 27 77 bc f8 b9 32 3c d3 52 c0 bc 92 db d7 bc
       -0.015085037 0.010908596 -0.023476994 -0.026349816
0003b0 d2 41 71 3c 12 82 aa bb 06 c8 b6 3c 3f cb f2 3c
       0.014725165 -0.005203494 0.022312175 0.02963793
0003c0 04 e9 1f 3c f3 28 d0 3c dd a3 b5 3c 66 8c ca 3c
       0.009760145 0.025410151 0.022172863 0.02472515
0003d0 e2 45 45 3d e3 c3 3a 3d ab fc 46 3d 0a 82 e9 3c
       0.04816235 0.04559697 0.048580807 0.02850439
0003e0 0b af 7b 3c 7d 97 27 3d dc ef f3 bc 43 b8 13 bd
       0.015361558 0.040915955 -0.02977746 -0.036064398
0003f0 8a 03 65 bd 5c ab 6b bd ce 4c 62 bd b1 44 4c bd
       -0.05591158 -0.057536468 -0.055249028 -0.049870197

conv1.bias f4 [10]
000000 d6 64 c2 3d 8f 13 e7 bc 2a 7e 80 3d d4 ea 8b 3d
       0.09491889 -0.028207568 0.06274064 0.06831899
000010 bf bf fc 3d 0f a4 88 3d 05 63 00 3d 75 10 7c bc
       0.1234126 0.06671917 0.031344432 -0.015384783
000020 d5 e4 e6 b8 3b be 79 3d
       -0.00011009878 0.060972434

conv2.weight f4 [20, 10, 5, 5]
000000 fd de 24 3c b0 4d c7 bb 4e f9 8c bc 10 01 be bc
       0.01006293 -0.006082259 -0.017208721 -0.023193866
000010 c7 75 a9 bc 4f ef 02 3c d7 68 4e b8 86 e1 b8 bc
       -0.020686043 0.007991626 -4.9211867e-05 -0.022568475
000020 66 ec e4 bc 2c 35 a4 bc fa 3a a3 3c f1 1c bd bb
       -0.027944755 -0.020044886 0.019925583 -0.0057712724
000030 4a 0c e0 bc f1 3b 06 bd 10 92 a8 bc 58 d6 bb 3c
       -0.02734961 -0.03277201 -0.02057746 0.022929356
000040 26 3c 8c bc 09 d3 2c bd a4 41 38 bd c3 a6 ed bc
       -0.017118525 -0.042193446 -0.044984475 -0.029010182
000050 be cf 7e 3c f5 02 7e bc 3b 4e e4 bc 2c d6 ba bc
       0.015552459 -0.015503635 -0.027869334 -0.022807203
000060 c6 93 76 bc 54 fa 0f 3d 52 08 8e 3c 86 23 b4 3c
       -0.01504988 0.03515084 0.017337952 0.021989595
000070 30 36 09 ba 28 41 ae bc 49 b7 04 3d 95 a0 de 3c
       -0.000523421 -0.021271303 0.032401357 0.02717618
000080 7b c9 17 3d 94 7d 80 bb 88 fa d7 bc ff 2c 0a bc
       0.03705738 -0.00392122 -0.02636458 -0.0084335795
000090 b1 67 21 3c cc a6 04 3d b5 58 d7 3a 08 b8 d4 bb
       0.009851382 0.032385632 0.0016429635 -0.006491665
0000a0 b2 3d c3 bc 0e 49 d4 3c 97 01 24 3d 74 b9 84 3c
       -0.02383313 0.025913741 0.04004058 0.016201712
0000b0 68 b1 34 ba ec 9a 97 bb 27 c3 96 ba 68 16 87 3a
       -0.00068928907 -0.0046266224 -0.0011502252 0.001030636
0000c0 b7 3e 3a bc c2 64 0e bc 69 61 78 3c 2d 8f 81 3b
       -0.011367491 -0.008691015 0.015159943 0.0039538355
0000d0 3e 19 d2 bb 6f c2 99 bc 69 8a a3 bc 64 67 67 3b
       -0.0064117005 -0.018769471 -0.01996346 0.0035309428
0000e0 9e 94 08 3c 1b 69 0a bc 7a 5e 4d bc 18 e9 1e bc
       0.008336214 -0.008447911 -0.012534732 -0.009699129
0000f0 e6 2f 15 3c 65 f8 f4 3b bc e3 62 bc d7 a7 5e bc
       0.009105658 0.0074759 -0.013848241 -0.013589821
000100 77 31 74 bb cc d9 a2 3c 8e 2c cf 3b 03 a3 ab bc
       -0.0037260929 0.019879244 0.00632245 -0.020951753
000110 a0 71 a6 bc 39 f2 2e bc 5c 23 bf 3c 04 4d 3f 3b
       -0.020317852 -0.010677868 0.02333229 0.0029190192
000120 68 16 57 bc a1 43 e1 bb 44 38 d2 bb 5e 86 f2 3b
       -0.013127901 -0.006874517 -0.006415399 0.0074012717
000130 0f 67 42 3c e3 0d 61 3b a5 6f a0 ba 38 f7 31 bc
       0.011865391 0.0034340553 -0.0012240304 -0.010862164
000140 39 54 d5 bb 3c 29 4b 3c 6d bd 2e 3c 77 21 12 3c
       -0.0065102843 0.012399968 0.01066528 0.008919111
000150 d5 a8 24 bb 4a 65 76 bc 04 77 28 3c 57 76 d7 3c
       -0.0025125046 -0.015038798 0.010282282 0.026301546
000160 3c bb 10 3d ea 9b 87 3c 8b 5f 1e bc 67 cb c4 3b
       0.03533481 0.016553838 -0.009666334 0.0060056928
000170 0b 13 17 3c 6b a7 ab 3b f9 78 b2 3b e7 1b fa 3a
       0.009220849 0.0052384636 0.00544655 0.0019081802
000180 6a 1a 06 3c e6 62 97 3b af 7d 11 3c 24 ab 98 ba
       0.008185009 0.004619944 0.008880063 -0.0011647684
000190 12 a5 54 bc 0a 24 0c 3d ab 4f 02 3d a5 84 c1 3c
       -0.012978809 0.034214057 0.03181426 0.02362282
0001a0 eb de 42 3c 4e 4a 02 bd bc 87 6f 3c 4c 45 ed 3c
       0.011893968 -0.031809144 0.014619764 0.028963707
0001b0 58 3d cc 3c 7e 8b 89 3c c0 71 e1 bc 74 c0 30 3c
       0.024931595 0.016790148 -0.02752006 0.010788072
0001c0 b8 2e e4 3c a1 1b 24 3d 04 fd e8 3c d5 e1 82 bc
       0.027854308 0.04006541 0.02844096 -0.015976826
0001d0 a6 aa 0e 3d 9b ad 55 3d 74 48 4d 3d 8f 60 3e 3d
       0.03483071 0.052167516 0.050117925 0.046478804
0001e0 77 e1 16 bc fd 14 9c 3c a6 36 d9 3c 7b 63 23 3d
       -0.009209028 0.019052977 0.026515316 0.039889794
0001f0 43 bd 15 3d 89 00 53 3b 92 7a c4 bb 61 eb 0c bb
       0.036557447 0.0032196364 -0.005996057 -0.0021502601
000200 5c 99 d8 3b 6d 5c 0e 3c db 42 01 ba 45 c1 ea bb
       0.0066100787 0.008689028 -0.0004930922 -0.007164153
000210 d1 13 b3 ba 71 09 0c 3c 96 2c 05 3c b3 2f a3 ba
       -0.0013662522 0.008547173 0.008128306 -0.0012450129
000220 70 32 f5 bb 1d 7a d6 bb 5f 2c b6 3b f3 f0 c9 3b
       -0.0074828193 -0.0065453188 0.0055594887 0.0061627566
000230 80 44 8c 3a 73 4d e7 bb fb 73 ba bb 7c ac 20 3b
       0.0010701567 -0.007058793 -0.0056900955 0.0024516871
000240 f2 57 29 3b 06 24 03 3a ad 92 d9 bb 65 70 2a bb
       0.0025839773 0.00050026213 -0.0066397996 -0.0026006934
000250 c6 fa 0b 3b b3 c2 b0 3b 5b b2 88 3a bf 08 d2 3c
       0.002135919 0.0053943037 0.0010429131 0.025638936
000260 ee 16 09 3c d5 d4 4b bc 02 a2 4c bc 19 ec 3c bc
       0.008367283 -0.01244088 -0.012489798 -0.011530899
000270 03 d4 8f 3c 43 50 21 3c 9b 62 97 bb 49 75 8e bb
       0.01755715 0.009845796 -0.004619909 -0.0043474776
000280 74 9e b1 bc 4d f8 64 3c 2a 8e 01 3d 32 0c 03 3d
       -0.021682002 0.013975215 0.03162972 0.031994052
000290 4b 87 b1 3c 7b 9a d9 bb 7c fa 86 3c ec af f5 3b
       0.021670958 -0.00664073 0.016476862 0.007497778
0002a0 94 a0 85 3b f9 76 4e 3c cc dd 03 3c 92 6a 03 3c
       0.0040779803 0.0126016075 0.008048486 0.008021014
0002b0 70 40 0f 3b 6a 42 89 3b 3f 0c 7c 3b ad 93 14 3d
       0.0021858476 0.0041888254 0.0038459448 0.036273647
0002c0 71 67 96 3c eb 30 3e 3c 0c 6d 76 bc d2 ab 1d bd
       0.018359872 0.011608343 -0.015040647 -0.03849394
0002d0 0f f9 b3 3c 01 4d fb 3c 73 ce 0f ba 91 13 0b bd
       0.021969346 0.030676367 -0.00054857804 -0.033954207
0002e0 b5 f8 54 bd 32 61 04 3b 32 2b 14 3d ed 7c d0 3c
       -0.051994998 0.0020199534 0.036174007 0.025450194
0002f0 d2 e3 fb bc 73 19 29 bd 7a da 02 bd 1d 62 fe 3c
       -0.030748282 -0.041284036 -0.031946637 0.031052643
000300 42 2e 03 3d 6e 04 04 bc c7 67 d6 bc 5b e5 81 bc
       0.032026537 -0.008057697 -0.026172532 -0.015856436
000310 29 ac 82 3c 8d eb b2 3b a1 7d 12 bd a0 2e c9 bc
       0.015951233 0.0054602087 -0.03576434 -0.024558365
000320 ef 25 20 3d 2e e7 33 3d 1e 1b 60 3c 7a 62 1f bd
       0.039098676 0.043921642 0.01367834 -0.038912274
000330 21 c6 20 bd 0c 71 ad 3c b6 1d 7d 3c 14 2c c4 3b
       -0.03925145 0.021172069 0.015448978 0.0059867
000340 72 09 4e bd ce a4 54 bd 0d c1 00 3d 73 3a 21 3d
       -0.050301977 -0.051914982 0.031434108 0.039362382
000350 84 bc 73 3c 60 51 6f bc 58 30 99 bc d3 c4 33 3c
       0.014876489 -0.014606804 -0.01869981 0.0109722195
000360 86 ca 02 3d e8 b8 ae 3c db af 0a bc 48 97 1e bc
       0.031931423 0.021328405 -0.008464779 -0.009679623
000370 e0 9c 50 3b ca b8 01 bc b9 48 88 bc cd bd ba bc
       0.0031831786 -0.007917592 -0.01663624 -0.022795582
000380 9e 25 07 bc 89 d3 4c 3b d7 e4 74 3c 86 7e 0f 3d
       -0.008248715 0.0031254014 0.014947138 0.03503277
000390 f1 bb ba 3c 02 bd 66 bb b2 77 d5 bb 6a 09 ab 3c
       0.022794696 -0.0035207872 -0.006514513 0.020878512
0003a0 65 f7 25 3d 28 b5 04 3d 61 64 a4 3a 2b 2f 13 bd
       0.040519137 0.032399327 0.0012542122 -0.035933655
0003b0 a7 48 13 3c d4 bc 86 3d 5c 88 47 3d 00 7d bc 3c
       0.00898949 0.06578985 0.048714027 0.023008823
0003c0 2e 65 3a bd 37 92 3e 3b 32 45 4d 3d e5 09 0b 3d
       -0.04550665 0.002907885 0.050114818 0.033944983
0003d0 7e 84 83 3c fd db c7 bc f8 e6 12 3c d0 f0 0a 3d
       0.016054388 -0.02439689 0.0089662 0.033921063
0003e0 50 8c ac 3c 42 a2 95 3c 55 7d 33 b9 17 81 ce 38
       0.021063 0.018265847 -0.0001711746 9.84689e-05
0003f0 b0 8d ae 3a 19 d2 75 3a 81 a8 91 39 ec cb a5 b8
       0.0013317373 0.00093773153 0.000277821 -7.9057965e-05

conv2.bias f4 [20]
000000 c8 4b d9 3b ab 8f be bb 78 8d 68 ba 1a e7 55 b7
       0.0066313483 -0.0058154664 -0.0008871178 -1.2749597e-05
000010 87 96 e8 3c fc 62 ee 3c fe cd 1b 3d 37 17 a4 bb
       0.02839209 0.029099934 0.038038246 -0.0050076502
000020 30 05 34 b3 34 c0 7f bb 29 cb 0b 3c b7 dc 10 b7
       -4.1914234e-08 -0.0039024474 0.008532324 -8.634458e-06
000030 1d 1d d8 39 38 86 4a 3c 5a 58 8a 39 0b 2b 91 b9
       0.00041220422 0.012361102 0.00026387238 -0.00027688625
000040 0e 32 1a bc 70 29 a5 ba 5e b6 02 3c 38 69 89 b9
       -0.009411348 -0.001260085 0.00797805 -0.0002620907

fc.weight f4 [6, 320]
000000 ab 19 1e bc c2 ee 70 bc e4 32 df bc e1 07 43 3b
       -0.009649674 -0.014705362 -0.027245946 0.0029759335
000010 5f 68 8a bc 5e fd c2 bc c9 25 a7 bc bb 97 37 bc
       -0.016895471 -0.023802456 -0.02040376 -0.011205609
000020 d3 e5 4f bc 8d 23 ba bc 06 4b e7 bc 8e eb b5 bc
       -0.012689072 -0.02272203 -0.028234016 -0.022207048
000030 3b ed 7b b9 f3 76 9c bb 9a 56 ae bc d3 1d 12 3c
       -0.000240256 -0.004774922 -0.02128153 0.008918243
000040 20 5d 7d 3b c6 85 dd ba 0a 67 d9 ba 9f f6 c0 b9
       0.0038660243 -0.001690083 -0.0016586494 -0.0003680484
000050 2a 03 33 3b 37 7e b4 ba ae c2 87 ba fd e1 1e bb
       0.0027315118 -0.0013770525 -0.0010357702 -0.0024243586
000060 29 be 34 3b 1b 35 b7 3a 17 14 31 3c cb 7f 93 3a
       0.0027579165 0.0013977619 0.010808012 0.0011253295
000070 e3 90 5e 3b cd da 2d 3c 42 52 a1 3c da 71 e5 ae
       0.003396087 0.010611248 0.019692544 -1.04339384e-10
000080 b3 8c 59 3c d9 ee 66 3c fb 94 77 3c e3 65 83 3c
       0.013278174 0.014095032 0.015111203 0.016039794
000090 6e 71 2f 3c 4f 3e 48 3c 1a 0b 6a 3c 5a 38 81 3c
       0.010708196 0.012221887 0.014284873 0.01577394
0000a0 8e 04 13 3c 70 a3 30 3c 27 7c 60 3c 6d 0f 6e 3c
       0.008973254 0.010781154 0.013701475 0.014530045
0000b0 ad 53 15 3c 92 27 21 3c a2 f5 4a 3c 88 f9 4e 3c
       0.009114188 0.009836094 0.012387665 0.012632735
0000c0 2f ef 57 ab f0 aa 00 80 a8 12 6b ac bb 4e 1f b6
       -7.671528e-13 -6.1321e-41 -3.3405865e-12 -2.3738673e-06
0000d0 61 f7 3b af 3a 7a e4 ac 49 a8 cc a6 18 99 78 0d
       -1.7095438e-10 -6.4937196e-12 -1.4200957e-15 7.660518e-31
0000e0 4b 89 3a a4 70 65 bb b1 b2 c7 6a 15 1d 60 f2 04
       -4.0448612e-17 -5.4539484e-09 4.7413455e-26 5.6982193e-36
0000f0 7e 71 f0 b0 b5 39 8f b3 3f 79 ee 15 38 0f 70 16
       -1.7494555e-09 -6.669453e-08 9.631873e-26 1.9391848e-25
000100 bd 74 e5 bb 94 38 7f bd fe 3d 40 bd c7 7d 09 bd
       -0.0070024417 -0.062309816 -0.04693412 -0.033567216
000110 fb ea ea bb 56 b6 09 bd 7b 3a 30 bd 2c ad 86 bc
       -0.007169125 -0.033621155 -0.04302452 -0.016439997
000120 46 d5 4c bb 13 5a 6c bb 60 19 80 bc 48 cf f8 bb
       -0.003125505 -0.003606443 -0.0156371 -0.007593069
000130 0d b3 01 3d 31 39 41 3b 76 1d 8f 3b 1f 20 57 3c
       0.031664897 0.0029483552 0.0043675257 0.013130217
000140 e3 de a9 bc 52 aa 34 bd fe 34 49 bd e9 d0 8f bc
       -0.020736163 -0.044107743 -0.049122803 -0.01755567
000150 c2 20 3a bc 33 56 82 bc a5 78 e2 bc 3b 06 8f bc
       -0.011360349 -0.015910244 -0.027645418 -0.017459026
000160 01 a8 43 ba bf 66 3c 3b e0 cf b0 bb b2 1b f4 ba
       -0.0007463694 0.0028747765 -0.0053958744 -0.0018623977
000170 86 5b b6 3b f1 30 21 3c ca 7e c2 3b 6e cd df 3c
       0.0055651097 0.009838329 0.0059355246 0.027319636
000180 a1 fd 06 3d c1 89 b7 3d 77 db b3 3d 70 71 7f 3c
       0.032956723 0.08961821 0.08782094 0.01559101
000190 8e c0 7e 3d dc d0 f1 3d 64 65 c3 3d 46 2a 15 3d
       0.062195353 0.11807415 0.09540823 0.03641727
0001a0 d7 83 90 3d 27 9a fa 3d 88 dc de 3d 53 21 27 3d
       0.070563965 0.122364335 0.10881907 0.040803265
0001b0 0a 0b 29 3d 81 00 a8 3d e7 60 a0 3d 86 c2 c0 3c
       0.041270293 0.08203221 0.07830983 0.023530256
0001c0 2f 60 c8 3c f3 be 58 3b fa d3 2e bd 62 78 66 bc
       0.024459926 0.00330728 -0.042682625 -0.014066787
0001d0 9e 5d 32 bb 67 ee f8 bc 46 7a ba bd ef be 64 bd
       -0.0027216445 -0.030387117 -0.09105353 -0.05584615
0001e0 f0 3e c8 ba a9 c7 0e bd 26 fa a5 bd a6 93 54 bd
       -0.0015277546 -0.03485838 -0.08104353 -0.05189862
0001f0 3d df 1d bb 4b e9 a3 bc 65 b8 79 bd 36 fb 0b bd
       -0.002408936 -0.020008704 -0.060966868 -0.03417512
000200 f9 35 00 80 85 8e 00 80 f1 b9 00 80 f5 b9 00 00
       -1.9362e-41 -5.1126e-41 -6.6703e-41 6.6709e-41
000210 42 79 00 00 0c 3e 00 00 1f 99 00 00 28 8e 00 00
       4.3499e-41 2.2258e-41 5.493e-41 5.0996e-41
000220 20 13 00 00 c3 44 00 80 1a c3 00 80 d7 42 00 80
       6.861e-42 -2.4667e-41 -6.9989e-41 -2.3978e-41
000230 8e 9d 00 00 7b 79 00 80 76 27 00 80 9c 76 00 00
       5.652e-41 -4.3579e-41 -1.4156e-41 4.2549e-41
000240 93 96 79 bb f4 b7 ed ba c1 fe 5b b8 7d 4e 39 af
       -0.0038084134 -0.0018136487 -5.2450927e-05 -1.6853537e-10
000250 7e 40 0d bc c5 8e 39 b9 8e 0f f1 b9 d3 03 e8 b5
       -0.008621333 -0.0001769616 -0.0004597869 -1.728646e-06
000260 8b 7f 01 bc cd 43 cf ba f4 b0 57 b8 2d 31 7c b7
       -0.007903944 -0.0015813053 -5.1424795e-05 -1.503182e-05
000270 15 d2 3e b9 24 83 18 ba ed d5 e1 b5 95 81 9c 3b
       -0.00018198074 -0.00058178813 -1.6826067e-06 0.0047761896
000280 f3 4f fc 3c 28 5b 57 3c 71 c1 84 bc 6a d6 9a bc
       0.030799842 0.013144292 -0.016205521 -0.018901069
000290 0d da 9f 3c ab 74 f2 bc 1d 47 7d bd 08 bc 57 bd
       0.019513154 -0.029596647 -0.061835397 -0.052669555
0002a0 10 b0 94 bb be e4 aa bc 88 ef 49 bd 53 23 43 bd
       -0.00453759 -0.020861026 -0.0493007 -0.04764111
0002b0 6d bf ab bc 08 51 da bc ff f7 30 bd ed 42 23 bd
       -0.020965302 -0.026649967 -0.043205258 -0.039858747
0002c0 8a dd 13 ab 10 42 27 09 66 a0 00 00 72 14 00 80
       -5.253234e-13 2.0132956e-33 5.754e-41 -7.334e-42
0002d0 d2 08 27 b4 4d 13 b0 a4 88 59 af 81 0b aa 00 80
       -1.5556296e-07 -7.636053e-17 -6.441332e-38 -6.1e-41
0002e0 49 c9 57 b5 ff f8 4a af 7c c8 1d 81 29 76 00 80
       -8.038665e-07 -1.8460254e-10 -2.8980186e-38 -4.2388e-41
0002f0 7f 6c 55 b5 40 05 a0 af 44 35 00 80 c8 7b 00 80
       -7.9506566e-07 -2.910756e-10 -1.9108e-41 -4.4404e-41
000300 bf c3 3d 3c b7 0e a1 b9 80 bc 94 b9 15 ce ee 39
       0.011582314 -0.00030719276 -0.00028369203 0.0004554844
000310 e6 2d 1b 3c b4 5b 34 ba ac 1c 83 b8 9b 65 2e 3a
       0.009471392 -0.000688012 -6.251907e-05 0.00066527136
000320 e9 1f 89 3c 29 aa 21 ba b7 a4 25 ba cd d4 70 3a
       0.016738849 -0.00061670184 -0.0006318795 0.0009186983
000330 e3 8f 76 3c 73 59 48 3b 45 0f 09 ba 8e 9f 40 3b
       0.015048954 0.0030570894 -0.00052284106 0.0029391977
000340 31 c9 5e 3d da 8f b0 3c 57 1a 50 3c ce a5 d2 3c
       0.05439109 0.021552969 0.012701592 0.025713827
000350 f6 93 21 3d 09 52 df 3b f7 d2 51 bc 56 30 e3 bb
       0.039447747 0.0068151993 -0.012806646 -0.0069332523
000360 39 56 83 3c a3 42 2a bc 5a ac 90 bc 28 a1 10 bc
       0.016032325 -0.010391864 -0.017660309 -0.008827485
000370 e1 21 12 3c 8d 7f d5 bc 7d 92 ea bc 73 72 bd bc
       0.00891921 -0.026061798 -0.028634304 -0.023125863
000380 23 da 0d bb 88 27 25 ba c2 b0 9d 39 67 8d 23 ba
       -0.0021644912 -0.0006300141 0.00030077068 -0.0006239027
000390 4f a7 ee b9 74 81 59 b9 1b 67 83 b9 c2 a1 e3 b9
       -0.00045519552 -0.00020742958 -0.00025063087 -0.00043417333
0003a0 31 89 71 39 ad c4 3c 3a be 1e e7 b9 18 51 f2 b8
       0.00023034659 0.0007200938 -0.00044082658 -0.00011554564
0003b0 51 8e 6b 3b 85 d2 e6 3a 72 e3 20 b9 60 0a eb b8
       0.0035942981 0.0017610347 -0.00015343519 -0.00011207606
0003c0 77 e3 83 b8 83 7b 04 b9 96 c4 00 b9 1a 6d e1 b8
       -6.2889354e-05 -0.00012634513 -0.00012280265 -0.00010749158
0003d0 e6 95 55 b8 16 c9 07 b9 b3 c6 0e b9 62 dc c7 b8
       -5.092276e-05 -0.00012949514 -0.00013616197 -9.530109e-05
0003e0 60 64 e3 b7 eb 5c a4 b8 90 90 88 b8 d3 59 23 b7
       -2.710725e-05 -7.837437e-05 -6.511912e-05 -9.736471e-06
0003f0 d8 68 3a b6 13 2d 1d b7 32 63 ef b6 6a 6b 99 b4
       -2.7777187e-06 -9.368424e-06 -7.134303e-06 -2.8576625e-07

fc.bias f4 [6]
000000 47 2b 8d 3b 32 cc a6 3c 11 c2 2f bc 84 41 94 3c
       0.0043081376 0.02036104 -0.010727421 0.018097647
000010 9a 0c 94 bc 07 07 56 bb
       -0.018072415 -0.0032657997
