robot/robot_exp5/code/python_pc/model_param/model1_0.916666567325592.pkl (torch, 33586 bytes, 6 tensors)

conv1.weight f4 [10, 3, 5, 5]
000000 26 5a e9 ba 0e 21 62 bc d6 be 26 bd e9 8a 24 3d
       -0.0017803356 -0.013801826 -0.04070934 0.040171538
000010 1d 4b 1d 3d 87 8d 24 3d 91 67 3b bc 3f 3c b0 3c
       0.03840171 0.040174033 -0.011438266 0.021513103
000020 92 71 91 3d 1e 32 8e 3d 37 03 88 3c 2c 41 8f 3d
       0.0710174 0.06943153 0.016603095 0.069948524
000030 c0 ba 8c 3d 11 84 8e 3d 53 0d 93 3d ae e9 43 3d
       0.06871557 0.069587834 0.07180276 0.047830276
000040 2c 4d ff 3d 8b 1f c6 3d 70 d7 95 3d 95 ee b9 3d
       0.12465891 0.09673985 0.07316482 0.09078709
000050 a8 4e 49 bd bd dd 66 3d e2 ff 99 3d 77 f2 06 3e
       -0.049147278 0.05636381 0.07519509 0.1317843
000060 32 d3 32 bc 42 33 46 bd 76 a9 59 3c 81 1e 9c 3c
       -0.010914611 -0.048388727 0.013285032 0.019057514
000070 8e ec 3e bd 68 91 6e bd 6f db da bc 57 16 91 bd
       -0.046612315 -0.05824414 -0.026715962 -0.07084339
000080 6a b8 57 3d d1 c7 19 bd e8 f4 26 3d 0a 1b 95 3d
       0.052666105 -0.037544075 0.040760905 0.07280548
000090 a3 c2 ef 3c 7b fa 00 3e 4b 65 d5 bc 6a e6 27 bd
       0.029267615 0.1259555 -0.026049277 -0.040991224
0000a0 54 49 ef 3d 64 45 c3 3d 14 6d f4 3c 0e ae 0c 3d
       0.11683908 0.095347196 0.029837169 0.03434568
0000b0 eb cf 4e 3d 5e 83 d8 3c 1b b4 92 3d 36 37 38 3d
       0.050491255 0.026429828 0.07163259 0.04497453
0000c0 5e 43 0a 3e 04 3e 82 3d 50 8b 6f 3b 14 35 88 bd
       0.13502261 0.06359485 0.0036551543 -0.06650749
0000d0 bc 15 2c be 4a 84 a7 bd 73 f6 2c be 05 83 26 be
       -0.16805166 -0.08179529 -0.16890888 -0.16260917
0000e0 8f c0 32 be ff 2d 2a be 7f 73 b8 bd bf 13 dc bd
       -0.17456268 -0.16619109 -0.09006404 -0.10745954
0000f0 1e 5d d1 bd 66 24 08 be d4 27 59 bd df 75 08 be
       -0.10222839 -0.13295135 -0.0530165 -0.13326214
000100 87 db 23 be 36 f2 0c 3d a6 c8 88 bd 2a cb b8 bc
       -0.16001712 0.034410678 -0.06678896 -0.022557814
000110 ac ea 85 bd 16 34 35 bc 13 4e ea bd fe 18 96 3d
       -0.06538901 -0.011059782 -0.11440673 0.07328986
000120 b4 9d dc bd e7 86 4d bd 14 a1 2e bc 4d ec e1 3d
       -0.10772267 -0.05017748 -0.010658521 0.11031399
000130 44 f2 f4 3d 6e d9 fb bc 07 26 f1 3c e7 de 5f 3d
       0.11960271 -0.030743327 0.029437078 0.054655936
000140 71 85 9e 3d bc 34 e0 bc 8f 4e ce 3d cb 63 99 3c
       0.07740296 -0.027368896 0.100735776 0.018724343
000150 ee f1 60 3d 1c 9c 06 3e aa 5d 99 3c 83 9e 33 bc
       0.054918222 0.13145489 0.01872142 -0.010963085
000160 bc d5 ad bc 44 52 7f 3c 43 4d 75 3d c5 da f4 3d
       -0.02122008 0.0155835785 0.059888136 0.119557895
000170 6a 01 db 3c b2 15 06 bc 63 e3 71 bd 79 16 3a bd
       0.026734073 -0.0081838835 -0.059054743 -0.045431588
000180 f9 a5 16 3d 6c 20 37 bd 1e 31 51 bc 57 03 c0 bb
       0.036779378 -0.044708654 -0.012768058 -0.005859773
000190 3a 02 ec 3c 31 d0 61 3c fe 2a ab 3d 58 c9 b1 3d
       0.028809655 0.013782547 0.083578095 0.086809814
0001a0 2a 9b 6e bd ae aa 7a 3d 3b 43 b1 bc 40 5e 9a 3a
       -0.058253445 0.06119793 -0.021638503 0.0011777356
0001b0 5e 8c cf 3d 55 6f 61 3d 8b 36 99 3d b4 4a 46 3a
       0.10134195 0.055037815 0.07481106 0.0007564232
0001c0 7c 3a 3e bd 86 3c 8e 3c 98 e4 a6 3d 3b 31 09 3d
       -0.046442494 0.017362844 0.081490695 0.033494215
0001d0 14 b6 c2 3d d6 cf 49 bd 45 75 72 3d 3b cd 61 bc
       0.09507385 -0.049270473 0.05919387 -0.013781841
0001e0 e7 b0 bd 3d d4 fb 85 bc a0 f1 f6 3c c4 f1 6e 3d
       0.09262257 -0.016355433 0.030144513 0.058336034
0001f0 5d 60 d8 3d 18 c5 f9 3d bf 43 86 bb 8b 3d 90 3c
       0.10565255 0.12195796 -0.0040974314 0.017607471
000200 5f 4f 0c 3d 35 2d df 3d f1 f9 1e 3d fa b8 ce 3d
       0.03425538 0.108972944 0.03881258 0.10093875
000210 41 c5 03 3d f0 85 99 3c b2 a8 ad 3c 0d 64 0f 3d
       0.032170538 0.018740624 0.021198604 0.035007525
000220 39 59 b0 3c 5d 33 d5 b9 d2 ac c5 bc 98 d6 1a 3d
       0.02152692 -0.00040664795 -0.024130259 0.03780231
000230 78 16 59 3c 19 98 d7 3d 5b a6 e8 3d 73 bd df 3d
       0.013249986 0.10527057 0.11359855 0.109248064
000240 42 79 5c 3d ba 1b d8 3d 42 59 af 3d bc 29 d5 3d
       0.053826578 0.105521634 0.085619465 0.10408351
000250 b9 a7 c8 3d ce 1c ba 3d 5b d2 6d 3c cb 9c 74 bd
       0.097976156 0.09087525 0.014515485 -0.059719842
000260 9c 5d a6 bd 41 c8 9a 3b d7 46 c5 3d 9b 8a b6 3c
       -0.08123323 0.004723579 0.09632652 0.02228289
000270 db bb 1f 3d 0a ae 61 bb b1 79 b0 bc be 49 aa 3d
       0.038997512 -0.003443601 -0.021542402 0.083148465
000280 67 3c 0e bc 82 87 c6 3b d5 c2 b3 bd a8 31 2a bd
       -0.008681393 0.0060586343 -0.08777396 -0.041551262
000290 e1 4a 44 3d 4c 86 9b 3d eb d6 d2 3d d2 40 e5 3d
       0.047922973 0.075939745 0.102948986 0.11194004
0002a0 63 32 ce 3d 9c f7 be 3c 53 d1 9f bb d5 c7 a4 3d
       0.10068204 0.023311429 -0.0048772483 0.080459274
0002b0 54 c6 c3 3c 7f b8 be 3d 70 eb df 3d bf 49 f7 bc
       0.023898281 0.093125336 0.10933578 -0.030186532
0002c0 1e de 4f 3c f2 de 09 3d a1 d6 41 bd 43 2c 02 3d
       0.012687234 0.033659883 -0.047323827 0.031780493
0002d0 4b 14 86 3d 98 28 95 bd 49 d7 c7 bd dc d1 9c bd
       0.06546839 -0.07283133 -0.09757859 -0.07657215
0002e0 7e c9 73 3c b7 58 2d 3d 4b fe 67 bd ce 51 af bd
       0.014879582 0.042320933 -0.056638997 -0.08560525
0002f0 6d c1 92 3d 82 06 af 3d 59 bf 6a 3d c4 23 13 3d
       0.07165799 0.08546163 0.05731139 0.03592278
000300 85 c6 db 3d 86 a4 5e bc de 8a 30 bd 47 30 1f bc
       0.10731224 -0.01358903 -0.043101184 -0.0097161
000310 ad 70 a1 3d c7 8d 04 3e b6 10 bb bc 1e 6a e3 bc
       0.07882819 0.12944709 -0.022835117 -0.027760562
000320 b3 be 8c bd 5e 6c 0b be da 4b 59 bc f6 15 e2 bc
       -0.068723105 -0.13615558 -0.013262713 -0.027598362
000330 83 7a d9 3d ef 21 6b bd d6 e1 2e be 03 2c 2c be
       0.106190704 -0.05740541 -0.17078337 -0.16813664
000340 b6 ae c1 bd 33 a2 a6 3d ce e7 18 be 26 86 a4 bd
       -0.094571516 0.08136406 -0.14932176 -0.08033399
000350 34 17 04 be 45 7d da bd 24 14 c8 3c 5e 22 cb bd
       -0.12899476 -0.106684245 0.024423666 -0.099186644
000360 9c 0f 1e bd 89 a3 8c 3d 20 eb 21 bd 73 e8 de 3d
       -0.038589105 0.06867129 -0.039530873 0.1088418
000370 78 9d 97 bd 68 87 92 bd d0 e3 bb 3d 62 0c f2 39
       -0.07403082 -0.07154733 0.09174311 0.00046167063
000380 28 64 a8 3d 05 ef 35 bd 7b 2c a2 bd f0 32 e3 bd
       0.08222228 -0.0444174 -0.0791864 -0.110937
000390 0b 38 90 bc e0 dc be bd 7b d8 08 be be 7a d3 bd
       -0.017604848 -0.09319472 -0.13363831 -0.103261456
0003a0 31 3d 5d 3c da d9 c8 3c 9a b8 72 bd dc c6 41 bd
       0.013503359 0.024517942 -0.05925808 -0.047308788
0003b0 ed bb 55 3d f1 1a 84 bd 75 a7 0b 3d 29 38 88 3d
       0.052181173 -0.06450451 0.034095246 0.06651337
0003c0 19 09 02 bc 24 1f d5 bc 68 a8 3b bd d6 eb 11 3d
       -0.007936739 -0.026015826 -0.0458149 0.0356253
0003d0 e7 db 86 3d 60 e2 d2 3d f4 8d 98 3d b6 5d 52 bc
       0.06584912 0.10297084 0.074489504 -0.012839725
0003e0 ba 75 fc 3c b8 3e c3 3d 04 33 06 3d ad ee 31 3d
       0.030817855 0.09533447 0.032763496 0.04344051
0003f0 a0 28 c2 3b d0 b6 0c be a8 a6 fd bd 40 61 ee 3a
       0.005925253 -0.13741612 -0.12385303 0.0018186942

conv1.bias f4 [10]
000000 bc a6 92 3d 12 c3 a8 bd 7a 1c 0f 3d dc 2c d8 3d
       0.07160708 -0.08240332 0.034939267 0.10555431
000010 ab ac 00 3e 24 9a 0b 3e c1 1b 10 bc db 11 a8 bc
       0.12565868 0.13633019 -0.00879568 -0.020516327
000020 6d 6b 15 3d 0e e4 75 3d
       0.036479402 0.060031943

conv2.weight f4 [20, 10, 5, 5]
000000 7c c9 d0 bb 24 f9 f9 3b f5 4f e5 bc af d1 3f bd
       -0.006371675 0.007628577 -0.027992228 -0.04683083
000010 b0 bf 6e bd 98 73 50 3c 6d ec 29 3d 29 df 6d bc
       -0.058288276 0.012722872 0.04148524 -0.014518538
000020 8e d2 ea bc 57 11 6b bd f1 13 2f 3d 54 1e 22 bc
       -0.028664853 -0.057389583 0.042743627 -0.009894926
000030 dd c8 fd bc ce c0 88 bc fc ff 58 bb c0 6f 32 3d
       -0.030979568 -0.016693499 -0.0033111563 0.043563604
000040 bd cd 59 3c 71 34 84 bd 69 ba 4e bd a1 ed 6e bd
       0.013293681 -0.06455315 -0.050470743 -0.05833209
000050 fd 87 c7 3b 3b fd 50 bd 4d 34 30 bd 83 68 dc bc
       0.006089209 -0.05102275 -0.043018628 -0.026905304
000060 2b 3f 40 bd 52 f5 98 3d 71 13 07 3d 3f 71 01 3d
       -0.04693524 0.07468666 0.032977525 0.03160214
000070 b1 eb 57 3c fd e1 0d ba de 2a 6d 3d 8b b2 09 3d
       0.013178752 -0.0005412398 0.05790221 0.033617537
000080 09 38 62 3d 9a bf 16 bc d2 8a d4 3b 9d 1f 3e bd
       0.05522922 -0.009200955 0.0064862752 -0.046416868
000090 22 79 07 bd ed 30 1c 3c 29 bc 0c bd 25 0d cf 3b
       -0.033074506 0.009533149 -0.03435913 0.0063187056
0000a0 c0 8e a8 bc 22 91 18 3d ee d2 3f 3d a6 0e ac 3c
       -0.020575881 0.037247784 0.046832018 0.021003079
0000b0 4b 9f 41 bb 6c 25 8d 3c 9b ad bc bc 8d a7 db bc
       -0.002954441 0.017229758 -0.023032 -0.026813293
0000c0 54 97 ac bc 83 9e bf 3b 90 4f 2d 3d 72 05 23 bc
       -0.021068253 0.0058477535 0.042312205 -0.009950029
0000d0 30 23 ab bb 28 78 08 bd 55 28 7d bd 93 cb e9 3c
       -0.0052227005 -0.033317715 -0.06180604 0.028539455
0000e0 f7 48 38 3d 5b 01 15 bc c4 b8 79 bb cc 0c 4e bc
       0.04499146 -0.009094561 -0.0038104514 -0.012576293
0000f0 1a 46 e1 3c 1e 96 a8 3d f9 b0 69 bc 94 d0 08 3c
       0.027499247 0.082317576 -0.014263385 0.00835051
000100 b1 89 80 bd be 53 64 3d 3c af 85 3d 7d 72 ae bc
       -0.062762626 0.055743925 0.06527564 -0.021294827
000110 9f ca c3 bc a8 40 fb bc 01 be b4 3d 10 c0 f2 3c
       -0.023900328 -0.030670479 0.08825303 0.029632598
000120 d7 a7 bd bc 39 ae 29 3b 4b a5 38 3b 08 eb 9c 3c
       -0.023151321 0.0025891198 0.0028174694 0.01915504
000130 5f b5 26 3d 81 ae 28 bd 7a 70 3e bd 1a b5 2e bd
       0.040700313 -0.041182045 -0.046493985 -0.04265318
000140 de 8f fb bc bd 06 9e bc eb f7 ac bc d9 9c ab bb
       -0.03070825 -0.019290322 -0.02111431 -0.0052372036
000150 33 02 18 3c e3 92 e5 bc c3 0e 1c 3c dc ca 8a 3d
       0.009277868 -0.028024143 0.009525004 0.067769736
000160 1c 1c 67 3d 7c 6b 72 3c e3 54 10 bc 02 86 7a 3c
       0.05642329 0.014796134 -0.008809301 0.015290739
000170 5d 5e c4 3c d2 66 7a 3c 07 00 c1 bb 03 8b 83 3c
       0.023970777 0.015283303 -0.005889896 0.016057497
000180 a4 26 47 3b 57 cf cb bb 63 b4 8a 3d 96 44 27 3d
       0.0030388022 -0.006219785 0.06772687 0.040836893
000190 b3 26 bb bc c3 55 19 3d e4 0f 18 3c 06 0f f7 3c
       -0.022845602 0.037435304 0.009281132 0.03015853
0001a0 bb 44 a9 3d 4f 02 22 bd 35 16 3e 3c b4 66 89 bb
       0.082650624 -0.039552983 0.011601974 -0.0041931514
0001b0 49 18 66 3d 53 3d d1 3d 9b 51 7a bd c9 08 d3 3b
       0.056175504 0.10216775 -0.06111298 0.0064402563
0001c0 fb 98 1e 3d 3a b1 89 3d 26 74 ab 3d d7 1e b5 bc
       0.038720112 0.067232564 0.08371763 -0.022109432
0001d0 18 f0 68 3c 5d 00 5d 3d f5 d9 35 3d 5f f8 a8 3d
       0.014217399 0.053955425 0.044397313 0.08250498
0001e0 94 90 36 bd e3 e8 d0 3c 14 1c 05 3c 23 24 bb 3d
       -0.044571474 0.025501674 0.00812437 0.09137752
0001f0 f7 08 ba 3d 37 f2 0b 3d 1a d7 7c bc 8e 7e a1 3c
       0.09083741 0.03416654 -0.015432144 0.019713666
000200 95 77 a9 bb 46 53 05 bd ea 68 ad 3c 9a 9b bc ba
       -0.005171726 -0.03255012 0.021168191 -0.0014389635
000210 a5 13 b2 3c 03 6f 70 3d 3d fe 08 3c 1f 7e e8 bc
       0.021737883 0.05869962 0.008361396 -0.028380452
000220 7a b8 5f bd 27 b9 04 bd c7 5f f9 3c 7e ac c6 bc
       -0.05461929 -0.032403138 0.030441178 -0.024252173
000230 e8 62 42 bc 1f 98 2a bc d2 bc bc bc 2e ce 0a 3c
       -0.011864401 -0.010412245 -0.023039255 0.008472009
000240 f9 c5 28 3c 95 eb 35 3c fe 7e c7 bc e5 29 c7 3c
       0.010301107 0.01110353 -0.024352547 0.024311969
000250 5b 56 d7 3b 32 5f 2e 3d c0 a3 98 bc 0e a4 46 3d
       0.0065715737 0.042571254 -0.01863277 0.0484963
000260 0d a3 7b bc 23 49 ba bc 5a dc 6a 3a da ac fd bc
       -0.015358699 -0.022739952 0.00089592265 -0.030966211
000270 4f 6d 9e bb dc 1f 9c 3c 45 d8 16 bd 10 2c 97 bc
       -0.004834808 0.01905816 -0.036827344 -0.018453628
000280 ed 57 11 bd 1b 94 a5 bc 26 d5 a9 3d b0 18 9c 3d
       -0.035484243 -0.020212224 0.08292608 0.07621896
000290 ba a9 1b bc 5a bb a5 bb 62 fb 0e 3d 9c a3 c7 bb
       -0.009500915 -0.0050577344 0.034907706 -0.006092502
0002a0 84 40 d0 bb 57 2b b7 bb 0c 4b 90 3c a6 64 c9 3a
       -0.006355347 -0.0055898833 0.01761391 0.0015365079
0002b0 34 26 0d bc b5 e0 11 3d f9 59 01 3d 3c a4 80 bc
       -0.008615065 0.035614688 0.031579945 -0.015703313
0002c0 1b 49 48 3d 25 44 ff ba bb 65 99 3c 8e 10 6c bd
       0.048897844 -0.0019475265 0.018725267 -0.057632975
0002d0 15 c5 9b bc fd 93 04 3d 81 dc 24 bd 51 fc 05 bd
       -0.019014874 0.032367695 -0.04024935 -0.03271133
0002e0 7b b5 26 bd e6 7b 06 bd a4 bf 20 3d f2 56 13 3d
       -0.040700417 -0.032833003 0.039245263 0.03597159
0002f0 77 20 8d bd 63 67 83 bd 29 51 8d bd 5f b2 01 3d
       -0.06890958 -0.06416204 -0.06900246 0.03166425
000300 b4 95 2f 3d 0a 71 2c bb 3e 51 ac bc 68 69 dd bc
       0.042867377 -0.0026312494 -0.021034833 -0.0270278
000310 27 14 3a 3d 30 78 19 3d 6f c6 34 bd 2f 6a 0f bd
       0.045429375 0.037468135 -0.044134554 -0.035013374
000320 08 eb 6b 3d 94 c9 7a 3d 70 4d 03 3d 6a 07 a1 bd
       0.05759719 0.061227396 0.032056272 -0.07862742
000330 2c 01 89 bd 3e 5c 04 bc 7f 9a bd bc fb 3d 5e bb
       -0.06689677 -0.008078633 -0.023144959 -0.0033911455
000340 78 5a 1e bd 62 b2 80 bd 71 44 01 3d 4e ff 6e 3a
       -0.038660496 -0.06284024 0.03155941 0.0009117023
000350 bc 6a 2f bd 02 54 a7 bc 14 b1 cb 38 e6 b7 ce 3c
       -0.0428264 -0.0204258 9.712778e-05 0.025234174
000360 e7 f1 f6 bb 79 56 d0 3b b2 70 92 bc 85 06 ca ba
       -0.007536161 0.0063579646 -0.017876003 -0.001541332
000370 33 50 0d 3c c8 8d 42 bd 1f 3a a9 bc 1b 89 3c bc
       0.008625078 -0.047498494 -0.020657597 -0.011507298
000380 90 0d 2f 3d 62 46 42 3b 17 c2 13 3d 26 c3 fe 3b
       0.042737544 0.0029644002 0.03607377 0.0077747284
000390 20 34 7f bc 3a 74 63 bd 02 bd 10 bc 29 81 fa 3c
       -0.015576392 -0.055530764 -0.0088341255 0.030579166
0003a0 15 88 a5 3c 52 ba 4f 3d ff 1d 50 bc 0f cd 2a bd
       0.02020649 0.0507148 -0.012702464 -0.041699465
0003b0 1b 65 04 bd a8 cd 8c 3d 08 80 45 3d 03 dd 2b 3d
       -0.032322984 0.06875163 0.048217803 0.04195882
0003c0 cb 2e 75 bd 47 4c fa 3c f7 b0 57 3d ed 14 5d 3d
       -0.05985908 0.03055395 0.052659 0.053975035
0003d0 a3 1e 34 3c 6e ae 6b bd 1a f9 2d 3d 57 4b 1b 3d
       0.0109936325 -0.057539396 0.04247389 0.037913647
0003e0 c1 ca 79 3c 2f b8 90 3d 4d c5 e7 3b d1 f6 89 3d
       0.015246094 0.0706638 0.0070730806 0.067365296
0003f0 cd ac a3 3d fe 9e a6 3c 5f ca 11 3d 99 ca fa 3c
       0.079919435 0.020339485 0.035593387 0.030614184

conv2.bias f4 [20]
000000 57 b2 c1 3c 88 ab 84 bc f4 06 9e 37 b9 96 2b 3b
       0.02364461 -0.016195074 1.8838306e-05 0.0026182367
000010 1f 8c a3 3c 3f b2 02 3d 16 9a 17 3d 96 59 c4 3c
       0.019964276 0.03190827 0.037012182 0.0239685
000020 50 39 b0 b9 4c 07 7f bb 3b b7 8e bc 0c 09 5c ba
       -0.00033612037 -0.0038914261 -0.017421355 -0.0008393682
000030 d5 d6 a9 ba b7 45 85 bc 13 95 19 3c fa 63 04 bb
       -0.0012957702 -0.016268594 0.009373921 -0.0020201192
000040 11 b7 3c bd 11 1a cd 3a da cd f0 bc 48 ef 5b 3c
       -0.046073023 0.0015648027 -0.029395033 0.013423748

fc.weight f4 [6, 320]
000000 26 7f 1e bd 24 76 31 bd 15 42 c7 bb fc aa bc 39
       -0.038695477 -0.04332556 -0.0060808756 0.00035985548
000010 14 69 1f bd 95 fa 1c bd 68 6a 74 bc 34 7d 69 bb
       -0.03891857 -0.03832491 -0.014917947 -0.0035627605
000020 07 da be bc a4 22 de bc 56 2a e0 bc d8 b2 52 bc
       -0.023297323 -0.027116127 -0.027363937 -0.0128600225
000030 50 8f 26 bd da 77 c7 bc 40 cb 72 bc 78 2b ae 3c
       -0.040664017 -0.024349142 -0.014818966 0.021260962
000040 85 27 f6 3b 32 bc 04 bc 89 8d 41 bd 37 d7 2f bd
       0.0075120353 -0.00810151 -0.04725412 -0.042929854
000050 9e 0b 85 39 e1 2e 76 3c 8f 25 04 bd 3d 88 b6 bc
       0.00025376392 0.015025825 -0.03226238 -0.02228176
000060 88 00 af bc 38 0c e4 bc 95 ac 81 3c da 16 b0 3c
       -0.021362558 -0.027837858 0.015829364 0.021495271
000070 71 a2 54 3c fc ec 72 3c 6e 07 f5 3c 11 4b b1 3c
       0.012978182 0.014827009 0.02991077 0.02164224
000080 7e 59 1a b8 9e ca e9 b9 e2 c2 e3 b9 e3 26 f3 b9
       -3.6799807e-05 -0.00044592185 -0.00043442013 -0.00046377545
000090 0c 41 94 38 fc 67 d4 b9 60 96 8a b6 b3 50 fd 39
       7.069306e-05 -0.00040513265 -4.1302264e-06 0.00048316046
0000a0 f9 af 78 b9 60 10 ed b7 9d 48 20 3a e4 4b d6 38
       -0.00023716678 -2.8260227e-05 0.0006114336 0.00010218451
0000b0 f9 3b 44 b9 c5 12 e2 38 b0 fc e2 39 18 26 28 b9
       -0.00018714358 0.00010780016 0.00043294346 -0.0001603592
0000c0 07 0f ad bb 55 20 50 bb 5a e7 86 bb 96 03 43 bc
       -0.0052813324 -0.0031757553 -0.0041169347 -0.01190271
0000d0 bb d9 75 bb 0c c0 81 ba d7 28 d4 ba 94 e2 c9 bb
       -0.003751381 -0.0009899153 -0.0016186488 -0.0061610434
0000e0 39 e4 0f bb 04 34 89 bb 4e f6 63 bb 41 ee cc bb
       -0.00219561 -0.004187109 -0.003478426 -0.006253988
0000f0 4a 00 09 bc c6 0d 3a ba e3 f2 14 bb ee fc e3 bb
       -0.008361885 -0.00070973893 -0.002272778 -0.006957642
000100 a6 df 49 3b 0d c4 c5 bc 86 3f 7b bd bf 1f 1e bd
       0.003080347 -0.024141336 -0.061339878 -0.038604494
000110 b4 73 07 bc 4d 44 dc bb 07 22 60 bc f0 e0 0f bb
       -0.008267332 -0.0067220093 -0.013679988 -0.0021954142
000120 8f ee f4 bc ce e5 0d 3c f8 60 cb bc a8 f5 bb bc
       -0.02989891 0.008660747 -0.024826512 -0.022944286
000130 ee 59 31 3d 84 c7 0b 3c 7d 3d 8a 3c 05 4e e9 3c
       0.043298654 0.008531455 0.016875023 0.028479585
000140 4c 8a 12 bc b7 b8 03 bd d7 95 7a bd a3 90 c3 3c
       -0.008944105 -0.03215858 -0.061178055 0.02387268
000150 c3 13 28 3c f0 0b 9a 3c 55 d6 4a 3a 4c 0e 8d bc
       0.010258618 0.01880452 0.00077376264 -0.017218731
000160 f2 10 3f bc ff 16 fa 3c 00 13 6b 39 d9 7a a2 3a
       -0.011661755 0.030528544 0.00022418424 0.0012396231
000170 f1 db a2 bc 8e 6f 98 3c 50 c0 9e bc 70 38 1c 3c
       -0.019880267 0.01860788 -0.019378811 0.00953494
000180 a6 a9 6f 3c b7 b8 88 3d 03 aa 6e 3d cd 43 87 bc
       0.01462785 0.066758566 0.058267605 -0.016511822
000190 18 3b 10 3d 4f c4 cc 3d a6 76 0b 3d c2 06 68 3c
       0.035212606 0.099983804 0.0340487 0.014161767
0001a0 25 3a 82 3d bb 34 e4 3d 0d 13 95 3d 44 43 14 3c
       0.063587464 0.1114287 0.07279024 0.0090492405
0001b0 a3 eb 89 3c 35 d5 93 3d 2a ec 11 3d 8e b7 ae 3b
       0.016835993 0.072184004 0.035625614 0.00533194
0001c0 ba 88 e1 3c ff 36 df bc 31 8a 58 bd c8 92 49 bc
       0.027531017 -0.027247904 -0.052866165 -0.012303062
0001d0 47 84 8a bc f0 95 48 3c e9 89 b2 bd 22 dd 02 bd
       -0.016908778 0.012242779 -0.087177105 -0.03194917
0001e0 23 b8 bd bc e1 6e 33 bd de 93 48 bd 51 5f 54 bd
       -0.023159092 -0.043806914 -0.048969142 -0.051848713
0001f0 f8 11 08 bd fe 05 b5 bc 0d 22 3b bd b4 eb 10 bd
       -0.03322026 -0.022097584 -0.04568677 -0.035381034
000200 de 9b 4c bb 01 9e c3 bb ee 53 40 bb c4 87 43 bb
       -0.0031220834 -0.0059697633 -0.00293469 -0.0029835561
000210 f5 85 08 bc 47 a8 35 bc 55 54 df bb 48 e6 e7 bb
       -0.008332719 -0.011087484 -0.006815473 -0.007077012
000220 bb a8 38 bc d8 bf 81 bc 9f 23 7f bc 7d de 41 bc
       -0.011270697 -0.015838549 -0.015572458 -0.0118328305
000230 99 2f 50 bc d8 33 9c bc 5f 48 8a bc c3 f8 59 bc
       -0.012706661 -0.01906769 -0.016880212 -0.013303938
000240 9a 73 80 bd 73 5b 5c bd c1 17 7b bd 3c c9 64 bd
       -0.06272049 -0.05379815 -0.06130195 -0.055855975
000250 7c 0c 8e bd b3 4f 2e bd 2f 67 a1 bd f2 e1 2b bd
       -0.06935975 -0.042556476 -0.07881009 -0.041963525
000260 1c 3a 3a bd ac 81 4c bd 64 da 9d bd 9e 52 81 bd
       -0.045465574 -0.049928352 -0.0770767 -0.06314586
000270 42 82 9c bb 05 72 07 bc 18 a9 ea 3b d1 94 a0 bc
       -0.00477627 -0.0082669305 0.007161271 -0.019602211
000280 53 75 9a ba c5 41 57 3c 4a 84 51 bd 94 66 a0 bd
       -0.0011784233 0.013138239 -0.05115155 -0.07832065
000290 fb ae a7 3c d1 fb 25 bd 39 b4 b5 bd 69 7e c9 bd
       0.02046918 -0.040523354 -0.08872265 -0.09838564
0002a0 bc 3c 95 bb 25 f7 28 3c e7 11 30 bd 81 46 3c bd
       -0.0045543592 0.01031283 -0.042985823 -0.045965675
0002b0 aa ca 27 bd 36 ce 84 bc 92 96 3e bd f0 72 71 bd
       -0.04096476 -0.01621161 -0.046530314 -0.058947504
0002c0 d7 8e c9 bb b9 e6 26 bc b8 2b 7a bc 42 13 10 bc
       -0.006151061 -0.0101868445 -0.015269212 -0.008793654
0002d0 10 a9 5d bc 99 21 aa bc 23 d0 cb bc ae 0a 94 bc
       -0.013529077 -0.020767974 -0.02487952 -0.018071499
0002e0 61 a5 87 bc 59 ec c9 bc 2b 67 f4 bc f7 06 bf bc
       -0.016558351 -0.024648832 -0.02983435 -0.02331875
0002f0 ca ff 83 bc f5 b6 bb bc ee 1c da bc b1 64 ac bc
       -0.01611318 -0.02291439 -0.026625123 -0.021044107
000300 9e 61 a9 bb e9 30 91 bc fb d5 3d 3c 2b 4f a3 3c
       -0.0051691076 -0.017723517 0.011586661 0.019935211
000310 72 7b 8a 3c fb 7a 48 bc 98 6d b1 bc df 6a cd 3a
       0.016904566 -0.012236352 -0.021658704 0.0015672109
000320 42 9d ba 3c 90 95 c0 bc e5 6e e3 bb a8 8f b5 3b
       0.022780064 -0.023508817 -0.00694071 0.005540807
000330 9e 79 5f bc a4 db 64 3c af 54 31 bc d7 67 96 3c
       -0.013639836 0.013968382 -0.010823413 0.018360062
000340 f1 f3 29 3d 71 74 b3 bb 1b 3c d3 bb 2b 66 59 bc
       0.041492406 -0.0054765274 -0.006446374 -0.013268988
000350 35 78 23 3d 40 3b 7d bc be 01 2f bc 69 8e 30 bd
       0.03990956 -0.015456021 -0.010681568 -0.043104563
000360 c5 15 7a 3c 31 e3 91 3c 12 ee 36 3c 5b fb a2 bc
       0.015263979 0.017808529 0.011165159 -0.019895246
000370 f8 9b 3a 3c 45 ba c1 bc ed 14 b4 bb 72 2c b4 bc
       0.011389725 -0.02364839 -0.0054956586 -0.02199385
000380 e5 17 87 bc e8 b9 ab bc 39 fa 33 bc 5d 60 40 bc
       -0.016490886 -0.02096267 -0.010984951 -0.011741725
000390 29 6f 4e bc 6b b0 aa bb aa ff 03 ba fc 16 3e ba
       -0.012599745 -0.005209019 -0.00050353503 -0.000725135
0003a0 69 d6 c0 bb de c0 30 bb ff 5b b7 3a 05 26 44 ba
       -0.0058849347 -0.0026970427 0.0013989209 -0.0007482472
0003b0 72 c4 5f 3a 21 5f 1f 3a ea 66 dd 3b 6f 5b 95 3b
       0.00085360475 0.0006079544 0.006756653 0.004558019
0003c0 3b 58 5c b8 0b 0f a3 39 33 ae e1 39 a9 67 00 3a
       -5.253426e-05 0.0003110099 0.00043045133 0.0004898259
0003d0 40 42 87 39 62 e2 1c 3a c9 64 12 3a 26 4d 00 3a
       0.00025798567 0.00059846614 0.0005584476 0.00048943085
0003e0 27 86 e3 39 e2 20 21 3a e4 1e 04 3a 89 aa c9 39
       0.00043396765 0.00061465625 0.00050400035 0.00038464766
0003f0 7a b9 fb 39 18 9c 15 3a c0 b2 e5 39 bd f1 cd 39
       0.00048012641 0.00057071587 0.00043811463 0.00039280756

fc.bias f4 [6]
000000 03 68 36 bc 6d d2 10 3d 4e f5 d4 bc c7 71 88 bb
       -0.011133197 0.035356928 -0.025995877 -0.004163954
000010 a4 73 b6 bc f5 c7 0d 3d
       -0.022271939 0.034614522
