robot/robot_exp5/code/python_pc/model_param/model10_0.916666567325592.pkl (torch, 32791 bytes, 6 tensors)

conv1.weight f4 [10, 3, 5, 5]
00000000: 1ee9 e7ba ae7f 97bc d61d 4dbd e67c 433d
00000010: d000 443d ef1e 263d 7f7c 5fbc ebac 993c
00000020: 5c1b ab3d c410 af3d 4825 e33b 271b a83d
00000030: b080 763d 41e4 8e3d 117b 923d 84c9 f23c
00000040: 4e23 003e ecf2 ba3d b8ff 833d 10cb ad3d
00000050: b797 98bd ed54 293d 97bd 833d 490d 033e
00000060: 45f1 fabc 29f4 7cbd d718 563c 2255 be3c
00000070: 625a 76bd cc68 8bbd 29b7 24bd b5de acbd
00000080: 7b77 7e3d e580 59bd a9be 673d 26fc 9e3d
00000090: d9b6 193d c895 0d3e be46 3dbd 7648 8abd
000000a0: 4a03 e53d d376 b83d e535 4b3c 5669 9e3c
000000b0: cda1 133d edb3 903c 19cb 703d 0f46 f63c
000000c0: c7a2 073e efbe 803d 6628 123d a593 39bd
000000d0: 0205 2ebe 113d 87bd e7c7 2dbe 076b 2ebe
000000e0: 7068 2ebe 4c6f 2dbe cd73 89bd e1d3 c9bd
000000f0: c7e8 cabd c8b4 f9bd 4cb3 1fbd 5aab 05be
00000100: d8d7 2fbe b725 3f3d 616c 90bd c8f6 3abc
00000110: 090f 7abd 2ec2 1cbc 3a04 04be 19fe b13d
00000120: ba8c f6bd 2efc 65bd 4e76 f2bb dab1 f13d
00000130: ffb4 0d3e 347d 59bd dbc8 be3c 7d1f 9d3d
00000140: 2384 983d b6f9 84bd bfd8 ed3d 7a5d 753b
00000150: f974 6c3d 9d95 0b3e 1182 523b 38b6 0bbd
00000160: a2dd 48bd 3581 273c e32a 563d 156c fc3d
00000170: 783d 703c d754 b9bc d99d ebbd e1de 8bbd
00000180: e47a f03c 33b0 93bd b06e 04bd ba53 e1bc
00000190: 503b 893c b435 bd3b 5661 dc3d 67b6 e53d
000001a0: 9d44 c3bd ec08 573d ab19 85bd 3d76 55bc
000001b0: b7b7 e63d 4248 673d 3723 863d 8213 b1bc
000001c0: 9e9e aebd 794f 083c a020 c93d 2914 8e3c
000001d0: b074 c33d f194 a3bd 7836 8a3d ddaf 31bd
000001e0: 3ed3 d83d 8761 12bd adb6 c43c 12fe 7c3d
000001f0: 5e51 e53d 7e5a 093e c2f1 cbbc 7521 b23b
00000200: 4dfa ca3c 5a65 013e 243e c13c 1536 d53d
00000210: 03e3 a93c 78d9 59bb 22b1 0b3c d39c 4c3c
00000220: 8577 54ba 4a72 f1bc 93d4 7dbd 02eb 0a3d
00000230: c88b 43bc 052b d83d f00f f23d 414b f63d
00000240: e3ac 323d 0ba1 ec3d d912 b53d dbb6 d73d
00000250: c83b d63d 189e ba3d b6a3 883c 02fb 6fbd
00000260: efbd b9bd 510a 973c dd3d f63d 4573 bb3c
00000270: 0897 a73d b4ce a63c cde2 ccbc 80dc bd3d
00000280: 1068 41bc 57bd 623c 76d4 e8bd a171 80bd
00000290: c433 403d 950c b83d d1d2 f33d cd03 ec3d
000002a0: e30e f33d 936e 0c3c 29ed 01bd 2fbe a73d
000002b0: 4a6e f43b 2395 d23d e941 f73d e00b 58bd
000002c0: 096d 2b3d 5dd3 903d 064b 56bd 5636 d73c
000002d0: 2484 af3d 6ae3 a4bd 190d e3bd d103 cbbd
000002e0: ae9c 30bc ec02 a63d d3be 9abd 39b1 e4bd
000002f0: 4254 d43d 64e7 bc3d 7dbc 833d b202 053d
00000300: 4e80 e33d e8e0 e7bc d5ba aabd 52d8 2abd
00000310: 9c92 a43d ee81 0e3e 78f4 15bd 71ac 48bd
00000320: e46b 61bd 668f 00be 3765 003d 2104 9cbb
00000330: 667d 0b3e e7b0 16bd fd59 23be a72f 26be
00000340: 1929 c5bd f97a c73d 1ace 23be 231c 6abd
00000350: 4852 01be 676d fcbd 0166 a73c d6bc e0bd
00000360: b1d8 06bd c396 aa3d ea83 44bd 929c 033e
00000370: 8da4 afbd 5064 afbd 7f16 d63d 3445 71ba
00000380: ee3b b83d b3ba 2ebd 9741 a6bd 1e49 dabd
00000390: b473 3e3c be3c a5bd c54d 0ebe b6c7 dabd
000003a0: f0e6 f53c d37e 163d b0a5 80bd 38da 4ebd
000003b0: 0794 8b3d b26d afbd ec69 353d c852 a33d
000003c0: f0af 35bc 27bd 32bd fe76 8fbd 1961 153d
000003d0: e6d0 863d 9127 ee3d cdeb 9c3d e0d7 f7bc
000003e0: a33e 0d3d 5493 d33d 34ec 7d3d 9f01 a43d
000003f0: f33a 463d 5a11 11be 62ae 00be 51b6 323d
-0.0017693376 -0.0184935 -0.050077282 0.047726534 0.047852337 0.040556844 -0.013640522 0.018759212
0.08354828 0.0854812 0.0069319345 0.08208304 0.06018132 0.0697713 0.07152379 0.029637106
0.12513468 0.09128365 0.06445259 0.08485997 -0.07450812 0.041340757 0.06432646 0.12798037
-0.030632624 -0.061756287 0.013067446 0.023233954 -0.06014479 -0.06807098 -0.040213738 -0.084409155
0.062125664 -0.05310144 0.056578312 0.07762937 0.037527893 0.13826668 -0.046210043 -0.06752102
0.11182268 0.09007039 0.012402986 0.019337337 0.036042977 0.01766392 0.05878744 0.030062703
0.13245688 0.06286418 0.03568306 -0.04530682 -0.16994098 -0.06603444 -0.16970788 -0.17033015
-0.17032027 -0.16936988 -0.0671154 -0.09854866 -0.0990768 -0.121926844 -0.03898935 -0.13053647
-0.17172182 0.046666827 -0.07051922 -0.011411376 -0.061049495 -0.00956778 -0.12892237 0.086910434
-0.1203856 -0.0561487 -0.007399357 0.118015006 0.13838576 -0.05309792 0.023289135 0.076720215
0.07447078 -0.06492941 0.11613607 0.003743975 0.05772874 0.13631292 0.0032120983 -0.034109324
-0.04903949 0.010223676 0.052286994 0.123253025 0.014663093 -0.022623463 -0.115047164 -0.0682962
0.029355474 -0.07211342 -0.032332122 -0.027505744 0.016751915 0.005774224 0.10760753 0.11216431
-0.09534571 0.052498743 -0.064990364 -0.0130286785 0.112655096 0.056465395 0.065496854 -0.021615747
-0.085263476 0.008319729 0.09820676 0.017343597 0.09543741 -0.07987393 0.0674867 -0.043380607
0.10587166 -0.03573754 0.024012888 0.061765738 0.1119716 0.13413426 -0.024895553 0.0054361173
0.024777556 0.12636319 0.023589201 0.10410706 0.02073813 -0.0033241194 0.0085261185 0.012488562
-0.0008104968 -0.029473443 -0.061970305 0.033915527 -0.011935182 0.1055508 0.11819446 0.12026072
0.04362191 0.11554154 0.088414855 0.10532924 0.10460621 0.09112185 0.016679626 -0.05858899
-0.0906943 0.018437536 0.12023518 0.022882113 0.08183104 0.020362236 -0.02501049 0.09270573
-0.011804596 0.013839087 -0.11368649 -0.06271673 0.046924368 0.08986775 0.119054444 0.115241624
0.11868074 0.008571285 -0.031720314 0.081905715 0.0074594365 0.10282352 0.12073118 -0.0527457
0.04185203 0.07071564 -0.05231764 0.026271027 0.08570126 -0.08051188 -0.110864826 -0.09912837
-0.010779543 0.08106026 -0.07555928 -0.11166615 0.103676334 0.09223822 0.06432436 0.032473274
0.111084566 -0.028305486 -0.08336417 -0.041710205 0.08035776 0.13916752 -0.036610097 -0.048992578
-0.055034533 -0.12554702 0.031346526 -0.0047612344 0.13622054 -0.0367898 -0.15952297 -0.16229115
-0.096269794 0.09740252 -0.1599659 -0.05715574 -0.12629044 -0.12325554 0.020434381 -0.109735176
-0.032921497 0.08329537 -0.047977366 0.12852696 -0.085763074 -0.08564055 0.104535095 -0.00092037325
0.08995806 -0.04265852 -0.08117979 -0.10658477 0.011624265 -0.08068226 -0.13896854 -0.10682623
0.030017346 0.036742043 -0.062816024 -0.05050108 0.06815343 -0.085658446 0.044290468 0.07974774
-0.01108931 -0.04363742 -0.07005118 0.036469553 0.06582813 0.116286404 0.07662163 -0.030254304
0.034483563 0.10330835 0.06199284 0.08008122 0.048396062 -0.14166775 -0.12566522 0.0436309

conv1.bias f4 [10]
00000000: 2e5c 423d f23e cabd f386 063c 83c4 d73d
00000010: e164 f03d 2969 f23d 22f6 e4bc c25b 9abc
00000020: b5c8 2e3d a70c 7a3d
0.04745119 -0.09875287 0.008210885 0.105355285 0.11737991 0.11836464 -0.027949397 -0.018842582
0.042671878 0.061047222

conv2.weight f4 [20, 10, 5, 5]
00000000: 22ce e3bc 7119 b73c bd01 07bd 3869 4bbd
00000010: be4e a2bd 8fe9 e83b 0949 833d de43 0cbc
00000020: c3b7 14bd b7b2 97bd c4ba 273d 95f0 5dbc
00000030: 57e7 5cbd 9878 e13a 3eed a73c a43b 133d
00000040: 1556 5b3c 068b 92bd b55d f5bc 9a33 2bbd
00000050: d601 efbc 7de5 86bd 90e2 edbc 0fdf d7bc
00000060: b358 85bd b5dc a23d 1f05 153d bb46 003d
00000070: ab05 fd3c 4df8 523c dd9f 863d 455b 133d
00000080: 2c6b 773d f6aa 8eba ccab ce3c 3dfa 81bd
00000090: 262a 53bd 6b3d 4dbb d8d6 46bd eef0 353c
000000a0: a8db 3fbc 527e 443d b0f1 473d 35be f63c
000000b0: 2198 eebb 921c 003d 37e3 9fbc 737f 06bd
000000c0: 0c29 9ebc 8260 a63b 5aca 813d 529c 34bd
000000d0: 7433 033c 9269 d0bc 0019 9dbd c963 293d
000000e0: d573 7a3d 1b24 edbc 07a1 dabc 0c86 87bb
000000f0: 2f88 393d f762 cb3d 8592 97bc 0883 e93c
00000100: abc2 abbd d66a 893d c89c a43d d147 4cbc
00000110: 5890 79bc 9f05 6cbc 4e43 c93d 715b 843d
00000120: 8c4c 7bbc 58fd 923c 0544 d83c 9361 263d
00000130: 8f15 6d3d b8bf 85bd ca58 9bbd 1672 88bd
00000140: d948 32bd 8bad 47bd dce2 5ebd f18d 43bd
00000150: 4c5c c13c b651 47bc 4e56 49bc a7f8 823d
00000160: e840 633d df13 423c 02f3 cf3b ab0e 263b
00000170: 21a1 a63c b384 223c 6ea0 acbc 3d93 103d
00000180: f3b8 17bd 7481 15bd 5e75 be3d 5f71 8a3d
00000190: e179 e8bc 9e6e a73c 8e80 de3b 634c 4a3c
000001a0: eec9 b33d bcae bebc efdf 003d 680c 65bc
000001b0: 6eca 4a3d d812 ea3d 43db 89bd 7e2c 9a3c
000001c0: c1c2 893d 64b5 683d 88c0 a33d 4e74 bbbc
000001d0: 48d1 933b 6f9e 543d b7c8 633c b468 5d3d
000001e0: 57fd 40bd 9a89 bc3c 254e 103c ebbf bc3d
000001f0: 869f 9d3d b982 493d 308c 01bd 06b0 da3c
00000200: fea0 8abc 2ed3 7dbd 799c 8b3c 7069 cc3b
00000210: 65ad 183c e337 b43d 8c75 4abc 797f 22bd
00000220: 5fcb 7abd 2992 44bd de0f 6b3d b8dd 0fbd
00000230: e4ca cbbc 0af0 a43c 794b e7bc 2c96 cb3c
00000240: 7c12 2b3c 631e c13c 8f84 cdbc 7efe b33c
00000250: 11a0 e3bc 20f0 913d d246 52bc c17c 733d
00000260: 8934 f7bc 795f 203c b433 123c ca0c f6bc
00000270: 81ca c0bc aae5 073d 5f62 87bd 42c5 73bd
00000280: 4571 52bc dc86 86bd 0abb d03d f2a9 993d
00000290: 8b58 01bd 244f b43c 304f 3c3d 70a0 bcbc
000002a0: 2e57 78bc f639 cbbc f246 f53c ba53 d83b
000002b0: a089 afbc 96e0 4c3d 6a90 da3c 607d 1dbd
000002c0: 0037 5f3d e490 36bc b1a9 243d b9d3 7dbd
000002d0: 3d3b 10bd 34c1 f23c a8fd 5abd cc6d 8fbc
000002e0: daba 05bd 0e91 36bd 2838 383d a4b6 443d
000002f0: 00f1 91bd 4ba5 a7bd 691f 93bd 01f2 fd3c
00000300: 3ec9 3e3d ea0c 253b 148d 2abc 672a cdbc
00000310: 3e91 743d 5e8e 583d 5ed0 17bd ac02 42bd
00000320: 2508 673d b5a9 743d 6b45 363d f4d7 94bd
00000330: 0d18 9cbd bff9 a7bc a5ad 0ebd dee2 683b
00000340: 8750 bdbc d39f 61bd 5b06 043d 16d7 32bc
00000350: f1b2 70bd d12e 63bc 6802 733c f950 fa3c
00000360: 3470 88bc 76ee fd3b 329f 90bc af4c af3b
00000370: a69a 983c b2b3 52bd 3100 4cbc 85e9 8fbb
00000380: 98cc 323d b721 a43a 19cb 093d 7d5d 9fbc
00000390: 099b a7bc 1c25 6fbd 6ce4 383b 669b 353d
000003a0: a14c 99b9 604a 803d 650a 3a3a 87c0 88bb
000003b0: 23e7 69bd ce3a 7b3d 7025 503d 032f 413d
000003c0: 3f7e 57bd 486f 083d b30f 583d 1897 783d
000003d0: 105f 14bb 7229 87bd cbf9 593d a5d0 f33c
000003e0: dcf4 623c 60fa a03d 9e22 d43c aa4c de3d
000003f0: 8f1a ce3d 8b5b 67bc 904f 1a3d c133 863d
-0.027808253 0.022350999 -0.032960642 -0.04966089 -0.07925175 0.0071079205 0.06410415 -0.008561103
-0.03630806 -0.07407134 0.040949598 -0.013546129 -0.05393156 0.0017202077 0.020498868 0.03594555
0.013387223 -0.07155423 -0.02995191 -0.041797258 -0.02917568 -0.0658674 -0.029038697 -0.02635148
-0.06511059 0.07952253 0.036381837 0.031317454 0.030886492 0.012876582 0.0657346 0.035975713
0.06040494 -0.001088469 0.025228404 -0.06346557 -0.051553868 -0.0031317126 -0.048544735 0.011104805
-0.011710085 0.04797203 0.048814476 0.030119995 -0.007281319 0.031277247 -0.019517524 -0.03283639
-0.019306682 0.0050774226 0.063374236 -0.04409439 0.008007873 -0.025440965 -0.07670784 0.04135493
0.061145622 -0.02894788 -0.026688112 -0.0041358527 0.04529589 0.099309854 -0.018502483 0.028504863
-0.08386739 0.067098305 0.08037716 -0.012468294 -0.015232168 -0.014405637 0.098272905 0.064627536
-0.015338074 0.01794307 0.026399622 0.040620398 0.057881888 -0.06530708 -0.075852945 -0.06662385
-0.043526504 -0.048749488 -0.05441557 -0.047742788 0.02360358 -0.0121654775 -0.012288643 0.06395083
0.05548182 0.011845558 0.0063461075 0.0025338333 0.020340504 0.009919333 -0.021072593 0.035296667
-0.037041616 -0.03650041 0.0929973 0.06759905 -0.028378429 0.020438489 0.0067902273 0.012347314
0.087787494 -0.02327668 0.03146356 -0.013980009 0.04950946 0.114293754 -0.06731274 0.018820044
0.067265995 0.056813613 0.07995707 -0.022882607 0.0045110323 0.051908907 0.013902835 0.05405493
-0.047116604 0.023014832 0.008807694 0.09216293 0.07696442 0.049196932 -0.031627834 0.026695263
-0.01692247 -0.061968975 0.017042385 0.006238155 0.009318684 0.08799722 -0.012357127 -0.03967235
-0.061229106 -0.04799095 0.05738818 -0.035123557 -0.02487702 0.02013399 -0.02823423 0.024851881
0.010441419 0.02357406 -0.025087623 0.021971937 -0.027786287 0.07125878 -0.012834268 0.059445146
-0.030176418 0.009788387 0.00892346 -0.030035395 -0.023534061 0.03317801 -0.0661056 -0.05951429
-0.012844388 -0.06568691 0.10191925 0.075031176 -0.03157858 0.022010393 0.045973957 -0.023025721
-0.015157504 -0.024807911 0.029941056 0.006601778 -0.02142793 0.05001887 0.02668019 -0.038449645
0.05449581 -0.011142943 0.040200893 -0.061969493 -0.035212744 0.029633142 -0.05346456 -0.01750841
-0.0326489 -0.04457193 0.04497543 0.048025742 -0.07126045 -0.08185824 -0.071837254 0.030999186
0.04657864 0.00251847 -0.010409612 -0.025044633 0.059708826 0.052870147 -0.03706395 -0.04736583
0.05640425 0.059732158 0.044499796 -0.07267752 -0.07621775 -0.02050483 -0.03483357 0.0035535614
-0.023109687 -0.05508406 0.032232624 -0.010915538 -0.0587644 -0.013866142 0.014832117 0.030556189
-0.016655065 0.007749374 -0.017654035 0.0053497176 0.01862843 -0.051440902 -0.0124512175 -0.0043918514
0.043652147 0.0012522255 0.033640955 -0.019453758 -0.020459669 -0.058385 0.0028212322 0.044337653
-0.00029239527 0.06264186 0.0007096886 -0.0041733417 -0.057105195 0.061335377 0.050816953 0.047163974
-0.052610632 0.03330925 0.052749347 0.06069097 -0.002263967 -0.06599702 0.053216737 0.029762575
0.013852324 0.07860255 0.025895413 0.10854466 0.100636594 -0.014120947 0.037673533 0.0655284

conv2.bias f4 [20]
00000000: e492 793d 1637 10bd 6167 7a3b 7c0f 233b
00000010: 8df3 11bb a8b8 083d b714 fe3c 331c 2b3d
00000020: 0c92 043c 534f 35bc 2702 0cbd 7271 d8bc
00000030: 74d3 13bc ff53 0dbd 0725 c4bb 67cc 11bd
00000040: bcea 56bd f827 cbba b093 37bd 2f0a b33b
0.0609311 -0.035208784 0.0038208591 0.0024881056 -0.0022270412 0.033379227 0.031015737 0.04177494
0.008091461 -0.011066276 -0.03418174 -0.026421282 -0.009022582 -0.034503933 -0.0059858593 -0.035595324
-0.052469954 -0.0015499583 -0.04481858 0.0054638605

fc.weight f4 [6, 320]
00000000: f5a2 07bd 2c19 6bbd 24fe 083d 3d40 e2bb
00000010: e79b 07bd 2b93 8abd 2d5f 00bb 5b8a 433c
00000020: 7d6d 293c 839e f3bb 29e3 80bc 3ae0 a6bc
00000030: 0b95 72bd 75d9 acbc ef4d b9bb 0e4d 343d
00000040: 97f5 173d f954 503c 4f6e 92bd 8b85 76bd
00000050: 9ff3 953c 7b88 3b3d 7c3f 83bd 1b4e 0ebd
00000060: 8236 3ebd 6f89 6fbd 1bfb e23c 1229 563d
00000070: bf25 e03c 5933 0e3c 47bc 203d 9a08 453d
00000080: 0a63 d8bb 7969 9f3b 2089 86bc 9e12 c63b
00000090: f816 d0bc e133 1d3d 03ce f13b 2e10 2f3d
000000a0: e305 523d d789 87bb 2424 6ebc 7519 7e3b
000000b0: 2602 f03c 0096 d7bc eb43 18bd aaaf 043c
000000c0: 5d8e 06bd 7549 f5bc ad1a 143c 4ebb 59bc
000000d0: 9e58 63ba 87b2 863b fd69 ce3b ab3c ffbc
000000e0: ff4c cbbc 4cad bd3c a0d3 3fba 2063 053d
000000f0: f49f 2abc 4647 dabc eebb 2abb 83ad afbc
00000100: 3018 0a3d 6ab2 f3b8 db4b 95bd 6129 06bd
00000110: c020 413c a9a2 813c 843e a13a d00a e83c
00000120: 66b1 2cbd 54b4 c53c 49cf 22bd 6233 45bc
00000130: 2bea 793d 1295 7a3c da83 163d d053 613d
00000140: 9866 283c 0880 eabc de43 8ebd d85f 433d
00000150: 6fb9 1e3d d6cd 313d 5c58 bb3c 4019 36bc
00000160: 3a31 83bc 2b91 663d 21f7 0a3c b7ca 073c
00000170: 84b9 f8bc cd05 f13c adcb a3bc 96cd 4c3c
00000180: 7338 0f3c 8980 633d f217 463d 7ef0 0cbd
00000190: 5d8a bb3c c4e5 d73d 7758 24ba cda9 1c3c
000001a0: 9794 7f3d 0eea dd3d 7a63 4c3d 12d3 e1bb
000001b0: dcce b2bc 1f83 a53d 722c d83b 62c0 5ebc
000001c0: 92b4 233d 7360 4fbd d391 83bd 3d46 ccbb
000001d0: d2d7 2dbc 3f75 183d cfa3 abbd 7e08 55bc
000001e0: 0b56 83bc fbb4 13bd 19c7 d6bc 9e68 32bd
000001f0: fe47 febc 4f23 89bc 7bbb 16bd 7a0d cfbc
00000200: e1c1 fdbc 1392 b73a 90e4 013d 201f 3e3c
00000210: 5b97 0b3d 177b 443d ef55 89bc 3a56 e93c
00000220: 7bf1 003d 3659 6cbc a7f0 32bb 9a10 5bba
00000230: 886e 613c 2d42 d5bc 1cb8 1b3d 0cde aa3c
00000240: 9c1d a7bd f5f9 5cbd da2a 9bbd d752 a6bd
00000250: c100 adbd d601 8fbc a67b e1bd 82e5 36bd
00000260: 4f0c 46bd 68ec 5cbd 90b7 e3bd baab d8bd
00000270: 12f1 903c addf fc3b cada 143d f52b 13bd
00000280: c57a c53b 9cc3 1b3d 2f96 8dbd 2f9d c3bd
00000290: 18a6 483d 4625 08bd 89ad bbbd 64d5 ecbd
000002a0: 7957 eb3b f954 2b3d a737 01bd d1ea 03bd
000002b0: 190b 1ebd 01e4 ee3b 4cfe 0cbd 9548 5dbd
000002c0: 5cd7 803c ffe4 103d 9bc9 c8bc 8e06 9a3b
000002d0: 75a5 5d3c 7670 e0bc bb93 17bd c7e0 27bd
000002e0: b9ad d53c 3f2d aabb 34e8 0e3d 22ae 923c
000002f0: dc78 073a c562 943c 9d6b 7a3c 3792 3abc
00000300: ee8a 2a3b db48 25bd 742e 323d 9ada 663d
00000310: 2498 703d c926 bdbb 44c4 39bd 60ab 353c
00000320: 79bf 4c3d 1d28 83bd 4de9 acbc 6abd 443c
00000330: 705d fdbc 6171 213d 13bc 48bc ac02 2a3d
00000340: 360f 843d bb9a 12bc aaf9 cdbb 83bc 5dbc
00000350: 67c0 813d 41ac b8bc f187 01bc c458 62bd
00000360: 0232 a03c 5f43 3d3d 6d7b 193d 7c6e 36bc
00000370: 921d 013d 0a29 4ebc 67aa 8f3c 37a2 97bc
00000380: 7d80 15bd 69d3 22bd 6ad0 f9bc 08e6 afbc
00000390: 098e 91bc e520 c1bc 8577 07bc 9b81 ed3b
000003a0: cc69 2ebc 9c06 2bbc 77fb 36bc ddef f23a
000003b0: b44e 55b9 8fbd 0bbb 9f8f 9e3c 41e3 1d3c
000003c0: 90d9 133d 605c c6bc a575 c0bc c14c b63a
000003d0: faa9 e13b 2ee2 e8bc 40be e13a 5ba0 043d
000003e0: 1dbb 87bb 126f 0bbd cd9c 0abd ba42 01bd
000003f0: 6d87 12bc 387a 9c3c 48a7 a5bb 534c 283d
-0.033114392 -0.057397053 0.033445492 -0.0069046305 -0.033107664 -0.06766351 -0.001958798 0.011934842
0.010341045 -0.0074346676 -0.015733318 -0.020370591 -0.05922417 -0.021099785 -0.0056550424 0.044018798
0.037099447 0.012715572 -0.07149946 -0.06018595 0.018304644 0.045784455 -0.06408593 -0.034742456
-0.0464387 -0.058480676 0.027707627 0.05228526 0.027361749 0.008679234 0.039242055 0.048103906
-0.0066036033 0.0048648682 -0.016422808 0.0060447 -0.025401577 0.038379554 0.007379295 0.04274004
0.051275145 -0.004136305 -0.014534984 0.0038772498 0.0292979 -0.026316643 -0.037174147 0.008098522
-0.032850612 -0.029942254 0.009039563 -0.013289286 -0.0008672568 0.0041106376 0.006299256 -0.031156858
-0.024816988 0.023153923 -0.00073176064 0.032565236 -0.010414112 -0.026645314 -0.0026051956 -0.021445042
0.033714473 -0.00011620375 -0.07289859 -0.032754306 0.011787593 0.015824633 0.0012301956 0.028325468
-0.042161368 0.024133839 -0.039748464 -0.012036176 0.061014336 0.01529433 0.036746837 0.05501157
0.0102783665 -0.028625503 -0.069465384 0.047698826 0.038751062 0.04340919 0.022869281 -0.0111144185
-0.016014684 0.056290787 0.008481772 0.008288077 -0.030361898 0.029421711 -0.019994581 0.012500187
0.008741486 0.055542503 0.04836268 -0.03440904 0.022893125 0.10541871 -0.0006269286 0.009561968
0.062397566 0.10835658 0.049899556 -0.0068916166 -0.021827154 0.0808165 0.006597095 -0.013595672
0.039967127 -0.05062909 -0.06424298 -0.006233959 -0.010610538 0.03722119 -0.083808534 -0.013002513
-0.01603224 -0.03606127 -0.026217984 -0.043556802 -0.031040188 -0.01674047 -0.03679989 -0.02527498
-0.030976238 0.0014005326 0.031712115 0.0116041005 0.03407989 0.04796895 -0.01676461 0.028483499
0.031480294 -0.014425566 -0.0027304085 -0.0008356661 0.013759263 -0.026032532 0.038017377 0.020857833
-0.081599444 -0.053949315 -0.07576533 -0.08121269 -0.084474094 -0.01745693 -0.11009912 -0.04465247
-0.048351582 -0.053936392 -0.11118996 -0.10579629 0.017693076 0.007717094 0.036341466 -0.035930593
0.006026598 0.038028345 -0.06913411 -0.09551465 0.048986524 -0.03323867 -0.091639586 -0.115641385
0.0071820584 0.041829083 -0.031547215 -0.03220636 -0.038584802 0.007290364 -0.034422204 -0.054024298
0.015727691 0.035374638 -0.024510195 0.0047004884 0.013528218 -0.027397376 -0.03700612 -0.04098585
0.026083814 -0.005193382 0.034889415 0.017905299 0.0005167851 0.018113503 0.015284446 -0.011387399
0.002602275 -0.040352684 0.043501332 0.05636082 0.058738843 -0.005772446 -0.04535319 0.011088222
0.04998729 -0.064041354 -0.02110734 0.01200805 -0.030928344 0.039414767 -0.012251872 0.041506454
0.06448214 -0.008948023 -0.006285866 -0.013533714 0.06335526 -0.022543075 -0.007905946 -0.055260435
0.019555096 0.04620683 0.037471224 -0.01113474 0.03152234 -0.012583027 0.017537309 -0.018509967
-0.03649949 -0.039752398 -0.030494887 -0.021471992 -0.017767923 -0.023575256 -0.008268242 0.007248116
-0.010645341 -0.0104385875 -0.011168352 0.001853462 -0.00020342582 -0.0021322703 0.019355593 0.009636701
0.036096156 -0.02421397 -0.023493597 0.0013908372 0.006886718 -0.028428163 0.0017222837 0.03237949
-0.0041421787 -0.03404147 -0.033840943 -0.031557776 -0.008943421 0.019101247 -0.005055342 0.041088413

fc.bias f4 [6]
00000000: a86f 0ebd 08c0 313d d14a f3bc c241 1b3a
00000010: 8fb3 c6bc b023 493d
-0.034774452 0.043396026 -0.029698761 0.00059225794 -0.024255542 0.0491063
