robot/robot_exp5/code/python_pc/model_param/model0_0.5.pkl (torch, 33318 bytes, 6 tensors)

conv1.weight f4 [10, 3, 5, 5]
00000000: 98c7 efba 0894 66bc 8b8e 26bd 5621 2c3d
00000010: 26ac 2b3d 341d 263d ff3c 26bc 7a26 c43c
00000020: b558 983d 47ce 953d 15dc 8a3c eeba 933d
00000030: ccef 913d 8477 943d 0efc 973d 69ac 463d
00000040: 7737 013e b065 cb3d f8cd 9c3d 71f3 bd3d
00000050: 13ff 48bd c28a 6d3d 3d03 9f3d f3d5 093e
00000060: c732 11bc 5dbd 47bd 3593 573c 2bc2 a03c
00000070: acec 3abd 0be9 61bd 17d7 dabc f604 8fbd
00000080: a5d6 643d 3a2b 0ebd e817 373d 3d72 963d
00000090: c884 003d b226 043e 5e3e c0bc e3cd 1fbd
000000a0: 2b5e f13d 47f6 c53d c999 033d a713 1b3d
000000b0: 809e 563d 6edf df3c f344 963d 2480 423d
000000c0: 7b44 0d3e 4b8e 873d 520a 973b c89e 86bd
000000d0: ef7e 2bbe d1a1 a1bd aeca 29be e845 26be
000000e0: 950e 31be 37fb 26be 4866 afbd 805c d4bd
000000f0: 8916 d0bd 36c7 05be 5c55 49bd 07d3 04be
00000100: b4b8 21be 555a 123d fec8 85bd 7072 9bbc
00000110: 1d12 7abd d0a2 11bc 30da e9bd 8edb 9a3d
00000120: fc90 d7bd 202e 41bd 8430 03bc 36b5 dd3d
00000130: d397 f33d cade 07bd 4a38 e33c d6b7 5c3d
00000140: 3ceb 973d f659 fbbc 7201 cb3d 76a0 853c
00000150: d533 593d 8ba8 043e 71a4 853c ab6f 5ebc
00000160: 3b42 bcbc c263 743c d6bc 6d3d 27f7 f03d
00000170: 8f74 c93c 0348 1dbc 362b 80bd 2dff 3fbd
00000180: 36c0 113d ea09 3fbd cc50 6ebc 97aa 08bc
00000190: b3aa d23c ba64 483c 05fb a73d f410 af3d
000001a0: b7e2 78bd d2b6 6b3d 1604 cdbc e992 74ba
000001b0: be9a cb3d e523 583d b754 943d 44c4 00bb
000001c0: 3a35 4abd 6ba9 803c 9887 a63d cd2c 003d
000001d0: 837c be3d e4b0 54bd 1e60 6e3d e21c 8cbc
000001e0: 79df bc3d 0799 91bc cc35 eb3c ef7b 693d
000001f0: 06bd d53d 47ca f53d a976 c3bb 1abd 793c
00000200: 2211 043d 39d9 dc3d 7f74 0e3d d6dc c93d
00000210: ca81 f73c 5cbd 863c 5cd0 973c 9d33 033d
00000220: 08b9 9d3c 2860 2ebb 826f d3bc 93e4 163d
00000230: 391b 343c e0de d33d cdd3 e53d fc1c de3d
00000240: fcf2 503d f7ee d73d f0ef ad3d 5277 d33d
00000250: 6764 c63d 9d44 b63d c26e 4f3c 42df 75bd
00000260: a30b a0bd 5b1c 073c 4138 c93d dcf5 ac3c
00000270: 2e8f 283d ed5a 503a d6cf 9abc 48ea ad3d
00000280: aca9 34bc cff7 ab3b 773a b1bd 9521 22bd
00000290: 1a0b 493d 5ebc 973d b791 d23d 2ccb e83d
000002a0: 1e38 d43d dd89 ca3c bab3 00bc 9fa4 a53d
000002b0: 1766 cb3c eaa6 c33d 2fed e33d 1cd2 06bd
000002c0: 7e36 593c bdbe 1c3d 99f9 33bd 21b8 083d
000002d0: 28f0 833d 50dd 93bd d750 c1bd 6809 98bd
000002e0: de83 853c 7528 253d 2e8d 6ebd 5f14 acbd
000002f0: 47fa 983d acb6 b13d 8d99 623d 03ba 103d
00000300: 118a df3d feaa 35bc 8675 2bbd 82a8 4fbc
00000310: 1862 a23d c635 063e bba4 aabc 121a d7bc
00000320: 31f6 8ebd 11e4 0abe 4596 07bc 80e6 c3bc
00000330: a259 dd3d ad65 6cbd 2d78 2dbe fd89 28be
00000340: 7b47 bcbd 4e18 aa3d ec84 1bbe 27e4 a4bd
00000350: 27c6 01be 445a d6bd eb98 d03c e46f d0bd
00000360: b5ff 1fbd 3391 913d 80bb 17bd 427e e23d
00000370: 409d 9dbd a16e 92bd e3d0 bf3d b59d 2e3b
00000380: 03ff ab3d 08f5 2bbd b127 9bbd d38c d8bd
00000390: f0ce 45bc 8137 b3bd e456 07be 1f6c ccbd
000003a0: e6bf 8e3c 6a3a ec3c 1b5d 61bd 30b5 41bd
000003b0: ab2c 623d 08c7 79bd 5093 1a3d e7dc 8f3d
000003c0: 7266 cebb 0c0c c7bc 124a 32bd e8b7 203d
000003d0: 3820 8d3d 6c05 d73d a8d7 9d3d 16b4 2cbc
000003e0: 434d 0e3d 35c1 ca3d 9b17 163d 0127 463d
000003f0: acc7 4c3c c06d 07be 7750 f1bd 329c c23b
-0.0018293737 -0.014073379 -0.040663283 0.04202398 0.04191222 0.040555194 -0.010146379 0.023944128
0.074387945 0.07314735 0.016950646 0.072133884 0.07125816 0.07249358 0.074211225 0.048504267
0.12618814 0.09931505 0.07656473 0.092749484 -0.049071383 0.057993658 0.077642895 0.13460521
-0.008862204 -0.048764575 0.0131576555 0.019623837 -0.045635864 -0.055153888 -0.026713891 -0.06983368
0.055868763 -0.034709193 0.044700533 0.07346008 0.03137663 0.12905386 -0.023467239 -0.03901471
0.11785539 0.09666114 0.032129083 0.03786054 0.05239725 0.02732822 0.0733737 0.047485486
0.13795654 0.06618937 0.0046093846 -0.06573254 -0.1674764 -0.07892192 -0.16581222 -0.16237605
-0.17290719 -0.16306768 -0.085644305 -0.103692055 -0.10160548 -0.13064274 -0.04915367 -0.12971126
-0.15793115 0.03573068 -0.06532477 -0.018975466 -0.06105243 -0.008888915 -0.11418569 0.07561408
-0.105257004 -0.04716313 -0.0080071725 0.10825579 0.118941925 -0.033171453 0.027736802 0.053886257
0.07417914 -0.030682545 0.09912385 0.016311865 0.053027947 0.12954919 0.016313763 -0.013576428
-0.0229808 0.014916362 0.058041416 0.117658906 0.024591712 -0.009599688 -0.06258242 -0.046874214
0.035583697 -0.046640314 -0.014545631 -0.008341453 0.025716161 0.012231046 0.08202175 0.085481554
-0.060763087 0.057547398 -0.025026362 -0.00093297526 0.09941624 0.052768607 0.072427206 -0.0019648233
-0.049367167 0.015705785 0.08131331 0.031292725 0.093010925 -0.05192651 0.058197133 -0.017103616
0.092223115 -0.017773164 0.028712176 0.057002958 0.10436444 0.12001472 -0.005965073 0.015242839
0.0322429 0.107836194 0.034779068 0.09856574 0.030213255 0.016447715 0.01853197 0.032031644
0.019253269 -0.0026607607 -0.025810007 0.03683908 0.0109928185 0.103452444 0.112220384 0.10845372
0.051012978 0.10543626 0.0849303 0.10325493 0.09687119 0.08899806 0.012660684 -0.06002737
-0.078147195 0.008246507 0.09825183 0.021113329 0.04115217 0.00079481193 -0.018897932 0.08491951
-0.011026781 0.005248047 -0.086537294 -0.039582808 0.049082853 0.07408975 0.10281699 0.11366877
0.10362266 0.024723941 -0.00785535 0.080880396 0.024828954 0.09553321 0.111292236 -0.03291522
0.013257621 0.03826784 -0.043939207 0.033378724 0.064422905 -0.072199464 -0.09439247 -0.07423669
0.01629823 0.040321786 -0.05824011 -0.08402323 0.074696116 0.0867742 0.05532222 0.035333645
0.10915006 -0.011088131 -0.041860126 -0.012674453 0.07928866 0.1310645 -0.020830503 -0.026257548
-0.06980551 -0.13563563 -0.008275573 -0.023913622 0.10808112 -0.057714153 -0.16940375 -0.16458888
-0.09193321 0.08305417 -0.15187424 -0.08051329 -0.12673245 -0.104664356 0.025463542 -0.101775914
-0.03906222 0.07107773 -0.03704405 0.11059238 -0.07696009 -0.07150007 0.09366014 0.0026644294
0.08398249 -0.041981727 -0.0757593 -0.10573735 -0.0120732635 -0.08750821 -0.1321674 -0.0998156
0.017425489 0.028836448 -0.055020433 -0.047291934 0.05521838 -0.060980827 0.037738144 0.07024556
-0.0062988335 -0.024297737 -0.04352767 0.039237887 0.06890911 0.10499081 0.07707149 -0.010540983
0.03474165 0.099001326 0.036643606 0.04837704 0.012498777 -0.1322546 -0.117829256 0.00593903

conv1.bias f4 [10]
00000000: 0943 943d 7b0d acbd adef 113d 5385 de3d
00000010: c8ab 023e 9454 093e 9394 d5bb 59bf b2bc
00000020: bf07 123d 359f 813d
0.072393484 -0.08401009 0.035628963 0.10865273 0.12760842 0.1341117 -0.0065179556 -0.021819757
0.03565192 0.063291945

conv2.weight f4 [20, 10, 5, 5]
00000000: 340c 26bc ee9d d53b 3284 f0bc e8f0 44bd
00000010: c499 7bbd b98a 403c c5ea 203d 0567 85bc
00000020: 984b 0bbd 734d 79bd fbf3 173d 125c 79bc
00000030: 3405 25bd d2d2 b5bc 9fba 04bc 6516 113d
00000040: 5195 153c 60c9 85bd 951f 53bd 0598 74bd
00000050: dc46 923b 80ea 57bd ce6c 36bd 0c7c eabc
00000060: 9a3a 4dbd 707d 933d 0c3b 073d 53db 063d
00000070: 8f37 8a3c ad04 983b cc2b 623d 0706 083d
00000080: ea92 643d 7a9f babb f0bc 3d3c 3773 49bd
00000090: d8e7 0cbd e801 133c cf1c 07bd 080a 163c
000000a0: 5c6d b8bc 1454 113d 2e99 383d 5a1a aa3c
000000b0: 960e 35bb 2c59 753c 6db9 ccbc bac2 edbc
000000c0: 03d6 b4bc 1a60 803b daf9 353d 7102 56bc
000000d0: 5035 debb a101 05bd 7468 81bd a408 fd3c
000000e0: d1d9 343d b5b3 65bc eb62 aebb 4a27 90bc
000000f0: 73a8 de3c 1280 a63d 5c84 a1bc 9abd 543b
00000100: 8767 86bd 1bd5 5b3d 9d35 803d 1e27 b4bc
00000110: 2108 c3bc 6ec4 04bd 2992 ba3d b771 013d
00000120: be57 e3bc 1d0b c1ba 6a9b 7b3b e503 8d3c
00000130: baef 1d3d 5b9a 2ebd b74c 45bd 06ba 2cbd
00000140: 76d9 fdbc 77aa aebc 8741 cabc 419f 54bc
00000150: 9005 f03b 00bd ecbc 34de 3e3b 4273 6c3d
00000160: 4eed 403d 91f6 253c 0f96 63bc c504 e63b
00000170: ec4f 9b3c e476 413c f1a6 dfbb d9d2 813c
00000180: 2eba 2a38 ff6a 05bc a05b 853d e7b2 1d3d
00000190: 72a3 abbc 4003 183d 5eab f23b e1f2 ff3c
000001a0: 689a ab3d e021 19bd 20b8 553c 0965 8bbb
000001b0: 7f93 633d 7277 cf3d 06ed 6dbd f340 1a3c
000001c0: 5fbb 213d 4d20 883d 833c a93d da22 98bc
000001d0: 75cf 883c fe17 543d b9b5 293d fe98 a53d
000001e0: 80de 2abd ff46 e93c 72c4 fd3b 2ecb b93d
000001f0: c952 b93d d956 f53c bba7 a4bc 7234 5b3c
00000200: b563 13bc 9fe8 1ebd 806e 8a3c 1b73 ccbb
00000210: 5675 5b3c edb1 583d 8bce 763b 6cf8 e5bc
00000220: 7db6 65bd c11f 0ebd 1afe c63c abeb e8bc
00000230: 7814 21bc bcff 19bc ab1a c5bc 21dd 053c
00000240: f676 973b ede1 7e3c a149 c2bc 6ce0 a53c
00000250: 1777 b13b 2464 2b3d 5d2d 8dbc 0e41 413d
00000260: fc3f 95bc 1707 b2bc 14cf fa3a 94ac f4bc
00000270: 6806 cdbb e171 a13c 04a7 1abd 0e7c b4bc
00000280: 393d 0abd 774b debc 58c6 993d 0589 883d
00000290: 0cfe 4bbc 959a c4bb b911 f93c 8e0d 50bc
000002a0: 35fb 10bc 1d16 debb 1098 953c 2c9f b03a
000002b0: dd19 38bc 65fc 083d b361 dd3c 692f 95bc
000002c0: e42d 493d 20d7 8aba ad56 b33c 88f5 5abd
000002d0: 9b79 afbc 5c22 023d 71c0 23bd 4626 f0bc
000002e0: b4ac 13bd 6de1 10bd 7eb5 1e3d 857b 173d
000002f0: 3505 88bd ae75 7bbd 1314 92bd dc0f ef3c
00000300: 94a7 2a3d af8b 60bb 17a2 aabc a6c2 f2bc
00000310: 6439 313d 7384 143d 1d2a 38bd 2ff0 14bd
00000320: 43a4 653d 43d5 7a3d 0f7f 0d3d fb0d 98bd
00000330: 9198 7ebd 23f7 22bc 8d77 c2bc 6d9a 9eba
00000340: 5c71 08bd 6d6f 6fbd 8fa7 ee3c 4b2f 43ba
00000350: d905 35bd b0d9 99bc bdcb 503b 45fb b13c
00000360: 1418 24bc feab 933b efdf 9fbc fdea 81ba
00000370: 0e28 bf3b e091 4cbd c56b b5bc b174 55bc
00000380: f72e 283d 0bc1 cbba df78 023d 1dac b13b
00000390: 1aab 80bc 4eb8 53bd dce4 32bc aa83 e13c
000003a0: 894f 893c 8416 523d 6e78 f2bb 10e7 2dbd
000003b0: 7e79 16bd c601 853d 8efe 353d 1f43 2c3d
000003c0: 1a06 7abd 09e4 de3c 0428 4b3d ac81 503d
000003d0: 94f8 103c d241 71bd 27ad 223d 31f3 0a3d
000003e0: 39c5 4f3c a80d 8d3d 871c 3f3c 1310 8d3d
000003f0: 1f87 a43d 21fe a43c 80bc 1b3d 44af 0d3d
-0.010134745 0.006519071 -0.02935991 -0.04808131 -0.06142594 0.011751824 0.039286394 -0.016284475
-0.03400764 -0.060864877 0.037097912 -0.015219705 -0.040288165 -0.022195254 -0.008101135 0.035421748
0.009129838 -0.0653255 -0.05154379 -0.05971529 0.0044640135 -0.05271387 -0.044537358 -0.028623603
-0.050104715 0.0720166 0.033015296 0.032924008 0.016872196 0.0046392293 0.05521755 0.033208873
0.05580417 -0.0056952806 0.011580691 -0.049182143 -0.03440079 0.008972622 -0.03298646 0.009157665
-0.022513084 0.035480574 0.04506796 0.020764519 -0.0027627102 0.0149748735 -0.024990762 -0.029023517
-0.022074705 0.003917706 0.04442773 -0.0130621055 -0.0067812577 -0.032472257 -0.06318751 0.03088791
0.04415304 -0.014019896 -0.0053218505 -0.01759686 0.027179932 0.08129896 -0.019716434 0.0032461644
-0.06562715 0.05367003 0.06260226 -0.021991309 -0.023807587 -0.032413892 0.09109909 0.031602588
-0.0277518 -0.0014728043 0.0038392195 0.017213771 0.0385587 -0.042627674 -0.048168864 -0.042169593
-0.030987483 -0.021321518 -0.024689449 -0.012977422 0.007324882 -0.028898716 0.0029124143 0.057727106
0.04710131 0.010129587 -0.013890757 0.0070196115 0.018959008 0.011808131 -0.006825321 0.01584761
4.070455e-05 -0.008143186 0.06511617 0.038500693 -0.02095196 0.037112474 0.0074056825 0.031243743
0.0837906 -0.03738582 0.013044387 -0.0042539877 0.055560585 0.10130204 -0.05808737 0.009414899
0.03948533 0.06646786 0.08263495 -0.018571306 0.016700486 0.051780693 0.04143307 0.080858216
-0.0417161 0.028476236 0.0077443654 0.090719566 0.09048993 0.029948639 -0.020099511 0.013379203
-0.00899594 -0.038796064 0.016898394 -0.0062393076 0.013394674 0.05290406 0.003765973 -0.028072558
-0.056082238 -0.03469825 0.024291087 -0.028432688 -0.00983154 -0.009399351 -0.024060568 0.008170397
0.0046223355 0.015556795 -0.02371675 0.020248614 0.005415808 0.04184355 -0.017233545 0.04718118
-0.018218987 -0.021731896 0.00191352 -0.029867448 -0.006256867 0.019707622 -0.037756935 -0.02203181
-0.033749793 -0.027135594 0.07508534 0.066667594 -0.012450706 -0.005999873 0.030403959 -0.012698544
-0.008848955 -0.0067775385 0.018260986 0.0013475171 -0.011236635 0.033443827 0.027024126 -0.018211083
0.04911603 -0.0010592677 0.021891916 -0.053456813 -0.02142029 0.03177105 -0.03997845 -0.029315125
-0.036053374 -0.035371233 0.038747303 0.03698303 -0.06641618 -0.061391525 -0.07132735 0.029182367
0.04166372 -0.0034262945 -0.020829244 -0.029633831 0.043267623 0.036259126 -0.044962037 -0.03636187
0.056064855 0.06123854 0.034545 -0.074245416 -0.062157217 -0.009946617 -0.023738647 -0.0012100466
-0.033311233 -0.058455873 0.029132633 -0.0007445707 -0.04419503 -0.01878056 0.0031859719 0.02172626
-0.010015506 0.004506587 -0.01951596 -0.0009911951 0.0058336323 -0.049943805 -0.022146115 -0.01302831
0.041060414 -0.0015545202 0.031853553 0.005422129 -0.015706588 -0.05168944 -0.010918822 0.027528603
0.016761558 0.051291004 -0.0073996102 -0.042456686 -0.036736958 0.06494479 0.044432215 0.0420562
-0.061040975 0.027208345 0.04959871 0.050904915 0.008848328 -0.05890066 0.039715912 0.03392333
0.012681299 0.0688737 0.011664516 0.068878315 0.08033585 0.02014071 0.038021564 0.034590974

conv2.bias f4 [20]
00000000: cab7 af3c 8d00 64bc e94c 19bb 31ae bc3a
00000010: a952 5a3c d840 0c3d 770f 133d 19d9 b83c
00000020: 99c4 3bb9 ba51 023b 30ea 81bc 00d7 253a
00000030: f2ea 96b8 a2e9 69bc 2075 033c f810 d5ba
00000040: 8e9c 40bd 8309 f439 4fea d7bc 1eb5 eb3b
0.021449942 -0.013916147 -0.002339179 0.0014395175 0.013325372 0.034241527 0.03590342 0.022564458
-0.00017906948 0.0019885139 -0.01585874 0.0006326288 -7.196319e-05 -0.014276894 0.00802353 -0.0016255667
-0.047024302 0.00046546393 -0.026356844 0.0071932217

fc.weight f4 [6, 320]
00000000: 2c75 2abd f1e7 39bd ccca acbb dd89 0fbb
00000010: 00d5 29bd 0888 28bd bc6c 77bc fea1 9abb
00000020: c633 bfbc b6ed dfbc 6f73 e2bc 76ce 66bc
00000030: f1db 2ebd c443 d0bc cdb8 71bc 11f9 b63c
00000040: 63c7 013c 3597 19bc a2ce 50bd 30de 3bbd
00000050: 3023 38ba 4f22 653c 509d 14bd 9c4e c9bc
00000060: f18c cbbc fb90 03bd 6e38 643c 1d0b a63c
00000070: 706b 2a3c 0a81 413c 242f e83c 33bb a03c
00000080: bfe0 993a 683a 633a cda5 273a be57 4b39
00000090: 2919 9c3a 138f 543a ae91 59ba 19df 05bb
000000a0: e1a3 6f39 16f3 3dba b3f7 36bb fe24 6fbb
000000b0: 582f 533a 2683 7dba 2b35 47bb 4129 6cbb
000000c0: e635 bcbb a1fa 32bb a43e 93bb f161 67bc
000000d0: 6202 ddbb 3e70 8038 0e8a 3bba b3e7 c4bb
000000e0: b462 d1bb 11ac 7bbb 3db6 2ebb ccc3 c8bb
000000f0: 61b5 5abc b0ec d6b8 1e95 acba e678 06bc
00000100: e5d7 073b 8ed6 d1bc 23a3 83bd 5d31 25bd
00000110: 89c2 1ebc fc39 06bc b7b7 73bc 4ff5 20bb
00000120: 7b68 05bd f580 e33b 9c02 ddbc c415 bebc
00000130: d8cd 2c3d 69eb e63b 3b52 8b3c 896b ef3c
00000140: 3dd4 2bbc 7943 0cbd 6a5f 82bd bddd b83c
00000150: b1c9 143c da1e 903c e830 12b9 7244 9cbc
00000160: a27b 6cbc c150 ef3c af5d 94ba 9ee4 f238
00000170: 1f38 bbbc 37ac 8a3c cac7 a7bc 98aa 0a3c
00000180: 5992 513c 8a3d 843d 2235 643d 4015 9abc
00000190: 22e7 083d fd25 ca3d 079c f63c ebce 463c
000001a0: 46d5 7a3d 056f df3d a74f 8e3d 2a48 c73b
000001b0: 38f7 5a3c bf44 8f3d c2b3 013d d5d4 b73a
000001c0: 21f9 e63c ecbf ecbc 3c62 5dbd 99b2 64bc
000001d0: 6cd5 88bc 8596 5c3c dc32 b3bd f020 06bd
000001e0: 1438 bcbc 7bbd 33bd a861 47bd bcb4 59bd
000001f0: fcb6 0abd 5e78 bebc d900 40bd cc4a 17bd
00000200: 8369 23bb fa01 b5bb cc4b e3ba f5a0 14bb
00000210: da92 01bc aada 32bc 3ef7 d2bb 22d7 fbbb
00000220: 009e 36bc 1ce9 85bc c1b9 8bbc 5dfb 54bc
00000230: 46b5 52bc cf76 a2bc f59b 92bc 2614 6fbc
00000240: 8c8c 86bd 150d 65bd 3df8 82bd 6876 73bd
00000250: 3700 94bd 2e61 32bd 51c3 a6bd 4080 35bd
00000260: e7c7 42bd b384 52bd c80e a3bd 45d8 87bd
00000270: 5a7c d2bb 7c73 21bc 6961 e03b 9473 b3bc
00000280: 0a18 20bb d371 4f3c 03eb 5dbd 79e6 a3bd
00000290: 263f a53c 6d4d 2cbd d376 babd aff9 cdbd
000002a0: 0b80 d6bb b820 263c 8bc8 33bd ba28 3ebd
000002b0: 9187 2cbd bb36 8ebc 1352 41bd 8b39 76bd
000002c0: b482 bbbb b3f4 25bc 3875 81bc 9957 09bc
000002d0: 5c60 5abc acc6 abbc b6d7 d0bc 8984 97bc
000002e0: bc4b 87bc 90b2 ccbc ed93 fbbc a3b6 c5bc
000002f0: 1681 85bc 4059 bfbc 0c0c e0bc 1703 b2bc
00000300: 3917 f8bb f608 abbc 773f 393c 82d2 a43c
00000310: 0cfd 803c 4ca9 70bc 1de5 c1bc af93 a33a
00000320: cd02 b43c 00c7 d8bc 8161 09bc 24b5 ac3b
00000330: 6122 88bc 4343 6b3c cd7b 36bc 4930 a13c
00000340: 8e92 253d dcf5 0abc ec98 17bc 0b2d 6fbc
00000350: fa69 203d 5ad6 96bc 59ec 5dbc d9d1 39bd
00000360: 6685 4d3c 9665 803c db7a 173c 88ba acbc
00000370: aa00 2f3c 6f41 ccbc 842d c6bb fac5 c7bc
00000380: 5300 9dbc 5af6 c0bc ab1c 63bc 7ad3 58bc
00000390: 3b55 74bc 8450 ecbb 102d 54bb b180 eaba
000003a0: ae3c 0dbc bea2 a9bb fa19 cbba b539 0bbb
000003b0: 9414 20bb 14ee 86ba c83c 953b c13b 7c3b
000003c0: f3ad 2fba a63c c1ba 609f e7ba 3ddd f0ba
000003d0: 44a8 a2ba d2f9 3dbb 4435 4ebb 1e6a 56bb
000003e0: dbd8 e4ba c397 14bb ad3c 57bb fd2f 62bb
000003f0: 8c44 eaba 8bb0 1dbb e5cf 79bb 976d 75bb
-0.04161565 -0.045387212 -0.0052731987 -0.0021902241 -0.0414629 -0.041145355 -0.015101608 -0.004719018
-0.023340117 -0.02733503 -0.027642934 -0.01408731 -0.04269022 -0.025422938 -0.014753533 0.022335561
0.007921073 -0.0093744295 -0.05097831 -0.04586619 -0.00070242863 0.013985231 -0.036282837 -0.024573617
-0.02484748 -0.032120686 0.0139294695 0.020268971 0.010401592 0.0118105505 0.02834279 0.019620514
0.0011739953 0.0008668066 0.00063952507 0.00019392275 0.0011909354 0.0008108478 -0.0008299601 -0.0020427166
0.00022853866 -0.00072460005 -0.0027918636 -0.0036490555 0.0008056066 -0.0009670727 -0.003039668 -0.0036035331
-0.00574373 -0.002731003 -0.0044935513 -0.014122472 -0.006744669 6.124422e-05 -0.00071540556 -0.006009066
-0.00638994 -0.003840212 -0.0026658915 -0.0061268564 -0.013348908 -0.00010248402 -0.0013166999 -0.008207535
0.0020728048 -0.025615003 -0.064276 -0.04033028 -0.0096899355 -0.0081925355 -0.014875344 -0.0024560278
-0.032570343 0.006942863 -0.026978783 -0.023203738 0.042188495 0.007047106 0.017006984 0.029226081
-0.010487613 -0.034244034 -0.06365855 0.02256667 0.00908129 0.017592836 -0.00013941864 -0.019075606
-0.014433773 0.029213311 -0.0011319424 0.000115820425 -0.022853909 0.016927822 -0.020481009 0.008463524
0.01279124 0.0645705 0.055714734 -0.01880896 0.03342355 0.09870527 0.030103697 0.012134294
0.06123855 0.10909847 0.06948786 0.0060816007 0.013364606 0.06995534 0.03166557 0.0014025221
0.028194966 -0.02890011 -0.05404876 -0.013958597 -0.01670333 0.013463621 -0.08749935 -0.032746255
-0.022975959 -0.043881875 -0.048677117 -0.053150877 -0.033865914 -0.023250755 -0.04687581 -0.036936566
-0.0024934716 -0.0055239173 -0.0017341315 -0.0022678946 -0.007908547 -0.010916391 -0.006438165 -0.007685558
-0.011146069 -0.016346507 -0.017056348 -0.012999383 -0.012860602 -0.019832043 -0.017896632 -0.014592206
-0.06569776 -0.05592068 -0.06395004 -0.059439093 -0.072266035 -0.04354971 -0.081427224 -0.04431176
-0.047553923 -0.051396083 -0.07961804 -0.06633047 -0.0064235153 -0.009854194 0.0068475497 -0.021905698
-0.002442839 0.012661415 -0.054179203 -0.080029435 0.020171713 -0.042066026 -0.09104695 -0.10057389
-0.0065460256 0.010139637 -0.043892425 -0.04642556 -0.042121474 -0.017360082 -0.047197413 -0.06011347
-0.005722368 -0.010129142 -0.015802965 -0.008382701 -0.013328638 -0.020968758 -0.025493484 -0.018495815
-0.016515605 -0.024987489 -0.030710185 -0.02413494 -0.016296905 -0.023357987 -0.027349494 -0.021729989
-0.0075711277 -0.020878296 0.011306635 0.02011991 0.015745662 -0.014688801 -0.02366882 0.0012479926
0.021973992 -0.026462078 -0.008385063 0.005270617 -0.016617956 0.014359298 -0.011137915 0.019676344
0.04042297 -0.008481469 -0.009252768 -0.014598141 0.039163567 -0.018412758 -0.013545119 -0.045366142
0.012544012 0.01567344 0.0092456 -0.021085039 0.010681311 -0.024933545 -0.0060479064 -0.024386395
-0.019165194 -0.02355497 -0.013861815 -0.013234014 -0.014912899 -0.0072117466 -0.0032375492 -0.0017891136
-0.008620424 -0.005176871 -0.0015495413 -0.0021244113 -0.0024426328 -0.0010294341 0.004554365 0.0038487765
-0.00067016407 -0.0014742806 -0.0017671399 -0.0018376481 -0.0012409766 -0.0028988016 -0.0031464854 -0.003271706
-0.0017459647 -0.0022673465 -0.0032842562 -0.0034513467 -0.0017873212 -0.0024061527 -0.00381183 -0.0037449354

fc.bias f4 [6]
00000000: dd80 68bc d17a 1e3d 3970 e2bc 7286 7bbb
00000010: b13a babc 39f6 013d
-0.01419088 0.038691346 -0.027641403 -0.0038379696 -0.022733064 0.031728957
