robot/robot_exp5/code/python_pc/model_param/model2_0.916666567325592.pkl (torch, 33586 bytes, 6 tensors)

conv1.weight f4 [10, 3, 5, 5]
00000000: d5dd 9cba 8070 7cbc a5f7 3fbd 64cf 333d
00000010: 3144 2e3d 0354 2f3d 35d9 1fbc cc0b b43c
00000020: 5583 9e3d 021b 9f3d f467 683c c7c1 a43d
00000030: 33d3 8c3d 0817 903d 67e8 913d 50d1 353d
00000040: 7d13 083e c096 cf3d 6aa1 973d fa9f bc3d
00000050: ab58 6fbd 8537 623d 3b27 9c3d 85a0 0b3e
00000060: 4a2c 85bc 1449 60bd 9000 803c 2cf1 aa3c
00000070: e4c0 54bd 6fbf 81bd f953 00bd 99a6 99bd
00000080: 1f23 723d 63e1 3bbd ce54 4a3d 862d a33d
00000090: 1a27 113d 12f9 0d3e 883f 0dbd e566 59bd
000000a0: 8b9a fa3d c0a0 cb3d ed1f d93c 8dc6 fe3c
000000b0: 8450 463d 57b1 da3c f824 933d 6d2b 333d
000000c0: 4872 0f3e 8db9 8a3d f082 9a3c dce6 69bd
000000d0: a840 2fbe 7333 97bd 094d 2fbe b24c 2cbe
000000e0: 180f 31be f805 2bbe 4ea6 a1bd a2ee d3bd
000000f0: 3106 d0bd 4497 04be c6e8 30bd 2325 06be
00000100: 07d6 29be 5fd1 2e3d e4dd 86bd a42d 3bbc
00000110: d829 72bd 1dd3 bdbb 6118 fbbd cd73 ac3d
00000120: 48dd dfbd 3202 42bd 3587 94bb 2b30 f13d
00000130: 9c7e 073e 1aee 1cbd ae68 d83c bd8e 873d
00000140: b196 a13d 4928 36bd 0cf8 e23d 31d4 503c
00000150: 857d 703d c70f 0b3e 7be7 6e3c 202a 97bc
00000160: c325 05bd 9a79 823c c20b 6c3d ee48 fb3d
00000170: baba bc3c 98d6 47bc f62b b9bd 5639 5cbd
00000180: 2ae5 093d a4b1 66bd 2a0b a6bc 1462 78bc
00000190: 87a5 c83c 1b33 0a3c 3eb8 c83d 94a5 d03d
000001a0: e8bd b1bd b442 713d 4fc9 37bd 351b 71bb
000001b0: d133 e13d 1975 6c3d 0e0a 923d 8775 08bc
000001c0: dcd5 82bd dce9 303c 2720 c03d c12b d03c
000001d0: 9685 c43d d3eb 81bd c93e 823d 8a07 10bd
000001e0: 5d59 ce3d 5d15 ddbc 1129 e43c 78a8 753d
000001f0: 02ff e13d f108 073e 8087 2cbc 560e 683c
00000200: 3063 fd3c adb4 f93d 38f5 0f3d 69c2 d83d
00000210: 88f2 e93c 2933 f83b 186b 873c f6cc dd3c
00000220: 00f2 5b3c 9773 30bc 95fc 26bd 4b95 1f3d
00000230: 08a0 733b 8ab4 d83d 08f9 ef3d 5e69 ee3d
00000240: fa1e 493d 20b5 e33d 7a31 b23d f4dc d83d
00000250: 6b1d cf3d d1df bd3d a43e 433c e46c 80bd
00000260: c78b b3bd aae5 463c 1b08 df3d 5f1e 983c
00000270: a72e 683d 361d e83b 24b1 cebc 47b8 b23d
00000280: 0279 3dbc 3956 fe3b cdc5 d8bd 8aa4 65bd
00000290: 59f2 363d 0675 aa3d 2e2e e63d 8457 ea3d
000002a0: f019 e63d 058b 933c 88a8 71bc e7e5 a93d
000002b0: ccf2 923c ea5a cc3d e291 f03d 2cbf 3dbd
000002c0: ee31 c83c 51c5 613d b1fc 47bd 631f e73c
000002d0: 3f3e 903d 6f63 a5bd 65d3 d9bd 30e0 b7bd
000002e0: efbf 2e3a af10 7d3d 9d19 8fbd f3e2 d4bd
000002f0: 881b b13d 5943 b23d 789d 7c3d e20e 113d
00000300: 0065 e03d 1374 a0bc c723 80bd 6562 aabc
00000310: 0d06 a63d 69af 0c3e 1397 debc 79ce 0bbd
00000320: 196f 84bd 533f 09be a478 2b3c 9693 85bc
00000330: 8041 f83d 9406 4ebd 905f 2bbe 6f7a 2abe
00000340: 0c6e c8bd 01b7 b43d 666a 23be 2c21 91bd
00000350: 3777 06be d31a f4bd eaca a73c ab8d d8bd
00000360: 840a 10bd fd57 9e3d 5d5b 31bd a355 f93d
00000370: b432 a5bd 5e2f 9ebd 248f cd3d f415 cc3a
00000380: e71a b43d fa2c 2dbd 33b9 a2bd 6898 dabd
00000390: 6f1c 08bb e074 b2bd be24 0bbe 9441 d7bd
000003a0: 2a38 a83c 0f83 f83c cf04 7cbd a4ae 47bd
000003b0: 0bf9 7c3d e43d 9abd ee81 253d c060 9b3d
000003c0: ea05 0ebc a609 0abd a319 6bbd 6c65 1a3d
000003d0: 44f8 873d b93d e03d 1f85 9e3d 2439 9dbc
000003e0: 1655 143d c50a cd3d 4c72 453d eb7c 823d
000003f0: 52c8 fd3c 242b 12be cc36 00be 8b82 da3c
-0.0011967967 -0.015407681 -0.04686703 0.043898955 0.0425455 0.04280473 -0.009756376 0.021978281
0.07739893 0.07768823 0.014184941 0.080447726 0.068762206 0.07035643 0.07124405 0.04438907
0.13288684 0.10136175 0.07403834 0.092102006 -0.05843417 0.05522873 0.0762467 0.13635452
-0.01625647 -0.054757193 0.015625268 0.020866953 -0.051941767 -0.06335341 -0.031330083 -0.07502479
0.059115525 -0.045869242 0.049397282 0.07967667 0.03543768 0.13864544 -0.034484416 -0.053076643
0.12236508 0.0994277 0.026504481 0.031100536 0.04841663 0.02669589 0.071847856 0.043742586
0.14008439 0.06773672 0.018861264 -0.05710493 -0.17114508 -0.0738286 -0.1711923 -0.16826132
-0.17290914 -0.16701496 -0.07893048 -0.1034825 -0.10157431 -0.12948328 -0.04319074 -0.13100104
-0.16585551 0.04268014 -0.06585291 -0.011424456 -0.059121937 -0.005792989 -0.12260509 0.08420525
-0.10930878 -0.047365375 -0.0045327195 0.117767654 0.13231891 -0.03831301 0.026417103 0.06619022
0.0789007 -0.044472013 0.110824674 0.012745903 0.058713455 0.13580237 0.014581556 -0.018452704
-0.032506716 0.015927125 0.0576284 0.122697696 0.023038257 -0.012197159 -0.09041588 -0.053765617
0.033665814 -0.056321755 -0.020268995 -0.015160102 0.024492992 0.008435036 0.098007664 0.101878315
-0.086788 0.058901504 -0.044869717 -0.0036789898 0.10996211 0.05772886 0.07130824 -0.008328802
-0.06388447 0.010797944 0.093811326 0.025411488 0.09595792 -0.06343808 0.063596316 -0.03516344
0.100756384 -0.026987726 0.027851613 0.059975117 0.11034967 0.13187005 -0.010530353 0.014163574
0.030931085 0.12192664 0.03514597 0.10583956 0.02855803 0.007574458 0.016530558 0.027075272
0.0134243965 -0.010769746 -0.040768225 0.038960736 0.0037174243 0.1058131 0.11717421 0.11641191
0.049101807 0.11118531 0.08700843 0.105890185 0.10113033 0.09271205 0.01191679 -0.06270769
-0.08766895 0.012139717 0.10890218 0.01856917 0.056685116 0.0070835603 -0.025230952 0.08726554
-0.011564495 0.0077617434 -0.105846025 -0.05606512 0.044664714 0.08323102 0.11239277 0.114424735
0.11235416 0.018010626 -0.014749654 0.082958035 0.01793804 0.09978278 0.11746575 -0.046324894
0.02443787 0.055119816 -0.04882497 0.028213209 0.070431225 -0.08075606 -0.106360234 -0.08978307
0.00066661736 0.06178349 -0.06987307 -0.1039485 0.08647829 0.08704252 0.06167361 0.035414584
0.10956764 -0.019586599 -0.06256824 -0.020798871 0.08106623 0.13738789 -0.027171647 -0.034132455
-0.06466503 -0.13403063 0.010465775 -0.016305726 0.12121868 -0.050299242 -0.16735673 -0.16648267
-0.09786615 0.08823968 -0.15958557 -0.07086405 -0.13131414 -0.11919179 0.0204825 -0.10573896
-0.03516628 0.07731626 -0.04330002 0.12174537 -0.080663115 -0.07723878 0.100370675 0.0015570507
0.08794194 -0.04227922 -0.0794548 -0.106736004 -0.00207689 -0.087136984 -0.13588235 -0.10510555
0.020534594 0.030335931 -0.061528023 -0.048750535 0.061760943 -0.07531336 0.040407114 0.07586813
-0.008668402 -0.033700608 -0.057397496 0.03769438 0.0663915 0.10949273 0.077402346 -0.019192286
0.036213957 0.1001182 0.048204705 0.063714825 0.03097931 -0.1427427 -0.12520903 0.026673576

conv1.bias f4 [10]
00000000: 3d79 763d a0ee afbd 87c0 b83c 36ef d83d
00000010: be93 f73d 8e03 003e 1493 85bc 1060 94bc
00000020: efbe 1d3d 07c7 7f3d
0.060174216 -0.08590436 0.022552742 0.10592501 0.120887265 0.12501356 -0.016305484 -0.018112212
0.038512167 0.062445667

conv2.weight f4 [20, 10, 5, 5]
00000000: a3ce bfbc 9d55 3c3c ff04 01bd 1a9b 4abd
00000010: 93b9 88bd 98a1 473c 4a7d 423d 1510 79bc
00000020: 4b00 12bd ce7d 7fbd 3928 0f3d 8d01 8fbc
00000030: 538b 43bd 977e 66bc 8b14 0e3c ca05 033d
00000040: c121 0a3c 4ad5 86bd 8c23 1cbd f1bb 3fbd
00000050: dd14 21bc ad14 65bd 3c91 20bd 957e a7bc
00000060: 1a80 46bd a700 a73d dd2b 273d b391 243d
00000070: 048c e93c e614 313c 2a6e 823d 82a6 273d
00000080: 370d 863d 28bb ad3a 15f7 8e3c e524 56bd
00000090: ce04 1abd 3c1f 083c 5109 25bd 206e e43b
000000a0: 43c4 94bc 5bef 2c3d 0cf2 473d 1e26 c23c
000000b0: 7d4b ecbb 80f7 a83c d90c bbbc a055 f1bc
000000c0: adee abbc 544d 383b 35d0 633d b69b 00bd
000000d0: 2f40 f4ba 7517 02bd 7ab0 9bbd 5286 263d
000000e0: 5169 433d 926d eabc f624 a0bc bd07 65bc
000000f0: a0df 093d d107 bd3d a88f a1bc 9d54 293c
00000100: 9c3a 95bd 82e4 773d f92f 8b3d 6f91 90bc
00000110: 1b6a 98bc 22f9 6cbc 816b c63d c053 383d
00000120: fee4 cabc cc27 053c 48e6 b23c c006 d23c
00000130: 5e67 593d 6896 57bd a9ca 76bd 9352 62bd
00000140: c2ad 17bd ac7f 08bd f6d2 12bd 1e09 d9bc
00000150: 750a 5e3c 1aaf aebc 5f65 8db9 50e4 823d
00000160: 464f 5b3d faf3 3d3c c889 bdba 737b 243c
00000170: 5dc7 e43c 4cf4 a53c bcac 5ebc ce2b b33c
00000180: 36ac 8ebc a059 b2bc c14e b03d 6fb3 713d
00000190: 667a 86bc d29e 1e3d fa69 513c cbe6 f03c
000001a0: cb46 b33d bae9 ccbc cafb cd3c e8f2 1c3b
000001b0: 102d 6a3d e4ec d43d 959f 6ebd 8c85 ae3c
000001c0: cc12 6d3d 00bd 813d 4a98 a03d 63d8 64bc
000001d0: 8e5f 873c 0271 5a3d b233 f93c a7cf 8a3d
000001e0: ff2e 2ebd 0666 0a3d 7609 393c aa1d bc3d
000001f0: 75e7 af3d f049 223d 4473 d6bc 2d1e b73c
00000200: b1a7 cdbb cc20 3fbd fdfb 4c3c 7eef 38bb
00000210: 5d64 343c ebf5 9a3d 066c 0fb8 1e12 04bd
00000220: 43f5 68bd 7ae4 1dbd 5846 443d ee4d ecbc
00000230: bfc7 96bc b4c7 433b 78ef cbbc c49e 903c
00000240: 9440 493c be24 d33c f817 b5bc 0e7b ab3c
00000250: 2d45 e7bb 75b5 763d f461 62bc 56dd 793d
00000260: 5786 9cbc 7722 84bb 8bfd 2c3b ea40 d5bc
00000270: 980c 41bc faa5 ec3c b349 42bd 21bb 2dbd
00000280: 9e2e edbc 1b8e 38bd 82be ba3d 5e10 933d
00000290: 58af bfbc 11b3 3d3b edee 273d 38eb ffbb
000002a0: a1e2 afbb 232d 76bc c402 9f3c 15bf 383b
000002b0: c655 81bc dd16 3d3d 08e7 fb3c b804 b8bc
000002c0: c112 6c3d d61f 5137 c129 113d 1eaa 58bd
000002d0: 8f32 bdbc ccd6 153d 2b38 2bbd 71c3 9fbc
000002e0: 2d1e 11bd 88c8 12bd a000 3a3d 6f79 343d
000002f0: 243f 8cbd c7fe 98bd 39b1 92bd f4e3 023d
00000300: b076 3b3d 654a 68ba 3748 89bc e379 edbc
00000310: a626 503d 0d09 353d 5efc 2cbd 73a3 22bd
00000320: fb95 823d 55f8 893d a8ba 3d3d 50f1 90bd
00000330: 8552 89bd e43d 1ebc 63ae c5bc ea02 9b3b
00000340: d4f6 e9bc e200 65bd 3465 0b3d 1509 16bb
00000350: ea5d 4cbd 4262 9ebc 2e82 d23b 087e de3c
00000360: 8e8b 41bc eb44 c73b 22d4 a0bc fe8b 00bb
00000370: abc5 2d3c 669a 4ebd 9aa8 95bc ce17 ddbb
00000380: 5b00 383d c40a c938 8a93 213d 65ab 543b
00000390: ea0a 58bc 5b33 6dbd 0122 4939 f25c 1c3d
000003a0: 42e6 7f3c 9355 803d a5d6 e0bb efff cebc
000003b0: e88c 27bd d482 863d c10d 513d d4ee 313d
000003c0: 37d2 64bd 2a74 133d 3b21 513d 9936 673d
000003d0: 159f 013b 1c76 82bd f59e 463d a906 063d
000003e0: 2301 2c3c 029b 9d3d bedd a53c df13 cf3d
000003f0: c491 c83d 1a7b 233c be9d 103d 7869 4e3d
-0.023413962 0.011495021 -0.031498905 -0.049464323 -0.066760205 0.012184523 0.047482766 -0.015201588
-0.03564481 -0.062375836 0.03495047 -0.017456794 -0.04774029 -0.014068267 0.00867189 0.031987943
0.008430899 -0.065836504 -0.038119838 -0.046810094 -0.009831634 -0.05592792 -0.039201006 -0.020446101
-0.04846201 0.08154421 0.040813316 0.040178012 0.028509147 0.010808205 0.063686684 0.04093028
0.06545489 0.001325463 0.017451802 -0.05228128 -0.03760224 0.008308228 -0.040292088 0.0069711357
-0.018159991 0.042220455 0.04881482 0.023699816 -0.0072111473 0.02062583 -0.022833275 -0.029459774
-0.020987833 0.0028122263 0.055618484 -0.031398498 -0.0018634851 -0.03176065 -0.076020196 0.04065544
0.04770786 -0.0286167 -0.019548874 -0.013978896 0.03366053 0.092300065 -0.019721821 0.010335115
-0.072865695 0.060520656 0.067962594 -0.017647473 -0.018605283 -0.014463695 0.096884735 0.045001745
-0.024767395 0.008127164 0.021838322 0.025637984 0.053077094 -0.052633673 -0.060251866 -0.05525453
-0.037030943 -0.033324882 -0.03584572 -0.026493605 0.013552298 -0.02132373 -0.00026969143 0.063912034
0.053542398 0.011593813 -0.0014460618 0.010039198 0.027927095 0.020258091 -0.013590988 0.021871474
-0.017416101 -0.021771252 0.08608771 0.05900901 -0.016415786 0.03872568 0.012781614 0.029406926
0.08753737 -0.025013793 0.025144476 0.0023948494 0.05717188 0.10396746 -0.058257658 0.021303914
0.057879254 0.06334877 0.07841547 -0.013967606 0.016525056 0.05333043 0.030420158 0.06777888
-0.042525288 0.033788703 0.01129376 0.091853455 0.08589069 0.039621294 -0.02617801 0.022353256
-0.006276094 -0.046662137 0.012511251 -0.002821892 0.011010257 0.075664364 -3.419446e-05 -0.03224384
-0.056874525 -0.03854797 0.047918648 -0.028845754 -0.018405793 0.002987367 -0.024894461 0.01765383
0.012283463 0.025774356 -0.022106156 0.0209327 -0.007057807 0.060231645 -0.013817299 0.061002098
-0.019107027 -0.004032429 0.002639624 -0.02603193 -0.011782788 0.028887738 -0.047433566 -0.04241479
-0.028952893 -0.045057397 0.09118368 0.07180856 -0.02339904 0.0028945843 0.04099934 -0.0078100227
-0.0053675924 -0.01502541 0.019410498 0.0028190066 -0.01578797 0.046164382 0.030749813 -0.022463188
0.057635073 1.2464783e-05 0.03544021 -0.05289661 -0.023095397 0.0365818 -0.041801613 -0.019502373
-0.03542917 -0.035835773 0.045410752 0.04406112 -0.068479806 -0.0747047 -0.07162709 0.031955674
0.045767486 -0.00088611833 -0.016758068 -0.028988784 0.050818108 0.044198085 -0.042232864 -0.03970666
0.06376263 0.06736819 0.046320587 -0.07077277 -0.067051925 -0.009658311 -0.024131006 0.004730572
-0.02856008 -0.055909045 0.03403206 -0.0022893597 -0.04989425 -0.019333962 0.00642421 0.027159706
-0.011813058 0.0060812137 -0.019632403 -0.0019614692 0.01060621 -0.050440215 -0.018268872 -0.0067472225
0.044922214 9.586432e-05 0.039447345 0.0032450792 -0.013186196 -0.057910305 0.00019181521 0.038174577
0.015618863 0.06266322 -0.006861525 -0.025268523 -0.040905863 0.06567922 0.051038507 0.043440655
-0.05586454 0.035999455 0.05105708 0.056448553 0.0019778658 -0.06370184 0.048491437 0.032721195
0.010498318 0.07695581 0.020247336 0.10111212 0.097934276 0.00997808 0.035306685 0.05039355

conv2.bias f4 [20]
00000000: 5807 3b3d b234 cbbc 5729 1d39 b306 df3a
00000010: e75d 813b b555 0a3d dbd9 013d 8496 073d
00000020: 1e6f d13b a885 87bb d994 e9bc bbcb f83b
00000030: 1cd3 09bc 6ab0 d0bc 86b3 1a3b a8f9 d1b9
00000040: 8745 47bd 0ac1 ac39 63c0 13bd aa07 c73b
0.0456613 -0.0248054 0.00014988087 0.0017015546 0.0039479616 0.033773143 0.031701904 0.033102527
0.00639142 -0.004135806 -0.028513359 0.007592646 -0.008412149 -0.025474746 0.002360554 -0.00040049595
-0.04865029 0.00032950222 -0.036072146 0.0060739117

fc.weight f4 [6, 320]
00000000: 525c 18bd 1d88 64bd abc8 943c 5027 b2bb
00000010: 1336 16bd ad70 7dbd 0951 08bc ab9b 883b
00000020: 86e0 2ebb b3f9 87bc 818a b7bc e691 90bc
00000030: f5ca 56bd 8657 cdbc 115b 3dbc 2708 1a3d
00000040: edc6 dc3c c293 b53b 8c12 85bd 258c 67bd
00000050: 9b21 4e3c 39d0 173d abba 5dbd 235e fcbc
00000060: ab5a 17bd 3f86 42bd 61d8 c93c e9b1 2d3d
00000070: 2458 cf3c da48 783c d36d 203d 9ee1 1f3d
00000080: 99c1 d3b8 6683 c0b9 40a6 0ab9 71f3 73b9
00000090: b08d 2139 8e90 4139 d609 b9b9 8494 8fb7
000000a0: a4d9 1cba b85c 00b9 b413 f3b8 4471 f7b9
000000b0: af22 3538 c0ed dc35 ba34 83b9 b4cf 7eb8
000000c0: 7ff8 6b3b 93d3 1a3b fc9b 0aba cc1a a6bb
000000d0: 96bd bc3a 97f6 dd3b 1a6f 343b e93f 2fbc
000000e0: 8409 9239 cb52 8d3b 1780 cc3b c555 363c
000000f0: 903d 6339 d3c6 15bc 42da 963a f10f 39bb
00000100: 86fd c53c 6fa2 fbbb 4d25 93bd 4ee9 14bd
00000110: c9c9 aa3b 6d96 1f3c 8464 a8bb 0628 823c
00000120: 6ef4 13bd 0896 b03c 9f8c 12bd 6849 99bc
00000130: f5c7 6c3d 2330 6e3c cbc6 f73c 17e8 363d
00000140: e626 483b bc9c fcbc 03f0 8cbd 24b6 1e3d
00000150: afd2 f23c 8fb7 103d 4813 653c 536f 77bc
00000160: 491a 5fbc 39e4 483d ca14 513b 7faa 633b
00000170: 4293 dabc 7659 d53c a9d6 afbc 205c 243c
00000180: b761 303c 342e 7a3d 8894 633d de59 e4bc
00000190: 35f8 e53c 968d dc3d a3e8 6a3c aff0 333c
000001a0: 3e41 8a3d d148 e93d 9fd5 763d b09c fbba
000001b0: b53b 0bbc e072 a53d 1ef5 993c e6d8 96bb
000001c0: 7f92 063d 5bc4 34bd 67d2 7dbd 183c c2bb
000001d0: b37e 73bc bc91 db3c fe5e afbd 6b17 88bc
000001e0: a34e a3bc 4227 26bd d954 0abd c65e 34bd
000001f0: 4d68 06bd fd80 9dbc 7cfb 25bd 798a dfbc
00000200: a09b 92bb 8438 9fba a9ca f33b dd2c 463b
00000210: f3d2 0fbc 75bc 8d3b 7647 9a3b fbad af3a
00000220: a16a 42bc 9e50 83bb 120d 243a 4895 19bb
00000230: 4426 4abc 10f5 03bc 8fab 07bb a590 a1bb
00000240: 6ad5 9bbd 1424 66bd e403 95bd 6bd9 9cbd
00000250: 9d5d a5bd 3664 d7bc 734b d6bd 1b4d 3ebd
00000260: e668 40bd 6587 5dbd 8db6 d4bd a16c c3bd
00000270: f620 553c 317e 573b 4941 d23c 3df0 05bd
00000280: d2d0 2e3b d1d8 ef3c 6e0f 82bd c849 bfbd
00000290: c437 203d c361 16bd 3b61 bfbd 05d3 eabd
000002a0: 043a 383b b11b 013d 389f 18bd e7d3 21bd
000002b0: 55e6 22bd cc34 92ba 845f 22bd 4310 71bd
000002c0: 305f 2abc 44c2 5ebc 9ff5 71bc 68dd 65bc
000002d0: 9c12 5dbc f37a 87bc 87d6 8bbc c714 6cbc
000002e0: 6e05 6dbc d476 97bc 8d76 9bbc 2659 8abc
000002f0: d0bc 80bc d147 85bc cd9d 88bc df0e 85bc
00000300: 740c d9ba fca5 0cbd d3eb f23c b8b6 2b3d
00000310: 4914 333d bdc5 e6bb a943 30bd 18ed 5d3b
00000320: cec6 2b3d 8b0b 52bd c36d 9bbc eaf4 a83b
00000330: 6ab0 c5bc f198 f73c 1b27 5bbc df94 053d
00000340: 237a 6e3d 4f5c c7bb 49db c0bb cb3c 66bc
00000350: f2bb 6b3d 9354 99bc 2fa7 f7bb 170b 5dbd
00000360: cb55 a23c eab9 183d e46b f83c 809b 81bc
00000370: 4095 cd3c d8aa 77bc 148c 343c 6778 a2bc
00000380: 9df4 95bc b215 dfbc 8449 6ebc ea20 69bc
00000390: dd83 25bc 1c6e c7bb 3f66 9f39 2246 76ba
000003a0: 2c2b 63bb 0d0c a33a 88fb 9bba 3db4 72bb
000003b0: 5b6b d83b 0631 433b 1985 183c bfd5 223b
000003c0: 985a 5139 5ce5 9339 3481 8bb8 a5e2 5bb9
000003d0: 47bf 8739 ce3f e238 3c22 3038 c96d 1fb9
000003e0: 0cf7 cfb7 ce17 92b9 88d8 91b9 c6fd 7839
000003f0: 6c62 5fb7 a033 1937 91fa 9eb7 7464 1c39
-0.03719742 -0.05579387 0.018162092 -0.0054368153 -0.036672663 -0.061875034 -0.008320102 0.0041689477
-0.002668412 -0.016598558 -0.022404911 -0.017647695 -0.05243965 -0.025066148 -0.011557356 0.03760543
0.026950324 0.0055412957 -0.06497678 -0.056530137 0.012581254 0.03706381 -0.0541331 -0.030806607
-0.036951702 -0.04749131 0.02463931 0.042405996 0.025310583 0.015154088 0.039167237 0.039033525
-0.000100973244 -0.00036718993 -0.00013222639 -0.00023264975 0.00015406939 0.00018459765 -0.00035293278 -1.7116086e-05
-0.0005983359 -0.00012241572 -0.00011590813 -0.000471959 4.3186064e-05 1.6460472e-06 -0.0002502555 -6.0751758e-05
0.003600627 0.0023624643 -0.0005287526 -0.0050691124 0.0014399763 0.0067737806 0.0027532042 -0.01069639
0.0002785438 0.004312848 0.0062408554 0.0111288475 0.00021671341 -0.009141642 0.0011509138 -0.0028238262
0.024168741 -0.0076792757 -0.07184849 -0.03635531 0.005212043 0.009740454 -0.0051389355 0.015888225
-0.03612178 0.021555915 -0.035778638 -0.01871176 0.05780788 0.014537844 0.030246159 0.044654932
0.0030540763 -0.030836456 -0.06881716 0.03874792 0.029641477 0.035331305 0.013981648 -0.015102225
-0.013617107 0.049045775 0.003190326 0.0034739075 -0.026681546 0.026043635 -0.021464663 0.01003173
0.0107654845 0.06107922 0.055561572 -0.027874883 0.028072456 0.10769193 0.0143376915 0.010982676
0.06750725 0.11390842 0.06026232 -0.0019196477 -0.008498122 0.08078551 0.018793639 -0.004603493
0.032854553 -0.04413257 -0.061968233 -0.005927574 -0.01486175 0.02680289 -0.0856304 -0.016612729
-0.019934958 -0.040564783 -0.033772323 -0.044035695 -0.032814313 -0.019226545 -0.040523037 -0.027287709
-0.0044741184 -0.001214758 0.0074399305 0.0030239143 -0.008778322 0.0043254443 0.004708226 0.0013403291
-0.011866243 -0.004007413 0.0006258051 -0.0023434926 -0.012338225 -0.008054033 -0.0020701622 -0.004930573
-0.07609065 -0.05618675 -0.07276133 -0.07658657 -0.08074496 -0.026292901 -0.104636095 -0.046460252
-0.04697504 -0.0540842 -0.10386381 -0.09542204 0.013008347 0.0032881612 0.025665896 -0.032699812
0.002667476 0.02927819 -0.06350599 -0.093402445 0.039115682 -0.036714327 -0.09344717 -0.1146603
0.0028110752 0.03152055 -0.037261218 -0.039508726 -0.039770443 -0.0011154651 -0.039641872 -0.0588534
-0.010398671 -0.013596121 -0.014768033 -0.014029838 -0.013493206 -0.016538119 -0.017070068 -0.014409251
-0.014466627 -0.018489279 -0.018977428 -0.016888212 -0.015715033 -0.016269596 -0.016676808 -0.016242443
-0.0016559497 -0.034337983 0.029653465 0.0419223 0.043720517 -0.007042615 -0.043033276 0.0033863243
0.04193764 -0.05128054 -0.018973237 0.005156149 -0.024131972 0.030224295 -0.013376023 0.032612678
0.058221947 -0.006084002 -0.005885516 -0.01405258 0.057552285 -0.018717086 -0.0075577716 -0.053965654
0.0198163 0.037286676 0.030324884 -0.015821218 0.025095582 -0.015116416 0.011019725 -0.019832803
-0.018305117 -0.027232025 -0.014543895 -0.014229039 -0.010102239 -0.006086124 0.00030403023 -0.0009394606
-0.0034663184 0.0012439504 -0.0011900524 -0.00370337 0.0066045946 0.002978386 0.009309077 0.002484664
0.00019965542 0.0002820891 -6.6521025e-05 -0.00020969899 0.0002589172 0.00010788404 4.1993553e-05 -0.0001520432
-2.4791363e-05 -0.00027865026 -0.00027817884 0.00023745661 -1.3314751e-05 9.1315305e-06 -1.8951747e-05 0.00014914741

fc.bias f4 [6]
00000000: 30d0 e7bc 6df6 203d 6daa 00bd 9e6e 03bb
00000010: 554f acbc 6fe9 293d
-0.028297514 0.03929751 -0.03141253 -0.0020054947 -0.021033922 0.041482385
