robot/robot_exp5/code/python_pc/model_param/model0_0.1666666716337204.pkl (torch, 32791 bytes, 6 tensors)

conv1.weight f4 [10, 3, 5, 5]
0	0xbcc77e73	-0.024352288
1	0xbd5447ae	-0.05182617
2	0xbd8b9371	-0.068152316
3	0x3cd0fa17	0.025509877
4	0x3d1bd4a7	0.038044598
5	0x3cab9057	0.02094285
6	0xbd14243a	-0.03616736
7	0xbbf6a367	-0.0075268033
8	0x3d5e9cb0	0.054348648
9	0x3d80dafb	0.06291767
10	0xbca780f2	-0.020447228
11	0x3d754b55	0.059886295
12	0x3c104961	0.008806557
13	0x3d049309	0.032366786
14	0x3d39198e	0.045190386
15	0xbbe988d4	-0.007126907
16	0x3d965599	0.07340545
17	0x3cf28417	0.029604001
18	0x3c9918bc	0.018688552
19	0x3d0b4c6b	0.034008425
20	0xbdd27c77	-0.10277646
21	0xbca14207	-0.019684805
22	0x3bded2e3	0.006800042
23	0x3d89dd58	0.06731671
24	0xbda42069	-0.08013994
25	0xbda4737a	-0.08029838
26	0xbc426ea2	-0.011867197
27	0x3ccf0e1a	0.025275279
28	0xbd9742cd	-0.07385788
29	0xbd8846b7	-0.06654113
30	0xbd537f08	-0.05163482
31	0xbdbfaae3	-0.09358766
32	0x3d4f20c3	0.050568353
33	0xbd91cb56	-0.071188614
34	0x3d3d1802	0.046165474
35	0x3d72579e	0.05916559
36	0x3cef7e49	0.029235022
37	0x3dc9ac6c	0.0984734
38	0xbd937ea0	-0.07201886
39	0xbd9f6e0c	-0.07784662
40	0x3da44a12	0.0802194
41	0x3d366cd4	0.04453738
42	0xbd2cd8b8	-0.042198867
43	0xbc56b9b8	-0.013105802
44	0xbbcec22b	-0.0063097677
45	0x3b1d55cd	0.002400744
46	0x3b085f07	0.0020808594
47	0xbc86b57e	-0.016443964
48	0x3da56740	0.08076334
49	0x3ce518d8	0.027965948
50	0x3db4452d	0.08802257
51	0x3c42d387	0.011891252
52	0xbdd2cd0c	-0.10293016
53	0xba03e7a9	-0.00050317735
54	0xbdceb851	-0.10093749
55	0xbde3540f	-0.11100017
56	0xbdd5767c	-0.1042299
57	0xbdd624f1	-0.10456265
58	0x3b7b316e	0.0038329023
59	0xbd1737a8	-0.036918312
60	0xbd49b56f	-0.049245294
61	0xbd7812cd	-0.060564805
62	0x398361fc	0.0002505927
63	0xbd8a7d76	-0.06762211
64	0xbde7543f	-0.112953655
65	0x3d837baf	0.06420075
66	0xbd6fcb16	-0.058543287
67	0x3c52cbe9	0.012865999
68	0xbc8833c6	-0.01662625
69	0x3c8b2d7e	0.016989466
70	0xbdbb7a74	-0.091542155
71	0x3da85a17	0.08220308
72	0xbdbfeaa6	-0.093709275
73	0xbd3b3389	-0.045703445
74	0x3cbc733e	0.02300417
75	0x3db8c286	0.090214774
76	0x3de7f2cd	0.113256074
77	0xbdb1c215	-0.08679596
78	0x3c3c9048	0.011509009
79	0x3d99aa24	0.07503155
80	0x3d325e7a	0.04354713
81	0xbdb8d062	-0.09024121
82	0x3dc4cc36	0.09609263
83	0xbcc4d93d	-0.024029369
84	0x3d44513a	0.047929026
85	0x3ddbd320	0.10733628
86	0xbc834cba	-0.016027797
87	0xbd634502	-0.055485733
88	0xbd85d252	-0.06534256
89	0x3ba1a061	0.0049324487
90	0x3bae805e	0.005325361
91	0x3dc606bb	0.096692525
92	0xbbaf6c57	-0.0053534913
93	0xbd25e152	-0.040498085
94	0xbdfc8d57	-0.12331646
95	0xbdeae093	-0.114686154
96	0x3bac1547	0.00525156
97	0xbdcf9c3c	-0.10137221
98	0xbd6eac8e	-0.05827003
99	0xbd4942a1	-0.049135808
100	0xbc8c858a	-0.01715352
101	0xbcd28225	-0.025696823
102	0x3da4d0e1	0.08047653
103	0x3dd17b78	0.10228628
104	0xbdd7d2ce	-0.10538255
105	0x3ca17aea	0.01971193
106	0xbdb0f8a6	-0.08641176
107	0xbd1a96f8	-0.03774163
108	0x3db3436e	0.087530956
109	0x3d2da71c	0.042395696
110	0x3d03cbe2	0.03217686
111	0xbd2841ff	-0.041078564
112	0xbddeaeda	-0.10873194
113	0xbbb6747a	-0.0055680843
114	0x3dc279f5	0.09495918
115	0xbd03ce0a	-0.032178916
116	0x3d9186ef	0.07105815
117	0xbdcd131e	-0.10013412
118	0x3d611006	0.05494692
119	0xbd3cdb49	-0.046107564
120	0x3d83fd10	0.06444752
121	0xbd6ca86e	-0.057777815
122	0x3ba08a73	0.004899317
123	0x3d27f59c	0.041005716
124	0x3dc85f6d	0.09783826
125	0x3dca484e	0.09877072
126	0xbd9e10db	-0.07718059
127	0xbd65a831	-0.056068603
128	0xbc7ffac3	-0.015623751
129	0x3dd62dbe	0.104579434
130	0xbcb53f84	-0.022125013
131	0x3d7a6133	0.061127853
132	0xbd033bf3	-0.032039594
133	0xbd714c99	-0.05891094
134	0xbc98b1f1	-0.018639537
135	0xbd11ab37	-0.035563674
136	0xbd3c95ac	-0.046041176
137	0xbda9d3b7	-0.082923345
138	0xbde48773	-0.111586474
139	0x3c5462a6	0.012962973
140	0xbda02016	-0.0781862
141	0x3d88c938	0.066790044
142	0x3da4c38b	0.08045109
143	0x3db4c757	0.088270836
144	0x3c9479c2	0.018124465
145	0x3d84e89b	0.064896785
146	0x3d504b6e	0.050853185
147	0x3d84c246	0.06482367
148	0x3d819de2	0.06328942
149	0x3d6cb74f	0.057792004
150	0x3c28613f	0.0102770915
151	0xbd823194	-0.063571125
152	0xbdcfa202	-0.101383224
153	0x3cc579d0	0.024105936
154	0x3dba9d31	0.09112013
155	0x3c39416f	0.0113071045
156	0x3dcfe44d	0.10150967
157	0x3d49fb22	0.049311765
158	0xbb1d58a5	-0.0024009135
159	0x3d936bcc	0.07198295
160	0xbc383bdf	-0.011244743
161	0x3ca04a0c	0.019566558
162	0xbdb58c01	-0.08864594
163	0xbd8c7007	-0.06857305
164	0x3caaa3cc	0.020830058
165	0x3da155ca	0.07877691
166	0x3db37c1c	0.08763906
167	0x3da64b8b	0.081198774
168	0x3dc41340	0.09573984
169	0xbc975ca7	-0.018476797
170	0xbd7a172b	-0.06105725
171	0x3d1e7537	0.038686004
172	0xbd2ce9d2	-0.042215176
173	0x3d8af4a4	0.06784943
174	0x3dae0f8f	0.08499061
175	0xbd8b7676	-0.06809704
176	0x3d0f96cc	0.03505592
177	0x3d7285a1	0.05920947
178	0xbd5c0648	-0.053716928
179	0xbc5e7fe8	-0.0135803
180	0x3d89edf6	0.067348406
181	0xbdb63844	-0.088974506
182	0xbddacc31	-0.10683478
183	0xbdb8e54f	-0.09028112
184	0xbd347f1d	-0.044066537
185	0x3d9f56ad	0.07780204
186	0xbdb953e2	-0.090492025
187	0xbdc98cfa	-0.09841342
188	0x3dd1a2bb	0.102361165
189	0x3d83b8a6	0.06431703
190	0x3d1d4853	0.038399052
191	0xbc84ad0c	-0.016195796
192	0x3d9589b6	0.07301657
193	0xbd617811	-0.055046145
194	0xbde286ad	-0.110608436
195	0xbda2f69d	-0.07957194
196	0x3d05ddaf	0.032682117
197	0x3dbfd3b7	0.09366553
198	0xbd910a02	-0.07081987
199	0xbdaef396	-0.08542554
200	0xba691ba8	-0.0008892366
201	0xbd92fe11	-0.071773656
202	0x3d98885b	0.07447883
203	0x3cd4eea0	0.025992692
204	0x3dda0356	0.106451675
205	0x3c807d0e	0.01568463
206	0xbdb51b8b	-0.08843144
207	0xbdb53ada	-0.08849116
208	0xbd3e206f	-0.04641765
209	0x3d987e75	0.07445995
210	0xbdd14f76	-0.10220234
211	0x39fa7be8	0.00047776033
212	0xbd7d92e3	-0.06190766
213	0xbddca6d1	-0.10774005
214	0xbbde0798	-0.0067758076
215	0xbd9f07b5	-0.07765142
216	0xbcac5da6	-0.021040749
217	0x3d9decbc	0.07711169
218	0xbd7b06bf	-0.06128573
219	0x3dd7ab27	0.105306916
220	0xbd854973	-0.0650815
221	0xbdbabdfa	-0.091182664
222	0x3db1025f	0.086430304
223	0xbca8cdbe	-0.020605918
224	0x3d642261	0.05569685
225	0xbcdfede3	-0.027335113
226	0xbd82950a	-0.06376083
227	0xbdbcb950	-0.09215033
228	0x3d6ae440	0.057346582
229	0xbd1160c1	-0.035492662
230	0xbdee467e	-0.11634539
231	0xbdb8ccb8	-0.09023422
232	0x3cfaf275	0.03063319
233	0x3d11e49c	0.03561841
234	0xbd75402f	-0.059875663
235	0xbd4423f2	-0.047885843
236	0x3d847841	0.06468249
237	0xbdad0af5	-0.084493555
238	0x3d437788	0.047721416
239	0x3da299ab	0.07939466
240	0xbc8b0a41	-0.016972663
241	0xbd954567	-0.07288628
242	0xbdb4e554	-0.08832803
243	0x3caa7092	0.02080563
244	0x3d53f0d3	0.05174334
245	0x3dbc95ee	0.09208284
246	0x3d280fec	0.04103081
247	0xbd7e53c4	-0.062091604
248	0x3d111efc	0.03542994
249	0x3dc28f92	0.0950004
250	0x3d9f09bf	0.07765531
251	0x3dd8f772	0.105940714
252	0x3d926d09	0.07149703
253	0xbdc358aa	-0.09538396
254	0xbd9d57f5	-0.07682792
255	0x3d9ca875	0.07649318

conv1.bias f4 [10]
0	0xbc970699	-0.018435763
1	0xbddd693c	-0.108110875
2	0xbd2e0af3	-0.04249091
3	0x3db914d6	0.09037177
4	0x3da52e76	0.08065502
5	0x3d6344b2	0.055485435
6	0xbd5bfcd6	-0.05370792
7	0xbbbd74ed	-0.005781761
8	0x3d894b03	0.067037605
9	0x3d2ff778	0.042960614

conv2.weight f4 [20, 10, 5, 5]
0	0xbd5d95a1	-0.054097775
1	0x3c2393ad	0.009983939
2	0xbd278ba8	-0.04090467
3	0xbd28c695	-0.041205008
4	0xbd764ca2	-0.060131676
5	0xbca21c2a	-0.01978882
6	0x3d17a26e	0.03702014
7	0xbccd8f65	-0.02509279
8	0xbd0fb036	-0.035080157
9	0xbd809817	-0.06279009
10	0xba91b0a1	-0.0011115262
11	0xbbff7481	-0.007795871
12	0xbd391012	-0.04518134
13	0x3d1b39cb	0.037896913
14	0x3d3754be	0.04475855
15	0x3c06db65	0.008231019
16	0x3ba54202	0.005043269
17	0xbd68df7f	-0.056853767
18	0x3c3980f3	0.011322248
19	0x3a777e78	0.00094411476
20	0xbd584d77	-0.05280825
21	0xbd478d07	-0.04871848
22	0x3bfff41f	0.007811084
23	0xbcb2e97b	-0.021839848
24	0xbd4aa80f	-0.04947668
25	0x3d5235bb	0.051320773
26	0x3d06c780	0.0329051
27	0x3c5f3967	0.013624526
28	0x3cb1f1c8	0.021721736
29	0x3cc99b78	0.024610266
30	0x3d2ec09e	0.042664163
31	0x3c7d773b	0.015470321
32	0x3d2e6562	0.042577155
33	0xbc05170a	-0.008123169
34	0x3d1ee3b1	0.038791362
35	0xbd9631b7	-0.07333701
36	0xbd87079d	-0.06593249
37	0xbc17f574	-0.009274829
38	0xbd6898e7	-0.056786444
39	0x3cda10aa	0.026619274
40	0xbc18ed2d	-0.009333891
41	0x3d208f23	0.039199006
42	0x3d348f8a	0.044082202
43	0x3d256d43	0.040387403
44	0xbc21f4f9	-0.009885066
45	0x3d383073	0.04496808
46	0xbcef2af2	-0.029195283
47	0xbd3dbe86	-0.046324275
48	0xbc6a8aa4	-0.014315281
49	0xbca0cd43	-0.019629126
50	0x3d58cd2d	0.052930046
51	0xbd7fd323	-0.062457215
52	0x3c69df96	0.014274498
53	0xbcf54a97	-0.029942794
54	0xbd2c4fd3	-0.042068314
55	0x3c9029f4	0.01759813
56	0x3d02b6f3	0.031912755
57	0xbd65dc09	-0.056118045
58	0xbccd26ab	-0.025042852
59	0x3c97845f	0.018495737
60	0x3cd3298a	0.025776643
61	0x3d5b4a03	0.05353738
62	0xbce7306e	-0.028221335
63	0x3d137d84	0.036008373
64	0xbd92d7ad	-0.07170043
65	0x3d538e38	0.051649302
66	0x3d3cdf80	0.046111584
67	0x3b98e28b	0.004665678
68	0xbc112002	-0.008857729
69	0x3c241c01	0.010016442
70	0x3d80b92d	0.062853195
71	0x3d59d1e0	0.053178668
72	0xbc08bd0c	-0.008345854
73	0x3c82767c	0.015925638
74	0x3cf86643	0.0303222
75	0x3d1da28c	0.038485095
76	0x3d102735	0.03519364
77	0xbd5ccf4f	-0.053908642
78	0xbd90a716	-0.07063119
79	0xbd7ef623	-0.062246453
80	0xbd0bc1b5	-0.03412028
81	0xbd424db0	-0.04743737
82	0xbd7bcddd	-0.061475623
83	0xbd6bfe5f	-0.057615634
84	0x3cb41edf	0.021987377
85	0x3b66cac8	0.0035216082
86	0xbd064635	-0.0327818
87	0x3c00b2c8	0.007855125
88	0x3cd93a45	0.026517043
89	0xbc3b30dd	-0.011425224
90	0x3c3a2d7e	0.011363385
91	0xbca5db1b	-0.02024608
92	0xbc984c1a	-0.018590976
93	0xbc77c77e	-0.015123246
94	0xbd54c606	-0.051946662
95	0x3cf8c8bd	0.030369157
96	0xbd879f60	-0.06622195
97	0xbd80e9fd	-0.0629463
98	0x3d681de9	0.05666915
99	0x3d452878	0.048134297
100	0xbd3e06d8	-0.046393245
101	0xbd523e44	-0.051328912
102	0xbc7446a4	-0.01490942
103	0xbc9db9d2	-0.019253645
104	0x3c8618b2	0.016369198
105	0x3aa95459	0.0012918814
106	0x3cf79187	0.03022076
107	0xbd100572	-0.035161443
108	0x3c04aa10	0.008097187
109	0x3d6e6e1d	0.05821048
110	0xbd68af7d	-0.056807984
111	0x3c5360d2	0.012901502
112	0x3d2e7ff3	0.04260249
113	0x3cc36228	0.023850515
114	0x3d0f08c1	0.034920458
115	0xbd172e8c	-0.036909625
116	0xbd5a7f11	-0.053343836
117	0x3ca6269a	0.020282079
118	0xbd0944fe	-0.03351306
119	0x3ba2456d	0.004952124
120	0xbd7a58a6	-0.061119698
121	0xbd0344ae	-0.03204792
122	0xbca5b6e5	-0.020228812
123	0x3d54baaf	0.051935848
124	0x3d0dca4b	0.03461675
125	0x3d365db8	0.04452297
126	0xbd0f73f5	-0.035022695
127	0x3cdd7da8	0.027037457
128	0xbcd70ac4	-0.02625025
129	0xbd6daefd	-0.05802821
130	0x3c12d585	0.00896204
131	0xbc2530fd	-0.0100824805
132	0x3c22e2ae	0.00994174
133	0x3d4d8594	0.05017622
134	0xbd0b0e06	-0.03394892
135	0xbd426ed7	-0.047468986
136	0xbd8877e9	-0.06663496
137	0xbd177161	-0.03697336
138	0x3d561e94	0.052275255
139	0xbd59720b	-0.053087275
140	0xbca0e4d4	-0.019640364
141	0x3ca39e88	0.019973055
142	0x3bf4864a	0.0074622976
143	0x3d34e52b	0.044163864
144	0x3cb1062e	0.021609392
145	0xbbc69746	-0.0060605137
146	0xbcf316a3	-0.02967388
147	0x3ca683e3	0.02032656
148	0xbd1ab818	-0.03777322
149	0x3d6ce6ee	0.05783742
150	0xbc5e090f	-0.013551964
151	0x3d23c294	0.039980486
152	0xbd08070a	-0.033209838
153	0x3d284b5e	0.0410875
154	0x3d1880bb	0.037232142
155	0xbc772411	-0.0150842825
156	0xbcca2cb1	-0.024679514
157	0x3c59f469	0.013302901
158	0xbd57dbe6	-0.052699946
159	0xbd85d69b	-0.06535073
160	0x3cbd3808	0.023098007
161	0xbd935012	-0.071930066
162	0x3d25acd7	0.040448036
163	0x3d649696	0.055807672
164	0xbd636fa4	-0.05552639
165	0x3cbc0e71	0.022956105
166	0x3c71671c	0.014734056
167	0xbd17778c	-0.036979243
168	0xbd3a694b	-0.04551057
169	0xbd69adf7	-0.05705067
170	0x3c9967a4	0.018726178
171	0xba79fcd5	-0.0009536271
172	0xbd6506e2	-0.055914767
173	0x3d451a75	0.048120935
174	0x39f8db75	0.00047465754
175	0xbd754072	-0.059875913
176	0x3d1e3243	0.038622152
177	0xbd2c1fee	-0.042022638
178	0x3d2ec018	0.042663664
179	0xbd82fc05	-0.06395725
180	0xbd76657b	-0.060155373
181	0x3c7624be	0.015023408
182	0xbd8abb74	-0.06774035
183	0x38e258e8	0.0001079308
184	0x38e3920f	0.00010851409
185	0xbd5a5609	-0.053304706
186	0x3d1aaa1d	0.03775989
187	0x3d3b9dc2	0.045804746
188	0xbd375270	-0.044756353
189	0xbd5e82fa	-0.054324128
190	0xbd6bdf3f	-0.05758595
191	0x3bf4d93a	0.0074721845
192	0x3d024858	0.031807274
193	0x3c27697f	0.010218023
194	0x3c16307b	0.009166832
195	0xbcb49d17	-0.022047563
196	0x3d4a1b4e	0.049342446
197	0x3d5e8287	0.0543237
198	0xbbd958f6	-0.0066329194
199	0xbd466976	-0.04844042
200	0x3d2a5b15	0.04159077
201	0x3d26aec7	0.040694024
202	0x3d2d4b92	0.042308398
203	0xbd438a1f	-0.047739144
204	0xbd846eb9	-0.06466431
205	0xbcfd23da	-0.030900884
206	0xbd3f3523	-0.046681534
207	0x3c259147	0.010105438
208	0x3c64d449	0.013966628
209	0xbca54207	-0.020173086
210	0x3cd48fc4	0.025947459
211	0xbcf6dba2	-0.030134026
212	0xbd76afec	-0.060226366
213	0x3c0f8707	0.00876022
214	0x3d079947	0.03310516
215	0x3cd1300d	0.025535608
216	0xbcf578a3	-0.02996475
217	0x3c0e0277	0.00866758
218	0xbbcf31fb	-0.006323097
219	0x3c872150	0.016495377
220	0x3cff3792	0.031154428
221	0xbd795b47	-0.060878064
222	0x3ac401c5	0.0014954141
223	0xba1d01f3	-0.0005989365
224	0x3cf24bc1	0.029577138
225	0xbb864006	-0.0040969877
226	0x3bc6ab0f	0.0060628722
227	0xbd3119fc	-0.04323767
228	0xbc3f4a4f	-0.011675431
229	0xbd258e89	-0.040419135
230	0x3bc52edf	0.0060175504
231	0x3d04e61d	0.032446016
232	0xbd109d66	-0.035306357
233	0x3d43120f	0.047624644
234	0x3bf74e95	0.0075472095
235	0x3bf64e0e	0.007516629
236	0xbd6a040a	-0.05713276
237	0x3c80879c	0.015689664
238	0x3cf8abdf	0.030355392
239	0x3d323341	0.04350591
240	0xbd07f765	-0.03319492
241	0x3c855d33	0.016279792
242	0x3c6175b3	0.013760972
243	0x3d34dbb2	0.04415483
244	0xbc30a313	-0.010781067
245	0xbd281133	-0.041032027
246	0x3d05eeb8	0.032698363
247	0x3c360c5e	0.011111347
248	0xbb725170	-0.003697481
249	0x3d569e3e	0.052397005
250	0x3c09072a	0.008363524
251	0x3d73487a	0.05939529
252	0x3d4a8ee7	0.04945269
253	0xbd61c55c	-0.055119857
254	0x3c643eb2	0.013930963
255	0x3d7b0723	0.061286103

conv2.bias f4 [20]
0	0x3d5fedc6	0.054670118
1	0xbd3bdb80	-0.04586363
2	0x3bc4b04f	0.006002463
3	0xbaee1347	-0.0018163704
4	0xbca828df	-0.020527301
5	0x3cbc13d5	0.022958675
6	0x3a70d28a	0.0009186646
7	0x3cddbf67	0.027068807
8	0x3c55757a	0.013028497
9	0xbc640078	-0.013916127
10	0xbd4134b3	-0.0471694
11	0xbce7b5ae	-0.028284874
12	0xbd042296	-0.032259546
13	0xbd4e817b	-0.05041645
14	0xbd50d364	-0.050982848
15	0xbd28dec6	-0.04122808
16	0xbd5db430	-0.05412692
17	0x3a9f6e4a	0.0012163606
18	0xbd62b171	-0.055345003
19	0x3b439e02	0.0029848819

fc.weight f4 [6, 320]
0	0x3c4361ef	0.011925205
1	0xbcf05425	-0.029336998
2	0x3d2b5297	0.04182681
3	0xbc5177fc	-0.012784954
4	0xba8d6e8c	-0.0010790392
5	0xbd4b92f4	-0.049700692
6	0x3c0cbf4c	0.008590531
7	0x3c3a7651	0.011380748
8	0x3d33163a	0.04372237
9	0x3ce1bf1b	0.027556947
10	0x3b69e008	0.0035686512
11	0xbccf17de	-0.025279935
12	0xbd189d72	-0.037259527
13	0xbbdcd508	-0.0067392625
14	0x3c445867	0.011983967
15	0x3d1090a6	0.035294197
16	0x3d3744ee	0.04474347
17	0x3cbafe8f	0.022826461
18	0xbd454dbc	-0.048169836
19	0xbcf45d07	-0.029829515
20	0x3c8cc9ec	0.017186128
21	0x3d199538	0.03749582
22	0xbd73958c	-0.05946879
23	0xbcb188b0	-0.021671623
24	0xbd373a66	-0.044733427
25	0xbd8463c1	-0.06464339
26	0x3c4d934c	0.012547325
27	0x3d3592e7	0.04432955
28	0x3cc8cb36	0.024510961
29	0xbbde2475	-0.0067792484
30	0x3c7f7c84	0.015593652
31	0x3d087c5a	0.033321716
32	0xbbf75c87	-0.007548872
33	0x3bd54074	0.0065079276
34	0xbcb9d601	-0.022685053
35	0x3bfaf477	0.007658537
36	0xbcfc4cac	-0.030798279
37	0x3d36289d	0.044472326
38	0x3c20e085	0.009819155
39	0x3d4bb843	0.049736273
40	0x3d723748	0.05913475
41	0xbba849c9	-0.005135749
42	0xbc878bec	-0.016546212
43	0x3b9cc809	0.0047845882
44	0x3d3167bd	0.043311823
45	0xbd45ec0a	-0.048320808
46	0xbd2d7e8e	-0.04235702
47	0x3c31f083	0.010860565
48	0xbd121d81	-0.03567267
49	0xbd0f91f2	-0.035051294
50	0x3c36eee6	0.011165356
51	0xbc4a492e	-0.012346549
52	0xb9e01874	-0.00042742828
53	0x3b8df351	0.004331984
54	0x3bf59cd8	0.007495504
55	0xbd03f478	-0.032215565
56	0xbcd4112b	-0.025887093
57	0x3ccfc558	0.025362656
58	0xba72528f	-0.00092438696
59	0x3d058f4d	0.032607365
60	0xbc059862	-0.008154007
61	0xbce469db	-0.027882507
62	0xbc0bb393	-0.008526701
63	0xbcd1e997	-0.02562408
64	0x3d25b291	0.040453497
65	0x3caf9f83	0.021438366
66	0xbd5eec38	-0.054424495
67	0xbcbdbe77	-0.02316211
68	0x3c57f55a	0.013181055
69	0x3c9dbf66	0.019256305
70	0x3c0ed8e4	0.008718703
71	0x3cf06cba	0.02934872
72	0xbd18f5e7	-0.037343886
73	0x3cb58cfd	0.022161955
74	0xbd274cbe	-0.04084467
75	0xbc40e94a	-0.01177437
76	0x3d5cd870	0.05391735
77	0x3c14d1af	0.009083196
78	0x3cfa04e4	0.03051991
79	0x3d44a383	0.0480075
80	0x3c606268	0.013695337
81	0xbcfb58b5	-0.030681947
82	0xbd4fc187	-0.05072167
83	0x3d24c01b	0.04022227
84	0x3cf76c3b	0.030202975
85	0x3cae4292	0.021271978
86	0x3c515dce	0.012778712
87	0xbc805d0a	-0.015669364
88	0xbccf7c68	-0.025327876
89	0x3d2f4300	0.042788506
90	0xbb3c4f14	-0.0028733658
91	0x3a5db258	0.0008457056
92	0xbd001894	-0.03127344
93	0x3c9f877f	0.01947379
94	0xbcad016c	-0.021118842
95	0x3ac6cd95	0.0015167469
96	0xbc49c662	-0.012315365
97	0x3c00c5a6	0.007859623
98	0x3bf012eb	0.007326474
99	0xbc1d9f2b	-0.009620468
100	0xbc46589e	-0.012106089
101	0x3d5a2bbd	0.05326437
102	0xbd409554	-0.04701741
103	0x3be9fff4	0.0071411077
104	0x3cd0c645	0.025485167
105	0x3d60794b	0.054803174
106	0xbb8da759	-0.004322928
107	0xbc33b3e9	-0.010968187
108	0xbca6f8ee	-0.02038237
109	0x3d54175c	0.05178009
110	0xbcd46c40	-0.025930524
111	0xbaf29c16	-0.0018509652
112	0x3d1eec07	0.038799312
113	0xbd3ef209	-0.04661754
114	0xbd1f9400	-0.038959503
115	0x3cf79850	0.030223995
116	0xbb986301	-0.004650474
117	0x3d3c762a	0.046011128
118	0xbd26a02c	-0.040680096
119	0x3cc533fe	0.024072643
120	0xbc5fe776	-0.013666024
121	0xbc51f5b4	-0.012814928
122	0x3c11d024	0.008899722
123	0xbc709d1d	-0.014685896
124	0xbc952234	-0.018204786
125	0xbc21d321	-0.009876997
126	0xbc85276e	-0.016254153
127	0x3b069bd6	0.0020539663
128	0xbd00becb	-0.031431954
129	0xbaf98f0a	-0.0019039821
130	0x3cd2d794	0.025737561
131	0x3c080f6c	0.008304458
132	0x3d1665b8	0.0367181
133	0x3d41974e	0.047263436
134	0xbcc179f0	-0.023617715
135	0x3d032252	0.032015152
136	0x3d0dbd07	0.0346041
137	0xbc7a0de2	-0.015262099
138	0xbbdbcfe3	-0.0067081316
139	0x3acccea0	0.0015625544
140	0x3c95853b	0.018252006
141	0xbcdb5101	-0.026772024
142	0x3d29f3ec	0.041492388
143	0x3cc8d37f	0.024514912
144	0xbd346c4f	-0.044048604
145	0xbbc85e68	-0.0061147697
146	0xbcafe74e	-0.0214726
147	0xbce58a3e	-0.02802002
148	0xbd33d84f	-0.04390746
149	0x3d07649b	0.03305493
150	0xbd5cc357	-0.053897228
151	0x3b889b78	0.004168924
152	0xbb39999d	-0.002832032
153	0xbc86fb3b	-0.016477218
154	0xbd776c06	-0.060405754
155	0xbd6e5a83	-0.058191787
156	0x3ca8a8bf	0.020588277
157	0x3cc2b587	0.0237682
158	0x3d413ce5	0.047177214
159	0xbcbab3ea	-0.022790868
160	0xbb5c20a6	-0.0033588796
161	0x3d23b96f	0.039971765
162	0xbd49c337	-0.049258437
163	0xbd003cfd	-0.031308163
164	0x3d2c2489	0.04202703
165	0xbd0fc9bc	-0.0351045
166	0xbcf8df09	-0.030379789
167	0xbd86a93a	-0.06575246
168	0xbbf09eb1	-0.0073431362
169	0x3d1ca107	0.038239505
170	0x3cebfa76	0.028805953
171	0x3ce4b2c0	0.027917266
172	0xbbf4d4c0	-0.007471651
173	0x3d1d59e8	0.03841582
174	0x3ca9f495	0.020746509
175	0x3bf670ad	0.007520756
176	0x3c8b67a5	0.017017195
177	0x3d43f454	0.04784043
178	0xbd1eb46c	-0.038746282
179	0x3beb4945	0.0071803653
180	0x3c8997ae	0.01679596
181	0xbd15b56a	-0.036549963
182	0xbd67a15c	-0.05655037
183	0xbd5db412	-0.054126807
184	0x3cf86cd1	0.030325325
185	0xbbb13874	-0.005408341
186	0x3d3800fa	0.044922806
187	0x3cdc18cf	0.026867298
188	0x3b1b0563	0.0023654334
189	0x3cb27199	0.021782683
190	0x3c97d854	0.01853577
191	0xbc567530	-0.013089463
192	0xbb868a3f	-0.0041058357
193	0xbd500e3a	-0.050794818
194	0x3d1f80a5	0.038941044
195	0x3d469590	0.048482478
196	0x3d552051	0.052032772
197	0x3ba81fa8	0.005130727
198	0xbd4e1c19	-0.050319765
199	0x3a8babb5	0.0010656031
200	0x3d548c51	0.05189163
201	0xbd2cd1f3	-0.04219241
202	0xbcc8c9b5	-0.024510244
203	0x3b17271c	0.0023064082
204	0xbd007cf0	-0.03136915
205	0x3d36e9d1	0.04465658
206	0xbbd2946c	-0.0064263847
207	0x3cdf1b22	0.027234618
208	0x3d3d55d4	0.04622443
209	0xbcab81cb	-0.020935914
210	0xbbbad91b	-0.0057021505
211	0xbb101d4f	-0.0021990126
212	0x3d3a5bf8	0.045497864
213	0xbd1c10a6	-0.038101815
214	0xbc4b9983	-0.012426737
215	0xbd1663f7	-0.036716428
216	0x3c0dd7f9	0.008657449
217	0x3d1e80d6	0.038697086
218	0x3d06fa3b	0.032953482
219	0x3c029189	0.007969269
220	0x3d07ca99	0.033152197
221	0x3b3f7a89	0.0029217324
222	0x3cf80ce1	0.030279579
223	0xbbf66f62	-0.007520602
224	0xbb104fa6	-0.002202013
225	0xbb35ab6a	-0.002772058
226	0xbcdb0fd7	-0.026740951
227	0x39549366	0.00020272806
228	0xbcd33fc5	-0.025787244
229	0x3c4380e4	0.011932585
230	0x3bdd7a9b	0.0067590005
231	0x3b237731	0.002494287
232	0xba8e08a0	-0.0010836311
233	0x3b3105ed	0.0027011589
234	0xbc8d51b9	-0.017250882
235	0x3b04c509	0.0020259044
236	0x3b3d0bbf	0.0028846113
237	0x3aaf3fbf	0.0013370438
238	0x3cbc58d7	0.02299158
239	0xb95a9ee3	-0.0002084929
240	0x3d2149e8	0.039377123
241	0xbcf42028	-0.02980049
242	0xbd03aa6d	-0.032144953
243	0x3afe931e	0.0019422506
244	0x3bea56da	0.007151467
245	0xbd091ddd	-0.033475745
246	0x3b0a4f25	0.0021104303
247	0x3d3e53bc	0.046466574
248	0xbba2139a	-0.0049461843
249	0xbd1c8bcc	-0.03821926
250	0xbd21abdb	-0.039470535
251	0xbd2c7a82	-0.04210902
252	0xbc2cc9f7	-0.010546199
253	0x3caf4478	0.021394953
254	0xbbc9b66b	-0.006155779
255	0x3d42f02a	0.04759232

fc.bias f4 [6]
0	0xbcf79c9d	-0.030226046
1	0x3d2ad72e	0.041709118
2	0xbceb8a85	-0.028752575
3	0xbb350c74	-0.002762583
4	0xbc83ce30	-0.016089529
5	0x3d2dda26	0.04244437
