robot/robot_exp5/code/python_pc/model_param/model1_0.8333332538604736.pkl (torch, 33596 bytes, 6 tensors)

conv1.weight f4 [10, 3, 5, 5]
0	0xb9e3abb6	-0.0004342475
1	0xbc7751df	-0.015095203
2	0xbd3e1ff3	-0.046417188
3	0x3d3724b9	0.044712756
4	0x3d3283aa	0.043582596
5	0x3d33e588	0.04392007
6	0xbc161440	-0.009160101
7	0x3cb8ebff	0.02257347
8	0x3da15158	0.07876843
9	0x3da2c35c	0.07947418
10	0x3c7c1855	0.015386661
11	0x3da92f6b	0.082609974
12	0x3d8de550	0.069285035
13	0x3d91eeb2	0.07125606
14	0x3d93e352	0.07221092
15	0x3d36f30d	0.044665385
16	0x3e098468	0.13429415
17	0x3dd146d8	0.102185905
18	0x3d98c846	0.07460074
19	0x3dbe3682	0.0928774
20	0xbd6dd430	-0.058063686
21	0x3d638ad2	0.05555231
22	0x3d9d217f	0.076724045
23	0x3e0c0aee	0.13676044
24	0xbc85008b	-0.01623561
25	0xbd5ed9dc	-0.054406986
26	0x3c83f4a9	0.016107874
27	0x3cb1f29e	0.021722134
28	0xbd548c33	-0.051891517
29	0xbd811521	-0.06302858
30	0xbcfb123c	-0.030648343
31	0xbd992cc9	-0.07479245
32	0x3d7603ad	0.0600621
33	0xbd3a7740	-0.045523882
34	0x3d52c60f	0.051458415
35	0x3da73f00	0.08166313
36	0x3d198beb	0.03748695
37	0x3e0f8d18	0.14018667
38	0xbd0c42c9	-0.03424338
39	0xbd591a3c	-0.053003535
40	0x3dfc3a96	0.12315862
41	0x3dcd8136	0.10034411
42	0x3cd9e63c	0.026599042
43	0x3cffb9ae	0.031216469
44	0x3d47bca6	0.048763894
45	0x3ce1c770	0.02756092
46	0x3d93cf9b	0.07217332
47	0x3d343249	0.04399327
48	0x3e0fd31f	0.1404538
49	0x3d8baa71	0.068196185
50	0x3ca516eb	0.02015253
51	0xbd65b39f	-0.056079503
52	0xbe2ea658	-0.17055643
53	0xbd94d5ec	-0.07267365
54	0xbe2ec868	-0.17068636
55	0xbe2b8fae	-0.16754028
56	0xbe301716	-0.17196307
57	0xbe2a1ed4	-0.16613322
58	0xbd9dce04	-0.0770531
59	0xbdd116f9	-0.1020946
60	0xbdce7b44	-0.10082105
61	0xbe033654	-0.12813693
62	0xbd27a058	-0.0409244
63	0xbe04a151	-0.12952162
64	0xbe291b62	-0.16514352
65	0x3d3280db	0.043579917
66	0xbd853679	-0.065045305
67	0xbc1f3fe7	-0.009719825
68	0xbd6b8b9b	-0.057506185
69	0xbb8f4aab	-0.004372915
70	0xbdfa126d	-0.12210546
71	0x3daed675	0.08536998
72	0xbddedd08	-0.10882002
73	0xbd402227	-0.04690757
74	0xbb70b9fa	-0.0036731944
75	0x3df1c0a9	0.11804325
76	0x3e07c9c8	0.13260567
77	0xbd221c5b	-0.039577823
78	0x3ccea101	0.025223257
79	0x3d86b4d0	0.06577456
80	0x3da13a0b	0.07872399
81	0xbd3f5186	-0.046708606
82	0x3de353fb	0.111000024
83	0x3c3b2c4c	0.011424135
84	0x3d6ecda9	0.0583016
85	0x3e0b07bd	0.1357717
86	0x3c625bb8	0.013815813
87	0xbca12c09	-0.019674318
88	0xbd0c7d09	-0.03429893
89	0x3c752c3f	0.014964162
90	0x3d69d973	0.05709214
91	0x3dfaea89	0.12251765
92	0x3cb64f8f	0.022254733
93	0xbc5854f5	-0.013203849
94	0xbdc2253e	-0.0947976
95	0xbd5f6b52	-0.054545708
96	0x3d078031	0.033081237
97	0xbd6a9c06	-0.0572777
98	0xbcae9050	-0.021309048
99	0xbc84e29c	-0.016221337
100	0x3cc4c55f	0.024019895
101	0x3be8e905	0.007107856
102	0x3dc8a948	0.09797913
103	0x3dd114a8	0.10209018
104	0xbdb98b3e	-0.090597615
105	0x3d6f5927	0.05843463
106	0xbd46742d	-0.048450638
107	0xbb998aa4	-0.0046857167
108	0x3de08e6e	0.10964666
109	0x3d6ab496	0.057301126
110	0x3d90c24d	0.0706831
111	0xbc1e0453	-0.009644586
112	0xbd87d329	-0.066320725
113	0x3c152f66	0.009105539
114	0x3dbf72f0	0.093480945
115	0x3cc71d28	0.024305895
116	0x3dc3a8c5	0.095536746
117	0xbd856a64	-0.06514433
118	0x3d80cfa1	0.06289602
119	0xbd2068e8	-0.039162546
120	0x3dce5dcb	0.10076483
121	0xbce65b0f	-0.028119592
122	0x3cdea533	0.027178383
123	0x3d725d23	0.059170853
124	0x3de10de8	0.109889805
125	0x3e079611	0.1324084
126	0xbc37f85f	-0.01122865
127	0x3c5dfbdf	0.01354882
128	0x3cf6700a	0.030082721
129	0x3df9e3d4	0.12201658
130	0x3d0e5cbe	0.034756415
131	0x3dd7e8c5	0.10542444
132	0x3ce5a3e4	0.02803225
133	0x3bcc3bfd	0.006232737
134	0x3c7c3cc5	0.015395348
135	0x3cd9f14f	0.026604323
136	0x3c51233e	0.01276475
137	0xbc423bfb	-0.011855121
138	0xbd2e5575	-0.042561967
139	0x3d1bc63c	0.038030848
140	0x3b54c452	0.003246565
141	0x3dd86402	0.1056595
142	0x3def8c6f	0.116967075
143	0x3dee148f	0.11625015
144	0x3d43565e	0.047689788
145	0x3de42851	0.11140502
146	0x3db1f6c8	0.08689648
147	0x3dd8824e	0.10571729
148	0x3dce48f7	0.10072511
149	0x3dbcfbc9	0.09227712
150	0x3c441a0a	0.011969099
151	0xbd80e967	-0.06294518
152	0xbdb536a9	-0.08848316
153	0x3c45f4b4	0.012082268
154	0x3ddeb51e	0.10874389
155	0x3c9991d7	0.0187463
156	0x3d6f9554	0.05849202
157	0x3c024096	0.007949969
158	0xbcd0ca76	-0.025487166
159	0x3db164fb	0.086618386
160	0xbc2cec46	-0.010554379
161	0x3c04cce9	0.008105495
162	0xbdda2df6	-0.106532976
163	0xbd69ece5	-0.057110686
164	0x3d32b5ae	0.043630295
165	0x3dac3b26	0.08409719
166	0x3de70f0f	0.11282169
167	0x3de9cd60	0.11416125
168	0x3de6d88a	0.1127177
169	0x3c8d279a	0.017230798
170	0xbc69ff0f	-0.014282002
171	0x3daa0fd6	0.08303802
172	0x3c8ce491	0.017198833
173	0x3dccc1de	0.09997915
174	0x3df07447	0.11740928
175	0xbd416fc3	-0.047225725
176	0x3ccc1fdc	0.024917535
177	0x3d63f9da	0.0556582
178	0xbd4c3884	-0.049858585
179	0x3cddff7a	0.02709936
180	0x3d9188b2	0.07106151
181	0xbda4f0a5	-0.08053712
182	0xbddb18e9	-0.106981106
183	0xbdba48d3	-0.09095921
184	0xbac14170	-0.0014744233
185	0x3d849bde	0.06475042
186	0xbd90b13f	-0.07065057
187	0xbdd65ea0	-0.10467267
188	0x3db2ead9	0.087362
189	0x3db0a11d	0.0862448
190	0x3d7f53ba	0.062335707
191	0x3d105048	0.035232812
192	0x3ddfbb49	0.10924394
193	0xbca8adf8	-0.020590767
194	0xbd83b395	-0.06430737
195	0xbca83f3f	-0.02053797
196	0x3da6232a	0.08112176
197	0x3e0c8a0e	0.13724539
198	0xbce25f95	-0.027633468
199	0xbd100e45	-0.03516986
200	0xbd83b943	-0.0643182
201	0xbe0918f1	-0.1338842
202	0x3c37ce26	0.011218583
203	0xbc845694	-0.016154565
204	0x3df8879d	0.12135241
205	0xbd4a6c8b	-0.04941992
206	0xbe2a7cd2	-0.16649178
207	0xbe2a4e95	-0.16631539
208	0xbdc8fb9e	-0.09813617
209	0x3db3fc38	0.08788341
210	0xbe22db64	-0.15904003
211	0xbd8ef038	-0.06979412
212	0xbe05ec6e	-0.13078472
213	0xbdf5ea3e	-0.12007569
214	0x3c9ef7c1	0.019405248
215	0xbdd8a25c	-0.105778426
216	0xbd0f69ad	-0.03501289
217	0x3d9e94e1	0.0774324
218	0xbd33ff3b	-0.04394458
219	0x3dfac530	0.12244642
220	0xbda53a18	-0.08067721
221	0xbd9ed89f	-0.07756161
222	0x3dcdb029	0.100433655
223	0x3ab44a1f	0.0013755
224	0x3db3c835	0.08778421
225	0xbd2fe104	-0.0429392
226	0xbda4a667	-0.08039551
227	0xbddbe736	-0.10737459
228	0xbad1a604	-0.0015994911
229	0xbdb1bd17	-0.08678644
230	0xbe0bccb1	-0.13652302
231	0xbdd8b48c	-0.105813116
232	0x3ca38fc9	0.019966023
233	0x3cf27d9e	0.029600915
234	0xbd7f7941	-0.062371496
235	0xbd4a9984	-0.04946281
236	0x3d7b695a	0.061379768
237	0xbd9d9dff	-0.07696151
238	0x3d221f61	0.039580707
239	0x3d9aaf2f	0.07552945
240	0xbc1fca01	-0.009752751
241	0xbd0f7d40	-0.035031557
242	0xbd717cc8	-0.05895689
243	0x3d164177	0.036683526
244	0x3d85ef8c	0.065398306
245	0x3ddeef5e	0.108854994
246	0x3d9cedf0	0.076625705
247	0xbcaabcf5	-0.020842055
248	0x3d11a190	0.03555447
249	0x3dcbe5f0	0.099559665
250	0x3d4405e2	0.047857173
251	0x3d822654	0.06354967
252	0x3cff6cb6	0.031179767
253	0xbe130443	-0.14357094
254	0xbdff7c5c	-0.124748915
255	0x3cdeb89e	0.027187642

conv1.bias f4 [10]
0	0x3d708c09	0.058727298
1	0xbdb09a3b	-0.08623167
2	0x3caca395	0.021074096
3	0x3dd6caa5	0.1048787
4	0x3df573c5	0.11984972
5	0x3dfe1789	0.12406833
6	0xbc8f0d51	-0.017462404
7	0xbc906d67	-0.017630292
8	0x3d20b246	0.039232515
9	0x3d7a1a9f	0.061060544

conv2.weight f4 [20, 10, 5, 5]
0	0xbcc74d78	-0.024328932
1	0x3c38a893	0.01127066
2	0xbd06d7d6	-0.03292068
3	0xbd4fad3c	-0.05070232
4	0xbd8a83d0	-0.067634225
5	0x3c518792	0.01278867
6	0x3d42530f	0.047442492
7	0xbc859e36	-0.016310792
8	0xbd160aa3	-0.036631238
9	0xbd8081a3	-0.06274726
10	0x3d09d522	0.033650525
11	0xbc948555	-0.018129984
12	0xbd470c77	-0.04859587
13	0xbc68207f	-0.014167904
14	0x3c20f90f	0.009825005
15	0x3cfde49e	0.030992802
16	0x3c046751	0.008081273
17	0xbd872c2a	-0.066002205
18	0xbd141661	-0.036154155
19	0xbd339fed	-0.04385369
20	0xbc3ec59d	-0.011643794
21	0xbd65dc54	-0.056118324
22	0xbd1e1dac	-0.038602516
23	0xbc93f0e9	-0.01805921
24	0xbd42cde9	-0.047559652
25	0x3da49d02	0.08037759
26	0x3d21f29b	0.039538007
27	0x3d1f42f2	0.038882203
28	0x3ce33c78	0.027738795
29	0x3c146b0f	0.009058728
30	0x3d8133c8	0.063087046
31	0x3d22612f	0.039643463
32	0x3d826bb6	0.063682005
33	0xba03585a	-0.0005010419
34	0x3c7c2482	0.0153895635
35	0xbd5ba825	-0.053627152
36	0xbd1ee4d0	-0.03879243
37	0x3bb39273	0.0054801046
38	0xbd328777	-0.04358622
39	0x3b61a0f7	0.0034428218
40	0xbc9633ff	-0.01833534
41	0x3d2b7160	0.04185617
42	0x3d417792	0.04723317
43	0x3cb00940	0.021488786
44	0xbc1d2ecd	-0.009593678
45	0x3ca8f9ea	0.02062698
46	0xbcbd3128	-0.023094729
47	0xbcf83864	-0.030300327
48	0xbcb2f265	-0.021844098
49	0x3ae1a4a2	0.0017215202
50	0x3d673a6f	0.05645221
51	0xbd0880d9	-0.033326004
52	0xbb3871ce	-0.0028144005
53	0xbd0b2fee	-0.033981256
54	0xbd9e3bd5	-0.07726256
55	0x3d2dbebc	0.042418227
56	0x3d42d915	0.047570307
57	0xbd0103b7	-0.031497683
58	0xbcba1fd7	-0.02272026
59	0xbc6cf50c	-0.014462721
60	0x3d07828a	0.033083476
61	0x3dbd5997	0.092456035
62	0xbca8de37	-0.020613773
63	0x3c287d99	0.010283851
64	0xbd96496b	-0.07338222
65	0x3d772938	0.060342044
66	0x3d8ae973	0.06782808
67	0xbc915ede	-0.017745432
68	0xbc92dd3b	-0.017927757
69	0xbc521662	-0.012822719
70	0x3dc75e0c	0.09734735
71	0x3d3b4b3e	0.045726053
72	0xbcc8ec72	-0.024526808
73	0x3c23109f	0.009952693
74	0x3cbed262	0.023293678
75	0x3cd16168	0.025559142
76	0x3d55c020	0.052185178
77	0xbd5fb38b	-0.054614585
78	0xbd811611	-0.06303037
79	0xbd6c4ff1	-0.057693426
80	0xbd1918d4	-0.037377194
81	0xbd0ae33f	-0.033908125
82	0xbd16c527	-0.036809113
83	0xbcea261d	-0.028582627
84	0x3c57dfde	0.013175933
85	0xbca73687	-0.020411743
86	0x39e2fbc6	0.00043293665
87	0x3d83b926	0.06431799
88	0x3d5b5b17	0.053553667
89	0x3c34ac2a	0.011027375
90	0xba7f9629	-0.00097498536
91	0x3c29ff9e	0.010375885
92	0x3cec3730	0.02883491
93	0x3ca5faf6	0.020261269
94	0xbc67707d	-0.01412594
95	0x3cb38e90	0.021918565
96	0xbca1b706	-0.019740593
97	0xbcc2590f	-0.023724107
98	0x3db1ddea	0.08684905
99	0x3d794afb	0.060862523
100	0xbc91914f	-0.017769484
101	0x3d1cd54a	0.038289346
102	0x3c48d0fa	0.012256855
103	0x3ce28087	0.027649177
104	0x3dafd161	0.08584858
105	0xbccb9e63	-0.024855798
106	0x3cd9c9fa	0.026585568
107	0x3b025781	0.0019888582
108	0x3d6548d7	0.05597767
109	0x3dd3fbfe	0.10350798
110	0xbd702147	-0.058625486
111	0x3cb39da2	0.021925751
112	0x3d6f95f2	0.05849261
113	0x3d7f6568	0.062352568
114	0x3d9da362	0.076971784
115	0xbc619d6d	-0.013770443
116	0x3c8386e2	0.016055528
117	0x3d56658a	0.05234293
118	0x3ced831d	0.028993184
119	0x3d871409	0.06595618
120	0xbd3079bd	-0.04308485
121	0x3d07523b	0.033037405
122	0x3c21e9da	0.009882415
123	0x3db865e3	0.09003808
124	0x3daa2e58	0.083096206
125	0x3d272930	0.040810764
126	0xbcddabc8	-0.02705945
127	0x3cb91709	0.022593992
128	0xbbccb37b	-0.0062469817
129	0xbd41f9f7	-0.047357526
130	0x3c501e19	0.012702488
131	0xbae1d4d4	-0.0017229565
132	0x3c28b040	0.0102959275
133	0x3da18bea	0.078880146
134	0xba754e85	-0.00093577086
135	0xbd06927c	-0.032854542
136	0xbd67ffcc	-0.05664043
137	0xbd17e7e8	-0.037086397
138	0x3d4ed9cc	0.050500676
139	0xbcecf9c6	-0.028927695
140	0xbca8439f	-0.020540057
141	0x3b933ba5	0.004493194
142	0xbcc0813d	-0.023499126
143	0x3c9e6df2	0.019339535
144	0x3c4f418e	0.012649907
145	0x3ccc5c2e	0.024946298
146	0xbcb5378d	-0.022121215
147	0x3cb00fd2	0.021491919
148	0xbbf3da9e	-0.0074418327
149	0x3d7db39a	0.06193886
150	0xbc6d4a8e	-0.014483107
151	0x3d764312	0.060122557
152	0xbca7efd6	-0.020500105
153	0xbbacd151	-0.005273976
154	0x3ab18ace	0.0013545395
155	0xbcd4905c	-0.025947742
156	0xbc4448e2	-0.011980267
157	0x3ce52d1a	0.027975608
158	0xbd4b66a2	-0.049658425
159	0xbd3a0f27	-0.045424607
160	0xbce28469	-0.027651029
161	0xbd3c082b	-0.045906227
162	0x3dbaffad	0.091307975
163	0x3d92a066	0.071595
164	0xbcd37ddf	-0.025816856
165	0x3b5221b6	0.003206355
166	0x3d28b98a	0.04119257
167	0xbbf85eeb	-0.0075796745
168	0xbba8ce9c	-0.005151583
169	0xbc86b6fd	-0.016444677
170	0x3c97e9ba	0.018544067
171	0x3b6eeebd	0.0036458217
172	0xbc8b2ade	-0.016988214
173	0x3d41c021	0.04730237
174	0x3cefcd8a	0.029272813
175	0xbccc1732	-0.024913404
176	0x3d67a87d	0.056557167
177	0xba936069	-0.0011243942
178	0x3d106ae1	0.035258178
179	0xbd6075af	-0.05479973
180	0xbccc4e6f	-0.024939744
181	0x3d0e4db3	0.03474207
182	0xbd33d7bc	-0.043906912
183	0xbcab3557	-0.020899458
184	0xbd20667d	-0.03916024
185	0xbd17b604	-0.037038818
186	0x3d3549fa	0.044260003
187	0x3d2df006	0.042465232
188	0xbd922bf4	-0.0713729
189	0xbda145d2	-0.07874645
190	0xbd940145	-0.07226805
191	0x3cfed6d2	0.031108294
192	0x3d354f3a	0.04426501
193	0xbb49e121	-0.0030804353
194	0xbc9984b1	-0.01874003
195	0xbcf03f81	-0.029327156
196	0x3d50778f	0.05089527
197	0x3d344ec8	0.044020444
198	0xbd2f3cbc	-0.04278253
199	0xbd2974af	-0.041371044
200	0x3d7e132d	0.062030006
201	0x3d875ac9	0.06609113
202	0x3d39fb10	0.045405447
203	0xbd95483e	-0.0728917
204	0xbd8d7a58	-0.06908101
205	0xbc3f4e16	-0.011676332
206	0xbcd76424	-0.026292868
207	0x3b40cb60	0.0029418096
208	0xbcfe4dde	-0.03104299
209	0xbd6ed5e4	-0.05830945
210	0x3d08721b	0.033311944
211	0xbb862827	-0.004094142
212	0xbd59f4b4	-0.053211883
213	0xbcb173c2	-0.021661643
214	0x3b850d06	0.0040603904
215	0x3cddf912	0.027096305
216	0xbc53be03	-0.01292372
217	0x3b93bc7f	0.0045085545
218	0xbcb1c4dd	-0.021700317
219	0xbb5c5bb1	-0.0033623988
220	0x3c316cc7	0.010829157
221	0xbd50269e	-0.05081808
222	0xbc985973	-0.01859734
223	0xbbf9a088	-0.007618014
224	0x3d331eb9	0.04373047
225	0xb98575d2	-0.0002545552
226	0x3d1c3fbe	0.038146727
227	0x3b04e403	0.0020277507
228	0xbc767e59	-0.015044772
229	0xbd7b598f	-0.061364707
230	0x3ac86daf	0.0015291477
231	0x3d1e7126	0.038682126
232	0x3c77b54a	0.015118906
233	0x3d7a5c5a	0.06112323
234	0xbc109bbc	-0.0088261925
235	0xbcb7ac1c	-0.022420935
236	0xbd287dea	-0.041135706
237	0x3d8634bd	0.06553028
238	0x3d495e05	0.04916193
239	0x3d2ba68a	0.04190687
240	0xbd620c95	-0.05518778
241	0x3d16661d	0.036718477
242	0x3d4f6318	0.050631613
243	0x3d5e0038	0.054199427
244	0xb93a0559	-0.00017740334
245	0xbd83e3a6	-0.06439905
246	0x3d48832b	0.048953217
247	0x3d0339ff	0.03203773
248	0x3c1b147c	0.009465333
249	0x3d9a0f2e	0.075224265
250	0x3ca26fe6	0.019828748
251	0x3dcf14c7	0.10111385
252	0x3dc63e8d	0.09679899
253	0x3bdce91b	0.0067416555
254	0x3d0d4633	0.034490775
255	0x3d5020fd	0.05081271

conv2.bias f4 [20]
0	0x3d3e8694	0.046515062
1	0xbcd7ae4b	-0.026328227
2	0xb9b6eedd	-0.00034891712
3	0x3a6d9e33	0.0009064406
4	0x3a96e1c8	0.001151138
5	0x3d062810	0.03275305
6	0x3cfdd699	0.030986117
7	0x3d07c081	0.03314257
8	0x3c0c4955	0.008562406
9	0xbb6ebd74	-0.003642884
10	0xbcf558fd	-0.02994966
11	0x3c226570	0.00991188
12	0xbc153880	-0.009107709
13	0xbcda5722	-0.026652876
14	0x3adbf5af	0.0016781593
15	0x399b40d2	0.000296122
16	0xbd481cf6	-0.048855744
17	0x39799458	0.00023801753
18	0xbd139e29	-0.036039505
19	0x3bab5e38	0.0052297376

fc.weight f4 [6, 320]
0	0xbd1b36c7	-0.037894037
1	0xbd6a29ce	-0.057168774
2	0x3ca57c85	0.020200977
3	0xbbc46d38	-0.005994465
4	0xbd18a36c	-0.037265226
5	0xbd83dadc	-0.064382285
6	0xbc038cd5	-0.008029182
7	0x3ba662ad	0.005077681
8	0xbaa86f9f	-0.0012850648
9	0xbc845f71	-0.016158791
10	0xbcb75534	-0.022379495
11	0xbc973199	-0.018456267
12	0xbd5db861	-0.054130916
13	0xbccf7155	-0.025322596
14	0xbc37e222	-0.011223348
15	0x3d1e052b	0.038579147
16	0x3ce9d799	0.028545188
17	0x3bd788de	0.006577595
18	0xbd892290	-0.066960454
19	0xbd6dbd9d	-0.058042157
20	0x3c599c76	0.013281932
21	0x3d1ffc51	0.039058987
22	0xbd689cdb	-0.056790214
23	0xbd01fa1e	-0.03173267
24	0xbd1f3fea	-0.038879313
25	0xbd4cb6c4	-0.049978986
26	0x3cce1fbe	0.02516162
27	0x3d370e07	0.044691112
28	0x3cdd4b42	0.027013425
29	0x3c792517	0.015206597
30	0x3d241623	0.040060174
31	0x3d2be9b4	0.041970924
32	0xb8cae9e9	-9.67568e-05
33	0xb97eb0e4	-0.00024289225
34	0x39828e23	0.00024901432
35	0x37b1cb60	2.1194748e-05
36	0xba22cabb	-0.0006210019
37	0xbacb84bd	-0.001552723
38	0xb9c60d95	-0.00037775622
39	0xbabf3fac	-0.0014591119
40	0x391a5532	0.00014718322
41	0xb92c8806	-0.00016453871
42	0x3988d9d4	0.00026102236
43	0xb898aa67	-7.279665e-05
44	0x3a078ab8	0.0005170512
45	0x399d8540	0.00030044653
46	0x3ac96961	0.0015366488
47	0xb9989cc1	-0.0002910849
48	0x38fe98ae	0.000121401026
49	0x3a0ed4c0	0.00054485723
50	0xbaece190	-0.0018072594
51	0xbbf51a01	-0.0074799065
52	0x39d9263f	0.0004141796
53	0x397dedaf	0.00024216504
54	0x3a67ea56	0.00088468695
55	0xbc969a1b	-0.01838403
56	0x39ac01be	0.00032807695
57	0xb8ecd544	-0.00011293081
58	0x3a1faec7	0.00060914125
59	0x3c7d922c	0.015476745
60	0xba8d1904	-0.0010764902
61	0xbc765aaf	-0.015036269
62	0xbae3989d	-0.0017364208
63	0xbbe3665b	-0.006939692
64	0x3cd23373	0.025659299
65	0xbbcbe351	-0.0062221666
66	0xbd954604	-0.07288745
67	0xbd140dd1	-0.03614599
68	0x3bbc6a8e	0.005750007
69	0x3c307866	0.010770893
70	0xbb90e3a2	-0.004421667
71	0x3c902e3f	0.017600177
72	0xbd18ef00	-0.037337303
73	0x3cb5a6cf	0.022174267
74	0xbd17e143	-0.03708006
75	0xbc96e4f4	-0.01841972
76	0x3d7164c4	0.05893399
77	0x3c738b56	0.014864763
78	0x3d0045dc	0.031316623
79	0x3d3d1ad0	0.04616815
80	0x3b86d718	0.0041149966
81	0xbcfa92d3	-0.03058759
82	0xbd8e6255	-0.06952349
83	0x3d259e74	0.040434316
84	0x3cfebbe6	0.031095456
85	0x3d171447	0.036884572
86	0x3c7ac931	0.015306757
87	0xbc6faba2	-0.014628323
88	0xbc663fa9	-0.014053264
89	0x3d50a053	0.050934147
90	0x3b6b398e	0.003589246
91	0x3b80d2d1	0.0039313813
92	0xbce288bd	-0.027653093
93	0x3cdaea97	0.02672319
94	0xbcb264a0	-0.021776497
95	0x3c26bd4b	0.010176967
96	0x3c2b70fe	0.010463951
97	0x3d7a1001	0.06105042
98	0x3d63861d	0.055547822
99	0xbcedfc10	-0.029050857
100	0x3ce46ca4	0.027883835
101	0x3dde9b8e	0.108695135
102	0x3c52b9bd	0.012861666
103	0x3c30f725	0.010801111
104	0x3d8e2b76	0.06941883
105	0x3deb901b	0.11502095
106	0x3d750820	0.0598222
107	0xbb335412	-0.0027363342
108	0xbc270554	-0.010194141
109	0x3da903a1	0.08252645
110	0x3c918380	0.0177629
111	0xbb9bc436	-0.004753615
112	0x3d0a7b89	0.03380922
113	0xbd393154	-0.04521306
114	0xbd807436	-0.062721655
115	0xbbb43e07	-0.0055005583
116	0xbc6c0172	-0.014404641
117	0x3ce4f61a	0.027949382
118	0xbdb05f45	-0.08611921
119	0xbc83caa5	-0.01608784
120	0xbc9f6ca8	-0.019460991
121	0xbd256254	-0.040376976
122	0xbd079540	-0.03310132
123	0xbd3499ff	-0.044092175
124	0xbd048ba1	-0.032359723
125	0xbc983a9f	-0.01858264
126	0xbd249b07	-0.040186908
127	0xbcddbe8b	-0.027068397
128	0x396b56a0	0.00022443617
129	0x3bb00de8	0.0053727515
130	0x3c3cf0c2	0.0115320105
131	0x3bdb3163	0.006689237
132	0xbb6ca60b	-0.0036109712
133	0x3c63ee28	0.013911761
134	0x3c18bb1b	0.009321953
135	0x3bc58640	0.0060279667
136	0xbbd14f60	-0.006387636
137	0x3b9026cc	0.004399156
138	0x3bcb2cb2	0.0062003965
139	0x3b5c8b3c	0.0033652326
140	0xbbd3428e	-0.006447143
141	0xba812476	-0.0009852785
142	0x3b8f1f20	0.004367724
143	0xb8bc1e50	-8.970185e-05
144	0xbd9eacbe	-0.07747792
145	0xbd668cad	-0.056286503
146	0xbd97c4cc	-0.07410583
147	0xbda1d6b0	-0.079022765
148	0xbda89fca	-0.08233602
149	0xbccc68e4	-0.02495236
150	0xbddc4383	-0.10755064
151	0xbd417317	-0.0472289
152	0xbd4369b9	-0.047708247
153	0xbd611bad	-0.054958034
154	0xbddb5baa	-0.10710843
155	0xbdcb7291	-0.09933961
156	0x3c71b875	0.014753451
157	0x3b90a44c	0.004414117
158	0x3ce13009	0.027488725
159	0xbd0c2d58	-0.03422293
160	0x3b4109c5	0.0029455286
161	0x3cf889bb	0.030339113
162	0xbd84aa30	-0.06477773
163	0xbdc26833	-0.09492531
164	0x3d254323	0.04034723
165	0xbd16042f	-0.036625084
166	0xbdc11240	-0.09427309
167	0xbdee0f4b	-0.11624011
168	0x3b5b161c	0.0033429926
169	0x3d0745a3	0.033025395
170	0xbd183e6a	-0.037168898
171	0xbd2001fe	-0.0390644
172	0xbd243f19	-0.040099237
173	0xb9c3b1ac	-0.00037325674
174	0xbd21cd0e	-0.039502196
175	0xbd716b7b	-0.058940392
176	0xbbcc7f83	-0.0062407865
177	0xbc1137eb	-0.00886343
178	0xbc1a4fb5	-0.009418418
179	0xbc26a0e8	-0.010170199
180	0xbbf7d8f6	-0.0075637056
181	0xbc1c6d91	-0.009547607
182	0xbc1c85ac	-0.009553354
183	0xbbfa6d0c	-0.007642394
184	0xbc03752d	-0.008023542
185	0xbc381b74	-0.011237014
186	0xbc3f0cc6	-0.01166076
187	0xbc2ab2af	-0.010418578
188	0xbc27472b	-0.010209839
189	0xbc1550b7	-0.009113482
190	0xbc24f6ba	-0.01006859
191	0xbc33fa9e	-0.010985045
192	0xbafb87eb	-0.0019190287
193	0xbd1446a7	-0.03620019
194	0x3d01dd47	0.031705167
195	0x3d35bbc5	0.044368524
196	0x3d3b1cc3	0.045681726
197	0xbbd62151	-0.0065347333
198	0xbd39ef77	-0.045394387
199	0x3b74a465	0.0037329432
200	0x3d325605	0.043539066
201	0xbd625a08	-0.05526164
202	0xbca278ce	-0.019832995
203	0x3bba86fa	0.00569236
204	0xbcd2311d	-0.025658185
205	0x3d0105a7	0.03149953
206	0xbc6287f0	-0.013826355
207	0x3d0b4041	0.033996824
208	0x3d739512	0.059468336
209	0xbbcd6588	-0.006268207
210	0xbbbef4e6	-0.005827534
211	0xbc6a828a	-0.0143133495
212	0x3d7059ef	0.058679517
213	0xbc9e5116	-0.019325774
214	0xbbee6125	-0.007274764
215	0xbd608313	-0.054812502
216	0x3ca4e90b	0.020130655
217	0x3d1fc0ed	0.039002348
218	0x3d03caf5	0.032175977
219	0xbc7bdb77	-0.015372149
220	0x3cd4bf0a	0.02597
221	0xbc7812fc	-0.015141245
222	0x3c46d3c2	0.012135448
223	0xbca07cb4	-0.019590713
224	0xbc9c3fd8	-0.019073412
225	0xbceaa200	-0.0286417
226	0xbc7f0086	-0.01556409
227	0xbc71d46c	-0.014760118
228	0xbc30a821	-0.010782273
229	0xbbd70e68	-0.0065629967
230	0x3a05db95	0.00051062676
231	0xba6b012b	-0.00089647126
232	0xbb85d369	-0.00408404
233	0x3a878e55	0.0010342101
234	0xba9204da	-0.0011140362
235	0xbb724d01	-0.0036972167
236	0x3bd53a69	0.006507207
237	0x3b429f3f	0.002969697
238	0x3c24dd59	0.010062539
239	0x3b47bbe7	0.0030476989
240	0xbad60b84	-0.0016330336
241	0xba62405b	-0.00086308055
242	0xb9bd9c90	-0.00036165537
243	0xba80a241	-0.000981398
244	0x3808c86e	3.261159e-05
245	0x37b8418c	2.1965032e-05
246	0xb8ab5dff	-8.1714235e-05
247	0x3a14fb5b	0.0005683207
248	0xb8929d15	-6.991081e-05
249	0x3ab9d226	0.0014177009
250	0x3a940cd9	0.0011295333
251	0xba2a1bfa	-0.0006489154
252	0xb982fb07	-0.00024982562
253	0x3a0e5fb1	0.0005431129
254	0xb8e6c1ce	-0.000110033536
255	0xbad78dcb	-0.0016445456

fc.bias f4 [6]
0	0xbcfaa1ec	-0.030594788
1	0x3d215d52	0.039395638
2	0xbcfb8e9d	-0.030707652
3	0xbb2cbc6d	-0.0026357428
4	0xbcaa224a	-0.020768303
5	0x3d2a86b3	0.041632365
