robot/robot_exp5/code/python_pc/model_param/model1_0.7499999403953552.pkl (torch, 32791 bytes, 6 tensors)

conv1.weight f4 [10, 3, 5, 5]
0	0xbc6775fb	-0.01412725
1	0xbd23bd52	-0.03997547
2	0xbd8051a8	-0.06265575
3	0x3d0809f1	0.033212606
4	0x3d2a52e3	0.041582953
5	0x3cef81b9	0.029236661
6	0xbce7a574	-0.028277136
7	0x3a9c41fc	0.001192152
8	0x3d8362c6	0.06415324
9	0x3d8ac2a4	0.06775406
10	0xbc50e213	-0.012749213
11	0x3d8e00c9	0.069337435
12	0x3c90c1e6	0.017670583
13	0x3d241ce2	0.040066607
14	0x3d49e5bc	0.049291357
15	0xba46d9ec	-0.00075855735
16	0x3daaab71	0.08333481
17	0x3d2ea2d6	0.04263576
18	0x3ce70dfa	0.028204907
19	0x3d19ae29	0.037519608
20	0xbdc2ba77	-0.095082216
21	0xbc1bce13	-0.009509581
22	0x3ca432ce	0.020043757
23	0x3d98558e	0.07438193
24	0xbd9d2ecc	-0.076749414
25	0xbd9181b3	-0.07104816
26	0xbb259768	-0.0025267247
27	0x3ccf39ae	0.025296059
28	0xbd90dc4c	-0.07073268
29	0xbd89807b	-0.06713959
30	0xbd3d0801	-0.04615021
31	0xbdb885cc	-0.09009895
32	0x3d627cc4	0.055294767
33	0xbd85c878	-0.06532377
34	0x3d42d153	0.04756291
35	0x3d85df4d	0.06536732
36	0x3d116722	0.035498746
37	0x3dd4816f	0.1037625
38	0xbd8ba6dd	-0.06818936
39	0xbda1e2f9	-0.0790462
40	0x3dafcbac	0.08583769
41	0x3d55589f	0.05208647
42	0xbd025695	-0.031820852
43	0xbbecb8de	-0.0072241863
44	0xbbd6d989	-0.006556694
45	0x3bfd628d	0.0077326954
46	0x3c2f497a	0.0106986705
47	0xbbc38f53	-0.0059680133
48	0x3dac8408	0.084236205
49	0x3ce911f3	0.028450942
50	0x3dac9c84	0.084282905
51	0x3bf1eae7	0.007382739
52	0xbdeb4530	-0.11487806
53	0xbc3acb5f	-0.0114010265
54	0xbde7f96b	-0.113268696
55	0xbdf6bce9	-0.120477505
56	0xbde92d56	-0.113856
57	0xbde5e89b	-0.112260066
58	0xbba41d0e	-0.0050083464
59	0xbd40b544	-0.04704787
60	0xbd668822	-0.05628217
61	0xbd87630b	-0.06610688
62	0xbc11a359	-0.008889043
63	0xbd9da82d	-0.076980926
64	0xbe00b021	-0.12567188
65	0x3d7dcac0	0.061960936
66	0xbd739dc1	-0.059476618
67	0x3c217959	0.009855592
68	0xbcc01f9b	-0.02345257
69	0x3bad0613	0.005280265
70	0xbdc32fd3	-0.09530606
71	0x3dabd629	0.08390457
72	0xbdc6e67a	-0.09711929
73	0xbd5de2b3	-0.054171275
74	0x3c389304	0.01126552
75	0x3db8fe98	0.09032935
76	0x3def205f	0.11676096
77	0xbdaa7b77	-0.0832433
78	0x3c20df3e	0.00981885
79	0x3d9790ac	0.07400641
80	0x3d3688cd	0.044564057
81	0xbdb49320	-0.08817124
82	0x3dcaf9e1	0.09910942
83	0xbcbe7866	-0.02325077
84	0x3d4c932e	0.04994505
85	0x3ddebf74	0.108763605
86	0xbc63c9c5	-0.013903086
87	0xbd5d3a94	-0.054010943
88	0xbd8520b5	-0.06500379
89	0x3c05f860	0.008176893
90	0x3c15216d	0.009102208
91	0x3dcb8407	0.099372916
92	0xbb94ce0a	-0.0045411633
93	0xbd285d93	-0.041104864
94	0xbdf87ff7	-0.12133782
95	0xbdde17ac	-0.10844359
96	0x3c10a891	0.008829252
97	0xbdc92d56	-0.098231
98	0xbd64db2b	-0.055873077
99	0xbd4b9ff9	-0.04971311
100	0xbc854c37	-0.016271694
101	0xbca89b6d	-0.020581925
102	0x3dabfbd0	0.08397639
103	0x3dcdb5e0	0.100444555
104	0xbdd7406d	-0.10510335
105	0x3cac7fa0	0.02105695
106	0xbdabf2de	-0.083959326
107	0xbd0b1b07	-0.033961322
108	0x3db5b70e	0.088728055
109	0x3d3b6f81	0.045760635
110	0x3d09c75f	0.0336374
111	0xbd1df69e	-0.03856527
112	0xbddaeabf	-0.106893055
113	0xbba1ef07	-0.0049418244
114	0x3dca3f26	0.09875326
115	0xbce9922e	-0.028512087
116	0x3d966373	0.07343187
117	0xbdcb0516	-0.099130794
118	0x3d5e7d31	0.05431861
119	0xbd33fbdc	-0.043941364
120	0x3d8e4abd	0.06947849
121	0xbd6065d4	-0.05478461
122	0x3bf0c27c	0.007347403
123	0x3d323232	0.0435049
124	0x3dc669fd	0.096881844
125	0x3dce6256	0.1007735
126	0xbd8d002f	-0.06884801
127	0xbd3e4744	-0.046454683
128	0xbc3c4422	-0.0114908535
129	0x3ddb0751	0.10694755
130	0xbca44efe	-0.020057198
131	0x3d87beeb	0.066282116
132	0xbcbd572f	-0.023112861
133	0xbd5145a5	-0.05109181
134	0xbc5591d6	-0.013035258
135	0xbd0883ac	-0.033328697
136	0xbd28b8ab	-0.041191738
137	0xbd9dc194	-0.07702938
138	0xbdd6cdf0	-0.10488498
139	0x3c99db6e	0.01878139
140	0xbd943d83	-0.07238295
141	0x3d8ed299	0.06973762
142	0x3dabf5c1	0.08396483
143	0x3db8f1cf	0.09030496
144	0x3cbc3a88	0.022977129
145	0x3d94946e	0.07254873
146	0x3d6aca26	0.05732169
147	0x3d8fed0a	0.070276335
148	0x3d8cb709	0.06870849
149	0x3d721e13	0.059110712
150	0x3c626143	0.013817134
151	0xbd5564e7	-0.05209818
152	0xbdc440dd	-0.09582684
153	0x3cd6f461	0.026239576
154	0x3dc10fca	0.0942684
155	0x3c7d0e4d	0.015445304
156	0x3ddcdc82	0.10784246
157	0x3d5b0f71	0.053481523
158	0xbbc6af77	-0.0060633975
159	0x3d8fe2a7	0.070256524
160	0xbbd5dddf	-0.0065266932
161	0x3cb6cb5f	0.022313772
162	0xbdadb010	-0.08480847
163	0xbd87a405	-0.06623081
164	0x3cc253b9	0.023721563
165	0x3da33aee	0.07970224
166	0x3dc39cd8	0.095514
167	0x3daead2b	0.08529123
168	0x3dd3bd88	0.103388846
169	0xbc78f2dd	-0.015194622
170	0xbd5d6510	-0.05405146
171	0x3d3a1ab4	0.045435622
172	0xbd1cd578	-0.038289517
173	0x3d906472	0.070504084
174	0x3db85837	0.09001201
175	0xbd843218	-0.06454867
176	0x3d3d957f	0.04628515
177	0x3d830802	0.06398012
178	0xbd508d4f	-0.050916012
179	0xbc03ec5d	-0.008051959
180	0x3d94d7ee	0.07267748
181	0xbda3680c	-0.0797883
182	0xbdce0ed7	-0.10061424
183	0xbdbdebf1	-0.09273518
184	0xbd2fee53	-0.042951893
185	0x3dad1f9f	0.08453297
186	0xbdad2e57	-0.08456104
187	0xbdbe0fda	-0.09280367
188	0x3dd53bb1	0.10411776
189	0x3d8c6fc7	0.06857257
190	0x3d2aa818	0.041664213
191	0xbbb0049e	-0.005371644
192	0x3d9f8780	0.077895164
193	0xbd3ec57e	-0.046575062
194	0xbdd96293	-0.10614505
195	0xbd92e5db	-0.07172748
196	0x3d247146	0.04014709
197	0x3dc7ea84	0.09761527
198	0xbd8a3b94	-0.06749645
199	0xbda26ed6	-0.079312965
200	0xbc03086e	-0.007997615
201	0xbd8fe784	-0.0702658
202	0x3d945d1e	0.07244323
203	0x3cc9738d	0.024591232
204	0x3de4740c	0.11154947
205	0x3c36b88b	0.011152397
206	0xbdb99e77	-0.09063428
207	0xbdbe1865	-0.09281997
208	0xbd6438de	-0.055718295
209	0x3d9a4381	0.075324066
210	0xbdd8e182	-0.10589887
211	0xbb72c87c	-0.0037045768
212	0xbd847e61	-0.06469417
213	0xbde1cbbe	-0.11025189
214	0xbb5e2f2b	-0.0033902626
215	0xbda8f9d0	-0.08250773
216	0xbca18333	-0.019715881
217	0x3d9a949a	0.07547875
218	0xbd665b2c	-0.056239292
219	0x3de03e5e	0.109493956
220	0xbd841bd0	-0.06450617
221	0xbdba6108	-0.091005385
222	0x3dae2ea5	0.085049905
223	0xbc9fcc48	-0.019506589
224	0x3d79d27d	0.060991753
225	0xbcd0d146	-0.025490414
226	0xbd7b6920	-0.061379552
227	0xbdbe8187	-0.09302049
228	0x3d571cd4	0.052517727
229	0xbd305e08	-0.043058425
230	0xbdef16dd	-0.11674283
231	0xbdb28760	-0.08717227
232	0x3cf969e7	0.030446006
233	0x3d1097fe	0.0353012
234	0xbd72bcdc	-0.05926214
235	0xbd3d8f44	-0.046279207
236	0x3d89e200	0.06732559
237	0xbdad63b6	-0.08466284
238	0x3d3bcabb	0.045847636
239	0x3d9a2e29	0.075283356
240	0xbc780e20	-0.015140086
241	0xbd8ab9c5	-0.06773714
242	0xbdb2145e	-0.08695291
243	0x3cbea6a8	0.023272827
244	0x3d4b6f53	0.049666714
245	0x3dcc619a	0.099795535
246	0x3d44b234	0.04802151
247	0xbd65c45f	-0.056095477
248	0x3d124ade	0.03571593
249	0x3dc1a1b4	0.094546705
250	0x3da62412	0.081123486
251	0x3ddf4313	0.10901465
252	0x3d912902	0.070879
253	0xbdcbd647	-0.099529795
254	0xbdab84a1	-0.08374906
255	0x3d9c84f7	0.076425485

conv1.bias f4 [10]
0	0xbc500ade	-0.012697903
1	0xbde1999b	-0.11015626
2	0xbd3a8b69	-0.045543108
3	0x3db7d33c	0.08975837
4	0x3dacde16	0.08440797
5	0x3d6582a7	0.056032803
6	0xbd620338	-0.05517885
7	0xbc5c60ed	-0.013450843
8	0x3d703b57	0.05865034
9	0x3d0e5ced	0.03475659

conv2.weight f4 [20, 10, 5, 5]
0	0xbd41590e	-0.04720407
1	0x3c60ff43	0.013732734
2	0xbd24b0de	-0.040207736
3	0xbd2235a3	-0.039601933
4	0xbd726268	-0.05917588
5	0xbc787ccd	-0.015166474
6	0x3d282f74	0.04106088
7	0xbca9faea	-0.020749528
8	0xbd0d0b96	-0.034434877
9	0xbd82b5c8	-0.06382328
10	0x3b727d9e	0.0037001143
11	0xbbb0a374	-0.005390579
12	0xbd32499d	-0.043527234
13	0x3d122d0e	0.0356875
14	0x3d3279dd	0.04357325
15	0x3c539ebf	0.012916266
16	0x3bb78824	0.005600946
17	0xbd655e5c	-0.05599819
18	0x3c1de89a	0.009637976
19	0xba4bae8c	-0.0007769845
20	0xbd3fbe3e	-0.04681229
21	0xbd419000	-0.04725647
22	0x3c1da770	0.00962244
23	0xbcd38552	-0.025820408
24	0xbd549113	-0.051896166
25	0x3d5c7347	0.053820875
26	0x3d02d440	0.0319407
27	0x3c568475	0.013093104
28	0x3cc71c32	0.024305437
29	0x3cc00d9c	0.02344399
30	0x3d377f1d	0.04479896
31	0x3c9cf7a2	0.01916105
32	0x3d3194d5	0.043354828
33	0xbbdac73c	-0.0066765826
34	0x3d21b106	0.039475463
35	0xbd92ad4e	-0.071619615
36	0xbd82626f	-0.06366431
37	0xbc26f778	-0.010190837
38	0xbd607553	-0.05479939
39	0x3cd2dab2	0.025739048
40	0xbc02de1a	-0.007987523
41	0x3d25462f	0.040350135
42	0x3d34c917	0.044137087
43	0x3d254d25	0.040356774
44	0xbc043921	-0.008070261
45	0x3d366ff1	0.04454035
46	0xbce62423	-0.028093403
47	0xbd325680	-0.043539524
48	0xbc5d299f	-0.013498693
49	0xbc90ffc3	-0.017700082
50	0x3d772c4a	0.06034497
51	0xbd6428e4	-0.05570306
52	0x3c7f35ba	0.015576774
53	0xbcdbb378	-0.026818976
54	0xbd2bb297	-0.041918363
55	0x3cbbb18b	0.022911808
56	0x3d2610ff	0.040543552
57	0xbd4f89ba	-0.050668456
58	0xbcb197c4	-0.021678813
59	0x3c98ed60	0.018667877
60	0x3cef514f	0.029213576
61	0x3d6ff864	0.058586493
62	0xbcd97fb6	-0.026550155
63	0x3d1307ec	0.035896227
64	0xbd8feabe	-0.070271954
65	0x3d6472e9	0.05577365
66	0x3d499c1a	0.049221136
67	0x3b8e7ff0	0.0043487474
68	0xbc14143e	-0.009038029
69	0x3c14c217	0.009079478
70	0x3d894d02	0.06704141
71	0x3d692645	0.056921262
72	0xbbdf77bd	-0.006819694
73	0x3c944303	0.01809836
74	0x3d041f96	0.032256685
75	0x3d22c818	0.039741606
76	0x3d1d8fb3	0.03846712
77	0xbd5fad58	-0.054608673
78	0xbd8e68b8	-0.06953567
79	0xbd6cb6d0	-0.05779153
80	0xbd051519	-0.032490823
81	0xbd3b35e2	-0.045705684
82	0xbd736376	-0.059421025
83	0xbd66f8ff	-0.056389805
84	0x3cd12510	0.025530368
85	0x3bb80022	0.00561525
86	0xbceaea2e	-0.028676119
87	0x3c65372e	0.013990207
88	0x3cea8e6b	0.028632363
89	0xbc1280b3	-0.008941817
90	0x3c5cde16	0.013480684
91	0xbc863f45	-0.016387591
92	0xbc821123	-0.015877312
93	0xbc59ce66	-0.013293838
94	0xbd468b4b	-0.048472684
95	0x3d01158a	0.031514682
96	0xbd8308a1	-0.0639813
97	0xbd738c72	-0.05946011
98	0x3d809d0b	0.062799536
99	0x3d5736f9	0.05254266
100	0xbd27d28d	-0.04097228
101	0xbd2785ad	-0.040898968
102	0xbc103f0e	-0.008804096
103	0xbc6cae2a	-0.014445821
104	0x3cf116f6	0.029429894
105	0x3aa98146	0.0012932203
106	0x3d04c238	0.032411784
107	0xbced6c58	-0.028982326
108	0x3c57c515	0.013169547
109	0x3d851e1f	0.06499886
110	0xbd5aaa63	-0.05338515
111	0x3c8aeec6	0.01695956
112	0x3d47137b	0.048602562
113	0x3ce251bc	0.027626865
114	0x3d21b54a	0.03947953
115	0xbcf3eb12	-0.029775176
116	0xbd362beb	-0.044475477
117	0x3cc46be1	0.023977222
118	0xbcf0877a	-0.029361475
119	0x3c3621ff	0.011116504
120	0xbd606428	-0.054783016
121	0xbcaecda4	-0.021338291
122	0xbc506ed4	-0.012721736
123	0x3d6fd0ad	0.058548618
124	0x3d2c5021	0.042068604
125	0x3d4a0c33	0.04932804
126	0xbcfdce72	-0.03098223
127	0x3cdda8c3	0.02705801
128	0xbcc1af3b	-0.023643127
129	0xbd68084f	-0.05664855
130	0x3c2a1b26	0.010382449
131	0xbbb9a1db	-0.0056650466
132	0x3c13e4a3	0.009026679
133	0x3d5267d1	0.05136854
134	0xbcff79cd	-0.031186009
135	0xbd35d0fc	-0.044388756
136	0xbd77e94b	-0.06052522
137	0xbd132484	-0.035923496
138	0x3d59b17f	0.05314779
139	0xbd51ebe3	-0.05125035
140	0xbc873047	-0.016502513
141	0x3cb9c3be	0.022676345
142	0x3c026bd9	0.007960283
143	0x3d29b986	0.041436695
144	0x3cba024d	0.022706175
145	0xb800d898	-3.0719297e-05
146	0xbcd28031	-0.025695892
147	0x3cad654e	0.02116647
148	0xbd0761fc	-0.03305243
149	0x3d7eb6d8	0.062186092
150	0xbc01da5b	-0.007925595
151	0x3d32d9a6	0.043664597
152	0xbd073135	-0.03300591
153	0x3d333256	0.043749176
154	0x3d11b6be	0.035574667
155	0xbc6b7031	-0.01437001
156	0xbcb385cd	-0.021914387
157	0x3caac4d2	0.020845804
158	0xbd48a5f3	-0.048986387
159	0xbd81a829	-0.06330902
160	0x3cc441f7	0.023957236
161	0xbd881b02	-0.06645776
162	0x3d41fd2e	0.04736059
163	0x3d6d8adb	0.05799375
164	0xbd53f2a9	-0.05174509
165	0x3cd1d33d	0.025613422
166	0x3ca5ac59	0.020223783
167	0xbd114120	-0.0354625
168	0xbd287689	-0.04112867
169	0xbd5f0509	-0.05444816
170	0x3ca123bc	0.01967036
171	0x3b9dc1b8	0.004814353
172	0xbd55e500	-0.052220345
173	0x3d4653fc	0.048419937
174	0x3bc2dab2	0.0059464807
175	0xbd6e27fc	-0.0581436
176	0x3d25c299	0.040468786
177	0xbd1efe8c	-0.038816974
178	0x3d305ce7	0.04305735
179	0xbd7e889c	-0.062142
180	0xbd6244f6	-0.055241548
181	0x3c8a5e7d	0.016890759
182	0xbd836ff3	-0.06417837
183	0xb97531f4	-0.0002338363
184	0xba5bc6d6	-0.0008383816
185	0xbd4a3224	-0.049364224
186	0x3d2657bf	0.040611025
187	0x3d4ac351	0.049502674
188	0xbd3008c8	-0.042977124
189	0xbd62b14f	-0.055344876
190	0xbd6e2543	-0.058141004
191	0x3c483dff	0.012221812
192	0x3d1586a9	0.036505375
193	0x3c4084e9	0.011750438
194	0x3c099f32	0.0083997715
195	0xbca8ba8e	-0.020596769
196	0x3d59fcf0	0.053219736
197	0x3d6af567	0.05736294
198	0xbbda49c2	-0.0066616246
199	0xbd473564	-0.0486349
200	0x3d30d15f	0.04316842
201	0x3d2eb6f9	0.042654965
202	0x3d358531	0.044316474
203	0xbd41993c	-0.047265276
204	0xbd89edc7	-0.067348056
205	0xbcf28058	-0.029602215
206	0xbd368d37	-0.044568267
207	0x3c3b3c70	0.011427984
208	0x3c501f87	0.012702829
209	0xbcba5b58	-0.022748634
210	0x3cde92c3	0.02716959
211	0xbcdcb185	-0.026940117
212	0xbd6ece1c	-0.05830203
213	0x3c05139f	0.008122354
214	0x3d006d51	0.031354252
215	0x3cdf1559	0.027231859
216	0xbcde0446	-0.027101647
217	0x3c14c85a	0.009080971
218	0xbc115c83	-0.008872154
219	0x3c87bc8f	0.016569404
220	0x3cf617df	0.03004068
221	0xbd6c8b1c	-0.057749853
222	0x3ab8f9e1	0.0014112556
223	0xba57dca3	-0.00082344766
224	0x3cfb9020	0.030708373
225	0xbb565ec7	-0.00327103
226	0x3bff82d1	0.007797577
227	0xbd2bbadd	-0.041926254
228	0xbc4395fc	-0.0119376145
229	0xbd1b7c5b	-0.03796039
230	0x3be81452	0.0070825005
231	0x3d0cc327	0.0343658
232	0xbd00d111	-0.03144938
233	0x3d4c99df	0.04995143
234	0x3c1b8912	0.009493129
235	0x3c196464	0.009362314
236	0xbd69b481	-0.057056908
237	0x3c9810ca	0.018562693
238	0x3d033712	0.03203494
239	0x3d395364	0.045245543
240	0xbd04e553	-0.032445263
241	0x3c976296	0.018479627
242	0x3c8ee1f0	0.01744172
243	0x3d4157eb	0.047202986
244	0xbc13ae87	-0.0090137785
245	0xbd2a89ef	-0.04163545
246	0x3d0e570c	0.034750983
247	0x3c7e30d6	0.015514573
248	0x3b014c09	0.0019729158
249	0x3d5f9de2	0.05459393
250	0x3c6a5af3	0.014303911
251	0x3d898286	0.067143485
252	0x3d57fabc	0.052729353
253	0xbd5c39ea	-0.05376617
254	0x3c84c8dc	0.016209058
255	0x3d86c925	0.06581334

conv2.bias f4 [20]
0	0x3d6a6f97	0.057235327
1	0xbd315bac	-0.043300316
2	0x3ba10d0e	0.0049148863
3	0xbb797acb	-0.0038067575
4	0xbc934167	-0.017975522
5	0x3ccfce26	0.025366854
6	0x3c0f4add	0.008745876
7	0x3d0e6d73	0.034772348
8	0x3c15b1f3	0.009136665
9	0xbc50a87c	-0.012735482
10	0xbd2ed297	-0.042681303
11	0xbcf7fc58	-0.030271694
12	0xbcccedd2	-0.025015745
13	0xbd36d233	-0.044634055
14	0xbd3ae7e4	-0.045631304
15	0xbd2900a7	-0.041260388
16	0xbd5ccc9c	-0.05390607
17	0x3acfcee7	0.0015854508
18	0xbd5badb2	-0.053632446
19	0xba8c465e	-0.0010702123

fc.weight f4 [6, 320]
0	0x3c13092d	0.008974356
1	0xbcf8a40e	-0.030351665
2	0x3d2ca343	0.042147886
3	0xbc2b5c14	-0.010458965
4	0xbb0a2203	-0.0021077401
5	0xbd482845	-0.04886653
6	0x3c13d9b6	0.009024074
7	0x3c472ff6	0.012157431
8	0x3d2d86bf	0.042364832
9	0x3cced678	0.025248751
10	0x3b377d83	0.0027998395
11	0xbcc3d13a	-0.023903478
12	0xbd1d8be4	-0.03846349
13	0xbbf95aed	-0.007609716
14	0x3c27f871	0.010252104
15	0x3d1836f0	0.037161767
16	0x3d390988	0.045175105
17	0x3cbf95d1	0.023386868
18	0xbd5516ed	-0.052023817
19	0xbd0a091f	-0.033700105
20	0x3c965a7e	0.018353697
21	0x3d249749	0.04018334
22	0xbd6be644	-0.057592645
23	0xbccde08a	-0.025131483
24	0xbd3cd732	-0.046103664
25	0xbd822a84	-0.063557655
26	0x3c8053f7	0.015665038
27	0x3d471ceb	0.048611563
28	0x3cdf78db	0.027279308
29	0xbbbb99ea	-0.005725135
30	0x3c925f68	0.017867759
31	0x3d197f3a	0.03747485
32	0xbbebfbd2	-0.00720165
33	0x3bcf4f5b	0.0063265986
34	0xbcb8b3f7	-0.022546751
35	0x3bf59891	0.007494994
36	0xbcf799d5	-0.03022472
37	0x3d353206	0.04423716
38	0x3c1ab029	0.009441414
39	0x3d4a0e1f	0.049329873
40	0x3d719f1d	0.058989633
41	0xbb9b992a	-0.004748483
42	0xbc856870	-0.016285151
43	0x3b947ab5	0.0045312294
44	0x3d2ead21	0.042645577
45	0xbd3fb137	-0.046799865
46	0xbd2b67d0	-0.04184705
47	0x3c260930	0.010134026
48	0xbd126f94	-0.03575094
49	0xbd086590	-0.033299983
50	0x3c1d7bdd	0.009612051
51	0xbc5f0f47	-0.013614482
52	0xbacf69be	-0.001582436
53	0x3b5546de	0.003254346
54	0x3bc122c4	0.005894037
55	0xbd079132	-0.033097453
56	0xbcdd12ac	-0.026986443
57	0x3cc83526	0.024439406
58	0xbb101719	-0.0021986424
59	0x3d06a356	0.032870613
60	0xbc194b13	-0.009356278
61	0xbcef2433	-0.029192066
62	0xbc132133	-0.008980083
63	0xbcd1efb1	-0.02562699
64	0x3d283e36	0.041074954
65	0x3c9c2fbe	0.019065734
66	0xbd67f978	-0.056634396
67	0xbcc6dc38	-0.02427493
68	0x3c907ae7	0.01763673
69	0x3cad985e	0.021190818
70	0x3bc8d0ed	0.0061284215
71	0x3cf75e28	0.030196264
72	0xbd0ef6bd	-0.034903277
73	0x3ca78f63	0.020454114
74	0xbd2969c7	-0.041360643
75	0xbc0cf6e0	-0.008603781
76	0x3d6918c0	0.05690837
77	0x3c3368d8	0.01095029
78	0x3d013e63	0.031553637
79	0x3d55f161	0.05223215
80	0x3c6c9113	0.014438885
81	0xbce16a84	-0.02751661
82	0xbd6fbc27	-0.058529045
83	0x3d37ed4a	0.04490403
84	0x3d138be8	0.036022097
85	0x3d057b52	0.03258831
86	0x3c9900e5	0.018677184
87	0xbc2efc9e	-0.010680346
88	0xbca6b77b	-0.020351162
89	0x3d42c0d1	0.047547165
90	0x3a89aaf8	0.0010503223
91	0x3ba23f7e	0.0049514165
92	0xbcf1f2d9	-0.029534744
93	0x3cc20b76	0.023687106
94	0xbc98c9bd	-0.018650884
95	0x3bec4104	0.007209899
96	0xbc1533f5	-0.009106626
97	0x3cac0007	0.020996107
98	0x3c7bd70e	0.015371097
99	0xbca494df	-0.020090519
100	0xbb512e3c	-0.0031918427
101	0x3d86e391	0.065863736
102	0xbd1551fc	-0.03645514
103	0x3b12721e	0.0022345851
104	0x3cdd104e	0.026985314
105	0x3d8af5ca	0.06785162
106	0x3bd330a7	0.006445009
107	0xbc350f6d	-0.011051041
108	0xbcd71115	-0.026253263
109	0x3d57a417	0.052646723
110	0xbc99b33f	-0.018762229
111	0xbbb97b1e	-0.0056604287
112	0x3d338052	0.043823548
113	0xbd3729f6	-0.04471775
114	0xbd20ffca	-0.03930644
115	0x3ccf51a1	0.025307478
116	0xbb05e14e	-0.0020428482
117	0x3d573c35	0.052547652
118	0xbd3c0178	-0.04589984
119	0x3c9b4ab6	0.018956523
120	0xbc2f21f5	-0.010689248
121	0xbc55c20b	-0.013046752
122	0x3c14a091	0.009071485
123	0xbc94bad7	-0.018155498
124	0xbc9fe449	-0.019518035
125	0xbbc97988	-0.006148521
126	0xbc6b78a2	-0.014372023
127	0xbaf0efbb	-0.0018381992
128	0xbd05ba82	-0.03264857
129	0xba1a76ec	-0.00058923545
130	0x3cdb4dea	0.02677055
131	0x3c19dd71	0.009391175
132	0x3d15cc6f	0.036571916
133	0x3d41835b	0.04724441
134	0xbcb51048	-0.02210249
135	0x3cf93bd9	0.030424045
136	0x3d0b6a99	0.034037206
137	0xbc7f0e2d	-0.015567345
138	0xbba0247d	-0.0048871622
139	0xb9bdd660	-0.0003620861
140	0x3c7fa9c1	0.015604437
141	0xbce35c16	-0.027753871
142	0x3d2748ee	0.040841036
143	0x3cb957f3	0.022624945
144	0xbd497816	-0.04918679
145	0xbc3d0f36	-0.011539271
146	0xbcfa884e	-0.030582573
147	0xbd114325	-0.035464425
148	0xbd479766	-0.04872837
149	0x3cde3b45	0.027127871
150	0xbd7b2bdf	-0.061321136
151	0xbaf0eb9a	-0.0018380762
152	0xbc2212bc	-0.009892162
153	0xbca57e0b	-0.020201704
154	0xbd8b7448	-0.06809288
155	0xbd854a0c	-0.06508264
156	0x3ccfe85b	0.02537935
157	0x3cd1710e	0.025566604
158	0x3d3a6e51	0.045515362
159	0xbcb6e11a	-0.022324134
160	0x3b611fdd	0.0034351267
161	0x3d2b5229	0.0418264
162	0xbd50a252	-0.05093605
163	0xbd3eb181	-0.046556
164	0x3d3eda87	0.046595123
165	0xbcdef00d	-0.027214075
166	0xbd23659d	-0.039891828
167	0xbd8e2af3	-0.06941786
168	0xbaf543d7	-0.0018712234
169	0x3d1db576	0.038503133
170	0x3c7f0c74	0.015566934
171	0x3c64e5d6	0.013970813
172	0xbcc7d44f	-0.024393229
173	0x3cebe3a8	0.028795078
174	0x3c39693a	0.011316592
175	0x38649ed0	5.450734e-05
176	0x3c8b33ba	0.016992439
177	0x3d3cefe4	0.046127215
178	0xbd1e80d1	-0.038697068
179	0x3bbd30f5	0.0057736584
180	0x3c836539	0.016039478
181	0xbd17845d	-0.036991466
182	0xbd6733da	-0.056445934
183	0xbd61cbfb	-0.05512617
184	0x3cf537d7	0.029933853
185	0xbbc62f25	-0.0060481005
186	0x3d30c2d6	0.04315456
187	0x3ccb1f83	0.0247953
188	0x3a6cb309	0.0009029364
189	0x3cad98c3	0.021191007
190	0x3c954eea	0.018226106
191	0xbc558d35	-0.013034155
192	0xbaebe715	-0.0017997945
193	0xbd3f252d	-0.046666313
194	0x3d295e0d	0.04134946
195	0x3d5410fd	0.051774014
196	0x3d63402c	0.05548112
197	0x3b04e845	0.0020280045
198	0xbd473a05	-0.048639316
199	0x3b955021	0.0045566713
200	0x3d4fb1a5	0.050706524
201	0xbd3c7e03	-0.04601861
202	0xbcc36363	-0.023851102
203	0x3bdc3088	0.0067196526
204	0xbd07a8c0	-0.033119917
205	0x3d300a23	0.042978417
206	0xbbe76828	-0.007061977
207	0x3d11573d	0.035483588
208	0x3d56244e	0.052280717
209	0xbc9ccbac	-0.019140087
210	0xbb0d27cb	-0.002153861
211	0xbb243547	-0.002505617
212	0x3d43d9b9	0.04781506
213	0xbd0e7c7d	-0.03478669
214	0xbc2f24bc	-0.0106899105
215	0xbd18d687	-0.037313964
216	0x3c20416e	0.009781225
217	0x3d23b4fd	0.039967526
218	0x3d04a51b	0.03238402
219	0x3bd69050	0.006547965
220	0x3cff25c1	0.031145932
221	0xb7af16a0	-2.0872161e-05
222	0x3cf37b88	0.02972199
223	0xbbfbc4bd	-0.007683365
224	0x3aa0cb32	0.0012267588
225	0x3a1bf012	0.0005948554
226	0xbc036a2d	-0.00802092
227	0xba2113fc	-0.00061446405
228	0xbbf0d31e	-0.007349386
229	0xb9a02569	-0.0003054545
230	0xbac3d152	-0.0014939702
231	0xb98a67ad	-0.00026398656
232	0xb8603d06	-5.3462594e-05
233	0xb9fbe588	-0.00048045465
234	0xbb06a4f2	-0.0020545092
235	0xb9d9c741	-0.0004153792
236	0xbab2927d	-0.0013623979
237	0x39b0da72	0.0003373209
238	0x3cbb2b3f	0.02284777
239	0xb8872807	-6.444757e-05
240	0x3d21bca6	0.03948655
241	0xbcf00b75	-0.029302338
242	0xbd02ea67	-0.031961825
243	0x3ad71b43	0.0016411323
244	0x3bf3c7dc	0.0074395966
245	0xbd06a483	-0.032871734
246	0x3b139d94	0.0022524344
247	0x3d390a8a	0.045176066
248	0xbb98ff6e	-0.0046691215
249	0xbd1a31b9	-0.037645075
250	0xbd1f498d	-0.038888503
251	0xbd2bbbbb	-0.04192708
252	0xbc274d49	-0.010211297
253	0x3cb110c1	0.021614434
254	0xbbbe3694	-0.005804846
255	0x3d41eedc	0.047346935

fc.bias f4 [6]
0	0xbcf4cab9	-0.029881822
1	0x3d206678	0.03916022
2	0xbcce2f1b	-0.025168946
3	0xbb1dace3	-0.0024059347
4	0xbc9c47a8	-0.019077137
5	0x3d30400f	0.04302984
