robot/robot_final/code/python_pc/model_param/model.pkl (torch, 40884 bytes, 6 tensors)

conv1.weight f4 [10, 3, 5, 5]
000000 33 fa a6 3d 95 65 b4 3d 3a 4c aa 3d 63 6e b6 3d
       0.081531905 0.08808438 0.0831532 0.08907773
000010 16 d9 ca 3d 38 8e e4 3c a7 d1 4c 3d 84 7b 7b 3d
       0.09904687 0.027899846 0.050004628 0.06139709
000020 2a db 98 3d 2d e9 c5 3d fe 5b 8b bd aa 54 33 bd
       0.07463677 0.096636154 -0.068046555 -0.043781914
000030 95 d0 60 bb c4 c6 27 3d cf c9 ac 3d 3e a6 36 be
       -0.0034304012 0.040961042 0.084369294 -0.17836854
000040 27 bb 3b be ed 06 07 be b4 a9 64 bd e8 18 ab 3c
       -0.18333112 -0.13186236 -0.055825904 0.0208859
000050 81 77 2a be 71 73 51 be 1e ca 31 be cb 0c b8 bd
       -0.1664715 -0.20454194 -0.17362258 -0.08986815
000060 dd f2 52 bc 89 73 b9 3d 54 e8 ca 3d 9e 07 bc 3d
       -0.012875286 0.0905524 0.09907594 0.0918114
000070 18 72 b7 3d 44 cf b3 3d f1 9f 34 3d af 97 77 3d
       0.089573085 0.08779767 0.044097845 0.06044739
000080 7d 7c 81 3d 3f e2 84 3d 7e 1e a0 3d 05 01 5d bc
       0.063225724 0.064884655 0.07818316 -0.013489013
000090 2b 94 ce 3a b8 50 a2 3c 32 a3 1a 3d 51 8b 85 3d
       0.001576071 0.01981388 0.03775329 0.06520713
0000a0 2e cc a9 bd ec 85 aa bd 5b a4 60 bd 1d b8 a0 bc
       -0.08290897 -0.08326325 -0.05484424 -0.019619042
0000b0 cc 6f c5 3c 38 19 c2 bd a7 0b f3 bd b9 f3 ce bd
       0.02410116 -0.09477466 -0.11867457 -0.1010508
0000c0 bd 3e 3c bd a3 c7 a4 3a 9c f3 ae 3d e2 6c c7 3d
       -0.04595827 0.0012571703 0.085425586 0.097375646
0000d0 f8 bd bd 3d ef 60 c0 3d cc 41 c8 3d 00 51 f5 3c
       0.09264749 0.093934886 0.09778175 0.02994585
0000e0 f4 90 59 3d 24 82 80 3d 47 d8 94 3d bf 3f bf 3d
       0.053116754 0.06274822 0.07267814 0.093383305
0000f0 1d 15 80 bd 24 2c 43 bd e3 ea 89 bc 59 80 ba 3c
       -0.06254027 -0.047649518 -0.016835636 0.022766279
000100 9c 27 90 3d 65 08 1f be b1 76 32 be 6d b7 11 be
       0.07038805 -0.15530546 -0.1742809 -0.14230128
000110 67 9f a4 bd ae e5 79 bb f7 ba 0e be 26 60 3f be
       -0.08038216 -0.0038131285 -0.13938509 -0.18689021
000120 08 a4 36 be f8 05 e8 bd 63 25 28 bd 9a dd 44 3d
       -0.1783601 -0.113292634 -0.04105128 0.0480629
000130 61 30 64 3d 96 53 59 3d 21 cd 51 3d b6 02 56 3d
       0.0557102 0.05305823 0.051221017 0.05224868
000140 6e 87 b0 3c bf 91 05 3d 26 b5 22 3d ba 5d 21 3d
       0.021548953 0.032609697 0.039723538 0.039396025
000150 83 2c 35 3d f8 9f 92 bc f1 6e 89 bc 57 e5 4e bb
       0.044231903 -0.017898545 -0.016776534 -0.0031569803
000160 a8 73 23 3c e7 4b db 3c 16 7a 77 bd 2a e9 bb bd
       0.009976305 0.026769591 -0.060419165 -0.09175332
000170 f6 af b7 bd 4c 55 81 bd 3c 81 d8 bc 9a 22 6b bd
       -0.08969109 -0.06315097 -0.026428811 -0.057406045
000180 10 e7 d9 bd bf 57 fb bd db cf c5 bd fb 44 61 bd
       -0.10639775 -0.122725956 -0.09658786 -0.054997426
000190 f8 09 59 3d ea de 7a 3d e3 05 6c 3d 7a 8e 5f 3d
       0.052988023 0.061247744 0.0576228 0.054579236
0001a0 e9 27 52 3d d8 e5 f1 3c 4e b4 1b 3d 92 37 2a 3d
       0.051307593 0.029528543 0.03801375 0.041556902
0001b0 8d b8 1a 3d 2a 8e 20 3d 56 5d 46 3b f3 0a a8 3b
       0.037773658 0.03919808 0.0030268035 0.0051282584
0001c0 e1 89 5a 3c 5d 13 81 3c fb 82 bb 3c 06 88 be bc
       0.013338537 0.015756303 0.022889605 -0.02325822
0001d0 ea 4a 25 bd 2d 80 1c bd d0 2a de bc 3c 9b 34 bc
       -0.040354647 -0.038208175 -0.027120024 -0.011023339
0001e0 46 5c c7 bc 97 b0 6d bd aa a4 90 bd 46 dd 5d bd
       -0.024335992 -0.058029737 -0.07062657 -0.0541661
0001f0 e6 ee f6 bc b6 dc 51 3d 56 5d 80 3d ff 8f 7e 3d
       -0.030143213 0.051235877 0.062678024 0.062149044
000200 b2 ce 73 3d 2b 26 6d 3d 4f f8 cc 3c 19 0c 19 3d
       0.059523292 0.057897728 0.025020747 0.037365053
000210 d9 44 35 3d d2 39 30 3d 12 40 3c 3d 86 1f 39 bc
       0.04425511 0.04302389 0.04595954 -0.01129902
000220 8e d7 58 bc 8a 41 63 bb 30 e6 cd 3b 71 ae b1 3c
       -0.013234986 -0.0034676515 0.006283544 0.021689625
000230 f6 55 3e bd cf 6b a2 bd bc 64 ac bd a7 96 85 bd
       -0.046468697 -0.07930719 -0.08417651 -0.06522875
000240 70 2d 0a bd 91 ca 21 bd 88 ce b5 bd 96 8e e5 bd
       -0.03373474 -0.039499823 -0.08877283 -0.11208837
000250 d0 4d c4 bd 10 f5 7d bd ea 3d 15 bd 3c 9e 4f bd
       -0.09585154 -0.062001288 -0.036436 -0.050688013
000260 80 7b 51 bd b7 22 1c bd 95 1f 9c bc f9 ae 03 bd
       -0.05114317 -0.038119044 -0.019058028 -0.03214929
000270 e9 4a 4e bd c6 0d 72 bd a0 91 40 bd 84 aa e1 bc
       -0.05036441 -0.059095167 -0.04701388 -0.027547128
000280 1c 00 bc 3b 3b 68 32 bb 30 ac 40 bc 60 5a 04 bc
       0.0057373177 -0.002722277 -0.011759803 -0.008078188
000290 13 a2 11 3a 3f c2 02 3d 52 19 03 3d a5 d9 df 3c
       0.0005555462 0.03192353 0.03200657 0.02732546
0002a0 e8 da cd 3c b4 90 af 3c a5 db 16 3d 5e 38 17 3d
       0.025128797 0.021431305 0.036830563 0.03691899
0002b0 71 55 07 3d c1 c6 f4 3c cb 77 cd 3c ff bb 3f bc
       0.033040468 0.02987993 0.025081536 -0.011702537
0002c0 f8 a8 9b bc 87 df 8c bc 7e 91 3b bc 5f a2 2a bb
       -0.019001469 -0.01719643 -0.011448262 -0.0026036722
0002d0 99 96 61 bc d0 82 d1 bc b5 32 00 bd f0 32 bd bc
       -0.013768815 -0.025575072 -0.031298358 -0.023095578
0002e0 a5 23 50 bc 0e 9a 0f 3c cb 9a f9 3a 42 ff a3 bb
       -0.012703811 0.008764757 0.0019043324 -0.0050047943
0002f0 ff 82 a3 ba 2b 18 95 3b 57 69 ee 3c 28 51 f9 3c
       -0.0012474953 0.00455 0.029102964 0.030434206
000300 48 72 e2 3c 6d fe d8 3c 1b 4b bc 3c 2a e8 0d 3d
       0.027642384 0.026488507 0.022985032 0.034645237
000310 dc 25 15 3d da 4f 0f 3d 95 0d 06 3d 67 27 ed 3c
       0.03641306 0.03498826 0.032727797 0.028949453
000320 84 6d f8 bc 25 5c 3a bd 0e 85 47 bd f2 a9 1f bd
       -0.030325659 -0.045498032 -0.048710875 -0.03898043
000330 b1 de c4 bc cb a5 d5 bc 61 3f 39 bd 1f 57 63 bd
       -0.024031969 -0.026080033 -0.04522646 -0.055503007
000340 89 34 40 bd db 5b 03 bd 23 ca d8 3b bb cf 02 bb
       -0.0469251 -0.032070022 0.0066158934 -0.0019960243
000350 61 3c 2f bc b3 91 19 bc b1 f3 66 bb f8 b3 eb 3c
       -0.010695548 -0.009373116 -0.0035240466 0.02877234
000360 59 d8 f6 3c 2d 4e d8 3c 3c d1 c0 3c da c7 9c 3c
       0.03013246 0.026404465 0.02353727 0.019138265
000370 c6 f2 10 3d d5 bc 15 3d b5 3a 0a 3d 34 01 f7 3c
       0.035387777 0.036557037 0.033747394 0.03015194
000380 67 18 d4 3c 4b ba 91 3d c1 c5 aa 3d 44 f7 bb 3d
       0.025890542 0.07115611 0.083385 0.091780216
000390 58 a1 a8 3d 73 9d 5c 3d ca 3b cb 3d 29 4b e8 3d
       0.08233899 0.053861093 0.09923513 0.11342461
0003a0 20 ce ef 3d 8e 23 dc 3d 54 eb 9b 3d 80 c0 bb 3d
       0.11709237 0.10748969 0.07613245 0.09167576
0003b0 0e cd d8 3d ab d1 e0 3d 46 e6 d3 3d 17 9f 96 3d
       0.10585986 0.10977491 0.103466555 0.07354563
0003c0 75 e8 ad 3d a2 95 d1 3d f7 0c e5 3d fe 76 dc 3d
       0.08491603 0.10233618 0.111841135 0.107648835
0003d0 54 1d 95 3d 8f d0 9a 3d a6 b7 c2 3d fa c0 d0 3d
       0.072809845 0.07559311 0.095076844 0.10193057
0003e0 76 ce bf 3d 83 3c 82 3d f6 40 60 3d d2 19 77 3d
       0.09365551 0.06359198 0.05474945 0.06032736
0003f0 7d fa 8b 3d 19 63 81 3d 43 14 40 3d 97 78 9c 3d
       0.06834886 0.063177295 0.046894323 0.07640188

conv1.bias f4 [10]
000000 ed 3d 30 3e ff bd bf 3d e0 f7 70 3d af 25 88 3d
       0.17211123 0.09362411 0.058830142 0.066478126
000010 50 c8 9d 3d 87 23 00 3d 5f 54 10 3d db 87 05 3d
       0.07704222 0.03128388 0.035236713 0.032600265
000020 c7 78 0a 3e 62 84 f2 3c
       0.13522635 0.02960414

conv2.weight f4 [20, 10, 5, 5]
000000 35 b7 73 3c e8 16 eb ba 36 18 0b bc 1d e0 2e bc
       0.014875223 -0.0017935904 -0.008489659 -0.01067355
000010 6d dc 83 bc 89 cd 1f 3d ef c8 33 3d f2 9d 00 3d
       -0.016096318 0.039014373 0.043892797 0.03140063
000020 73 9f 12 3c a9 41 1b bc eb 05 b1 3d f4 28 36 3e
       0.0089491485 -0.009476104 0.08643707 0.1778906
000030 c2 cf 1b 3e f9 57 0a 3d 74 e6 83 bc c8 81 e4 3c
       0.15215972 0.033775304 -0.0161011 0.027893916
000040 55 ed 08 3e d1 52 09 3e 65 24 5a 3d 46 4a 09 bb
       0.13371785 0.13410498 0.053257365 -0.0020948811
000050 d9 1d ce bc d6 b0 00 bd 65 2b 86 bb 7a 94 eb 3b
       -0.025160717 -0.031418644 -0.0040945285 0.0071893306
000060 09 a3 41 bb 4d 31 9e 3b ad 61 91 bb 80 b7 f3 bb
       -0.002954664 0.0048276545 -0.0044366927 -0.0074376464
000070 54 8c 22 bc 64 83 31 bc da 9d c0 3c 8a 2b d6 3c
       -0.009921152 -0.010834549 0.02351277 0.026143808
000080 53 41 6d 3c 18 29 c0 ba 0a 50 db bb ae 06 a0 3d
       0.014480907 -0.0014660684 -0.006692891 0.07813774
000090 69 cf d6 3d a9 dd 87 3d 66 d5 6d 3b 16 69 20 bc
       0.10488779 0.06634075 0.0036290525 -0.009790679
0000a0 64 45 20 3d e7 6c 92 3d 4f 20 4d 3d a3 ca 35 3c
       0.039128676 0.07149678 0.05007964 0.011095676
0000b0 80 c2 b7 bb ee 18 57 bc 91 93 af bc 41 51 80 bc
       -0.005607903 -0.013128502 -0.02143267 -0.015663745
0000c0 d7 a4 b8 bb 7a 23 04 bc 9f 4a 9b bb a0 34 46 bb
       -0.005634885 -0.008065099 -0.00473912 -0.003024377
0000d0 fc ab cb 3a f0 ed f0 b8 16 6e 1e 3a 80 b4 31 bb
       0.0015538926 -0.00011488411 0.0006043626 -0.0027115643
0000e0 19 3a 93 bb 39 73 9d bb 6b ae 6c bb ba c9 1b ba
       -0.0044930098 -0.0048049954 -0.0036114703 -0.00059428404
0000f0 11 1f ec bb 9f 8b 46 bc 3d 75 00 bc 53 34 5a bb
       -0.007205852 -0.012118249 -0.007840452 -0.0033295348
000100 f6 57 20 3b 6e 9f 48 3c 21 84 36 3c e4 08 ac 38
       0.0024466491 0.012245042 0.0111399 8.203255e-05
000110 ce d3 23 bc c7 4e 99 bb 08 be 36 3d 9a de 5a 3d
       -0.009999229 -0.0046785804 0.04461482 0.053434946
000120 df 26 ed 3c f0 14 6d 3a 12 71 c5 bb 9f 7f 2c 3d
       0.0289492 0.00090439525 -0.006025442 0.042113896
000130 d8 62 28 3d 2b 70 49 3d 8e ba 67 3d ff 35 19 3d
       0.04110989 0.049179237 0.056574397 0.03740501
000140 e6 7f 86 3c 4d dc d2 3c 76 20 45 3d e5 f0 65 3d
       0.016418409 0.025739813 0.04812666 0.056137938
000150 46 5a 13 3d bf 77 34 bd f0 c9 28 bd fa 17 7d 3c
       0.035974763 -0.04405951 -0.041208208 0.015447611
000160 64 cb 7f 3d 0b 6d 3e 3d 48 28 c8 bd b6 b5 12 be
       0.062449828 0.04649071 -0.09773308 -0.1432713
000170 0a 2a 6b bd d8 f9 0c 3d 00 a7 24 3d aa 74 60 bd
       -0.05741314 0.034417957 0.040198326 -0.05479876
000180 44 df b2 bd bd 78 55 bd 02 ea 1f 3c 3c 28 e1 3c
       -0.08733991 -0.052117098 0.009760382 0.027485006
000190 ca 32 db bb d5 c7 88 bb 1b cb e3 3a 74 c1 51 ba
       -0.006689404 -0.0041742125 0.0017379256 -0.0008001544
0001a0 e8 b9 0a 3a 8d af 71 bb cb e3 c5 bb 9f 20 ce bb
       0.00052919844 -0.0036878318 -0.006039118 -0.00629051
0001b0 be 88 a3 bb 7b 7d 46 ba 96 05 2f bc b1 c4 8b bc
       -0.004990666 -0.00075717986 -0.010682484 -0.017061563
0001c0 d6 b2 38 bc 0d 3f 95 bb ad 8b 73 3b b5 0b 70 3c
       -0.011273107 -0.0045546354 0.003716211 0.014651229
0001d0 df e3 41 3c 07 8c 0b bb 6b 5a 66 bc f6 ad b1 bb
       0.011834114 -0.002129318 -0.014059643 -0.005422349
0001e0 57 54 7d 3d c9 e0 90 3d cf 04 15 3d 04 a2 80 b8
       0.06184801 0.07074124 0.03638154 -6.1336934e-05
0001f0 52 c5 03 bc bd 6d ab 3a 33 88 e4 b9 b2 18 ef ba
       -0.00804265 0.0013078969 -0.00043589025 -0.0018241613
000200 3e ef 69 b9 ee c3 8c ba 25 e6 91 3b 55 8c 57 3b
       -0.00022309736 -0.0010739544 0.004452484 0.003289004
000210 67 bd 00 3b d7 29 d1 39 29 2d 05 bb 2e 0f cd 3b
       0.0019644143 0.0003989476 -0.0020321107 0.006257913
000220 81 9f 88 3c 23 dd 81 3c 20 8d 72 3b dd b6 4b bb
       0.01667762 0.015852517 0.0037010387 -0.0031084337
000230 cf ff 9c 3b 3a 99 db 3c 6c 25 f3 3c 0a f2 40 3c
       0.004791237 0.026806463 0.02968093 0.011776457
000240 d3 28 4b ba 00 8f 20 bb 5a 96 b2 3b d0 8d 5c 3c
       -0.0007749919 -0.0024499297 0.005450052 0.013461545
000250 52 90 04 3c 57 e3 79 ba 5b a0 21 bb f6 8a d1 ba
       0.008091049 -0.00095324725 -0.002466223 -0.0015986848
000260 98 27 ae 3a 2c 89 4f 39 38 fc 47 3a 0a c7 ec ba
       0.0013286946 0.00019792159 0.0007628831 -0.0018064689
000270 d3 e4 41 bb ba 39 44 bb 38 6a 11 bb 7f 12 36 b9
       -0.0029585853 -0.0029941634 -0.0022188555 -0.00017363763
000280 58 cb 86 bb dc af e7 bb 46 7e 93 bb 08 90 08 bb
       -0.004113596 -0.0070705246 -0.004501137 -0.0020837802
000290 a9 50 d0 3a 29 67 fd 3b b7 4a d3 3b ba b3 c3 b9
       0.0015893179 0.007733245 0.0064481157 -0.00037327205
0002a0 b8 cc cb bb fd 6d 2c bb 16 c9 e0 3c 2d 13 02 3d
       -0.0062194727 -0.0026310675 0.027439635 0.03175657
0002b0 76 5a 88 3c af d5 80 39 27 c3 71 bb 04 ba 0b bb
       0.016644698 0.0002457327 -0.0036890002 -0.002132059
0002c0 a0 67 05 bb e4 fc cf 39 b1 81 6f 38 bb a6 66 3b
       -0.0020355955 0.00039670535 5.7102825e-05 0.0035194594
0002d0 3f e1 ea b9 16 3b 15 bb 22 ca 38 bb fa d0 27 bb
       -0.0004479978 -0.0022770814 -0.0028196652 -0.0025606737
0002e0 1d cb da 3a 9e 3e 5f 39 88 fa 81 bb da cd 84 bb
       0.0016692613 0.00021290264 -0.003966633 -0.0040528597
0002f0 21 f6 81 bb 72 7f 0c 3b 5d c5 ae 3c 84 ee 6c 3c
       -0.0039661084 0.0021438268 0.021334345 0.014461163
000300 c6 f4 68 bb d2 a3 04 bc 0c 63 f2 ba 5d 74 ee 3c
       -0.0035546287 -0.008095698 -0.0018492653 0.02910822
000310 76 55 e9 3c 83 2d d9 3b 26 d7 78 bb b0 cd 09 bb
       0.028483134 0.00662774 -0.0037970035 -0.002102714
000320 36 28 57 bc 06 2e 0b bc 2f 03 83 3a ee f8 37 bb
       -0.013132146 -0.00849486 0.0009995456 -0.0028071958
000330 23 4d 27 ba a3 b9 d3 bb e5 51 21 bc 81 b9 2f bc
       -0.00063820387 -0.0064613386 -0.009846185 -0.01072538
000340 01 8a 17 bc 10 f4 26 bb 8f c6 a6 bc ca 20 00 bd
       -0.009249211 -0.0025475062 -0.020358352 -0.03128127
000350 ad 1a ab bc 0e af 08 bc 0b 77 b8 3b 33 aa b8 3c
       -0.020886743 -0.008342518 0.0056294254 0.022542095
000360 65 b9 a1 3c df d1 37 bb 99 9a c3 bc f2 a7 24 bc
       0.019741723 -0.0028048677 -0.023877429 -0.010049807
000370 6a c5 d9 3d b4 50 ff 3d 8e 91 87 3d 45 24 3b 3a
       0.10633357 0.12466565 0.06619559 0.00071388885
000380 01 4d 62 bc 3e 49 65 b8 19 9f 6a ba a3 a5 bf ba
       -0.0138123045 -5.4666067e-05 -0.0008950099 -0.0014621507
000390 c2 70 0f 39 bc be 11 ba e1 62 59 3b b0 0e dc 3a
       0.00013679548 -0.00055597327 0.0033170509 0.0016789045
0003a0 03 0e 44 3a 08 3c b6 38 b1 68 d1 ba f2 20 4f 3b
       0.00074788945 8.689618e-05 -0.0015976635 0.003160533
0003b0 f4 cd 23 3c 62 89 23 3c d7 0a 39 3b 02 72 1d bb
       0.0099978335 0.009981485 0.002823522 -0.0024024253
0003c0 2f 2f 80 3b ae 4d ca 3c 7c e3 e2 3c 21 55 25 3c
       0.0039118747 0.024695244 0.027696364 0.010091097
0003d0 ea bd bb ba 6f e0 ba ba 8e f8 32 3c 26 ac 94 3c
       -0.0014323567 -0.001425756 0.010923518 0.018148493
0003e0 00 dc 13 3c 38 3e 53 ba 33 00 a6 b2 99 19 ed b2
       0.00902462 -0.00080582825 -1.9325034e-08 -2.7602072e-08
0003f0 cc 31 1e b4 be 4e ee b2 7d 0e b0 ae 5f f7 52 b1
       -1.4733013e-07 -2.7742654e-08 -8.006127e-11 -3.0699636e-09

conv2.bias f4 [20]
000000 d9 dc 18 3c 66 f4 a3 af 00 9e 93 3b 93 90 7f 3b
       0.009329998 -2.9823183e-10 0.004504919 0.0038996085
000010 d8 4c e3 3b da 7b 97 3b 49 72 fa 3b 59 a1 4b 3b
       0.0069366507 0.0046229186 0.0076430184 0.0031071512
000020 99 4f d3 3b 91 01 38 3c a3 8d 97 3b 63 bf e1 a9
       0.0064486978 0.011230842 0.0046250387 -1.00252075e-13
000030 c8 50 1d 3c ba ad 0b 39 24 c9 08 ba f4 c9 9d b4
       0.009601779 0.00013320791 -0.00052179606 -2.939047e-07
000040 a1 9a 9a 3b 75 e1 0f 3b 41 18 05 3b 3c c1 b1 b3
       0.0047181402 0.0021954451 0.0020308646 -8.277354e-08

fc.weight f4 [12, 320]
000000 86 4d 91 bb 3b f0 12 bd 51 bb 93 3c e7 32 03 3c
       -0.0044342903 -0.035873633 0.018033655 0.0080077415
000010 94 1a d3 bc 65 d9 6e 3c 45 60 0a bc 21 5d f3 3c
       -0.02576951 0.014578198 -0.008445804 0.029707493
000020 60 ad 2b 3c ff 64 88 3c 98 92 bb 3b 0c a4 42 bc
       0.010478348 0.016649721 0.0057242624 -0.011879932
000030 6c d4 21 3e eb 7b 03 3c 68 2a 1b bd 4c ad 75 bd
       0.15803689 0.00802515 -0.03788224 -0.059979722
000040 60 1c 16 ac 1a c8 31 2e 3a fc c5 a7 c8 c1 45 28
       -2.1332033e-12 4.0422866e-11 -5.495195e-15 1.0977716e-14
000050 80 32 7c a6 ad 05 07 aa 3d f1 49 2f 32 8b 8e a6
       -8.7498503e-16 -1.1992378e-13 1.8366549e-10 -9.890958e-16
000060 39 34 47 31 62 46 62 2b 13 01 cf 33 e7 20 01 35
       2.8987996e-09 8.0389005e-13 9.639384e-08 4.8104124e-07
000070 3a 5e c0 b0 ab 0c ac a5 6d bd 94 a7 3c 25 a9 aa
       -1.3996619e-09 -2.9845828e-16 -4.1283628e-15 -3.0046267e-13
000080 16 3a d1 bb d0 4b f5 bc e0 d3 f4 bc c3 ce f5 bc
       -0.006385098 -0.029943377 -0.029886186 -0.030005818
000090 1b 2d 94 bc 9c 73 c4 bc 45 2e a2 bc ca 3d 9b bc
       -0.018087914 -0.023980908 -0.019797454 -0.018950362
0000a0 8e bf ba bc 04 d5 3f 3a 60 5a 6b bc 34 80 ed 3b
       -0.022796419 0.00073178136 -0.014364809 0.007247949
0000b0 27 d4 15 3c ae 4a 24 3b 7e fc 0f bc 7e 72 e6 3b
       0.009144819 0.0025068927 -0.008788226 0.0070326915
0000c0 f2 c3 d5 bc ba 41 4a bc b0 e4 a1 bc f7 fd 42 bc
       -0.02609441 -0.012344772 -0.019762367 -0.01190137
0000d0 0e a5 ca bc 0d 08 24 bc a0 ba 51 3b e1 72 e4 bc
       -0.024736907 -0.010011685 0.0032002106 -0.02788681
0000e0 23 19 ab bb 44 04 9a bc 97 18 7f 3c d5 37 9c 3c
       -0.0052215024 -0.018800862 0.0155698275 0.019069592
0000f0 33 9c 75 bd 96 ff ed 3c 1a 97 75 3b 88 b7 26 3d
       -0.059963416 0.029052537 0.0037474097 0.040702373
000100 bb fc eb bc 8e 13 8f bb 53 66 e6 3b 48 28 0e bc
       -0.028807035 -0.004366345 0.007031241 -0.008676596
000110 95 0e c8 3b 6f b4 c1 3b 22 66 95 3c 17 8b 46 3d
       0.006105254 0.005911402 0.018237177 0.04847249
000120 f7 b7 81 bc 7d 83 f0 3b b5 38 fc bc 53 b5 ff 3c
       -0.015834792 0.0073398934 -0.030788759 0.031214392
000130 eb b4 8d 3d 3d 0f 21 bd eb 5a a8 bc 86 88 2f bd
       0.06919273 -0.039321173 -0.020551166 -0.04285481
000140 23 5f 13 bd 64 6a f8 3b eb 93 5e 3c f3 d1 e2 bb
       -0.0359794 0.007581042 0.013585071 -0.0069220006
000150 00 1e 28 3c 33 df 92 bb fe 1f cf 3c bd 0d 4c 3d
       0.010261059 -0.004482174 0.02528381 0.04981779
000160 8e 3d 97 3b 9e 23 bb 3c c4 78 e4 bc 3c cd 4a 3d
       0.004615492 0.022844132 -0.027889617 0.049512133
000170 3e fe f0 37 d8 06 3e bd 2f 08 12 bd 7b 4e c4 bc
       2.872862e-05 -0.046393245 -0.035652336 -0.023963204
000180 cd b5 81 bc fd f5 16 bd ba 5a d0 bb d4 84 e8 bc
       -0.01583376 -0.036855686 -0.0063584717 -0.02838365
000190 7d cc 80 bc f6 77 00 bd a2 18 22 bb f4 41 22 3c
       -0.015722508 -0.031364404 -0.002473392 0.00990342
0001a0 8b 4c 54 bd 48 11 ba 3c 8d cd 07 3c 9e bf 9f bc
       -0.05183081 0.022713318 0.008288753 -0.01950055
0001b0 70 9e e9 3d 80 6d 18 3d d6 f0 28 bc bd b9 a3 bd
       0.11407173 0.037213802 -0.010311326 -0.07994411
0001c0 06 0e 43 bc ab c8 20 bc f8 31 48 bc 79 03 08 bc
       -0.011905199 -0.009813468 -0.012218945 -0.008301609
0001d0 43 ea 44 bc 22 71 7a bb ad 5d 4c bb aa e4 33 bc
       -0.012018743 -0.0038214405 -0.0031183765 -0.010979811
0001e0 d4 3f 54 bb f2 1a ed bb 6f 70 f9 3b 29 63 06 3c
       -0.0032386677 -0.007235878 0.00761228 0.008202353
0001f0 58 40 c6 bc b3 77 e5 3b 10 a3 df ba 0a c9 ae 3c
       -0.024200603 0.0070027946 -0.0017062146 0.021336097
000200 dd 2b 4e bc ce 31 a0 bc b3 bf 09 bd 3b 50 c4 bc
       -0.0125837 -0.019554999 -0.033630084 -0.023964038
000210 f5 d3 b6 bc 92 dc 5c bc 4a df 75 bc a9 f6 32 bd
       -0.022317866 -0.013480322 -0.01500685 -0.043692265
000220 2c 1c 52 bc 0e 31 87 bc 50 c1 79 3c bd 1d 9f 3c
       -0.0128240995 -0.016502883 0.015243843 0.01942336
000230 cc 98 68 bd 9b 51 ea 3c 92 e8 b8 3b 3b 44 f7 3c
       -0.056786343 0.028603366 0.005642959 0.030183902
000240 3c 2f 8a bd 6a 29 13 bc ed c3 31 bc 66 0c 21 bd
       -0.067472905 -0.008982042 -0.010849935 -0.039318465
000250 8b 98 d6 bc 33 30 ea bc ac 62 18 3d da 8e e3 3c
       -0.026195785 -0.028587436 0.037203476 0.027778078
000260 65 9b 9a bc ac 86 00 3d a5 35 fc bc 5e 73 85 3d
       -0.018872926 0.031378433 -0.030787298 0.06516145
000270 6c 85 80 3d 68 0c 68 bd ff bd bc bd 5b de b7 bc
       0.06275448 -0.056652457 -0.092159264 -0.022444895
000280 91 08 9a bc 80 18 eb bc 1d e3 03 bd 33 c6 a3 bc
       -0.018802913 -0.028698206 -0.032199014 -0.01999197
000290 58 ce b5 bc 60 d2 c1 bb d3 91 85 bc 55 8c 3e bc
       -0.022193119 -0.005914971 -0.016304886 -0.011630137
0002a0 65 da ee bb 8e 88 48 bc 2b 36 08 3c 65 dc ac 3c
       -0.0072892183 -0.012239588 0.008313696 0.021101186
0002b0 8a 5b 0e bb de 68 36 3c ee f2 1b bc 7a 8d f4 3c
       -0.0021722042 0.011133401 -0.009518368 0.029852618
0002c0 87 9e 0d 30 51 ee f6 22 7b b8 0a 24 83 6f 50 29
       5.152078e-10 6.693076e-18 3.008024e-17 4.6282e-14
0002d0 2b ae 87 2d 72 28 ac 24 cb 51 34 24 76 d5 7d 23
       1.542507e-11 7.4661626e-17 3.910056e-17 1.376036e-17
0002e0 0f 57 89 29 f4 56 61 23 74 f0 0c 23 4c aa fa 01
       6.0991244e-14 1.22156875e-17 7.640333e-18 9.207986e-38
0002f0 87 18 c9 a9 06 d1 26 2d 9e eb e3 27 d5 13 7a 16
       -8.930448e-14 9.48242e-12 6.3260613e-15 2.0201097e-25
000300 c5 6f 51 bc 33 73 4e bd 41 8d ad 3c ec 4e 74 3c
       -0.012782996 -0.05040283 0.02118552 0.014911395
000310 83 a6 2c bd db 77 1d 3c 81 99 bb bc 0f 2c 5d 3c
       -0.042150985 0.009611095 -0.022900345 0.013499274
000320 68 48 5c 3d a8 b7 06 3d e9 c2 e9 3c 6e 02 3f bd
       0.05377999 0.032889992 0.028535323 -0.046633177
000330 02 0b 4a 3e 7d 43 28 3d 3f 35 7b bd b1 6f 6b bd
       0.19730762 0.041079987 -0.061330076 -0.057479564
000340 5a 9c 28 3c 27 3b c2 3c 30 d4 9d 3c 27 9f 8f 3c
       0.010291183 0.023709847 0.019266218 0.017531944
000350 d1 b4 68 3c 4f 4b 94 3c f1 fd 9b 3c 4f 5a a0 3b
       0.014203266 0.018102316 0.019041987 0.004893578
000360 e8 ce 14 3c 0c 18 29 bb 48 5a 3f 3c 10 c2 a8 3c
       0.009082533 -0.0025801687 0.01167924 0.020600349
000370 57 12 18 bd e6 d3 ae bb 8d 77 5f bb b8 b9 c2 3b
       -0.037126865 -0.005335319 -0.0034098357 0.0059425496
000380 b8 bc 8c 3b 75 dd 8c bb e3 67 8a 3c 14 b5 93 3c
       0.004294958 -0.0042988607 0.01689524 0.01803068
000390 8f b2 c1 bb 41 ac 1e 3c ed 5b 58 bb 38 d0 ac 3b
       -0.0059111784 0.009684623 -0.0033013776 0.005273845
0003a0 b2 77 dd 3c d1 00 16 3c 52 6d 81 3c 80 28 99 bc
       0.027034614 0.009155468 0.015799198 -0.01869607
0003b0 45 e3 69 3d 7c 17 80 3c ef 37 4e bc 05 ec 7e bc
       0.057101507 0.015636198 -0.012586578 -0.015559201
0003c0 ac 15 44 a7 4b b9 58 26 65 62 0f 27 8e 81 8f a6
       -2.7212212e-15 7.5191173e-16 1.9898576e-15 -9.957734e-16
0003d0 59 43 93 a8 da ff ac 27 a2 8e e3 26 cd 29 a1 a6
       -1.6349486e-14 4.8016985e-15 1.578995e-15 -1.1182949e-15
0003e0 b3 ec e7 28 76 5e 61 27 d7 7e bf 25 90 86 3f 26
       2.5748804e-14 3.127623e-15 3.3219168e-16 6.6448803e-16
0003f0 8a 7e 49 a6 b7 ee d4 26 87 64 71 24 07 a7 6c 25
       -6.9907376e-16 1.4775159e-15 5.2343695e-17 2.0526328e-16

fc.bias f4 [12]
000000 32 e4 e4 ba 17 c2 4f 3b 5e 63 99 bb c2 56 ca bb
       -0.0017463027 0.003170138 -0.004681035 -0.006174893
000010 00 bf 46 bb 9b 38 e2 3b 7e e5 10 bb ea e7 47 3b
       -0.0030326247 0.0069037206 -0.0022109444 0.0030503222
000020 a5 cc df ba 3f a6 dc 3b 3f c3 af 3b 0d b9 65 bb
       -0.0017074539 0.0067336853 0.0053638513 -0.0035052926
