robot/robot_final/code/python_pc/model_param/model0_0.9861114025115967.pkl (torch, 41340 bytes, 6 tensors)

conv1.weight f4 [10, 3, 5, 5]
0	0x3db84a2a	0.08998521
1	0x3e051cc3	0.12999253
2	0x3e32cdb6	0.17461285
3	0x3e039541	0.12849905
4	0x3b398e1d	0.0028313466
5	0x3db5bbbb	0.08873697
6	0xbdc50e85	-0.0962191
7	0x3dc81887	0.09770303
8	0xbcd4fc86	-0.025999319
9	0x3d871cd1	0.06597293
10	0xbe17fbb0	-0.14842105
11	0xbdf346fd	-0.11878774
12	0x3d2ad63e	0.041708224
13	0xbc1cc1e2	-0.00956771
14	0x3e0173d4	0.12641841
15	0xbcd89924	-0.02644021
16	0xbdcdd06a	-0.100495175
17	0xbd8db2bf	-0.06918859
18	0x3d683407	0.056690242
19	0x3c844291	0.016145023
20	0xbddca994	-0.10774532
21	0xbd018872	-0.031624265
22	0x3d206009	0.039154086
23	0xbd0b7812	-0.034050055
24	0x3de58ab4	0.11208096
25	0xbd4af6ed	-0.049551893
26	0x3db4a604	0.088207275
27	0xbc186bd8	-0.009303056
28	0x3e283000	0.1642456
29	0x3ce51c44	0.02796758
30	0xbce444e3	-0.027864879
31	0x3cfef1c2	0.031121138
32	0x3db2ae75	0.08724681
33	0x3e0d751c	0.13814205
34	0x3df539ef	0.119739406
35	0xbd137dfc	-0.03600882
36	0xbe26d4d9	-0.16292132
37	0xbd66df29	-0.056365166
38	0xbdc4aa1d	-0.09602759
39	0xbd907038	-0.07052654
40	0xbe22b697	-0.15889965
41	0xbd900e29	-0.07033951
42	0x3d3ada4d	0.045618344
43	0x3d2e9002	0.042617805
44	0xbb3811a7	-0.0028086693
45	0xbe08a6ca	-0.13344875
46	0x3d948be3	0.07253244
47	0xbdbc4d26	-0.091944024
48	0x3d9e32dd	0.07724545
49	0x3e229428	0.1587683
50	0x3c44aa11	0.012003438
51	0x3d9fcd80	0.07802868
52	0x3d3f8c97	0.046764936
53	0x3cd93fe7	0.026519729
54	0x3d0bef65	0.03416385
55	0x3d5f9ac7	0.054590967
56	0xbdd93d86	-0.10607438
57	0x3d953730	0.07285917
58	0x3dbc63f6	0.091987535
59	0xbd767340	-0.060168505
60	0x3cabb2e7	0.02095933
61	0xbdfce1c2	-0.123477474
62	0xbdf595fe	-0.11991499
63	0xbe0f152d	-0.13972922
64	0x3d4d6e86	0.05015423
65	0xbe087d0b	-0.1332895
66	0xbe3557af	-0.1770923
67	0xbdfff6f6	-0.12498276
68	0x3d971c82	0.07378484
69	0x3e0b44db	0.13600485
70	0xbcebe704	-0.02879668
71	0xbb89e3c8	-0.004208062
72	0xbdb0122a	-0.085972145
73	0x3dd5e376	0.10443775
74	0xbd1df731	-0.03856582
75	0xbda3c90a	-0.079973295
76	0xbd371be2	-0.044704325
77	0x3d3602fb	0.044436436
78	0xbc8d6e84	-0.017264612
79	0xbd06f092	-0.03294427
80	0x3d836fc8	0.06417805
81	0x3e10daf0	0.14146018
82	0x3dd188ac	0.10231146
83	0xbcf7e365	-0.030259797
84	0x3df07b95	0.117423214
85	0x3cdad524	0.026712961
86	0x3d369c3d	0.044582594
87	0x3da576e6	0.08079319
88	0xbdac531a	-0.08414288
89	0xbd826b7c	-0.06368157
90	0x3dea2ff9	0.11434931
91	0x3d9f565b	0.07780143
92	0x3c4ceef7	0.0125081455
93	0xbde6d33e	-0.1127076
94	0xbe1e6cd9	-0.1547121
95	0x3d084f3b	0.033278685
96	0xbdbb7f15	-0.09155098
97	0xbde4561b	-0.11149236
98	0xbd8f632e	-0.07001339
99	0xbe0b4097	-0.13598858
100	0x3a2d4414	0.00066095707
101	0xbdeb2a96	-0.11482732
102	0xbccaa2f7	-0.02473591
103	0x3d3576a8	0.044302613
104	0xbd9d3013	-0.07675185
105	0x3d5e70f6	0.054306947
106	0x3dbbc05a	0.091675475
107	0xbd4f370b	-0.050589602
108	0xbca8ccc2	-0.020605449
109	0x3d88b3e6	0.06674938
110	0x3cdccea1	0.026953997
111	0x3c0a96e2	0.008458825
112	0xbd61bd2a	-0.05511204
113	0x3d887ac2	0.06664039
114	0x3db662bb	0.0890555
115	0x3ca8d00d	0.020607019
116	0x3d68f056	0.056869827
117	0x3d81c1c5	0.06335787
118	0xbdd5acab	-0.104333244
119	0x3c9beb97	0.019033236
120	0xbd78897f	-0.060678
121	0x3c8c125e	0.017098602
122	0xbdd4636a	-0.10370524
123	0xbdd52d17	-0.10408991
124	0xbd2684f4	-0.040654138
125	0x3d8577b4	0.06516972
126	0xbcca1fa4	-0.02467329
127	0x3de4dc64	0.11174849
128	0x3e13f3f0	0.14448524
129	0x3e08e051	0.1336682
130	0x3e099e65	0.13439329
131	0x3d06e4da	0.032933094
132	0x3c5ba15f	0.013405173
133	0xbd21f692	-0.03954179
134	0x3d8260cf	0.06366121
135	0xbd1273aa	-0.035754837
136	0x3b98691f	0.0046512033
137	0x3dc0fef3	0.09423628
138	0xbe08a6a1	-0.13344814
139	0x3d7e54cc	0.062092587
140	0x3bfa975c	0.007647438
141	0x3dbbb119	0.09164638
142	0xbd3b241a	-0.045688726
143	0xbe217a19	-0.15769233
144	0xbe193d7e	-0.14964864
145	0x3debea9a	0.11519356
146	0xbd4e8242	-0.050417192
147	0xbbb9d390	-0.005670972
148	0xbd7dc92e	-0.061959438
149	0xbd9321a4	-0.07184151
150	0xbe0605a1	-0.13088085
151	0xbe279096	-0.16363749
152	0xbe076145	-0.13220699
153	0xbe050b26	-0.12992534
154	0xbd043a79	-0.032282326
155	0xbd4b2b3f	-0.04960179
156	0xbdd8f7f7	-0.105941705
157	0xbe08e33e	-0.13367936
158	0xbd025332	-0.031817622
159	0xbe145125	-0.14484079
160	0xbe07c219	-0.13257636
161	0xbe01b645	-0.12667187
162	0xbc2b3698	-0.010450028
163	0xbe1745b0	-0.14772677
164	0x3d595a97	0.05306491
165	0x3c725325	0.014790331
166	0xbca77b61	-0.020444574
167	0xbdcf3538	-0.101175725
168	0xbd98390f	-0.07432758
169	0x3d842f98	0.0645439
170	0x3c99f578	0.018793806
171	0x3dd4df5d	0.10394166
172	0x3df29178	0.11844152
173	0x3cb68fd8	0.022285387
174	0x3d724c49	0.059154782
175	0xbe09bb91	-0.13450457
176	0xbdb323c0	-0.08747053
177	0xbcf8187e	-0.030285116
178	0x3ca8743b	0.020563236
179	0xbdba6b77	-0.091025285
180	0xbdc505ed	-0.09620271
181	0xbe0db7cf	-0.13839649
182	0x3d5c305e	0.053757064
183	0xbd4730b9	-0.04863045
184	0xbd9c641c	-0.07636282
185	0xbdd7432a	-0.105108574
186	0xbe0e259e	-0.13881537
187	0xbc3acdae	-0.011401577
188	0xbd3376c0	-0.04381442
189	0x3d8ac9f5	0.067768015
190	0xbdc721e4	-0.09723261
191	0x3ceae838	0.028675184
192	0xbdda4522	-0.10657717
193	0x3d107949	0.035271917
194	0x3d5c6e63	0.05381621
195	0x3dc4a3be	0.09601544
196	0x3cc2f388	0.023797765
197	0x3d9bbf95	0.07604901
198	0x3d7359a5	0.059411664
199	0x3d8a5795	0.06754986
200	0xbe1b8184	-0.15186125
201	0x3c372d4b	0.011180232
202	0x3c690e20	0.014224559
203	0x3d0dbdc0	0.034604788
204	0x3b81c2a8	0.0039599724
205	0xbdf571d7	-0.11984604
206	0xbe050cfa	-0.12993231
207	0x3d121f91	0.035674635
208	0x3d6d7b7b	0.05797909
209	0xbcb47693	-0.022029197
210	0x3ba5090b	0.0050364784
211	0x3bd7ca40	0.0065853894
212	0xbded69b7	-0.11592429
213	0xbdcf63c8	-0.10126454
214	0xbdb8bb9f	-0.09020161
215	0xbdb4b576	-0.088236734
216	0xba7a7ca7	-0.0009555318
217	0xbae9332d	-0.0017791741
218	0xbb96d47b	-0.0046029664
219	0xbdedcd9f	-0.11611485
220	0xbda7e09c	-0.08197138
221	0xbca4d90a	-0.020123024
222	0x3d86559f	0.065593
223	0xbd745ec3	-0.059660684
224	0xbdd0cec3	-0.10195687
225	0x3d1072f7	0.03526589
226	0xbd206781	-0.03916121
227	0xbccd6481	-0.025072338
228	0xbd07bed1	-0.03314096
229	0x3d83b115	0.0643026
230	0x3dae682b	0.08515962
231	0x3abdb88a	0.0014474553
232	0xbd426460	-0.047459006
233	0x3d087ff3	0.033325147
234	0xbde167af	-0.11006104
235	0x3e06b9be	0.13156793
236	0xbc7fc3e1	-0.015610666
237	0xbd083017	-0.033248987
238	0x3d40f41a	0.047107793
239	0xbc19b275	-0.009380926
240	0x3df968fb	0.121782266
241	0x3dd6652c	0.10468516
242	0x3d46b71e	0.048514478
243	0x3d9992d8	0.07498711
244	0x3de2b378	0.11069387
245	0x3d0f217c	0.034944043
246	0x3df2d251	0.11856521
247	0x3d521394	0.051288202
248	0xbdb1b09b	-0.08676263
249	0x3d50df35	0.050994117
250	0x39ad4d38	0.00033054664
251	0xbda1d493	-0.079018734
252	0xbd08beb4	-0.033384994
253	0x3c431efb	0.011909242
254	0x3d834207	0.06409078
255	0xbc595e78	-0.013267152

conv1.bias f4 [10]
0	0x3cc47db7	0.023985727
1	0x3d725708	0.05916503
2	0x3e07586e	0.13217327
3	0xbd6e1796	-0.058127962
4	0xbc8449c3	-0.016148454
5	0x3e1322de	0.1436877
6	0x3dcfaa06	0.10139851
7	0xbc303f93	-0.010757345
8	0x3dd58bc7	0.10427051
9	0x3d2b2835	0.04178639

conv2.weight f4 [20, 10, 5, 5]
0	0xbd989ab1	-0.0745138
1	0xbdaf446d	-0.08557973
2	0xbd2e9f03	-0.042632114
3	0xbd25150f	-0.040303286
4	0xbbe33269	-0.0069334996
5	0x3ce2d22b	0.027688107
6	0x3d8b4d39	0.068018384
7	0x3d9eb61d	0.07749579
8	0x3d30a11a	0.04312239
9	0xbd544388	-0.051822215
10	0x3d6aa1e1	0.057283286
11	0x3d965463	0.07340314
12	0x3d925728	0.0714553
13	0x3d7293f0	0.059223115
14	0xbb6b26ba	-0.0035881237
15	0xbd0b9fdf	-0.03408801
16	0x3bcd5a88	0.0062668957
17	0x3bc64fa8	0.0060519762
18	0x3ccba9d0	0.024861246
19	0x3d1503b2	0.036380477
20	0x3a90acdd	0.0011037845
21	0x3d89f3c7	0.0673595
22	0x3d8818bb	0.06645342
23	0x3d09913f	0.033585783
24	0xbcf4ad4c	-0.02986779
25	0xbbf7496e	-0.0075465953
26	0x3cab4a93	0.020909583
27	0x3d2d15ea	0.042257227
28	0xbd811209	-0.06302268
29	0xbcd39412	-0.025827441
30	0x3d87b1fc	0.06625745
31	0xbb83c798	-0.004021596
32	0xbbd3749b	-0.0064531094
33	0xbd7d51f2	-0.061845727
34	0xbb91b27d	-0.0044463263
35	0x3dc9f56e	0.09861265
36	0x3cfba91a	0.030720282
37	0xbd3a9b3a	-0.04555819
38	0xbcb66f35	-0.022269825
39	0x3d4f91a8	0.050676018
40	0x3dce4692	0.10072054
41	0x3c26cca4	0.010180626
42	0x3ce9fee6	0.028563928
43	0xbd76f10f	-0.060288485
44	0xbcc17f69	-0.023620324
45	0xbcbc9b0a	-0.023023147
46	0x3d7f21d5	0.062288124
47	0xbce5aa30	-0.028035253
48	0xbcae017d	-0.021240944
49	0x3d132103	0.035920154
50	0xbcd8fdcb	-0.026488205
51	0x3b93f67f	0.0045154686
52	0xbc018735	-0.007905771
53	0xbcadc7c1	-0.021213414
54	0x3d901803	0.0703583
55	0xbda47fd8	-0.08032197
56	0xbbb0b816	-0.0053930385
57	0x3ba94649	0.0051658493
58	0x3d0f58b8	0.03499672
59	0xbd11dd2d	-0.03561132
60	0x3cdd1438	0.02698718
61	0x3cd87ad8	0.026425764
62	0x3d84e0ce	0.064881906
63	0x3d6ca2e8	0.057772547
64	0xbd621047	-0.055191305
65	0x3d9ded2f	0.07711255
66	0x3b3735f1	0.0027955736
67	0x3c1c7c3f	0.009551107
68	0xbb65c99e	-0.00350628
69	0xbd2d762c	-0.042349026
70	0x3dc960e0	0.098329306
71	0x3ddf367a	0.108990625
72	0x3dc4b8b2	0.0960554
73	0x3d9a0d3f	0.07522058
74	0xbcabc6ce	-0.02096882
75	0x3cb72b71	0.022359582
76	0x3d53aeb2	0.051680274
77	0x3d4123ce	0.047153287
78	0xbc6a2996	-0.014292141
79	0xbcbad5a9	-0.02280696
80	0x3c7d3164	0.01545367
81	0xbc2d97e3	-0.010595295
82	0x3bfd56d6	0.007731299
83	0x3cf3e89d	0.029774005
84	0x3d1a3a46	0.03765323
85	0x3b0dcc58	0.002163669
86	0xbda921f7	-0.082584314
87	0xbd9c5c62	-0.07634808
88	0x3ca9f061	0.020744504
89	0x3d006fd7	0.03135666
90	0xbd1f9982	-0.038964756
91	0xbd1e4363	-0.038638484
92	0xbd2c9141	-0.042130712
93	0xbc24a708	-0.010049589
94	0xbd19e17c	-0.037568554
95	0x3d0a07a7	0.033698704
96	0x3bbd49ef	0.005776636
97	0x3d2b1b37	0.041774
98	0xba85331f	-0.001016233
99	0x3d1d91d6	0.038469158
100	0x3d4c242a	0.049839176
101	0x3c8bc28b	0.017060539
102	0x3d0b578c	0.034019038
103	0xbd247195	-0.040147383
104	0x3cbec048	0.023285046
105	0xbcc7523c	-0.024331205
106	0xbd791378	-0.060809582
107	0xbd432782	-0.0476451
108	0xbd12aaf8	-0.03580758
109	0xbc74d56b	-0.014943461
110	0xbd13406a	-0.035950102
111	0x3c6d1258	0.0144697055
112	0x3c0b6f73	0.008510458
113	0x3d3eb549	0.046559606
114	0x3b9ea51a	0.004841459
115	0x3cc6211e	0.024185713
116	0x3c1e3e54	0.009658415
117	0xbcbde93a	-0.0231825
118	0xbce043f4	-0.027376153
119	0xbd886f3b	-0.066618405
120	0x3d7cf74d	0.061759282
121	0xbc4c4b79	-0.012469166
122	0x3d284d1f	0.041089173
123	0xbd306023	-0.043060433
124	0xbd23c0d2	-0.03997881
125	0xbd332252	-0.043733902
126	0x3c6852c8	0.014179893
127	0xbd58e0e5	-0.05294885
128	0xbd8e8ba1	-0.06960226
129	0xbc25f4cf	-0.010129168
130	0xbd6e039a	-0.058108903
131	0xbc77ee2d	-0.015132469
132	0xbd82d04c	-0.06387386
133	0xbcf07b4f	-0.029355673
134	0xbd4fe967	-0.0507597
135	0x3c4073c6	0.011746353
136	0xbb4316e8	-0.0029768292
137	0x3d437d8e	0.04772716
138	0x3a250d0c	0.00062961946
139	0x3bdf26e3	0.0068100556
140	0x3d79fde6	0.061033152
141	0x3db82b55	0.0899264
142	0x3c51d888	0.012807973
143	0x3c89c5dc	0.01681798
144	0xbd98d133	-0.074617766
145	0x3ca2a759	0.019855188
146	0x3ae4d8e4	0.0017459658
147	0x3c1000eb	0.008789281
148	0x3db56123	0.08856418
149	0xbc610966	-0.013735151
150	0xbc868b70	-0.01642391
151	0x3cb7efc2	0.022453193
152	0xbd1040b7	-0.035217967
153	0xbd138f4c	-0.03602533
154	0xbd187482	-0.037220486
155	0x3cf1aabc	0.029500358
156	0x3d8398e0	0.06425643
157	0x3d053c62	0.03252829
158	0x3d476aad	0.04868572
159	0xbd112cc1	-0.03544307
160	0x3d8a4a95	0.06752507
161	0x3c1467a2	0.009057911
162	0x3d288cfb	0.041150074
163	0x3c645c5e	0.013938038
164	0xbd2f5ae3	-0.042811286
165	0x3d34f470	0.044178426
166	0x3d349649	0.044088636
167	0xbb676a7d	-0.0035311275
168	0xba18a016	-0.00058221945
169	0xbd55fd8d	-0.052243758
170	0x3d6b93f6	0.057514153
171	0x3dcb5305	0.09927944
172	0x3dbfce1f	0.09365486
173	0x3d563039	0.052292082
174	0x3b027066	0.001990342
175	0xbd201927	-0.039086487
176	0x3ccd1b90	0.025037557
177	0x3c83b3e4	0.01607699
178	0xbd818f02	-0.06326105
179	0x3d3c1e7c	0.04592751
180	0xbd233460	-0.03984487
181	0x3d4c813c	0.049927935
182	0xbd509ad5	-0.05092891
183	0xbcf2c4a6	-0.029634785
184	0xbcbe4760	-0.023227394
185	0x3db41d0a	0.08794601
186	0x3d895efd	0.06707571
187	0xbd862547	-0.06550079
188	0xbd43aec0	-0.047774076
189	0xbda75992	-0.08171381
190	0x3c8b7b19	0.017026471
191	0x3d5ddb84	0.054164425
192	0x3a1dd49e	0.0006020757
193	0xbcfabafa	-0.030606735
194	0xbcd908e1	-0.026493492
195	0x3d73a430	0.059482753
196	0x3d57b0bc	0.05265878
197	0xbccb50fc	-0.02481889
198	0x3d5701bc	0.05249189
199	0x3d5e5d0c	0.054287955
200	0xbc941cac	-0.018080078
201	0xbd491c7f	-0.04909944
202	0xbd363d1a	-0.044491865
203	0xbd278392	-0.04089696
204	0x3c1cd1e7	0.009571529
205	0xbccf8cba	-0.025335658
206	0xbd23cbec	-0.039989397
207	0xbd5deecd	-0.054182816
208	0xbce004f7	-0.027346117
209	0xbc741fdf	-0.014900177
210	0xbd4228ab	-0.047402065
211	0xbb5d66a4	-0.0033783102
212	0x3c26ae83	0.010173443
213	0x392e17ce	0.00016602801
214	0x3c54c477	0.012986294
215	0x3dd35954	0.10319772
216	0x3d61beda	0.05511365
217	0x3d991697	0.07475012
218	0xbd38b637	-0.04509565
219	0xbc888b2e	-0.016667929
220	0x3d61eb44	0.055156007
221	0x3ca2644c	0.019823216
222	0x3d0830c2	0.033249624
223	0x3d73018c	0.059327647
224	0x3c43c24a	0.011948178
225	0xbcd365cf	-0.025805382
226	0xbd6b7097	-0.05748042
227	0xbd3e37a3	-0.046439778
228	0x3b27e908	0.0025621075
229	0xbcd6d8e6	-0.026226472
230	0xbd029992	-0.031884737
231	0xbbbc3884	-0.005744042
232	0xbca278c7	-0.019832982
233	0x3c5aaed6	0.013347348
234	0xbd25e58b	-0.040502112
235	0x3c490ce3	0.012271139
236	0x3d175bf3	0.036952924
237	0x3d2c1b21	0.04201806
238	0x3d9242a1	0.07141615
239	0xbcb05b92	-0.02152804
240	0x3c599f91	0.0132826725
241	0x3d3ddda2	0.046353944
242	0x3d7fb3ee	0.062427454
243	0xbc8e4091	-0.017364772
244	0xbd80ecbc	-0.062951535
245	0x3c8a9583	0.016916996
246	0xbc5b5a74	-0.013388265
247	0x3ddfb54a	0.1092325
248	0x3d5a67dc	0.053321704
249	0xbd308683	-0.04309703
250	0x3b2eb808	0.0026659984
251	0xbced80f9	-0.028992163
252	0xbb878ebc	-0.0041368883
253	0x3d5fa1d4	0.05459769
254	0xbd539305	-0.05165388
255	0xbd885182	-0.066561714

conv2.bias f4 [20]
0	0x3d26de88	0.040739566
1	0xbc8a651c	-0.016893916
2	0x3d5b6e15	0.05357178
3	0xbccff892	-0.025387082
4	0xbc01724a	-0.007900784
5	0x3d4c622b	0.049898308
6	0x3b98ff9a	0.004669142
7	0xbc466ceb	-0.012110929
8	0x3d96b4a6	0.07358675
9	0x3bc7ada1	0.006093696
10	0xbbf6e01f	-0.0075340415
11	0xbbfc4108	-0.007698182
12	0xbc70dfcd	-0.014701796
13	0x3c0e9ea3	0.008704814
14	0x3d8f462d	0.06995807
15	0x3ca0490c	0.019566081
16	0x3b9cd073	0.0047855913
17	0xbbeffac5	-0.007323595
18	0x3d9327d7	0.07185333
19	0xbce82939	-0.028339969

fc.weight f4 [12, 320]
0	0x3c7dacee	0.015483124
1	0xbd8c3af3	-0.06847181
2	0x3c2398fc	0.009985205
3	0xbcc84b3e	-0.02444994
4	0xbd9c5228	-0.076328576
5	0xbd0986ca	-0.03357581
6	0xbd9cdeb9	-0.076596685
7	0x3ca4088c	0.020023607
8	0x3c73319b	0.01484337
9	0xbca50b01	-0.020146849
10	0xbd4a1789	-0.04933885
11	0xbcbd62b0	-0.023118347
12	0x3cd9261b	0.026507428
13	0x3d82bb94	0.06383434
14	0x3c291b97	0.010321519
15	0xbd942db6	-0.07235281
16	0xbd13c2f5	-0.036074597
17	0xbd5ee86f	-0.054420885
18	0x3d4a39f5	0.04937168
19	0x3d101218	0.035173506
20	0x3c5593af	0.013035699
21	0xbd1dcd36	-0.038525783
22	0x3ca0d680	0.019633532
23	0x3d354bf4	0.044261888
24	0xbb894eff	-0.0041903253
25	0x3c6f6e67	0.014613724
26	0x3d2117e9	0.039329443
27	0x3d06d717	0.03291997
28	0x3c3d6ec0	0.011562049
29	0x3be76db5	0.0070626386
30	0xbdaf1181	-0.085482605
31	0xbc858a4e	-0.0163013
32	0xbd8bdcd6	-0.068292305
33	0xbd55c8bf	-0.0521934
34	0xbd8e50e5	-0.06949023
35	0xbd9f5188	-0.07779223
36	0xbd1c4066	-0.038147353
37	0xbd1cd5a4	-0.03828968
38	0x3d099a3d	0.03359436
39	0x3c9559f8	0.018231377
40	0x3c34fb17	0.011046193
41	0xbd619525	-0.055073876
42	0x3c8309f2	0.015995953
43	0xbaee38ab	-0.0018174847
44	0x3c5b9637	0.013402513
45	0x3d63e101	0.055634502
46	0xbd381dfa	-0.044950463
47	0xbba63b8d	-0.005073017
48	0xbd9435e4	-0.07236841
49	0xbd93fee4	-0.07226351
50	0xbd8c2412	-0.06842817
51	0xbd83f066	-0.06442337
52	0xbd41ff8f	-0.04736286
53	0xbc4037af	-0.011732026
54	0xbd1bdc87	-0.03805211
55	0x3cea16c0	0.028575301
56	0xbd95ff68	-0.073241055
57	0xbd60b07a	-0.0548558
58	0xbce00c02	-0.027349476
59	0xbc0756a3	-0.008260402
60	0xbd026e2a	-0.031843342
61	0xbd867b5e	-0.06566499
62	0x3d55f889	0.052238975
63	0x3d9c46e3	0.07630708
64	0xb78b07d7	-1.6573742e-05
65	0x3ceb8e56	0.028754395
66	0x3d1b61bb	0.037935
67	0xbcaea3f2	-0.02131841
68	0x3ccead8d	0.02522924
69	0x3d8b2bd2	0.067954674
70	0xbd54bd21	-0.05193818
71	0xbbd38a2f	-0.0064556818
72	0x3aafb69f	0.0013405866
73	0xbc1ce56b	-0.009576182
74	0xbd645fa7	-0.055755284
75	0xbd0c6f21	-0.03428567
76	0xbcc43031	-0.02394876
77	0x3bee2c94	0.0072684977
78	0xbc9d4a90	-0.019200593
79	0xbe142d58	-0.14470422
80	0xbdb2b4f8	-0.08725923
81	0x3d0c01f5	0.034181554
82	0x3cbd6192	0.023117814
83	0xbcfcef69	-0.030875878
84	0x3cb92132	0.022598837
85	0xbd4c9c6c	-0.049953863
86	0x3d23aa5b	0.039957386
87	0xbd04056f	-0.032231744
88	0xbd700e79	-0.058607552
89	0x3c81838b	0.015809795
90	0xbd3968e5	-0.04526605
91	0xbd0f9b2b	-0.03506009
92	0x3d76f5b1	0.060292903
93	0xbddb12ed	-0.10696969
94	0xbc8ae29f	-0.016953764
95	0x3c90897f	0.017643688
96	0xbd29c3c9	-0.04144648
97	0xbca1bb4c	-0.01974263
98	0x3bdbc9a9	0.0067073894
99	0x3d1949a8	0.03742376
100	0xbb03d93d	-0.0020118498
101	0x3d290740	0.04126668
102	0x3c9bf66f	0.019038407
103	0x3d3ab46b	0.045582216
104	0xbd138d95	-0.036023695
105	0x3d338b06	0.043833755
106	0x3cbfdf81	0.023422005
107	0xbd39bc6c	-0.04534571
108	0x3d91bfe6	0.0711668
109	0x3d40513d	0.046952475
110	0xbd7ccc3a	-0.061718203
111	0xbd554123	-0.052064072
112	0xb9f2621b	-0.0004623093
113	0xbc71adee	-0.014750941
114	0xbcbc459b	-0.02298241
115	0xbd3a4b5a	-0.045482017
116	0xbda2a80e	-0.0794221
117	0xbd5454ba	-0.051838614
118	0x3c5adb45	0.013357942
119	0xb9298471	-0.00016166434
120	0xbcdf8e3e	-0.027289506
121	0xbd301a93	-0.042994093
122	0x3c8ee6c6	0.017444026
123	0xbb3a9e1d	-0.002847559
124	0xbd8023c9	-0.062568255
125	0xbd82b63e	-0.06382416
126	0x3cafebf0	0.021474808
127	0xbc03e7c8	-0.008050866
128	0x3c80a186	0.01570202
129	0xbd7258e0	-0.05916679
130	0xbcb8e56e	-0.022570338
131	0xb993210e	-0.00028062653
132	0xbd1474f9	-0.036244366
133	0xbd5c37fa	-0.05376432
134	0xbcbb6c9a	-0.022878934
135	0xbd839f2a	-0.064268425
136	0x3bbb22c2	0.0057109306
137	0xbde4a771	-0.111647494
138	0x3d624d03	0.055249225
139	0xbccb7f3c	-0.024840944
140	0xbd93c740	-0.07215738
141	0x3d7cd1f7	0.061723676
142	0xbcf0ecd5	-0.029409805
143	0xbd1d0c24	-0.038341656
144	0xbdc05710	-0.09391606
145	0xbd9a2007	-0.0752564
146	0x3c02ccd8	0.007983409
147	0x3c1f0273	0.009705174
148	0xbd1ed6a0	-0.0387789
149	0x3d0b1130	0.03395194
150	0xbce3f882	-0.027828459
151	0xbd034348	-0.032046586
152	0x3d713bfc	0.058895096
153	0xbc9d3ac4	-0.01919306
154	0x3d627e5a	0.05529628
155	0xbc170835	-0.009218265
156	0x3d4ddd0d	0.05025964
157	0x3c64e1ea	0.013969878
158	0xbb7ec348	-0.003887372
159	0xbd338ab5	-0.043833453
160	0xbd30a811	-0.04312903
161	0xbdf19e28	-0.11797744
162	0xbd7a4d57	-0.061108913
163	0xbd15d632	-0.036581226
164	0xbd9bc184	-0.076052696
165	0x3b28ba28	0.0025745723
166	0xbd93ed2d	-0.07222972
167	0xbcac18dd	-0.02100795
168	0xbd7685a1	-0.060186032
169	0xbb93d12d	-0.0045110197
170	0x3ce3300d	0.027732873
171	0xbcb481c5	-0.022034535
172	0x3d6ccfab	0.057815235
173	0xbcf1eb8e	-0.029531267
174	0x3c8cd648	0.017192021
175	0x3cc99b41	0.024610164
176	0xbd3029d0	-0.043008626
177	0xbcf70aa5	-0.030156443
178	0xbd84dc2b	-0.06487306
179	0xbc6ff774	-0.0146464
180	0x3be4d74c	0.006983673
181	0x3d0f7073	0.03501935
182	0x3d5fb03d	0.054611433
183	0xbd1049c2	-0.03522659
184	0xbcb813d2	-0.022470389
185	0xbd22aa66	-0.039713286
186	0xbbe7a8a5	-0.0070696645
187	0xbdf1ef19	-0.118131824
188	0x3c654ecf	0.01399584
189	0xbd06116a	-0.03273145
190	0x3bb24b81	0.0054411297
191	0xbb553609	-0.0032533428
192	0xbcbdbf6e	-0.02316257
193	0xbd850c29	-0.0649646
194	0xbd772b49	-0.060344014
195	0xbd130b4e	-0.035899453
196	0xbba4df2b	-0.0050314865
197	0x3c2dbdf4	0.01060437
198	0xbd41f291	-0.04735047
199	0xbcc91cc1	-0.024549844
200	0xbc864a4e	-0.016392853
201	0x3d800ce8	0.06252462
202	0xbcdc3619	-0.026881265
203	0xbcf34c07	-0.029699339
204	0x3ca36642	0.019946221
205	0x3d2cd6ca	0.042197026
206	0xbbdb4f4d	-0.006692803
207	0xbcf4a16e	-0.029862132
208	0x3d0bfef2	0.03417868
209	0x3ba92c3b	0.0051627434
210	0xba67c6e3	-0.0008841587
211	0xbca84c26	-0.020544123
212	0xbd38b2f2	-0.04509253
213	0xbd7287b5	-0.05921145
214	0x3cda480c	0.026645683
215	0x3c336307	0.010948903
216	0xbd0ce9d6	-0.03440269
217	0x3d831cf4	0.06402007
218	0x3bbaf5dc	0.0057055783
219	0x3d149bfd	0.036281575
220	0xbd9d4335	-0.07678834
221	0xbd4ff073	-0.05076642
222	0x3d48af45	0.048995275
223	0x3d900ada	0.0703332
224	0xbd3c5ef4	-0.04598899
225	0xbc3b2cc3	-0.011424246
226	0x3b0fc066	0.0021934747
227	0xbc9aeb3e	-0.018911
228	0xbb159d5e	-0.0022829394
229	0x3b134c4c	0.0022475896
230	0x3ce1e918	0.027576968
231	0xbd3ad140	-0.045609713
232	0x3d644042	0.055725344
233	0x3ca07b9d	0.019590193
234	0x3ccf4f85	0.025306473
235	0xbd2b4f73	-0.041823816
236	0xbd018610	-0.031621993
237	0x3d44a84f	0.048012074
238	0xbd5ece10	-0.054395735
239	0xbcc545c6	-0.024081122
240	0x3c54cd05	0.012988334
241	0xbc35a436	-0.011086514
242	0x3c23beac	0.00999419
243	0x3ab6826d	0.0013924368
244	0x3aa4a2e5	0.0012560753
245	0xbcda1259	-0.026620077
246	0xbb4ef0aa	-0.0031576552
247	0x3c0f5927	0.008749283
248	0x3c455ad4	0.012045581
249	0x3c8ccfbf	0.017188905
250	0xbbcf50a8	-0.0063267536
251	0x3b8861f8	0.0041620694
252	0x3d139866	0.03603401
253	0xbd091ba9	-0.033473644
254	0x3a14bba6	0.0005673714
255	0x3cb4d8a6	0.022075962

fc.bias f4 [12]
0	0x3cccb34c	0.02498784
1	0xbc81bbb4	-0.015836574
2	0xbc8f52a7	-0.017495466
3	0x3d21e5e6	0.03952589
4	0xbd097893	-0.033562254
5	0x3c794342	0.015213789
6	0xbc557390	-0.0130280405
7	0xbd4c2993	-0.049844336
8	0xbce29fa9	-0.027664023
9	0xbd09d084	-0.03364612
10	0x3ceeb919	0.029140996
11	0xbd4548ef	-0.048165258
